models/2000epoch.pt (torch_old, 110375 bytes, 13 tensors)

in_layer.weight f4 [64, 96]
-0.13241729 0.045868054 -0.1189573 0.07105671 -0.16798434 -0.094224535 -0.079037294 0.09389259
-0.08097584 0.010394465 0.016194634 0.106902815 -0.093513586 0.02450138 -0.059126038 -0.003153963
-0.073562585 0.07194017 0.10512455 0.09273505 0.0391558 0.053935915 0.09260935 0.05509767
-0.040206563 0.002477337 -0.0019364133 -0.072145015 -0.04889553 -0.029882045 -0.020325646 -0.008865383
0.03582468 0.025748327 0.04008097 -0.00906077 -0.08740623 0.04889539 -0.0007604876 -0.07899716
-0.10115702 -0.085462295 0.024919704 -0.030666357 -0.02278629 0.041453652 -0.06502999 -0.023855278
0.020002138 -0.042734545 0.10340218 -0.07498612 0.09540943 -0.072357014 0.07643194 0.098824635
0.013629302 -0.065938964 -0.03559304 0.032592133 0.09018271 0.010787829 -0.043414533 0.06404801
0.03256576 -0.1143733 -0.08124357 -0.108137555 -0.046584345 -0.022359893 0.014308881 -0.021370687
-0.100176096 -0.099864185 0.07444508 -0.06164085 0.10593709 -0.097442366 -0.008524692 -0.10554986
0.01687029 -0.08284303 0.0064263856 -0.089181684 -0.10871648 -0.07519252 -0.012997644 0.003494298
0.061106354 -0.058708195 -0.021378392 -0.01249616 -0.004735346 0.033466056 0.008599559 -0.07081909
0.029704642 -0.075772926 0.021259366 0.057462618 -0.122633435 0.040370286 -0.064305395 0.08375159
0.01430133 -0.008833607 -0.022355683 -0.136636 0.09695801 -0.022860916 -0.015004471 0.025830599
0.04729019 -0.07536843 -0.06969449 -0.043364197 -0.024614757 0.036360502 -0.010122605 -0.056709647
0.08428377 -0.08277484 0.06629054 0.004910136 -0.09008414 0.012263195 0.029952273 0.026680151
0.055841345 -0.06835948 -0.0025810464 -0.0017119348 -0.04133064 -0.092945494 0.07039444 0.100142986
0.0847384 0.03925732 -0.013639376 -0.09110432 0.09503634 0.013198765 -0.03142418 -0.04988402
0.12711406 0.072970405 0.1228738 0.017703786 0.11809835 -0.090589985 0.10368538 -0.06337802
-0.06449887 0.0058724047 0.068428546 0.063781194 0.09517944 -0.0445034 0.02608338 -0.037246905
0.09273915 -0.047301404 -0.047992874 0.013681919 0.07042762 -0.06355089 -0.05687913 0.03715837
0.029745886 0.046252407 -0.06720902 -0.05048693 0.07963097 -0.11914373 -0.06318623 0.059241716
-0.056900434 0.042102464 -0.01720422 -0.040482987 -0.042046953 -0.040222272 -0.07873611 0.027136642
0.03444257 -0.09689232 0.045827862 -0.10818534 0.039883077 0.06843891 0.07534873 0.022424882
-0.0367602 0.017385714 -0.0017509975 0.0036782026 0.006533949 0.08452846 0.109682456 -0.03211329
0.0856584 0.048851214 -0.02442012 0.09710482 0.048937082 0.07619082 0.009693019 -0.08839903
0.07288568 0.09262498 0.06778018 -0.098467775 -0.0809033 -0.015374608 -0.01408258 -0.003334567
0.054882944 0.043707408 0.038878575 -0.025709303 0.07000072 0.007865248 -0.035926506 -0.008619465
0.08212252 0.02152972 -0.068954915 0.046430305 0.0792119 -0.055957403 0.07015691 -0.095047615
0.08929412 -0.025784178 0.0071661994 -0.054648448 -0.04135228 0.0916812 0.034504294 0.052754704
0.07801793 0.049588636 0.013728267 -0.025494643 -0.009802124 0.014720149 -0.057534788 0.050436333
0.008250609 0.09167644 -0.013238542 0.049688924 -0.065900676 -0.1149103 0.009849504 -0.06249574
00000000: 6698 07be 24e0 3b3d e39f f3bd 2e86 913d
00000010: 1604 2cbe cbf8 c0bd 4ede a1bd c24a c03d
00000020: a9d6 a5bd 8c4d 2a3c 9caa 843c ddef da3d
00000030: 0d84 bfbd 1eb7 c83c 252e 72bd b8b2 4ebb
00000040: fba7 96bd 5e55 933d 8a4b d73d e0eb bd3d
00000050: d561 203d e8eb 5c3d f9a9 bd3d 18ae 613d
00000060: a3af 24bd d15a 223b 40cf fdba c4c0 93bd
00000070: ae46 48bd 31cb f4bc f881 a6bc 1d40 11bc
00000080: e6bc 123d 28ee d23c f12b 243d a073 14bc
00000090: 0a02 b3bd 8846 483d 755b 47ba 43c9 a1bd
000000a0: 692b cfbd db06 afbd 6824 cc3c 0338 fbbc
000000b0: 50aa babc 4ecb 293d 722e 85bd 256c c3bc
000000c0: 86db a33c 6b0a 2fbd 86c4 d33d 5392 99bd
000000d0: 0566 c33d ea2f 94bd 5988 9c3d 9264 ca3d
000000e0: 704d 5f3c 020b 87bd 02ca 11bd 547f 053d
000000f0: b6b1 b83d 6fbf 303c 70d3 31bd 9a2b 833d
00000100: ad63 053d 8c3c eabd 0763 a6bd 3977 ddbd
00000110: 3acf 3ebd 182c b7bc cc6f 6a3c 9411 afbc
00000120: 2029 cdbd 9885 ccbd a976 983d 1e7b 7cbd
00000130: 8cf5 d83d dd8f c7bd 26ab 0bbc 862a d8bd
00000140: 9033 8a3c 9ba9 a9bd 6e94 d23b e3a4 b6bd
00000150: bfa6 debd 89fe 99bd 12f4 54bc 9800 653b
00000160: a84a 7a3d 0178 70bd bd21 afbc b2bc 4cbc
00000170: f62a 9bbb b413 093d 2ae5 0c3c 9909 91bd
00000180: 2657 f33c d62e 9bbd 1f28 ae3c ec5d 6b3d
00000190: 3d27 fbbd 505b 253d 8cb2 83bd f485 ab3d
000001a0: 2050 6a3c d5ba 10bc 4423 b7bc 4fea 0bbe
000001b0: ec91 c63d d146 bbbc 50d5 75bc b19a d33c
000001c0: 5cb3 413d c35a 9abd fcbb 8ebd a89e 31bd
000001d0: e3a4 c9bc c0ee 143d 48d9 25bc 6048 68bd
000001e0: f89c ac3d db85 a9bd 56c3 873d 35e5 a03b
000001f0: 097e b8bd 91eb 483c 785e f53c 5590 da3c
00000200: e5b9 643d 0e00 8cbd c626 29bb 0063 e0ba
00000210: 514a 29bd 355a bebd f62a 903d c417 cd3d
00000220: 548b ad3d 49cc 203d b077 5fbc e794 babd
00000230: 6aa2 c23d a23f 583c a4b6 00bd 3053 4cbd
00000240: 302a 023e 8271 953d 42a5 fb3d 8807 913c
00000250: 8cdd f13d 3e87 b9bd 0059 d43d 56cc 81bd
00000260: fc17 84bd 4d6d c03b 4424 8c3d b79f 823d
00000270: 70ed c23d 3249 36bd d0ac d53c 3690 18bd
00000280: 06ee bd3d 1ebf 41bd 2d94 44bd 212a 603c
00000290: 5b3c 903d f826 82bd 17fa 68bd 6033 183d
000002a0: a5ad f33c 2a73 3d3d e2a4 89bd 62cb 4ebd
000002b0: 9015 a33d a101 f4bd c867 81bd 71a7 723d
000002c0: 6e10 69bd a273 2c3d ddef 8cbc 7dd1 25bd
000002d0: 6d39 2cbd 1cc0 24bd 6640 a1bd aa4d de3c
000002e0: a713 0d3d 7b6f c6bd ffb5 3b3d 4790 ddbd
000002f0: 705c 233d b329 8c3d 6f50 9a3d 63b4 b73c
00000300: dd91 16bd 7c6c 8e3c ba81 e5ba 000e 713b
00000310: bd1a d63b 421d ad3d 32a1 e03d 3a89 03bd
00000320: ac6d af3d 3618 483d b40c c8bc e4de c63d
00000330: 4072 483d ef09 9c3d 78cf 1e3c 8d0a b5bd
00000340: 1645 953d 2ab2 bd3d 56d0 8a3d 79a9 c9bd
00000350: a1b0 a5bd c8e5 7bbc 9fba 66bc c088 5abb
00000360: f0cc 603d 8a06 333d 243f 1f3d 519c d2bc
00000370: 8a5c 8f3d 3edd 003c ac27 13bd a838 0dbc
00000380: da2f a83d 185f b03c 3c38 8dbd b42d 3e3d
00000390: d939 a23d 9733 65bd 6dae 8f3d 53a8 c2bd
000003a0: d6df b63d 5739 d3bc 70d2 ea3b 0dd7 5fbd
000003b0: 0261 29bd 5ac3 bb3d 6054 0d3d 5115 583d
000003c0: ddc7 9f3d 741d 4b3d 86ec 603c 24da d0bc
000003d0: 1799 20bc c82c 713c 99a9 6bbd 5496 4e3d
000003e0: 902d 073c dbc0 bb3d 78e6 58bc 9d86 4b3d
000003f0: eff6 86bd 1756 ebbd d05f 213c 88fb 7fbd

in_layer.bias f4 [64]
0.040328145 -0.020553254 -0.041261464 0.13235292 0.08085535 -0.077246495 0.04584453 -0.019181648
-0.033027202 -0.0185868 0.032474604 -0.060225237 0.10810404 0.019531213 0.057970542 0.05026138
0.08061213 0.064612046 -0.015969098 -0.034966733 -0.083139755 -0.054293558 -0.029449372 0.09366698
0.02240373 0.08018056 -0.04420639 0.063896015 -0.025622161 0.10599628 -0.02694014 0.08141647
-0.030826917 0.045802265 -0.08026225 0.025543537 0.04565359 -0.05093312 0.044431496 -0.058232974
-0.07884959 0.1355976 0.08752154 -0.043777235 0.04357048 0.070897885 0.030037386 0.041109085
-0.07857362 0.034189124 0.094020024 0.09742735 0.008502754 -0.004479783 0.0883426 0.0016400194
0.041302305 0.109510526 -0.08840449 -0.0075518466 0.09257555 0.11635483 -0.07553412 0.013205213
00000000: 202f 253d 4c5f a8bc c801 29bd 8687 073e
00000010: 7d97 a53d 6933 9ebd 79c7 3b3d d522 9dbc
00000020: 8847 07bd 5843 98bc 1704 053d bdae 76bd
00000030: a765 dd3d ecff 9f3c 8572 6d3d e0de 4d3d
00000040: f917 a53d 5253 843d a0d1 82bc 4739 0fbd
00000050: 2d45 aabd ec62 5ebd cf3f f1bc 79d4 bf3d
00000060: 0788 b73c b535 a43d c211 35bd eadb 823d
00000070: 91e5 d1bc 9414 d93d 92b1 dcbc aebd a63d
00000080: bb88 fcbc 289b 3b3d 8960 a4bd ae40 d13c
00000090: 42ff 3a3d 3f9f 50bd cdfd 353d b385 6ebd
000000a0: e57b a1bd 19da 0a3e 7e3e b33d c24f 33bd
000000b0: f676 323d e932 913d f710 f63c 0062 283d
000000c0: 35eb a0bd e509 0c3d 928d c03d fe87 c73d
000000d0: 234f 0b3c 25cb 92bb f7ec b43d ebf5 d63a
000000e0: 9b2c 293d 0e47 e03d 6a0d b5bd 7b75 f7bb
000000f0: 4098 bd3d 714b ee3d a2b1 9abd ad5a 583c

hidden.0.weight f4 [64, 64]
0.0064038127 0.0640034 0.060572214 0.011323759 -0.09096914 0.038009483 -0.060046453 -0.00614735
0.056090824 0.08306843 0.13656054 0.04963446 -0.15771754 0.007724016 -0.06145074 0.06874881
0.17594245 -0.031360015 -0.11578187 0.018755205 0.07439835 0.008576559 -0.064424865 -0.004316459
0.13251051 -0.055379655 -0.0741925 -0.08328562 0.1225085 -0.13369986 0.006238755 0.07733915
-0.099103086 0.0029160234 0.08239835 0.049527336 -0.04538498 0.017717522 0.040100038 0.18983296
-0.034328762 -0.051245805 0.04805117 -0.11232794 -0.14024097 0.10060807 -0.038049616 0.022739537
0.08467674 0.06675113 -0.069152705 -0.015873672 0.028305806 -0.063516945 0.113233805 -0.08079823
-0.013920594 -0.05988639 0.023122016 -0.004261006 -0.0364106 -0.012704396 0.012315496 -0.16466963
0.067503475 -0.06772458 0.082180426 0.1428899 0.09526316 0.07964317 -0.008921225 -0.03382569
0.017298868 -0.06079756 0.08057335 0.040765323 0.07269502 0.06558164 -0.08811539 -0.11391074
-0.107252434 0.12375878 0.0101910485 -0.14100976 0.05429449 0.11551047 0.07504297 -0.023704233
0.096691355 -0.022689624 0.11771204 0.12973592 0.10360273 0.11683525 -0.099979885 0.02317954
0.118435614 0.07112134 -0.14133777 0.004190186 0.10558957 0.09266422 -0.00466641 -0.05059667
0.010539932 0.075946614 0.014825583 -0.10532905 -0.04802251 -0.08007912 -0.120508656 0.05419339
0.014474127 0.062390078 0.06490249 -0.059843816 -0.03629713 0.100207895 -0.08267551 0.08673011
-0.09274177 -0.0114594605 -0.07707115 0.043113977 -0.009290679 0.10558489 -0.09671995 0.0692657
0.068378836 -0.091699086 0.00441479 0.07689279 0.13550921 0.07145204 0.03718426 0.0039994447
-0.04973836 -0.025984881 -0.042151596 0.06410656 -0.05003533 0.033857852 -0.15149671 -0.039354328
0.05258213 -0.07807217 0.09659425 -0.11252719 0.13466412 0.12235572 -0.1178691 -0.067856625
-0.07319598 0.009340779 -0.07743199 -0.008117004 0.060231756 0.10545836 0.06020062 0.020071695
-0.14419295 0.009400699 -0.15040368 0.03760832 0.0065467493 0.022625996 0.0059191603 0.055674117
0.097516775 0.103927046 -0.1345289 0.11292946 -0.099608034 -0.08150828 -0.19914246 -0.1616105
-0.04934638 0.053357728 0.0102020735 -0.09630171 -0.07987631 -0.040248 0.039623875 0.032203067
-0.0006068316 0.11295177 -0.12702523 0.11744023 0.04648122 -0.056479294 -0.11355995 -0.072748415
0.17702435 -0.053198747 -0.13099453 0.09271116 0.08991731 -0.06850416 -0.06249357 -0.043693114
0.07594049 0.03021031 -0.065869644 -0.071717165 -0.0015628592 0.02380705 0.0064601423 -0.08055417
-0.036214333 0.0969731 0.03947629 0.06539171 0.084421925 0.011269261 -0.08500682 -0.037313353
0.12119981 0.0075304066 0.08598125 -0.089251205 0.018455543 0.07363197 -0.06529529 -0.0050044167
-0.11612841 0.061320327 -0.045950707 -0.15976316 0.14152999 -0.034078214 0.09793914 0.09858799
-0.06031054 0.036970966 -0.16945344 -0.019372558 -0.053658005 0.018313043 -0.13490155 -0.09277927
-0.042614944 -0.008209521 0.08653129 0.04543378 0.06403077 0.13361686 0.014668942 0.007832237
0.09155696 -0.055363264 0.10289242 -0.012116599 -0.12279664 0.111741886 0.11322515 -0.014118781
00000000: 13d7 d13b 3714 833d 921a 783d 4a87 393c
00000010: 074e babd d5af 1b3d 45f3 75bd b66f c9bb
00000020: 7ebf 653d c81f aa3d 87d6 0b3e 814d 4b3d
00000030: b580 21be be19 fd3b c5b3 7bbd 2dcc 8c3d
00000040: 422a 343e 5c73 00bd 0c1f edbd 84a4 993c
00000050: 2a5e 983d b284 0c3c 2ff1 83bd 1571 8dbb
00000060: d6b0 073e c7d5 62bd 3df2 97bd a791 aabd
00000070: bde5 fa3d 9ee8 08be 786e cc3b fd63 9e3d
00000080: 8ff6 cabd c11a 3f3b 77c0 a83d 2ddd 4a3d
00000090: 9ae5 39bd 5624 913c f03f 243d 9263 423e
000000a0: 519c 0cbd 1fe7 51bd 4ed1 443d 310c e6bd
000000b0: 549b 0fbe 9b0b ce3d ead9 1bbd 4448 ba3c
000000c0: 006b ad3d d1b4 883d ef9f 8dbd 8109 82bc
000000d0: 94e1 e73c 2c15 82bd 20e7 e73d 8b79 a5bd
000000e0: 3413 64bc 6e4b 75bd 626a bd3c e99f 8bbb
000000f0: 4823 15bd 1926 50bc efc6 493c 289f 28be
00000100: 433f 8a3d 2fb3 8abd 364e a83d bb51 123e
00000110: 5519 c33d f51b a33d 542a 12bc cf8c 0abd
00000120: 5bb6 8d3c dd06 79bd a403 a53d 8af9 263d
00000130: 20e1 943d ab4f 863d d775 b4bd 094a e9bd
00000140: 2aa7 dbbd 3e75 fd3d 5bf8 263c dd64 10be
00000150: e663 5e3d c190 ec3d 21b0 993d 612f c2bc
00000160: 1e06 c63d 97df b9bc 0313 f13d 7ed9 043e
00000170: ab2d d43d 5247 ef3d 41c2 ccbd 05e3 bd3c
00000180: 5f8e f23d 11a8 913d d9ba 10be d44d 893b
00000190: 583f d83d bdc6 bd3d afe8 98bb 743e 4fbd
000001a0: aeaf 2c3c e689 9b3d 01e7 723c c2b6 d7bd
000001b0: 40b3 44bd 8600 a4bd 3ecd f6bd e3f9 5d3d
000001c0: e424 6d3c bd8c 7f3d 99eb 843d ca1e 75bd
000001d0: 4dac 14bd cc39 cd3d c751 a9bd 8e9f b13d
000001e0: 66ef bdbd 76c0 3bbc 7bd7 9dbd 4898 303d
000001f0: ef37 18bc e43c d83d 1c15 c6bd 2ddb 8d3d
00000200: 340a 8c3d bbcc bbbd f1a9 903b f879 9d3d
00000210: edc2 0a3e 7255 923d 864e 183d c60d 833b
00000220: 73ba 4bbd 3fde d4bc 27a7 2cbd 4d4a 833d
00000230: d9f1 4cbd 88ae 0a3d f421 1bbe 0132 21bd
00000240: 5c60 573d 4de4 9fbd 35d3 c53d a874 e6bd
00000250: 64e5 093e a395 fa3d 5b65 f1bd 6af8 8abd
00000260: c6e7 95bd 110a 193c aa94 9ebd 2ffd 04bc
00000270: 93b5 763d 8dfa d73d ed94 763d 656d a43c
00000280: 51a7 13be 6405 1a3c 6c03 1abe 2f0b 1a3d
00000290: 1d86 d63b 275a b93c 84f5 c13b 8b0a 643d
000002a0: e0b6 c73d b4d7 d43d f2c1 09be 9047 e73d
000002b0: 4cff cbbd d0ed a6bd 00ec 4bbe 397d 25be
000002c0: 6e1f 4abd a28d 5a3d 9926 273c d539 c5bd
000002d0: 3196 a3bd 16db 24bd a54c 223d 5de7 033d
000002e0: c813 1fba 4253 e73d e712 02be 8184 f03d
000002f0: 1763 3e3d d556 67bd 1e92 e8bd 1ffd 94bd
00000300: df45 353e eee6 59bd 6e23 06be 59df bd3d
00000310: 9126 b83d e94b 8cbd 42f9 7fbd 8df7 32bd
00000320: b086 9b3d 9d7b f73c aae6 86bd 73e0 92bd
00000330: dad8 ccba 0107 c33c 9aaf d33b 96f9 a4bd
00000340: 7b55 14bd d599 c63d e4b1 213d 17ec 853d
00000350: 67e5 ac3d b5a2 383c 0e18 aebd e3d5 18bd
00000360: 9b37 f83d a1c1 f63b f016 b03d 56c9 b6bd
00000370: 1430 973c 5ccc 963d 89b9 85bd 17fc a3bb
00000380: bbd4 edbd 062b 7b3d cf36 3cbd f498 23be
00000390: 3ded 103e 9995 0bbd 5194 c83d 80e8 c93d
000003a0: 2f08 77bd de6e 173d 3485 2dbe 33b3 9ebc
000003b0: 7fc8 5bbd 3c05 963c a223 0abe 0f03 bebd
000003c0: 028d 2ebd 3a81 06bc 5137 b13d c518 3a3d
000003d0: 9022 833d dcd2 083e 0156 703c c852 003c
000003e0: 3782 bb3d 97c4 62bd 43b9 d23d b384 46bc
000003f0: ce7c fbbd eed8 e43d 96e2 e73d 7652 67bc

hidden.0.bias f4 [64]
-0.115323946 0.12789589 -0.10638438 0.10863779 -0.051279884 -0.08988068 0.022987131 0.10631099
0.0981896 -0.08951785 -0.06721818 -0.063858375 0.08764687 0.11993247 -0.060489967 0.0033525808
-0.058661632 0.08110438 -0.02474188 -0.02050583 -0.03741417 0.050094806 0.05697164 -0.099144414
-0.020413538 0.08512793 0.10280268 -0.056218654 -0.04542128 -0.08608045 -0.048575494 0.017533967
0.031370092 -0.102168486 -0.11755447 -0.023259675 0.13255847 0.044310484 0.15068927 0.067179024
0.068237 -0.037158716 -0.07522123 0.10379798 0.12952882 -0.0427024 -0.0068460475 -0.04077122
-0.044868056 0.103479825 -0.041289896 0.11028397 -0.06769889 0.1324496 -0.0941455 0.113985054
0.069691285 0.11483824 0.028481109 -0.102062754 -0.05063241 -0.06988317 0.06540084 0.032750607
00000000: f62e ecbd 24f7 023e 0ee0 d9bd 7d7d de3d
00000010: db0a 52bd 5d13 b8bd 824f bc3c 94b9 d93d
00000020: a117 c93d 2255 b7bd afa9 89bd 2ec8 82bd
00000030: 3480 b33d 289f f53d 54c4 77bd f9b6 5b3b
00000040: 2e47 70bd 0e1a a63d 7caf cabc d8fb a7bc
00000050: 9a3f 19bd 3630 4d3d 185b 693d 3a0c cbbd
00000060: 4b3a a7bc 8d57 ae3d 368a d23d 8845 66bd
00000070: aa0b 3abd f24a b0bd 19f7 46bd 65a3 8f3c
00000080: ed7d 003d b63d d1bd 66c0 f0bd 138b bebc
00000090: 68bd 073e e97e 353d 4a4e 1a3e 2895 893d
000000a0: d7bf 8b3d bd33 18bd 970d 9abd 0994 d43d
000000b0: 34a3 043e b6e8 2ebd cf54 e0bb b9ff 26bd
000000c0: 91c7 37bd 3bed d33d 981f 29bd 90dc e13d
000000d0: b7a5 8abd dea0 073e 5bcf c0bd ff70 e93d
000000e0: 4eba 8e3d 5030 eb3d 3751 e93c 4706 d1bd
000000f0: ee63 4fbd e81e 8fbd e0f0 853d 8025 063d

hidden.1.weight f4 [64, 64]
0.024939304 0.08776644 -0.014146015 -0.110055074 0.023554906 -0.0171103 0.0044394433 0.102164865
0.07717379 -0.01467193 -0.112355754 0.03763817 0.078858525 0.0355628 0.06336637 -0.07851488
-0.11824493 -0.0034919921 -0.024253547 0.10704618 -0.04958883 -0.029517418 -0.011027789 0.10400465
-0.019978002 -0.08549028 -0.031678174 0.040134847 -0.08718107 -0.00614506 -0.059122413 0.05456263
0.09936234 -0.066970795 -0.02997972 0.010264754 -0.03837966 -0.0005724964 -0.115948565 0.017127927
0.04659801 0.023415986 0.0031632185 0.040786784 -0.009679486 0.0014020399 0.09271438 -0.06662284
-0.0669463 0.003789298 0.08667891 0.021630865 0.06110172 -0.110874176 -0.106354445 -0.021910336
0.008155823 -0.09047545 -0.05213134 -0.012480408 -0.027950928 0.049395725 -0.05000432 -0.11436212
-0.066673905 0.023669194 0.14826539 -0.044677675 0.02581988 -0.045702323 0.1405966 0.020731864
-0.07441752 -0.10728617 -0.02113694 0.0896972 0.20301542 0.063285604 0.10210121 0.16973256
-0.14687885 -0.008526408 -0.14212188 -0.075781316 -0.09333095 0.031638354 -0.08423135 0.078489244
0.038145225 -0.097354054 -0.087714255 0.068664245 -0.058621358 -0.049539346 0.10732701 0.018739358
0.12462202 0.18988703 0.16832973 0.08302325 0.11554582 0.14523137 0.037108894 0.08307271
-0.14741835 -0.09286057 -0.021739235 0.06650042 0.1447463 0.03567027 0.08678189 -0.0013449334
-0.11724201 0.13104065 0.031879794 0.13162568 0.043298118 -0.038174387 -0.053614065 -0.20220836
-0.121487044 0.015407136 -0.018331282 0.07161769 -0.0097850505 0.039987747 -0.076374896 -0.13533548
0.14965595 0.03175194 -0.0208687 0.05742496 0.05929067 0.15827762 -0.09648447 0.18456125
0.120092995 -0.0028801116 -0.05188251 -0.030112142 -0.044672407 0.032888968 0.17456101 0.033173166
0.100349 0.08692129 -0.0638793 0.12738664 0.113105185 0.11384302 0.1121978 0.0006502953
-0.09919386 -0.009992736 0.0814524 -0.08911614 0.006638737 0.050162867 -0.082922295 0.07601395
-0.08121893 0.11417318 -0.03655974 0.13697243 -0.011296504 0.102102086 0.1389725 -0.05974551
0.01629858 0.13933155 -0.050094694 -0.022142837 -0.08092175 0.12317847 0.10242007 0.060100242
0.054353476 -0.043932196 0.013995645 0.046434745 -0.089121796 0.17234679 -0.14483713 0.099698186
0.13137421 0.0033004803 0.012147279 0.025192328 -0.08275053 0.1432366 0.024754506 0.11786505
0.07713921 -0.009907858 0.07879553 -0.037583288 0.053287238 0.10430305 -0.15366305 0.08807274
0.16293879 0.042264227 0.046960242 0.028033791 -0.10231002 -0.005219161 0.1759136 -0.09338042
0.094850555 0.051743712 -0.026276948 0.15497091 0.007518558 -0.07467041 0.17867404 -0.083824776
-0.028315984 0.112477906 0.12900679 -0.03753543 0.023671824 -0.00048000147 0.09190342 0.07448146
0.0020420065 0.052125946 -0.019925425 0.18991555 0.05726221 0.006489593 -0.095627524 0.117566295
0.0676495 0.10773279 -0.088560805 0.15596715 0.032670826 0.118592456 -0.03621418 -0.08946525
0.021324227 -0.06956689 -0.12641062 -0.1105095 -0.123013735 -0.08669873 -0.05482659 -0.08326543
0.16414168 0.056829482 0.0595896 -0.09327506 -0.17230843 -0.0036992955 -0.1165425 0.16151525
00000000: 834d cc3c e4be b33d b0c4 67bc 8e64 e1bd
00000010: 38f6 c03c e62a 8cbc c078 913b d03b d13d
00000020: 4b0d 9e3d 8962 70bc c61a e6bd 7b2a 1a3d
00000030: 9480 a13d 4caa 113d 3ac6 813d 69cc a0bd
00000040: 662a f2bd e8d9 64bb 60af c6bc 073b db3d
00000050: a81d 4bbd 83ce f1bc e6ad 34bc 6400 d53d
00000060: e8a8 a3bc 8715 afbd f9c0 01bd 7064 243d
00000070: fd8b b2bd 805c c9bb 582a 72bd 107d 5f3d
00000080: 7c7e cb3d fc27 89bd 0898 f5bc 802d 283c
00000090: fe33 1dbd 9513 16ba 7176 edbd de4f 8c3c
000000a0: 8edd 3e3d e2d2 bf3c 004e 4f3b 0b10 273d
000000b0: b596 1ebc a7c4 b73a 09e1 bd3d 8e71 88bd
000000c0: 241b 89bd df55 783b b684 b13d 3633 b13c
000000d0: cc45 7a3d 0012 e3bd 5cd0 d9bd 4e7d b3bc
000000e0: 00a0 053c 314b b9bd ac87 55bd a07a 4cbc
000000f0: 58f9 e4bc 2c53 4a3d 54d1 4cbd b036 eabd
00000100: 548c 88bd e6e5 c13c e2d2 173e f0ff 36bd
00000110: 3784 d33c 5c32 3bbd 8ef8 0f3e dfd5 a93c
00000120: 3668 98bd dab8 dbbd 6027 adbc 2ab3 b73d
00000130: 46e3 4f3e e29b 813d 701a d13d 5fce 2d3e
00000140: 6967 16be 59b2 0bbc 6688 11be 3c33 9bbd
00000150: 4c24 bfbd 3897 013d 7c81 acbd f8be a03d
00000160: 2b3e 1c3d 9061 c7bd 88a3 b3bd d79f 8c3d
00000170: f31c 70bd c5e9 4abd 43ce db3d 4883 993c
00000180: d439 ff3d bf71 423e a15e 2c3e 1808 aa3d
00000190: 49a3 ec3d 88b7 143e 7fff 173d 0622 aa3d
000001a0: d6f4 16be af2d bebd 7b16 b2bc 5f31 883d
000001b0: 6038 143e fd1a 123d b4ba b13d 7a48 b0ba
000001c0: 941c f0bd 852f 063e 6394 023d e2c8 063e
000001d0: 5e59 313d bf5c 1cbd 6c9a 5bbd b50f 4fbe
000001e0: 33ce f8bd 366e 7c3c 7c2b 96bc 4cac 923d
000001f0: 7a51 20bc 31ca 233d 716a 9cbd 6295 0abe
00000200: 693f 193e 520e 023d d6f4 aabc 6f36 6b3d
00000210: c6da 723d 8713 223e a699 c5bd a0fd 3c3e
00000220: 51f3 f53d 41c0 3cbb c182 54bd bdad f6bc
00000230: 6afa 36bd 95b6 063d 1fc0 323e 96e0 073d
00000240: c783 cd3d ca03 b23d 27d3 82bd a571 023e
00000250: b1a3 e73d 8726 e93d f6c7 e53d 9478 2a3a
00000260: 2726 cbbd 93b8 23bc 84d0 a63d 8682 b6bd
00000270: c389 d93b 9477 4d3d 2ad3 a9bd 34ad 9b3d
00000280: 1c56 a6bd a1d3 e93d aabf 15bd 8042 0c3e
00000290: f914 39bc e61a d13d cf4e 0e3e b5b7 74bd
000002a0: 9a84 853c eeac 0e3e 1830 4dbd e564 b5bc
000002b0: 4dba a5bd fe44 fc3d 9dc1 d13d ac2b 763d
000002c0: c0a1 5e3d 3ff2 33bd fd4d 653c 5c32 3e3d
000002d0: 7d85 b6bd ad7b 303e 2f50 14be 902e cc3d
000002e0: f686 063e df4c 583b 6205 473c 2460 ce3c
000002f0: 1c79 a9bd 9eac 123e f6c9 ca3c 3b63 f13d
00000300: 2afb 9d3d 9254 22bc 8d5f a13d eff0 19bd
00000310: b843 5a3d d69c d53d d959 1dbe 7b5f b43d
00000320: 6dd9 263e 411d 2d3d 6259 403d 1fa7 e53c
00000330: ea87 d1bd 7f05 abbb b222 343e 3c3e bfbd
00000340: 0241 c23d 37f1 533d c142 d7bc b2b0 1e3e
00000350: 3c5e f63b cdec 98bd 54f6 363e 53ac abbd
00000360: ecf6 e7bc d15a e63d 5b1a 043e c0be 19bd
00000370: 6aeb c13c b5a8 fbb9 dc37 bc3d bc89 983d
00000380: 2fd3 053b 0482 553d a53a a3bc 3979 423e
00000390: c78b 6a3d a7a6 d43b 5dd8 c3bd 99c6 f03d
000003a0: d28b 8a3d 02a3 dc3d 5e5f b5bd dab5 1f3e
000003b0: d8d1 053d 9ae0 f23d 5255 14bd 8f39 b7bd
000003c0: 25b0 ae3c 1679 8ebd c971 01be ce52 e2bd
000003d0: a0ee fbbd 1b8f b1bd d991 60bd 1187 aabd
000003e0: c214 283e 08c6 683d 3914 743d ff06 bfbd
000003f0: 9f71 30be e16f 72bb d6ad eebd 4164 253e

hidden.1.bias f4 [64]
-0.11241608 -0.0501592 0.15423898 0.05229539 0.09446715 -0.07030136 -0.030131204 0.051695783
0.003969445 0.018785212 0.105916694 -0.079097755 0.1395783 -0.02822383 -0.1266922 -0.036998596
0.0709272 0.107515775 -0.059447076 -0.11003356 0.04585784 -0.047635507 -0.07380735 0.04778264
0.055215552 0.13381913 0.02260022 -0.111404 0.11848143 0.08152285 -0.010650437 0.007191593
-0.019423464 0.004074819 -0.12773742 -0.10770237 -0.092397295 0.06196011 -0.09344146 -0.02178007
0.15455619 0.14665084 -0.10304755 0.074523196 0.06533039 0.10401346 0.13332754 0.11635162
0.010278526 0.04776922 0.040641587 0.07011083 0.05631675 0.005781805 -0.08058112 0.020698288
0.1300002 0.008157506 0.0017346841 0.08627595 0.11737909 0.1246368 0.035840392 -0.0014157394
00000000: 673a e6bd bc73 4dbd d3f0 1d3e b133 563d
00000010: fe77 c13d 29fa 8fbd b7d5 f6bc f5be 533d
00000020: 1e12 823b 72e3 993c daea d83d 01fe a1bd
00000030: 9ded 0e3e a935 e7bc 9abb 01be d78b 17bd
00000040: 4842 913d 3b31 dc3d c77e 73bd 4659 e1bd
00000050: 6ed5 3b3d 731d 43bd 4f28 97bd bbb7 433d
00000060: b429 623d e207 093e 1924 b93c c827 e4bd
00000070: 64a6 f23d 74f5 a63d 2c7f 2ebc 74a7 eb3b
00000080: f51d 9fbc 0f86 853b 99cd 02be 0f93 dcbd
00000090: cb3a bdbd e2c9 7d3d 3c5e bfbd 1e6c b2bc
000000a0: fa43 1e3e a32b 163e 980a d3bd 9e9f 983d
000000b0: f1cb 853d 0205 d53d 0487 083e c249 ee3d
000000c0: 4367 283c a8a9 433d cb77 263d 4496 8f3d
000000d0: 64ac 663d 4c75 bd3b b707 a5bd 758f a93c
000000e0: c61e 053e 0fa7 053c 575e e33a 72b1 b03d
000000f0: 7364 f03d 9441 ff3d 60cd 123d 5590 b9ba

hidden.2.weight f4 [64, 64]
0.03215626 0.10483949 0.054992378 -0.12921621 0.11967858 0.11861004 -0.004515948 0.069304906
0.0058447467 0.065367736 0.042788528 -0.1341332 -0.023707762 0.007069324 0.1958532 0.090365745
0.15133356 -0.06162708 -0.0009175154 -0.044456437 -0.0082713505 -0.09361301 -0.03108983 0.015144899
-0.012420088 -0.022714129 -0.00016523026 -0.047817424 -0.059387695 0.064549915 0.10100308 0.077090524
0.14104098 -0.060012255 0.026593884 0.04847395 0.20777526 0.07472075 -0.0935464 0.035235345
0.15941224 0.1489194 0.090000294 0.20313147 -0.095277034 0.14822479 0.037794024 0.14115281
0.009891296 -0.124196514 -0.075980924 -0.108545035 -0.019998306 0.024415564 -0.0067559625 -0.10736836
0.010444457 -0.08541112 -0.06826768 -0.083004884 0.10149147 0.12432795 -0.0008866081 0.07275237
-0.013991408 0.032260094 0.07118136 -0.07958815 -0.02172926 -0.052919686 -0.039375912 -0.045804743
0.17547143 0.092067696 0.0650481 -0.11736896 0.11650822 -0.041751288 0.10342541 0.09518377
0.11588537 0.0010183373 0.10744568 -0.052368104 0.09407942 -0.13790825 0.016628863 0.12828052
-0.056856845 -0.16170079 -0.07914279 -0.10113275 -0.11559762 -0.00010089649 0.0477099 0.161801
0.15343827 -0.013760831 -0.10603463 -0.043521084 0.19443223 -0.04491273 0.047713794 -0.035384934
-0.053487033 0.030439379 -0.015586602 0.13509496 0.055954557 0.108204864 -0.002328058 0.04165358
0.16191754 -0.047132425 -0.13219282 0.08112821 -0.0397161 -0.14657092 -0.07130311 -0.04339906
0.20521055 0.049549714 -0.15546009 -0.029051147 -0.025976598 -0.012231319 0.03191817 0.11807813
0.08134068 0.12574762 0.05696283 0.08046494 0.1379197 0.045351464 0.12696664 0.0348715
0.029436119 -0.052997794 0.18147695 -0.018579688 0.1398319 -0.0050868522 0.047617164 -0.024206353
0.04437865 0.12270365 0.007921495 -0.05983211 0.09938216 0.15669724 0.21224995 0.03869369
0.12440067 0.089876726 0.16042896 0.0759258 0.13395017 0.05002034 -0.13335115 -0.01633601
-0.022790076 0.04398606 0.07703522 -0.026571894 -0.060156014 0.1240507 0.05236891 0.12853621
0.18922207 0.06937821 -0.039884508 -0.029710962 -0.020899514 -0.0032439567 0.07919246 -0.02383959
0.016244384 0.12439703 -0.07644325 0.16477768 0.1266804 0.09978676 -0.09400009 0.06694463
-0.06735173 0.046277177 0.0064486833 0.19457483 -0.0321749 0.16523015 0.075702086 -0.040785465
-0.038761392 0.02131655 -0.060281344 0.17870697 0.09015015 -0.030873839 -0.09287065 -0.047300924
0.048825912 -0.15905878 -0.07312113 0.0076186084 0.11561946 0.19341327 -0.10716258 -0.08634252
-0.06019497 -0.0044535776 0.06658358 -0.048912838 0.018593043 0.05717002 0.15003455 0.036386546
0.10963322 0.11946136 0.1166728 -0.061422825 -0.03139778 0.12048653 0.058891624 0.1647976
-0.19208553 0.08911245 0.05493158 0.047219865 0.0004022974 0.072285116 0.18574505 -0.10022365
-0.020437414 -0.027198259 -0.090474114 -0.125179 0.0042198547 -0.046900198 0.0058064978 -0.09582571
-0.18097322 0.10034921 0.15841495 0.1674189 0.05658905 0.16455373 0.07338894 0.102244966
-0.05183823 -0.0047303885 0.087593935 0.11730386 -0.100409016 -0.06738987 -0.041381605 0.08271063
00000000: 48b6 033d 16b6 d63d b03f 613d 4151 04be
00000010: 0b1a f53d d2e9 f23d 84fa 93bb bbef 8d3d
00000020: 4a85 bf3b 85df 853d 0643 2f3d 375a 09be
00000030: c836 c2bc caa5 e73b be8d 483e ad11 b93d
00000040: 2ff7 1a3e ad6c 7cbd 6b85 70ba f417 36bd
00000050: 8f84 07bc 2eb8 bfbd 19b0 febc 4f22 783c
00000060: a07d 4bbc fb12 babc a941 2db9 34dc 43bd
00000070: 8340 73bd bf32 843d b4da ce3d a3e1 9d3d
00000080: 0c6d 103e 69cf 75bd 6bdb d93c 9f8c 463d
00000090: 0ac3 543e 3107 993d 4195 bfbd f052 103d
000000a0: f63c 233e 547e 183e 1352 b83d b201 503e
000000b0: 9b20 c3bd 3dc8 173e e8cd 1a3d 5d8a 103e
000000c0: 1a0f 223c be5a febd e39b 9bbd dc4c debd
000000d0: 7dd3 a3bc 2603 c83c 1f61 ddbb f1e3 dbbd
000000e0: 3a1f 2b3c 06ec aebd edcf 8bbd 77fe a9bd
000000f0: c3da cf3d a79f fe3d 436b 68ba 32ff 943d
00000100: 383c 65bc 2923 043d 88c7 913d 1dff a2bd
00000110: 9001 b2bc 50c2 58bd a348 21bd c19d 3bbd
00000120: c8ae 333e fd8d bc3d f037 853d 235f f0bd
00000130: dd9b ee3d 6603 2bbd b4d0 d33d b5ef c23d
00000140: 4f55 ed3d bb79 853a 7b0c dc3d f07f 56bd
00000150: b6ac c03d d237 0dbe 4139 883c f85b 033e
00000160: b9e2 68bd e494 25be 9d15 a2bd b01e cfbd
00000170: 72be ecbd 6498 d3b8 756b 433d 29af 253e
00000180: ec1e 1d3e 1c75 61bc af28 d9bd 2a43 32bd
00000190: 3e19 473e 69f6 37bd 8a6f 433d cbef 10bd
000001a0: 3815 5bbd 015c f93c f25e 7fbc 5556 0a3e
000001b0: 9b30 653d 839a dd3d 5592 18bb f29c 2a3d
000001c0: b6cd 253e ee0d 41bd 8e5d 07be 8c26 a63d
000001d0: 59ad 22bd b016 16be 5d07 92bd 36c3 31bd
000001e0: b722 523e a4f4 4a3d ee30 1fbe acfc edbc
000001f0: e0cc d4bc df65 48bc a1bc 023d f2d2 f13d
00000200: f195 a63d fcc3 003e db51 693d cdca a43d
00000210: d23a 0d3e 75c2 393d 8b03 023e 6bd5 0e3d
00000220: 0424 f13c 3714 59bd 18d5 393e 6e34 98bc
00000230: 1830 0f3e 9caf a6bb 370a 433d 674c c6bc
00000240: 63c6 353d 0d4c fb3d 28c9 013c 8412 75bd
00000250: e088 cb3d 3e75 203e 0d58 593e 467d 1e3d
00000260: c7c5 fe3d 4a11 b83d 7d47 243e fc7e 9b3d
00000270: 3c2a 093e 21e2 4c3d 348d 08be 19d3 85bc
00000280: 41b2 babc ba2a 343d a4c4 9d3d 4dad d9bc
00000290: 2766 76bd 4b0e fe3d c880 563d ff9e 033e
000002a0: 6ec3 413e 2a16 8e3d f05d 23bd 6764 f3bc
000002b0: 7535 abbc 9098 54bb a82f a23d 3e4b c3bc
000002c0: f112 853c dfc3 fe3d 478e 9cbd 7bbb 283e
000002d0: 82b8 013e 005d cc3d 1f83 c0bd 441a 893d
000002e0: b4ef 89bd 238d 3d3d 7a4f d33b a03e 473e
000002f0: d4c9 03bd 1832 293e b209 9b3d a90e 27bd
00000300: 44c4 1ebd 0ca0 ae3c 92e9 76bd f6fe 363e
00000310: a4a0 b83d 22eb fcbc f832 bebd 9dbe 41bd
00000320: aefd 473d 4ee0 22be 88c0 95bd 85a5 f93b
00000330: e5c9 ec3d 210e 463e 0e78 dbbd 59d4 b0bd
00000340: 008f 76bd 51ef 91bb f95c 883d d458 48bd
00000350: 7050 983c 1c2b 6a3d a8a2 193e 0f0a 153d
00000360: 6287 e03d 28a8 f43d 26f2 ee3d 8096 7bbd
00000370: f59a 00bd a4c1 f63d 5838 713d b4c0 283e
00000380: 12b2 44be 9780 b63d f0ff 603d 9e69 413d
00000390: 71eb d239 380a 943d f333 3e3e 0f42 cdbd
000003a0: 5d6c a7bc e2ce debc 7e4a b9bd ec2e 00be
000003b0: b546 8a3b 6c1a 40bd 6f44 be3b 4540 c4bd
000003c0: 0b51 39be e383 cd3d 8737 223e dc6f 2b3e
000003d0: ebc9 673d c680 283e f14c 963d cf65 d13d
000003e0: 5354 54bd 6001 9bbb 7364 b33d 023d f03d
000003f0: 3ea3 cdbd b303 8abd c27f 29bd 3164 a93d

hidden.2.bias f4 [64]
0.026992433 0.10231109 0.10621008 0.080248915 0.13166633 0.009869667 0.10496276 -0.103316344
0.10568661 -0.12300147 0.17320502 0.05379722 -0.06505966 -0.09053311 0.07513312 -0.1450751
0.12184581 0.08139749 0.1261533 0.068700604 0.13048618 -0.08650711 0.028726492 0.11436702
0.16646472 0.08663555 0.10656334 -0.08216095 0.0830269 0.08328207 0.15650274 0.10941095
-0.06702155 -0.03775738 0.0073715057 -0.05904627 -0.12780443 0.15275809 0.033786006 -0.04324756
-0.01915689 0.035547365 0.001534002 0.03862034 -0.06271101 -0.06584065 -0.048193205 -0.13252236
0.10763016 0.09697998 -0.0018918045 0.0072790394 -0.11879792 -0.1085998 -0.022003189 -0.08670037
-0.0858648 -0.07365174 -0.05461806 0.09982091 0.056417204 -0.06616762 0.10281629 -0.051863115
00000000: 3c1f dd3c 7a88 d13d ac84 d93d 8b59 a43d
00000010: 8ad3 063e 62b4 213c b7f6 d63d 8597 d3bd
00000020: 3972 d83d 32e8 fbbd a85c 313e 795a 5c3d
00000030: 003e 85bd 6c69 b9bd 65df 993d 918e 14be
00000040: 4c8a f93d bab3 a63d 552e 013e e7b2 8c3d
00000050: 2b9e 053e a42a b1bd d253 eb3c 4239 ea3d
00000060: ba75 2a3e fb6d b13d e13d da3d 0044 a8bd
00000070: 020a aa3d ca8f aa3d 4142 203e d912 e03d
00000080: 9842 89bd 7ca7 1abd ac8c f13b 80da 71bd
00000090: 2adf 02be 9e6c 1c3e 3263 0a3d 5a24 31bd
000000a0: e9ee 9cbc 1d9a 113d 9110 c93a 5d30 1e3d
000000b0: a16e 80bd 76d7 86bd 3d66 45bd f1b3 07be
000000c0: 346d dc3d 719d c63d 6df6 f7ba 0285 ee3b
000000d0: 534c f3bd 9269 debd 0840 b4bc f78f b1bd
000000e0: e2d9 afbd b9d6 96bd 30b7 5fbd e86e cc3d
000000f0: ba15 673d e482 87bd 5991 d23d 6b6e 54bd

hidden.3.weight f4 [64, 64]
-0.119650245 0.09150313 -0.06858422 -0.09485607 0.04084629 0.013439119 -0.11622605 -0.002728358
0.0025456846 0.10486165 -0.066412404 0.12475717 -0.063538164 -0.014240697 -0.057328746 -0.04420145
-0.08972977 0.11633402 0.012028679 0.05800782 -0.05821088 0.0763215 0.006246567 -0.04290597
0.026995286 -0.10277213 -0.05219549 0.016891256 -0.07164025 0.054125637 -0.1137999 0.070145115
-0.0346442 0.013123095 -0.03799948 -0.07696147 0.02138099 0.082545474 0.037933677 0.026399747
0.08204903 0.033825755 0.08918214 -0.06676355 0.07062939 -0.108183965 -0.12476084 -0.040645793
-0.07477757 -0.003996879 0.004970506 0.1029028 -0.12319711 0.101930484 -0.020665228 -0.08073202
-0.037941128 0.006828338 -0.06297839 0.08101754 0.014452562 -0.01038973 -0.051172048 -0.03403911
0.022781316 -0.059387024 0.08938357 0.03428735 -0.02656316 0.21005979 0.10839791 -0.00072257844
0.015291555 0.00304726 -0.082565874 0.1771587 -0.08381496 0.05888066 0.10076365 -0.016312478
-0.09378602 0.17212725 0.053038098 0.0035505665 -0.048871864 -0.0021171945 0.17297386 -0.10988044
-0.04550275 0.1346452 0.1431952 0.1404266 0.083616786 -0.0018688804 0.04948707 0.11665932
-0.13459098 0.044589683 0.13376015 -0.013393357 0.0057553444 0.17973705 -0.082116105 0.10935745
0.20961796 0.1168357 0.084441856 0.019799747 -0.03876834 0.12140716 0.13499683 0.076492436
-0.14524499 -0.039839663 0.12582436 0.043110866 0.1109271 0.013520896 0.15343297 0.07829823
0.06253098 -0.08318261 -0.102957204 0.003684789 0.11395875 0.010960475 0.17185721 0.089713894
-0.13562056 -0.09525306 -0.02098336 0.21229208 -0.106189854 0.21310915 0.025584368 0.06124797
-0.019940589 -0.03558481 0.14525165 -0.016843183 -0.022964863 0.20328745 0.07722255 0.07148235
-0.15459669 0.14542693 0.1019247 0.042806122 0.18216753 -0.07350914 0.16785395 -0.09286135
0.02421056 0.17659669 0.037815765 0.04188857 -0.0030560875 0.17958187 -0.056295343 0.024467753
-0.11840117 -0.08278234 0.15368645 -0.07196826 -0.08283861 0.037183415 0.0024663394 -0.10169818
0.05889028 0.20167275 -0.019883392 0.029872438 -0.08701763 0.09362385 -0.011949164 0.045839198
0.0066030687 -0.058887467 -0.011737209 0.2132861 0.027774703 0.122198194 0.12768751 -0.07753874
0.10203798 0.046109997 0.055389673 -0.026970211 -0.021756457 -0.031838313 0.017452432 0.0027192307
-0.0133226365 0.06716171 0.108116806 -0.008393288 -0.08674008 0.0582653 0.079573855 -0.04847157
-0.11288032 0.037932232 -0.08716172 -0.006186366 0.05176173 -0.015562698 0.01291804 0.02270031
-0.12238009 0.11087027 0.10501614 -0.021023974 0.013820887 -0.02455026 0.09275842 0.035088688
-0.09553315 -0.035705328 -0.0710057 -0.019579127 -0.016937181 0.027892679 0.0007801801 -0.030838624
-0.08351378 -0.037398905 0.043927297 -0.013088092 0.09641397 -0.05090359 -0.04745722 -0.06736398
0.050088435 -0.08850849 0.018805146 -0.06949079 0.028157711 0.12275241 -0.041045845 -0.09147364
0.05382009 -0.022433922 0.10983227 0.046318635 -0.037920997 -0.07320674 0.0812448 0.10214396
-0.007721573 -0.034360602 0.012412474 0.09699321 -0.053994685 -0.026402354 -0.051235795 -0.11390941
00000000: 300b f5bd fe65 bb3d e275 8cbd e643 c2bd
00000010: 704e 273d c02f 5c3c ec07 eebd 40ce 32bb
00000020: 80d5 263b b4c1 d63d 3a03 88bd b080 ff3d
00000030: 4c20 82bd d051 69bc 8cd1 6abd 940c 35bd
00000040: 3ec4 b7bd 8840 ee3d f013 453c 9c99 6d3d
00000050: 886e 6ebd 724e 9c3d 00b0 cc3b 2cbe 2fbd
00000060: 3825 dd3c 327a d2bd f0ca 55bd 885f 8a3c
00000070: 20b8 92bd d8b2 5d3d ec0f e9bd 3ea8 8f3d
00000080: 14e7 0dbd 4002 573c 58a5 1bbd fa9d 9dbd
00000090: 3027 af3c 9a0d a93d 5860 1b3d 4844 d83c
000000a0: 5209 a83d e08c 0a3d 20a5 b63d 54bb 88bd
000000b0: 24a6 903d 8e8f ddbd 9c82 ffbd 347c 26bd
000000c0: fc24 99bd 40f8 82bb a0df a23b b4be d23d
000000d0: c44e fcbd eec0 d03d 204a a9bc d456 a5bd
000000e0: 2868 1bbd 40c0 df3b d0fa 80bd 86ec a53d
000000f0: 70ca 6c3c b039 2abc c899 51bd 986c 0bbd
00000100: e29f ba3c cf3f 73bd bc0e b73d e470 0c3d
00000110: fc9a d9bc ea19 573e b9ff dd3d 6b6b 3dba
00000120: 6e89 7a3c 8ab4 473b 4c18 a9bd 1769 353e
00000130: 2ea7 abbd d92c 713d 2c5d ce3d bfa1 85bc
00000140: e312 c0bd 2042 303e 7a3e 593d 9fb0 683b
00000150: dd2d 48bd a1c0 0abb 0f20 313e ff08 e1bd
00000160: 1761 3abd 6ee0 093e c3a1 123e fecb 0f3e
00000170: 473f ab3d 38f5 f4ba f4b2 4a3d 15eb ee3d
00000180: 38d2 09be aca3 363d 6cf8 083e d06f 5bbc
00000190: 5497 bc3b fd0c 383e 7d2c a8bd ccf6 df3d
000001a0: 17a6 563e 8e47 ef3d daef ac3d 1433 a23c
000001b0: 8dcb 1ebd 51a4 f83d 9c3c 0a3e 11a8 9c3d
000001c0: 1abb 14be ea2e 23bd 1ad8 003e 0595 303d
000001d0: bf2d e33d c086 5d3c 881d 1d3e d35a a03d
000001e0: 3e10 803d a55b aabd 3adb d2bd 807c 713b
000001f0: 3563 e93d 9093 333c 56fb 2f3e ebbb b73d
00000200: 1ee0 0abe 0914 c3bd 4ce5 abbc 1863 593e
00000210: 117a d9bd 4939 5a3e 4f96 d13c 27df 7a3d
00000220: 725a a3bc 61c1 11bd d9bc 143e b7fa 89bc
00000230: cf20 bcbc 962a 503e db26 9e3d 5765 923d
00000240: 984e 1ebe ccea 143e e6bd d03d 7955 2f3d
00000250: 208a 3a3e f68b 96bd e8e1 2b3e 172e bebd
00000260: 3955 c63c c3d5 343e b4e4 1a3d 5993 2b3d
00000270: a448 48bb 4fe4 373e f295 66bd 9970 c83c
00000280: 507c f2bd ca89 a9bd fb5f 1d3e 1864 93bd
00000290: 4aa7 a9bd a34d 183d 4fa2 213b 2347 d0bd
000002a0: ef36 713d 4d83 4e3e 7fe2 a2bc 0bb7 f43c
000002b0: 4d36 b2bd dcbd bf3d 6dc6 43bc e2c1 3b3d
000002c0: 8e5e d83b fc33 71bd 6c4d 40bc ac67 5a3e
000002d0: c687 e33c 0c43 fa3d 84c0 023e a2cc 9ebd
000002e0: 4af9 d03d d6dd 3c3d 48e0 623d a2f0 dcbc
000002f0: 993a b2bc e468 02bd 67f8 8e3c 1f35 323b
00000300: 3047 5abc 148c 893d 586c dd3d 0084 09bc
00000310: c8a4 b1bd 98a7 6e3d 9ef7 a23d 208a 46bd
00000320: cc2d e7bd d45e 1b3d d881 b2bd 00b7 cabb
00000330: 1c04 543d b0fa 7ebc 30a6 533c 00f6 b93c
00000340: 6aa2 fabd f40f e33d b412 d73d 783a acbc
00000350: 0071 623c a01d c9bc 20f8 bd3d 28b9 0f3d
00000360: e2a6 c3bd c03f 12bd 706b 91bd 6864 a0bc
00000370: d8bf 8abc 307f e43c 0085 4c3a 48a1 fcbc
00000380: 4609 abbd 982f 19bd 1ced 333d 706f 56bc
00000390: b074 c53d 4880 50bd 8062 42bd 20f6 89bd
000003a0: 8829 4d3d f043 b5bd 400d 9a3c 3051 8ebd
000003b0: 00ab e63c 9e65 fb3d b01f 28bd 8856 bbbd
000003c0: 7472 5c3d 58c7 b7bc beef e03d 9cb8 3d3d
000003d0: 0c53 1bbd 6aed 95bd ac63 a63d da30 d13d
000003e0: 4005 fdbb b4bd 0cbd b05d 4b3c 60a4 c63d
000003f0: 8829 5dbd c049 d8bc a0dc 51bd 5649 e9bd

hidden.3.bias f4 [64]
-0.06046039 -0.026529845 0.14159729 -0.0707732 -0.021225415 0.13514861 0.10253486 -0.08038938
0.06112396 -0.080839396 0.025102613 0.016378693 0.10484703 0.041748334 0.105585545 0.08015521
-0.010803413 -0.06055683 -0.025964066 0.0632038 0.04184709 0.14835168 -0.05564277 0.07108527
0.09203918 0.12341184 0.07878274 0.12508665 0.048127193 0.10440662 -0.0767252 0.0032609918
-0.0658425 0.10248918 0.18068194 0.15304644 0.12147691 0.13954546 -0.062144734 0.08373114
-0.09630993 0.1356852 0.061351787 -0.057495438 -0.07383136 0.08312947 0.06244876 -0.0073022274
-0.039113794 0.07905644 -0.05232094 0.13777241 0.032827083 0.12957805 0.1282639 -0.11089817
0.07149953 0.079830095 0.10388458 0.06654481 -0.08729805 0.1154064 0.08100609 -0.009597808
00000000: 50a5 77bd 1e55 d9bc e1fe 103e 8af1 90bd
00000010: ece0 adbc 6664 0a3e ccfd d13d 30a3 a4bd
00000020: 1e5d 7a3d 208f a5bd ffa3 cd3c 9c2c 863c
00000030: 0aba d63d 4d00 2b3d 3c3d d83d 6a28 a43d
00000040: cc00 31bc 700a 78bd 98b2 d4bc fe70 813d
00000050: db67 2b3d 81e9 173e ace9 63bd 2795 913d
00000060: 0a7f bc3d 59bf fc3d d858 a13d b716 003e
00000070: 0521 453d 23d3 d53d 1a22 9dbd 5db6 553b
00000080: 6fd8 86bd d9e5 d13d b004 393e 35b8 1c3e
00000090: e3c8 f83d 01e5 0e3e 7a8b 7ebd 3b7b ab3d
000000a0: 243e c5bd 10f1 0a3e 034c 7b3d 5680 6bbd
000000b0: e534 97bd c93f aa3d 45ca 7f3d 8647 efbb
000000c0: c935 20bd 58e8 a13d 7b4e 56bd 3614 0d3e
000000d0: b175 063d 1cb0 043e 9d57 033e 941e e3bd
000000e0: 586e 923d f67d a33d 70c1 d43d a548 883d
000000f0: 52c9 b2bd 315a ec3d 85e6 a53d 2040 1dbc

hidden.4.weight f4 [64, 64]
-0.069594726 0.14508243 0.05166387 0.036045477 -0.093242414 -0.058651276 0.14306398 -0.070347026
-0.08726645 0.10180505 0.060384303 0.050351407 0.13524184 0.15657161 -0.055969495 0.12311059
0.13665435 0.023047537 -0.12065777 0.047059115 -0.089553125 0.20115083 0.10533291 0.012741228
0.0983524 -0.114230916 0.21483661 -0.0019154621 -0.13857237 0.15862368 -0.07840046 0.14031275
0.085216954 0.010777202 -0.09274608 -0.0005863005 -0.15802364 0.1118195 0.07256897 0.045031205
-0.02547054 0.16701838 -0.121669725 -0.14807323 -0.05119321 -0.12970673 -0.058591526 0.1584389
-0.13462393 0.12130546 0.11410358 0.09953953 -0.114717156 -0.078561924 0.2074484 0.011298293
-0.019792758 -0.049878392 -0.030105606 0.11582526 0.04279287 0.21454874 0.02406548 0.14645568
-0.11041063 -0.0877562 -0.12750971 0.08464837 0.025740929 0.17373215 -0.12959282 -0.02806057
0.050014786 -0.011350289 0.17421986 0.06996541 -0.14388473 0.041927457 0.12637024 -0.0269388
0.15976097 0.09225735 -0.052839816 -0.021265863 0.030318376 -0.108947545 0.0022958368 0.14045128
-0.034502305 0.1905368 0.02403059 0.12842114 0.15540089 0.0074582384 0.086579315 -0.08073126
0.057275668 0.024526143 0.20026688 0.052379705 0.06129829 -0.0034803667 0.053748425 0.1377772
0.006466654 -0.048620984 0.08841803 0.013704906 0.108426124 0.1331923 -0.069603436 0.043596745
0.03791012 -0.13162652 0.09579135 -0.0341809 0.11311546 0.15999292 -0.06722213 -0.0061695282
-0.10936007 0.044632353 0.16120306 -0.018604066 0.11854224 0.040682156 0.018550387 0.059126597
-0.10848665 0.009468164 -0.073188685 -0.050469503 0.055684183 0.15962169 -0.10505476 0.042340517
0.059350614 -0.025491787 0.10669703 0.10270623 -0.01875372 0.0030114304 0.17628258 0.012502321
0.096501775 -0.033233672 0.056618437 0.045944616 0.18084374 -0.052047372 0.062207773 0.12775134
-0.016409272 0.14290874 -0.1382739 0.043727905 0.2146898 -0.036782093 0.027843814 0.038418043
-0.09146529 0.116229825 0.19359845 -0.044189364 0.10481364 0.12915613 0.007815612 0.08564133
0.04227808 -0.07153342 0.22872117 0.18948156 0.06704708 0.16371825 0.108651854 -0.105418235
-0.08417069 -0.0062884684 -0.10487573 -0.023607293 0.017638355 0.028686456 0.0989887 0.039040077
0.046580847 0.013968632 0.17437977 0.029931257 0.07650216 -0.03456007 -0.13138849 0.050865278
-0.037883 0.044710077 0.23302887 0.015348703 0.118046016 0.055510636 0.1885673 0.046320364
0.07015976 0.04602742 -0.081636325 0.116515845 -0.0014601389 0.15984584 -0.071737744 0.06688065
0.039192017 0.07895495 0.03468913 0.097153515 0.028506396 0.17245722 -0.06953433 -0.122089066
0.036365647 -0.10160184 0.07154864 0.11691276 -0.11186603 -0.00092094345 0.0172582 0.23028082
0.028374042 -0.11930246 -0.15210687 0.22192493 0.01657 0.16121972 -0.11710498 -0.13805856
-0.096849546 0.19286552 -0.09537811 0.047800753 0.13472372 -0.16647796 -0.09136328 -0.03483621
-0.025592688 0.08860719 0.11891823 0.091367476 -0.013049562 -0.008250753 0.11412989 0.013088477
0.091352575 -0.088272706 -0.09305944 0.15034933 -0.055204272 0.1821081 0.13286668 0.08818498
00000000: ae87 8ebd 7d90 143e 7f9d 533d 6ca4 133d
00000010: e1f5 bebd 523c 70bd 5d7f 123e 1a12 90bd
00000020: c1b8 b2bd 2b7f d03d 8855 773d 473d 4e3d
00000030: d67c 0a3e 4f54 203e 4540 65bd 6821 fc3d
00000040: 1eef 0b3e 30ce bc3c 6c1b f7bd 0fc1 403d
00000050: a167 b7bd 7cfa 4d3e c8b8 d73d 95c0 503c
00000060: fc6c c93d e6f1 e9bd 21fe 5b3e 3e10 fbba
00000070: eae5 0dbe 3f6e 223e 6c90 a0bd 25ae 0f3e
00000080: 3a86 ae3d dd92 303c a8f1 bdbd f6b1 19ba
00000090: f3d0 21be 9f01 e53d 0a9f 943d a472 383d
000000a0: 98a7 d0bc de06 2b3e fa2d f9bd 82a0 17be
000000b0: f9af 51bd d7d1 04be abfd 6fbd cf3d 223e
000000c0: dbda 09be ff6e f83d 23af e93d 62db cb3d
000000d0: d4f0 eabd 13e5 a0bd 5a6d 543e 7a1c 393c
000000e0: 6c24 a2bc 494d 4cbd 08a0 f6bc cb35 ed3d
000000f0: 9447 2f3d aab2 5b3e f824 c53c 7af8 153e
00000100: f81e e2bd 86b9 b3bd e891 02be 205c ad3d
00000110: a4de d23c d7e6 313e fbb3 04be 48df e5bc
00000120: 4edc 4c3d 90f6 39bc b166 323e 064a 8f3d
00000130: 8556 13be 20bc 2b3d 3367 013e c2ae dcbc
00000140: 6198 233e 6cf1 bc3d 906e 58bd bf35 aebc
00000150: 3e5e f83c e41f dfbd c075 163b 76d2 0f3e
00000160: 4a52 0dbd 141c 433e cddb c43c d580 033e
00000170: 6921 1f3e 3d64 f43b 7f50 b13d 6e56 a5bd
00000180: e499 6a3d 0deb c83c c312 4d3e 1a8c 563d
00000190: ea13 7b3d dd16 64bb 4f27 5c3d 7715 0d3e
000001a0: 3ae6 d33b cc26 47bd 8314 b53d 8b8a 603c
000001b0: 840e de3d 9063 083e 3f8c 8ebd 8092 323d
000001c0: a447 1b3d 1ac9 06be 412e c43d 4501 0cbd
000001d0: 14a9 e73d 2fd5 233e c2ab 89bd c129 cabb
000001e0: 2cf8 dfbd 6ad0 363d 6a12 253e 8e67 98bc
000001f0: 46c6 f23d 55a2 263d fbf6 973c bb2e 723d
00000200: 402e debd 5c20 1b3c f3e3 95bd 1cb9 4ebd
00000210: 1915 643d de73 233e f326 d7bd 406d 2d3d
00000220: a119 733d 27d4 d0bc f983 da3d a557 d23d
00000230: 67a1 99bc 6b5b 453b 6c83 343e 89d6 4c3c
00000240: b9a2 c53d 0820 08bd bce8 673d 6c30 3c3d
00000250: 1a2f 393e a02f 55bd 94cd 7e3d 3fd1 023e
00000260: bd6c 86bc ab56 123e ac97 0dbe 081c 333d
00000270: a5d7 5b3e d2a8 16bd b618 e43c 3d5c 1d3d
00000280: 2752 bbbd e709 ee3d ac3e 463e e8ff 34bd
00000290: 89a8 d63d 8141 043e 0d0d 003c b964 af3d
000002a0: c82b 2d3d 1d80 92bd e235 6a3e 7407 423e
000002b0: fb4f 893d c2a5 273e dd84 de3d 84e5 d7bd
000002c0: af61 acbd 7f0f cebb 16c9 d6bd 1564 c1bc
000002d0: 507e 903c dcff ea3c 96ba ca3d 7de8 1f3d
000002e0: 8fcb 3e3d b0dc 643c 9c90 323e 6532 f53c
000002f0: 2aad 9c3d dc8e 0dbd b48a 06be 1c58 503d
00000300: 342b 1bbd ea21 373d 1f9f 6e3e 2079 7b3c
00000310: 1cc2 f13d 1f5f 633d c917 413e 6cba 3d3d
00000320: ecaf 8f3d 3f87 3c3d f230 a7bd dc9f ee3d
00000330: 2262 bfba a1ae 233e 3deb 92bd b9f8 883d
00000340: cf87 203d 22b3 a13d 3016 0e3d 6cf8 c63d
00000350: 3f86 e93c a098 303e 0468 8ebd d509 fabd
00000360: 25f4 143d a014 d0bd 1888 923d f56f ef3d
00000370: 041a e5bd 786b 71ba 1261 8d3c bcce 6b3e
00000380: ae70 e83c d954 f4bd e7c1 1bbe 4a40 633e
00000390: cfbd 873c c816 253e bcd4 efbd 395f 0dbe
000003a0: 0e59 c6bd 8a7e 453e 9955 c3bd b9ca 433d
000003b0: 04f5 093e 3379 2abe ac1c bbbd 6ab0 0ebd
000003c0: c2a7 d1bc b077 b53d 678b f33d df1e bb3d
000003d0: d5cd 55bc 2b2e 07bc efbc e93d 0d71 563c
000003e0: 0f17 bb3d 52c8 b4bd f395 bebd 2df5 193e
000003f0: e01d 62bd 8c7a 3a3e 340e 083e 549a b43d

hidden.4.bias f4 [64]
0.027917018 0.15840726 0.07295554 0.094687395 0.07458285 -0.08280282 0.13858095 0.13667165
0.039879426 -0.06119357 0.046615347 0.013218903 -0.058579553 0.023102587 -0.02561362 -0.093055844
-0.0809705 0.055452373 0.067564085 -0.073185734 -0.0937842 -0.060702976 -0.05982904 -0.04625547
-0.035119954 0.04778228 0.14761542 0.1157475 -0.024685517 0.084616855 -0.03776442 -0.10470729
0.05451146 -0.041922525 -0.047847632 0.10345178 -0.0995187 -0.08786042 0.00072131 0.0017753516
0.051763907 -0.058006655 0.049397584 -0.09422259 0.12407534 0.06115462 -0.04951244 -0.027985215
-0.05799511 0.07693992 -0.0018999887 0.03871157 0.058923237 -0.0041761626 -0.031157829 0.06911005
-0.09203529 0.16689438 -0.03326484 0.05250426 -0.116434164 -0.08252489 0.13191861 -0.066532515
00000000: 3bb2 e43c 8335 223e b769 953d 77eb c13d
00000010: e5be 983d 8694 a9bd 2ae8 0d3e a7f3 0b3e
00000020: 9c58 233d 1ca6 7abd bcef 3e3d 1994 583c
00000030: 1df1 6fbd a341 bd3c a8d3 d1bc 1094 bebd
00000040: ddd3 a5bd 0722 633d 0a5f 8a3d 67e2 95bd
00000050: ee11 c0bd afa3 78bd 4c0f 75bd 6076 3dbd
00000060: f1d9 0fbd 5ab7 433d 7f28 173e 060d ed3d
00000070: 4839 cabc 9a4b ad3d ddae 1abd c770 d6bd
00000080: 6947 5f3d f4b6 2bbd e1fb 43bd 87de d33d
00000090: 76d0 cbbd 2af0 b3bd 4b16 3d3a eab2 e83a
000000a0: 6406 543d 6398 6dbd 1f55 4a3d c6f7 c0bd
000000b0: 361b fe3d 447d 7a3d 8ecd 4abd 4041 e5bc
000000c0: 488c 6dbd ad92 9d3d 0b09 f9ba 0690 1e3d
000000d0: 7e59 713d 31d8 88bb b43e ffbc 9289 8d3d
000000e0: 007d bcbd 5ce6 2a3e b640 08bd b50e 573d
000000f0: 0975 eebd cf02 a9bd ac15 073e 3342 88bd

out_layer.weight f4 [1, 64]
0.19567744 -0.14825687 -0.19238319 0.11917533 -0.16744293 0.057259887 -0.18141958 -0.17537133
0.12408061 -0.030745283 -0.027028713 -0.21851467 0.0479953 0.1926764 0.091480374 -0.07939806
-0.1780152 -0.25541657 -0.14871441 0.12214982 0.024637075 0.08664045 -0.07460368 -0.024416978
-0.12987009 0.13256513 -0.22389399 0.1957674 -0.100191385 0.2000699 -0.18552096 -0.10028114
-0.21893029 -0.112439826 -0.110647984 0.22001383 -0.0834686 0.15023196 -0.045744143 -0.2151459
0.20788556 -0.031437367 0.141755 0.11259508 0.22771384 -0.1940577 0.19076313 0.025518954
-0.07066797 -0.2059738 -0.2060065 -0.18574288 0.1952604 -0.15084748 -0.11258847 -0.16605419
-0.061324745 -0.118719205 0.21290559 -0.231899 -0.015671277 -0.17098193 0.2215667 -0.042822964
00000000: ab5f 483e a6d0 17be 1900 45be 3212 f43d
00000010: 2976 2bbe 5889 6a3d 0ec6 39be 8b94 33be
00000020: fa1d fe3d 88dd fbbc 526b ddbc 4fc2 5fbe
00000030: b896 443d f64c 453e 105a bb3d 739b a2bd
00000040: 9e49 36be f6c5 82be 9748 18be af29 fa3d
00000050: b1d3 c93c 8c70 b13d d0c9 98bd 1d06 c8bc
00000060: aafc 04be 27bf 073e 7744 65be 4077 483e
00000070: 2431 cdbd 20df 4c3e 35f9 3dbe 3360 cdbd
00000080: 432f 60be da46 e6bd 699b e2bd 4e4b 613e
00000090: 96f1 aabd 68d6 193e 365e 3bbd 354f 5cbe
000000a0: f4df 543e 78c4 00bd 3928 113e 4098 e63d
000000b0: d12d 693e 10b7 46be 6957 433e 200d d13c
000000c0: 5eba 90bd ccea 52be 5ef3 52be 6233 3ebe
000000d0: 58f2 473e c377 1abe c994 e6bd 1c0a 2abe
000000e0: a82f 7bbd 0e23 f3bd ec03 5a3e ee76 6dbe
000000f0: 0d61 80bc e315 2fbe 62e2 623e 2267 2fbd
