models/27Improve.pt (torch_old, 32223 bytes, 13 tensors)

in_layer.weight f4 [32, 68]
00000000: 745e 433f 7ad7 b83d d0f4 093f d02c c23d
00000010: 37b8 cb3e 99d1 8dbd 94c6 823f aabe 9bbd
00000020: 242f 693d 4f62 60bd 8621 c1bd ebf2 cc3d
00000030: 3845 51bc a5f6 09be 3cbe f43d 1b5a 3a3e
00000040: da6e 8fbe 12c2 a9bd f97a adbe 10b3 f4bb
00000050: df30 73be b01d 693d 1da3 fabe dc0a 013d
00000060: 327c 4abd e253 09bf e8eb d73d 72d9 f2be
00000070: 18d9 953d a280 aabe da27 09bd b24f 36bf
00000080: dd35 083f be9e 10bd 2a39 90be 40fd e93b
00000090: 9d89 41bf 605c ef3b 9700 74be 001a 043d
000000a0: 409c 713c 3b04 8fbe 3408 243d 83b4 cdbe
000000b0: 0cc6 b2bd 81fd bbbe 224c 03bd ffc2 b3bc
000000c0: 7861 34be 9803 67bc 0e4b 45bc 532b eabd
000000d0: 3631 28be a832 ad3d 2100 7e3d f4dc a7bc
000000e0: ef6b afbd 275d 013c 7a56 3bbd bb03 913d
000000f0: 5ccc 5dbd 1025 983e 2043 2b3b 8ae4 413e
00000100: fb0b ba3d 4009 2cbe cc14 23bd c155 39be
00000110: 7d35 87be 77db 93bd a18a ffbe d4c6 bebc
00000120: 0021 403e 52f1 a7bd 4dc7 d5be 5024 843d
00000130: 50d9 133d 0d9f 623d 6487 a8bc 9464 733b
00000140: 3e9b f63d dfc8 a83c 2ae1 53bd ebd3 f9bd
00000150: e7db c93e 404e 143b 322a b83f a8ea 3ebd
00000160: c955 ec3d c01d f13a 5404 e1bd 76d4 c7bd
00000170: 84bc c13d 7c88 da3e b069 a1bd 48e6 c43e
00000180: d816 f5bc 8adf 2ebf 7416 2ebd 9069 5b3e
00000190: 420d ee3e 3cf5 2f3d e4a8 2ebe da20 dd3d
000001a0: 2443 ecbe 0ad4 3ebd 2148 b73d 24e4 20bd
000001b0: 30a0 c9bb ebe9 1fbe 606b 943c 4138 a0bd
000001c0: fadf c6bd 2dc5 5a3f 025e c7bd db39 87bd
000001d0: a63a ea3d c839 27bd 1b44 b43e 6683 b7bd
000001e0: b365 f0be cc35 64bd 042b c4be 8c3c 3c3d
000001f0: c09a 0e3d 315b 81be fed4 9dbd 0d73 2fbf
00000200: bc20 bdbd 0f1b 9ebe 50eb e2bc d5b0 3b3e
00000210: 18b9 07be 3f11 a9be 95d7 f83c 990a 81be
00000220: c9fa 113f 8689 df3d f5f8 bc3e 20b8 903b
00000230: 597f fa3e 2012 c43d 1351 15bd 58ae 6e3d
00000240: 4415 e1bd 43bc b03e 946e 4d3d dce8 d23e
00000250: 8020 7f3c 99ef 8c3d 5c63 153d 899a 02bd
00000260: f944 9cbe 3c7c 16bd d524 bb3d 8aea 3dbd
00000270: 1d28 463f f822 cb3c bad3 d7be 60d0 1d3c
00000280: 8006 dd3d d9c5 af3c 0ab9 93bd cbfe 333e
00000290: 32e1 22bd 3fc8 15bd 107c 32bc cd2c 0cbf
000002a0: 120c 1cc0 cc29 9abc 4185 cf3e 3812 5ebc
000002b0: a232 903e e465 ae3d 7dbc df3d 5c03 c83d
000002c0: f322 e0bd 30fe 85bf 08f9 c23d 32c9 ad3e
000002d0: 8665 8fbd 11a0 c5bd ab7d c2bd 7994 9f3e
000002e0: 35d2 c2be 8b10 90bd 06a7 7c3c 1a5e d83d
000002f0: f6eb a5be b024 2abd ba0f 7cbe feac 81bd
00000300: 2e3e a03d a9c2 c83e dc13 c2bd 69d4 0b3e
00000310: c276 52bd 79e4 1e3e 4475 bbbd f387 c1bd
00000320: 4e8b cbbe 8def c23d a89a 4bbe 3a4c 843d
00000330: 8247 1cbd f4aa 373d 4303 47be beaf b93d
00000340: 45c6 803e 70d5 713d c799 e63e 8802 ddbc
00000350: 3828 e03d ec65 e03e ae1b d2bd 8d80 5e3d
00000360: c3f9 c4bd ee6d 073d 109b a0bc 57c0 253d
00000370: 99cf 733f 1094 eabd 19b7 853e 405b bb3d
00000380: 02a5 9c3e 000c 933d 11ca 4dbd f12d babd
00000390: 0ce2 553d 85ef e3be fc27 2fbd ccda e33f
000003a0: 609f 613d 11a1 323d eb21 eabd 8eee 48bf
000003b0: b136 173f 74a1 bdbd a169 123f f09b c13d
000003c0: de05 12bf 4768 d1bd b141 34bf 104b d4bd
000003d0: dc9a 64bd f607 543e 76ae 80bd c069 13bf
000003e0: 503b af3c e4e2 a0bf 1952 d6bd f95b c1be
000003f0: a457 1fbe 829a d53d 5e2b 6dbe f225 a23d
0.76316 0.09025474 0.5388918 0.094812036 0.39788982 -0.06924743 1.0216851 -0.07604726
0.056929722 -0.054781254 -0.09430222 0.100072704 -0.012772851 -0.13472994 0.11950347 0.18198435
-0.2801426 -0.08288969 -0.33882883 -0.007467635 -0.23749112 0.056913078 -0.4895257 0.031504497
-0.049434848 -0.5364362 0.105430424 -0.47431523 0.07316798 -0.33301264 -0.03348527 -0.71215355
0.5320719 -0.03530764 -0.28168613 0.0071407855 -0.75600606 0.007304713 -0.2382835 0.032251358
0.014746726 -0.27932915 0.040046886 -0.40176782 -0.08729181 -0.36716846 -0.032055028 -0.021943567
-0.17615306 -0.014099978 -0.01204182 -0.11434045 -0.16425022 0.084569275 0.06201184 -0.0204911
-0.085655086 0.007895744 -0.045736767 0.0708079 -0.05414997 0.29715776 0.002613254 0.18934837
0.09084316 -0.16800404 -0.039814755 -0.18099119 -0.26407996 -0.07219594 -0.49910453 -0.023288168
0.18762589 -0.08200325 -0.41753617 0.064522386 0.036095917 0.055327464 -0.020572372 0.0037138807
0.12041329 0.020603595 -0.051728405 -0.12198623 0.39425585 0.0022629648 1.4387877 -0.046610504
0.115398 0.0018395707 -0.10987154 -0.097573206 0.094597846 0.42682254 -0.078814864 0.3845694
-0.02991812 -0.68309844 -0.04250188 0.21426988 0.4649449 0.042958483 -0.17056614 0.107972816
-0.46144974 -0.046588935 0.08949304 -0.03928007 -0.006153129 -0.15616576 0.018117607 -0.078232296
-0.09710689 0.85457116 -0.097347274 -0.06602832 0.114369676 -0.04082659 0.3520821 -0.08960609
-0.4695259 -0.055715367 -0.38314068 0.04595618 0.03481555 -0.25264886 -0.07706641 -0.6853493
-0.09234759 -0.3088002 -0.027700096 0.18329175 -0.13254201 -0.3302097 0.030376235 -0.25203398
0.5702329 0.109149024 0.3690869 0.0044164807 0.48925284 0.095737696 -0.03645427 0.058271736
-0.10990384 0.34518632 0.050154284 0.41193283 0.015571713 0.06881637 0.03647171 -0.031885657
-0.30521372 -0.036739573 0.091378845 -0.046366252 0.7740496 0.024796948 -0.42153722 0.0096322
0.107922554 0.021456646 -0.07213028 0.17577665 -0.039765544 -0.036567923 -0.010893837 -0.5475586
-2.4382367 -0.018818758 0.40531352 -0.013554148 0.2816363 0.08515528 0.10924623 0.09766266
-0.10944166 -1.0468197 0.09520155 0.33942562 -0.07001786 -0.09649671 -0.094966255 0.31167963
-0.38051 -0.07034405 0.015420681 0.105648234 -0.32406586 -0.041538894 -0.24615374 -0.06331824
0.0782436 0.39211014 -0.09476444 0.13655247 -0.051382788 0.15516843 -0.09153226 -0.094497584
-0.3975472 0.09518347 -0.19883215 0.064598516 -0.038154133 0.044840768 -0.19434838 0.09066723
0.25151268 0.05904144 0.45039198 -0.026978746 0.10945171 0.4382776 -0.10259186 0.054321814
-0.09617951 0.03306382 -0.01960519 0.040466633 0.95238644 -0.11454022 0.26116255 0.09148264
0.3059464 0.07180023 -0.050241534 -0.09090794 0.05221753 -0.44518676 -0.04276274 1.7801147
0.055083632 0.043610636 -0.114322506 -0.78489006 0.5906783 -0.0925931 0.57192427 0.09453571
-0.570402 -0.102249674 -0.7041274 -0.103658795 -0.055811748 0.20706162 -0.06283276 -0.57583237
0.021390587 -1.2569242 -0.10464878 -0.37765482 -0.15560776 0.10429861 -0.23161075 0.07917394

in_layer.bias f4 [32]
00000000: d986 ccbe 77ed febd 9485 4b3f 4cb7 903f
00000010: abcc a93f 5561 54bf cec7 08bf 68dc 96be
00000020: d82d 5c3f aab6 d73e 5268 983f 6753 253f
00000030: d243 843f 128d 62bf 60f7 733f ed2d c33e
00000040: e7d3 833f fb3e 57be bb88 ccbe e2b0 a13e
00000050: d945 5a3f e87c 233f 2d6b 37bf 5ec0 a23f
00000060: 996f 13bf c559 a2be c8a2 17bf 9faa 34bf
00000070: 1be4 b2be d173 083f 2101 4fbe b78b 2dbf
-0.3994663 -0.124476366 0.795007 1.1305938 1.3265585 -0.82961017 -0.5342988 -0.29465032
0.8600745 0.4213155 1.1906836 0.64580387 1.0333197 -0.88496506 0.9529934 0.38120976
1.0299042 -0.21020119 -0.39948067 0.31580263 0.8526283 0.63862467 -0.7164791 1.2714956
-0.5759216 -0.31709114 -0.5923276 -0.7057285 -0.34939656 0.5330172 -0.20215274 -0.6779131

hidden.0.weight f4 [32, 32]
00000000: 49e7 5dbe fd4e 0abd 5d0e bebe 2058 a4be
00000010: 4981 03be f569 58be 080b ebbd 03b8 853e
00000020: 24da 6bbd aff8 21be 6b99 e2bc 4aae fe3d
00000030: bb17 343e 9f4b d7be 5100 d6bd 06ef 9cbe
00000040: c3f5 3dbf ec22 cc3d a2b9 15bd 9dff 83be
00000050: 65d2 e0be 1111 ffbe 0552 a1be 91ee 643e
00000060: f459 b4be 3188 ecbc e3a2 b8be f6d6 8ebe
00000070: c80f 343d 8c61 8dbe b50e 03be ca30 6b3d
00000080: 0ca0 8cbd 0e47 84be 1768 0c3e a154 08bf
00000090: edee 9bbf 1b3a 883d 7b61 22be 4d2e 17bd
000000a0: 1e25 2fbf 6e4b 10be 25b0 1abf 565f 30bf
000000b0: 02fd 1dbf 9171 333d 221c 40bf 8f7e cdbd
000000c0: 54ac b3be 78d9 90be efcf 88bd c9a0 2cbf
000000d0: 476f 8fbe 5fbd e9be 0671 053e dde4 98bf
000000e0: 9cf8 293f f7ab 33bf ff49 afbe ab68 853e
000000f0: fe74 fabe 7e5d db3d 2382 86be da5d aabe
00000100: 9dd2 7fbd 9d46 253d 3695 b6be aa90 11bf
00000110: ff6b 27bf 8412 713e ef60 85be 1d45 173d
00000120: 44ad 5cbf a2e7 6d3d 1a93 c0be ecdd 33be
00000130: bb44 2dbf 1bdb a1bd 38ad d9bf 437f 073d
00000140: b221 2bbf 0404 a1bd 680e 9abe 4ac0 2cbf
00000150: b584 95be d01e 60bf 93f5 433e a2c8 3cbf
00000160: d03f 623f 99d6 5bbf e746 02bd 5b2e 8e3e
00000170: 86a2 98be 5a60 05be c8c2 c4bb 946b 0ebf
00000180: 1125 d13d 6be6 033e d944 58be 576a 903e
00000190: d278 06bf 7b19 04be 9654 56bc 80f7 493e
000001a0: f3bb 87be beda 2d3d 4268 afbd ddcd 37bf
000001b0: 7d75 1ebf b0c4 393c 7286 b6bd 927c a33d
000001c0: fc2c 93be 2150 40be ebb0 94bd c859 31bb
000001d0: ff45 37be 0cff bdbd 0fa4 3abe ece8 c8bd
000001e0: 6294 b53e e45c 10bf b358 1abe ae4e dbbc
000001f0: 5bf4 e63d c215 f5be 0fbd 1b3e b875 a7be
00000200: 7173 52be 473a b8bc ef24 933e 87ae 933d
00000210: a66d 313e 41d4 ed3c 8070 34be ad67 183d
00000220: 4eca 42bf 45e1 4c3d e170 4abd 91fd 54bf
00000230: 1d4e 3ebe 5744 3ebf c817 f0be 3c76 0bbf
00000240: e0ee 84be a19a 213e 186d bcbd 6ad9 13bf
00000250: 86c2 b4be d3f2 3fbf 70a0 0abf f716 6dbf
00000260: 99a0 77be ba78 01be 6d4a f0bc 2d1a 6dbf
00000270: 19b5 debd 116f e83d 96b7 153e 44f2 4bbd
00000280: 250a 2c3c 73c6 5b3e 59d4 bc3e d193 d13d
00000290: 14aa 25bf 8c39 c4be acfd 7ebd 62a7 9dbd
000002a0: 0870 a73e 45e0 933e cefb 313f 4538 553f
000002b0: 8e60 f3be e430 75bd a309 b03e e4e2 4b3f
000002c0: a219 93be 31dc fb3d 9cf7 783c 1ef6 d6be
000002d0: 25bc 28bd b9c5 dc3d d59f 44be 0478 c83e
000002e0: d017 8a3e 46df cdbe c887 1b3e 1c93 40bd
000002f0: 4314 05be 0f4c f23e 631f d33e c67c f1be
00000300: 5c9f b9bd df5f fdbe b132 493e b8c9 3a3e
00000310: e532 203e d161 323e c421 9abe ccdb 863d
00000320: 3acd 50bf 575f b93e 9e41 21be ff80 253f
00000330: a643 013f 6519 8f3d 4446 f53d 2358 bfbe
00000340: 8b3e 19bf c787 ae3d cd22 5b3d a860 8cbe
00000350: 1560 9fbe f2d0 2abf f8b5 b4be 02e9 07bc
00000360: 3712 84be 4db7 74bc ddab 6ebe dd84 e1bc
00000370: 1ce7 843e e5d6 2ebd 33df e3be 1341 11bf
00000380: b307 9bbe 985f ff3c 58e8 053d ea22 bcbe
00000390: ea1f 25bf 9092 ae3c 6829 e2bd 8700 a13e
000003a0: 6c19 1ebf db2c a9be 75a2 f1be dcd4 1fbf
000003b0: d3b3 b8bf dcb9 203e 31ff 73bf b05d 733e
000003c0: b237 41bd 2fb5 99bd 5e5f 0c3d 2d8a a8be
000003d0: 93a4 74be 26d6 9fbe 6ac0 a63d 8efe debe
000003e0: 4717 573e 278a 45bf 69dc 82be cdf1 e0bd
000003f0: a348 a0be ae84 23bf 9fee dbbe dfae d4be
-0.2167026 -0.033766735 -0.37120333 -0.32098484 -0.12842287 -0.2113417 -0.114767134 0.26116952
-0.057581082 -0.15817522 -0.027661046 0.12435587 0.17587177 -0.42049882 -0.10449279 -0.3065111
-0.7420313 0.09967598 -0.036553986 -0.25780955 -0.43910518 -0.49817708 -0.31507888 0.22356631
-0.3522488 -0.028873535 -0.36061773 -0.27898377 0.043960363 -0.27613485 -0.12798579 0.057419576
-0.06866464 -0.2583546 0.13711582 -0.53254133 -1.2182289 0.06651708 -0.15857498 -0.03690939
-0.6841601 -0.14091274 -0.60425025 -0.6889547 -0.61714184 0.043809477 -0.7504293 -0.10033905
-0.35092413 -0.28290915 -0.06680285 -0.6743284 -0.28014585 -0.4565229 0.13031396 -1.1944844
0.6639497 -0.7018427 -0.34236142 0.26056418 -0.48917383 0.107111916 -0.2627116 -0.33274728
-0.062456716 0.040350545 -0.35660714 -0.56861365 -0.65399164 0.2354222 -0.26050517 0.036931146
-0.8620188 0.05808223 -0.3761223 -0.17565125 -0.67683 -0.07903119 -1.7005987 0.03308035
-0.6684829 -0.07862094 -0.30089116 -0.6748091 -0.2920281 -0.87547016 0.19136648 -0.7374364
0.8837862 -0.85874325 -0.0318059 0.2776974 -0.29811496 -0.13025036 -0.006004665 -0.556329
0.10212148 0.12880866 -0.21120013 0.2820613 -0.5252811 -0.12900345 -0.01308169 0.1972332
-0.2651058 0.042444937 -0.085648075 -0.717985 -0.6189802 0.011338398 -0.08912362 0.07982744
-0.28745258 -0.18780567 -0.07260307 -0.002706157 -0.17897795 -0.09277162 -0.18226646 -0.09810051
0.3546477 -0.5639174 -0.15072899 -0.026770916 0.11277076 -0.47868162 0.15208839 -0.32707
-0.2055185 -0.022488726 0.28739116 0.07211023 0.17326984 0.029031875 -0.1762104 0.037208248
-0.7608994 0.05001952 -0.049424056 -0.8319941 -0.18584485 -0.7432303 -0.46893144 -0.54477286
-0.25963497 0.15781642 -0.092004955 -0.5775362 -0.3530466 -0.74979895 -0.5415106 -0.92613167
-0.24182357 -0.1264371 -0.029332364 -0.92618066 -0.108743854 0.11349309 0.14620814 -0.04979159
0.0105004655 0.21462421 0.36880758 0.10233272 -0.64712644 -0.38325155 -0.06225364 -0.07697941
0.3270266 0.28882042 0.6952485 0.83288985 -0.47534603 -0.05986108 0.34382352 0.7964308
-0.28730494 0.122978576 0.015195753 -0.41984648 -0.041195054 0.107799 -0.19201596 0.39154065
0.26971292 -0.40209407 0.15188515 -0.047015294 -0.1299601 0.47323653 0.41234884 -0.47165507
-0.090635985 -0.49487206 0.19648243 0.18241012 0.15644415 0.17420126 -0.30103886 0.06584892
-0.8156315 0.3620555 -0.15747687 0.6464996 0.5049385 0.069872655 0.11976293 -0.3737193
-0.5986106 0.08521991 0.053499985 -0.27417493 -0.31127992 -0.66725075 -0.3529508 -0.0082952995
-0.25795147 -0.01493628 -0.23307748 -0.027529174 0.25957572 -0.04268541 -0.44506225 -0.5673992
-0.30279312 0.031173512 0.032692283 -0.36745387 -0.6450182 0.02131012 -0.11043054 0.31445715
-0.6175754 -0.33042035 -0.47194257 -0.6243417 -1.4429878 0.156959 -0.95311266 0.23766208
-0.047172256 -0.07505261 0.034270637 -0.3291792 -0.23890905 -0.3121807 0.08142169 -0.43553585
0.21004973 -0.7716393 -0.25558785 -0.1098362 -0.31305417 -0.6387433 -0.4295549 -0.41539666

hidden.0.bias f4 [32]
00000000: a8df 06be 8f31 98bd 81d5 c5be c609 26be
00000010: 436f 88be 8b7a 74be a073 023e 59d9 1bbf
00000020: 003f eebd 9949 4abe 25aa 8abe 08ee 3ebe
00000030: 1c62 57be f32a 9e3f 2fad cbbe 6a34 29be
00000040: 7a84 683f 5231 53bd e9a0 2dbe 7f7c 28be
00000050: d6d0 eabd 463e 48be 9d55 16bf 233f 62bd
00000060: ca09 66be 6f74 a3bd 9b6d c03b dd7a 37be
00000070: 990d 73be f96e 3a3e 277a c43e 620c 64bd
-0.13171256 -0.074313276 -0.38639453 -0.16214666 -0.26647386 -0.23874871 0.1273942 -0.6087852
-0.1163311 -0.19754638 -0.27082935 -0.18645489 -0.2103352 1.2356857 -0.39780566 -0.165239
0.90827143 -0.051560707 -0.16955914 -0.16453741 -0.114656135 -0.19555005 -0.58724385 -0.055235993
-0.22464672 -0.07981192 0.005872441 -0.17917962 -0.23735656 0.18206395 0.38374445 -0.05567587

hidden.1.weight f4 [32, 32]
00000000: 7ed9 533e 73c9 0fbe 2143 9abe beb7 40bc
00000010: b1f4 613e 9b46 4fbe dc1e b2bd b975 01bf
00000020: 4cd9 583d c56b 9bbe dea5 e0be 781a 15bf
00000030: eac8 2bbe 9eb7 ab3c 8762 89be 7955 76bd
00000040: 5919 6fbf 0556 2ebe 1c2f 14be 4eb8 0fbf
00000050: 5693 abbe 4506 09be 4b4e 7abe 4786 1cbe
00000060: 560a dcba 41f0 69bd 717c 1abf d489 0bbe
00000070: 0d28 033e d8e4 3ebf 4ec9 a7be 389d 95be
00000080: 1efb d4bd b540 903d 0bed 113e c91c 21be
00000090: 467c dcbd 2c2f 34be 9d02 243e e22f 54be
000000a0: 2056 10be 7212 67bd ca4e bbbd 7c51 f6bd
000000b0: 469f 51be a816 76be 3541 fb3d e2e6 2cbe
000000c0: 5aa6 bebd 39b6 273e c126 763d b229 0dbe
000000d0: 4de9 0abe 4252 263e 57ca a13d 4df1 17be
000000e0: 1d16 97bd 5f67 9f3d 3043 d3bd c378 afbc
000000f0: 2b52 0cbd 3565 cebd 648b 70bd 4b7e c33c
00000100: 6f2e 9c3d 5f41 203e ba9f 893c 6dff 00be
00000110: fbcb 00bc 686b 5b3c 91ef bfbe efb0 3dbe
00000120: d5eb a33d ce71 9f3d b307 83bd a929 f93d
00000130: bec5 553e 0cb2 efbe 5320 f2bc 4d57 27be
00000140: eebc 26be f880 ebbd 0b6e 10be 2d48 88bd
00000150: b347 773d f6a1 803b a925 df3d 4e81 ff3d
00000160: a75e c1be 5dd8 043e ffb5 81bd 1b29 343e
00000170: 9954 21bd 7bca b03d e17d ddbd 5120 af3d
00000180: ca09 ffbc 3005 1cbe 7229 eebe f56a b13c
00000190: 8263 3dbd af15 82be 574a 44be a351 853d
000001a0: 08c8 81bd deff c6bd ced2 a13d d2c2 f03e
000001b0: cc97 a8bd f2d8 6cbf 119b c93d c50c 00bd
000001c0: ca9d c8be c576 203e b806 69be 60ee a23e
000001d0: 6882 c43d dc63 543e c08b 6f3d 79b3 8b3d
000001e0: dc80 95bf 9490 0d3f 1ee0 b03e 0920 a43d
000001f0: 341d 19be 9807 75be 2e51 ab3f 2905 f6bd
00000200: 9da4 6bbd 7049 eb3c 6cdf 063e 073a 18bd
00000210: 2eaa 1c3e f62a 1ebe 45fc e53d e66c 2bbe
00000220: eb3c c13d 6c23 68bd 7b31 1e3e dae5 34bd
00000230: 12b7 223d e988 17be 286c e9bd 61c1 79bd
00000240: 3166 8dbd 500c 013e c049 f6bd 76aa 923c
00000250: 3e6c 673c e7ce debd 2d1d d93c 39ef dd3d
00000260: e8c3 16be aa9d 2abe 3fc1 ca3d 2106 b9bd
00000270: 3808 e7bd bf1d 243e ed30 abbe f6da 9dbd
00000280: 72d3 0bbe 6365 21be 42d8 b6bb cbaf 02bd
00000290: aa0b 2b3d c340 86bc 93cb 84bc 87ef 6e3b
000002a0: 0c4e 67be 565b 59bc 9516 063d 23eb 0bbb
000002b0: c5ac 33be 1dfe 18be 0141 b0be fb8b f8bd
000002c0: 2e0f e63c 3a98 27be 0d8d 13be b861 5fbe
000002d0: da6e 07be 8b8e d7bd 5e9d 203e e6c6 703c
000002e0: cb10 42bd b633 ff3c b1d3 a03d f90f 63be
000002f0: e0de 02be 269b 6ebe f29d 4bbd 91de 143e
00000300: 9d78 dbbd 5cd2 8dbe 1a37 b0bd 0f41 123e
00000310: 3ef9 663e fc8a 98be 5ddd 353f 7db9 813e
00000320: fd0f 13bd e470 1f3e e674 5cbe e331 c03d
00000330: c9b3 4f3e f9d2 1bbe 6ec1 4cbd 3998 27be
00000340: 01c8 7fbe ce77 e6bd 2f93 1d3e 958e e4bc
00000350: 1d2e b7bd f458 5cbd 05bb 9d3d dc2d 09be
00000360: 538b ffbe 21f9 353e 1c6d 093d 5923 16be
00000370: db15 02bf e379 063e e8ca 3e3e 0826 09bd
00000380: e849 42bd bb89 893c ef10 f3bb 6588 21be
00000390: e965 683d 2346 143e 2d4b 473e 20fa 8ebe
000003a0: 8c18 e0bc 4846 d43d ec1c e63b 4887 97bd
000003b0: 5919 99bd 7c74 82be 1fea 21be 4e0d 29bd
000003c0: 3d13 b6bd b067 223e 5944 043e d266 36bd
000003d0: 0c25 9ebd daa0 533d 58f8 153e ffbb e53d
000003e0: fa2d f2bd 7d4b 923d 13b2 6e3d c5f2 27be
000003f0: 7a65 72bd 3527 3dbd a905 44bd 0540 cabd
0.20688435 -0.1404169 -0.3012934 -0.011762558 0.22065999 -0.20241778 -0.08697292 -0.50570256
0.052941605 -0.3035566 -0.43876547 -0.58243513 -0.16775861 0.020961579 -0.26832983 -0.060140107
-0.9339805 -0.17025001 -0.14471096 -0.561406 -0.33510846 -0.13381298 -0.24443929 -0.15285598
-0.0016787748 -0.05711389 -0.6034613 -0.13626796 0.12808247 -0.7456794 -0.3277077 -0.2922151
-0.10399459 0.07043592 0.14250581 -0.15733637 -0.10765891 -0.1759612 0.16016622 -0.20721391
-0.14095354 -0.056414075 -0.09145887 -0.12027261 -0.20470914 -0.2403208 0.12268297 -0.1688495
-0.09309073 0.16378106 0.060095552 -0.13785437 -0.1356556 0.16242316 0.078999214 -0.14838143
-0.07377265 0.07783388 -0.103155494 -0.021419888 -0.03425805 -0.100778975 -0.058726683 0.023863932
0.07626044 0.15649937 0.016799796 -0.12597437 -0.007861133 0.013392307 -0.37487462 -0.18524526
0.08003966 0.077853784 -0.06397953 0.12166149 0.20876214 -0.46815526 -0.029556429 -0.16341896
-0.16283008 -0.11499208 -0.14104478 -0.066543914 0.060371112 0.0039255572 0.10895855 0.12475835
-0.37767527 0.12973161 -0.06333541 0.17593805 -0.03938732 0.0863237 -0.10815025 0.08551086
-0.031132597 -0.15236354 -0.46515995 0.021657446 -0.046237476 -0.25407168 -0.19168983 0.065097116
-0.06336981 -0.097167715 0.07901536 0.47023636 -0.08232078 -0.9251853 0.0984403 -0.031262178
-0.39182884 0.15670307 -0.22756469 0.3182249 0.095951855 0.20741218 0.058482885 0.06821341
-1.167995 0.55298734 0.34545988 0.08013923 -0.14952546 -0.23928678 1.3384149 -0.12012703
-0.057530034 0.028721541 0.13171166 -0.037164714 0.15299293 -0.15446076 0.11229757 -0.1674076
0.09435447 -0.056674406 0.15448563 -0.044164516 0.03972537 -0.14798321 -0.11397582 -0.060975436
-0.06904257 0.12602353 -0.120257854 0.017903548 0.014124928 -0.10879307 0.02650317 0.10836644
-0.1472317 -0.16661707 0.0990014 -0.09034372 -0.112808645 0.16026972 -0.33435765 -0.07707779
-0.13654879 -0.15761332 -0.005579979 -0.03190593 0.04175917 -0.016388303 -0.016210353 0.0036458687
-0.22588366 -0.013266405 0.03273638 -0.002134987 -0.17546375 -0.14940687 -0.34424594 -0.12136074
0.02808341 -0.16366664 -0.14409275 -0.2181462 -0.1322588 -0.10525235 0.15685031 0.014695859
-0.047379296 0.031152587 0.07852877 -0.22174062 -0.12780333 -0.23301372 -0.049711175 0.14538027
-0.107163645 -0.27699554 -0.0860426 0.1428263 0.22556016 -0.29793537 0.710409 0.2533683
-0.03590392 0.15570408 -0.21528968 0.09384515 0.20283426 -0.15217198 -0.049989156 -0.16366662
-0.24978639 -0.1125332 0.15388177 -0.02790002 -0.08944342 -0.05379577 0.07701687 -0.133964
-0.49910983 0.17770816 0.03355132 -0.14661922 -0.508146 0.13132434 0.1863209 -0.033483535
-0.047433764 0.016789308 -0.00741779 -0.15774687 0.056737814 0.1447988 0.19462271 -0.27925205
-0.027355455 0.103649676 0.0070224907 -0.0739885 -0.07475538 -0.25479496 -0.15811966 -0.041272454
-0.08890388 0.15859866 0.12916698 -0.04453165 -0.0772191 0.051667072 0.14645517 0.11217498
-0.118251756 0.071433045 0.058275294 -0.16401203 -0.059178807 -0.04617997 -0.04785696 -0.09875492

hidden.1.bias f4 [32]
00000000: 0e00 1ebf c5cd 74be 54a6 143d 0c44 03be
00000010: d5a5 413d b7ca 83be 7190 9ebd a41c 753c
00000020: ce16 193d f4d4 773e 3899 02bf a4dd c2be
00000030: 4cf8 963d 1474 b3be 0ca5 a4be da64 73bf
00000040: d527 98be 8f57 14bd e151 0d3f ffe1 663c
00000050: e4b7 f7be eb19 a3bd 2477 143b 1da3 d2bd
00000060: b79c 09bf 529a 07bf 349f 9c3d b4b6 4f3d
00000070: f310 6bbe b7ab efbd 95e0 d13e 6e1b a23d
-0.61718833 -0.2390662 0.036291435 -0.12818927 0.04727729 -0.25740597 -0.07742394 0.014960442
0.037375264 0.24202329 -0.51015043 -0.38059723 0.073715776 -0.35049498 -0.3215717 -0.9507576
-0.2971789 -0.036216315 0.5520306 0.014091968 -0.48382485 -0.07963928 0.002265402 -0.10285018
-0.5375475 -0.5296985 0.07647553 0.05071135 -0.22955684 -0.11702674 0.40991655 0.07915388

hidden.2.weight f4 [32, 32]
00000000: 5ff5 dabd 24ca 2cbe a93a 02be cb80 cebe
00000010: bb51 5abd 3e19 d93d 1e87 1c3f 34ad ee3d
00000020: 8393 0f3e 4377 8fbe 469e 77bd fc8b 98bd
00000030: 3926 e63d 680c fdbd 1253 88be 8de0 b1be
00000040: 2880 eebc 7a00 d1bd 4380 26be 4d30 27be
00000050: f510 5b3c db25 aa3c d56e d1be c45e 123e
00000060: a92e eebe ef82 503c 3740 aebe 3f40 2dbe
00000070: 518b d8bd f7e2 bbbb eb04 61be c686 39be
00000080: e9c1 cdbd a20a e7bc 59b3 e83d 10ea 51bf
00000090: e889 1a3e e8bc b73d a880 13be dea1 de3c
000000a0: e811 d03d 58df 12bc a777 043e 0490 293d
000000b0: 9686 16bc be7f 0abe 6fcf 8f3d 799f 29be
000000c0: dbec 6abb a0dc 04be 6a48 39bc b1a8 b8bd
000000d0: 9839 90be d2c9 de3c ba8a 0bbe 72d4 9abd
000000e0: f14c 0cbf c6d2 c6bd ec2a 0ebe b71e 273e
000000f0: e825 d3bd 485b ab3d d9fa a3bd 98ec e3bd
00000100: 9676 b23e 40f0 21be b593 8f3c 0279 26bf
00000110: f3af 243e 2847 11be e709 b13e a086 27be
00000120: 12d8 61bd 3c74 a3be 9d20 30bd 7b48 f73b
00000130: 5411 c8be bf57 ad3e 57fb 993e 6bd9 b1be
00000140: c5b2 4bbe 4b1c 2dbc cbe4 c33d f1a7 163e
00000150: 5830 6cbe 0bd9 a63d bf10 7a3e d90f dabd
00000160: a0a5 903e 55af 283d 2c76 1fbf f9ac 6e3d
00000170: 4498 e73d d496 b1bd c154 14bf 8e35 013e
00000180: 5a03 a53d 6f9e 10bd 50ed ddbd e81c c0be
00000190: ee96 cd3c 5b96 e13d b473 e3be 7345 ba3d
000001a0: 01f9 0b3e 19f8 4c3e df64 683e e7bd 9bbe
000001b0: 82bc 1ebd daf2 953d 9193 fd3e c16c a03e
000001c0: 3a02 8e3c 0447 313e d74f 0ebe 608f 263e
000001d0: 1b16 443f 7e0f 293e aed5 393e 0b40 f3bd
000001e0: ed27 ff3e 3f10 1f3c abd7 23be 5caa 0bbe
000001f0: 64b1 9cbc ba41 de3c 6fae 5fbd 4ee5 573d
00000200: 07c4 13be fe41 963d 58ef 05be 72ca 0a3f
00000210: 421b 053e fd51 bb3d fca2 1abe e1f8 67be
00000220: fcda ef3d b95b 50be a364 99be 7922 f6bc
00000230: 729e 5d3e f535 5a3e fa51 debe 3e25 05bf
00000240: 1c3d 2ebe 6d83 af3b 10f7 693e f0ee e6bd
00000250: c733 00bd 2ec1 7c3d 5ec1 70bf 4ee1 08be
00000260: a189 a2be 5297 66be 0f5c 2bbd 0a42 08be
00000270: e123 2a3e 2d03 04bd a1de f23b 1cf9 21be
00000280: 9b1a d23b 9501 e1bd 1f91 c03d 7c58 68bf
00000290: a678 d53c 0017 263d 16cf c13d bd57 17bd
000002a0: fe1c debd 3572 0c3e 6158 30bd 0972 25bb
000002b0: d42c f23d 2bf0 1d3e a006 863e 7185 843d
000002c0: e8ad b6bd cdac e3bd dec8 0cbe 24a2 6cbe
000002d0: aa93 e2be a153 133d 2a02 363f b23d b9bd
000002e0: 90aa 923e d3ef 95bd 25e8 adbe c44f dfbd
000002f0: 73b7 09be 8779 c2bd 4473 9dbe d777 083f
00000300: 76ad 1dbd 4f87 7c3e ffaa c4bd dfc6 ebbe
00000310: 708b a7bc 6d5e 243e 0dd9 2abf 1d72 863d
00000320: 720b 30be b296 0bbf 3fa3 cd3d 8a56 e43c
00000330: b2b2 2abe 2ebd 193f 2f37 0cbf f939 55bd
00000340: 1fab aa3c f0f9 62bb e000 8bbf 8c55 77be
00000350: e220 8f3d b21f ff3d bc2c c0be 52c2 7f3b
00000360: 60f8 8cbe a102 9ebc 94fc fcbe c861 f7bd
00000370: cd92 eebd 89fb 75bd 99e4 d93c 00d8 95be
00000380: 30b2 08bf 36cd 13bd 1796 283e 6d7c 8abc
00000390: 383e 4f3d 085e 11be 3b70 30be a19f ae3d
000003a0: dbdd 42be 916c 813e cd44 cebe 2b3a a53b
000003b0: 7981 ffbd 6ca4 4f3d b0f7 8ebd f9a7 1dbd
000003c0: bd19 083d fcf0 29be cc20 493b bd3b 92be
000003d0: 3ebf 8dbd 8883 213e a12c 68be b686 32be
000003e0: cf4a 013d c3e9 90be 5b0b 5cbe 9b41 cdbd
000003f0: b7be 163d 2a04 853c eb4e 97bd 3c85 c6be
-0.10691332 -0.16873986 -0.1271769 -0.40332636 -0.0533006 0.10600518 0.6114367 0.116541296
0.14021115 -0.28020677 -0.060453676 -0.07448575 0.11237759 -0.12355882 -0.26625878 -0.3474163
-0.029113844 -0.10205169 -0.16259865 -0.16327019 0.013370742 0.020770004 -0.4090487 0.14293963
-0.46519974 0.0127265295 -0.34033367 -0.16919039 -0.105734475 -0.0057338434 -0.21974532 -0.18117818
-0.10046751 -0.028203312 0.11362333 -0.81997776 0.1509167 0.08971578 -0.14404547 0.027176794
0.10159665 -0.008964382 0.12936269 0.04139711 -0.009187361 -0.13525292 0.07021987 -0.1656474
-0.0035846743 -0.12974787 -0.011308769 -0.0901655 -0.2816894 0.027195845 -0.13627139 -0.07560052
-0.54804903 -0.097081706 -0.13883561 0.1632031 -0.103099644 0.0836702 -0.0800683 -0.11129111
0.348561 -0.15814304 0.017526487 -0.65028393 0.16082744 -0.141873 0.34577867 -0.16359949
-0.0551377 -0.31924617 -0.042999852 0.007546482 -0.3907572 0.33856007 0.3007457 -0.3473619
-0.19892414 -0.010565828 0.09565123 0.14712502 -0.23065317 0.081468664 0.2442045 -0.10647554
0.28251362 0.041182835 -0.6228969 0.05827043 0.11308339 -0.08671346 -0.57941824 0.12618086
0.0805728 -0.035307344 -0.108362794 -0.37522054 0.025096383 0.11015006 -0.44424212 0.09095278
0.13669206 0.20016517 0.2269473 -0.30418321 -0.038753994 0.07321711 0.49526647 0.31332973
0.017335046 0.17312247 -0.13897644 0.1626563 0.7659623 0.16509816 0.18147919 -0.118774496
0.49835148 0.009708463 -0.1600024 -0.13639206 -0.019127555 0.02713095 -0.054609712 0.052708916
-0.14430247 0.07336806 -0.13079584 0.5421516 0.1299868 0.091464974 -0.15101236 -0.22653534
0.1171169 -0.2034749 -0.29959592 -0.030045735 0.21642473 0.21309645 -0.43421918 -0.5200995
-0.17015499 0.0053562433 0.22848153 -0.112760425 -0.03129938 0.061707668 -0.94045055 -0.13367197
-0.31745628 -0.22518662 -0.04183584 -0.13306442 0.16615249 -0.03222959 0.0074117933 -0.15817684
0.006411863 -0.1098663 0.0940268 -0.90760016 0.026058506 0.04054928 0.09463327 -0.036948908
-0.108453736 0.13715442 -0.043053035 -0.0025244972 0.118249565 0.15423648 0.2617693 0.064707644
-0.08919889 -0.111169435 -0.137485 -0.23108727 -0.44253284 0.035968427 0.7109705 -0.090449706
0.28645754 -0.073211335 -0.33966175 -0.10903886 -0.13448887 -0.09495836 -0.30752003 0.5330786
-0.038495503 0.24660991 -0.096029274 -0.46050164 -0.020452231 0.16051646 -0.66737443 0.06564734
-0.17191866 -0.5452682 0.10040902 0.027873296 -0.1666973 0.6005429 -0.54771703 -0.05205724
0.02083355 -0.0034633838 -1.0859642 -0.24153727 0.06988694 0.12457217 -0.3753413 0.0039025736
-0.27533245 -0.019288363 -0.49411452 -0.12079197 -0.11649094 -0.060054336 0.026598262 -0.29266357
-0.5339689 -0.036084376 0.16463505 -0.016905034 0.050596446 -0.14196026 -0.17230313 0.085265405
-0.19029944 0.25278142 -0.40286866 0.0050423346 -0.12475867 0.050693914 -0.069808364 -0.03849027
0.03322767 -0.16595834 0.0030689714 -0.28561202 -0.06921242 0.15772831 -0.22673275 -0.174342
0.031565484 -0.28303346 -0.21488707 -0.10022279 0.036802974 0.016237337 -0.07388099 -0.38773525

hidden.2.bias f4 [32]
00000000: 39b1 8cbe 1ec3 f8bc a44b 1abf c83a 863f
00000010: 7c3e 35be cb4d 3b3f d6df 843f 3aa1 5bbe
00000020: 4cf4 64bf fb46 37be 0b80 88be 7e21 e93e
00000030: d2f6 a9be fca1 c7bc ebbd 8f3f a398 47bf
00000040: 716d a6be 253f 1ebf 8c74 1a3f 0886 e23e
00000050: 1460 19bf cd8b fcbe 403b a8bc a885 b8be
00000060: 2a2f 10bd 6d59 a9bd 97a9 5dbd 780b cdbe
00000070: 1f9d 94be 0d84 14be 908f 403f 4c38 8bbe
-0.2747896 -0.030366477 -0.6027167 1.0486689 -0.17699617 0.7316558 1.0380809 -0.21448222
-0.8943527 -0.1789817 -0.2666019 0.45533365 -0.3319612 -0.024369232 1.1229833 -0.7796728
-0.32505372 -0.618151 0.60334086 0.44242883 -0.5991223 -0.4932541 -0.020536065 -0.36039472
-0.03520123 -0.0826901 -0.05411681 -0.40047812 -0.29026124 -0.14503498 0.7521906 -0.2719139

hidden.3.weight f4 [32, 32]
00000000: 0079 a0be a4da 9d3e 4400 fd3c c40b db3c
00000010: 0f1a 1abe dd95 81be 43ef 30be 88f0 deba
00000020: 743f 123e c909 61be 3d62 8fbd a1e0 73bd
00000030: fe51 233d b7f0 0dbe 1245 4ebe 19f2 65be
00000040: 6682 49be a101 49be 841a 043e 4ba1 9cbd
00000050: 6d9d 8dbd d686 1e3c 79e5 1b3e c4c5 a73d
00000060: dce6 c23c 43dc 4c3e cc04 cb3c 600c 86bd
00000070: 5e34 9c3a 5c05 393e 8d1a 21be fc40 2ebd
00000080: e89c d1be e5de 13be 3453 773e 9394 913e
00000090: 124d fbbd 5c0f be3e 7fcc 673f 2ab4 90bd
000000a0: 1350 9dbe b79c 193e 58bf 21be a2ec 67be
000000b0: 50d6 a0bd cf22 6bbf d54f 433f 9bc6 bdbe
000000c0: b0ad 27be 410b f7be a454 da3e e8e3 83bf
000000d0: af5b 5d3e 5a18 483e dc11 cbbe 0729 b63d
000000e0: 9cda c73c 0dae 00be c4fc bc3e 0f5b 073d
000000f0: 764b 02bf 6bfb 5cba 885e 443f e71f 9ebd
00000100: 6b38 9cbe 4732 b6be 8356 563e 2f60 ac3e
00000110: fad0 9bbd a6a6 e13e ab1c 193f 6184 7bbe
00000120: 203f f9be 17a6 6dbe 23e6 543b 51e4 4dbe
00000130: 9349 acbe 36bb 43bd 81f7 133f 17c5 4dbf
00000140: 6c10 e63c 9823 0cbf e5c2 ee3e e5ef 04bf
00000150: 7ec2 c23c 8c10 573d 991a 10be 6be2 163e
00000160: 8f16 823d cf65 84bd e333 da3e 7af1 fa3d
00000170: 4abc 8bbe 9365 6dbd 4041 703f 636b fcbd
00000180: b729 ab3e 74b9 753d 576c 4ebe 0cd9 b0bd
00000190: dc7e 52be 0fe3 943d 6a00 97bf e023 3ebd
000001a0: 118d dfbe 484f ac3d 72b6 c0be 1b3d 863f
000001b0: e83c e6be 96e0 913d 77b3 23be 19c4 ffbd
000001c0: ff49 eabb 7e36 683e ba34 0abe c1c1 abbd
000001d0: c960 2a3e 4815 f1bd 935d b73d 9998 853d
000001e0: 70dd e13d f033 eebd 24dc 75be 2490 96be
000001f0: 10fc 70bd 3897 a8bd c369 50be acda 3ebe
00000200: 6b84 c63e 0091 d33e 378a d8bd bc89 c2be
00000210: d43a 9ebe 7a4c 83be 8698 01bf 5460 72bc
00000220: bfa7 9dbd d147 9e3e 8634 2dbe 4730 003e
00000230: e1e1 a8be 9792 993d f522 103d ec03 f13d
00000240: 2c96 15bf 4092 dbbd 377a edbb 77ba 78be
00000250: 5128 aabd aaa3 36be 1c4d b9bb 095c b03d
00000260: 65c2 e8bd 6707 fd3d d912 273d e6f1 c6be
00000270: 3ccb e53e cd58 71bd f706 8d3c 0f13 36be
00000280: cb4e 24be 8fe9 a93c bd65 20be 69cf 7ebe
00000290: b6a1 463d f120 f6bd b6ed c0bb 987f 8ebd
000002a0: b8db df3c 2256 65bd 8225 ffbd 37df 33bd
000002b0: 3755 4abd 8ae7 edbd 849e 7abd 5053 60be
000002c0: 6ca7 113d f25e 86bd b1ab bf3d 0437 56be
000002d0: 2cc3 3c3d 2c96 8fbe c5ae 0b3e 9041 81be
000002e0: 0f6f 4e3d 3914 81bd 4d61 f8bd 74e0 b6bd
000002f0: 5395 95bd cc41 c83d 23bc 16be 551e 18be
00000300: 420b 6b3e 9c7b 4b3d d7f5 023d 2506 d8bd
00000310: a029 6fbe af31 863b 5157 6fbf d627 0cbe
00000320: ae65 84be 1266 5e3e 45d0 19be 1d84 733f
00000330: c1a7 dbbe 5918 df3c 4b18 30bc 9669 3ebd
00000340: ccb9 d3bd 842d b73c c103 12be d5c5 b73d
00000350: de42 eb3d 954d 40bd 75b9 2abe 532d f0bd
00000360: 8064 643d 1d0c 72bd 5926 94be 32e3 8dbe
00000370: 764d fc3e 7567 66bd a731 6abe d837 a7bd
00000380: 2452 45bd 521f 15be d1cb c7be 20cc 08be
00000390: 235a d13c e15d 5ebe 9be6 1c3e ccda 33be
000003a0: a92b 693c 1af8 bd3d e180 92be 3cc0 31be
000003b0: 5b1b 6fbd f002 b63c 9f6c cf3c 9753 be3d
000003c0: 5b95 063e e645 48be 8ac0 99be 176e 55be
000003d0: d2ad bdbc a8d3 00be 2b8e 71be 2ad5 0abe
000003e0: 2b8b 58be c964 7fbd 94a2 91be da23 1ebe
000003f0: 5765 0abe ae48 f83d 33ab a5bd a4ac aa3c
-0.31342316 0.30830872 0.030883916 0.026739009 -0.15049003 -0.2530965 -0.17278771 -0.001700894
0.14282018 -0.21976389 -0.07001159 -0.059540395 0.039873116 -0.13861357 -0.20143536 -0.22455634
-0.1967865 -0.19629528 0.1290074 -0.07647952 -0.06914792 0.009675702 0.15224256 0.08192018
0.023791723 0.20005898 0.02478256 -0.06545329 0.0011917462 0.1806845 -0.15732785 -0.042542443
-0.40940022 -0.14440496 0.24152833 0.28433666 -0.12270559 0.37121093 0.9054641 -0.070656136
-0.30725154 0.15001188 -0.15795648 -0.22648862 -0.07853377 -0.9184999 0.7629369 -0.37065586
-0.1637485 -0.48250774 0.426427 -1.0303926 0.21617006 0.1954054 -0.39662063 0.08894544
0.024396233 -0.12566395 0.36911595 0.033045825 -0.50896394 -0.0008429798 0.76706743 -0.07720929
-0.30511793 -0.35585234 0.20931439 0.33667132 -0.076082185 0.44072455 0.5980937 -0.24562217
-0.48680973 -0.2320789 0.0032485805 -0.20106627 -0.33649883 -0.04778596 0.57799536 -0.8037886
0.028084002 -0.5474181 0.46633068 -0.5192855 0.023774382 0.052506015 -0.14072646 0.14734809
0.06351959 -0.06464731 0.4261771 0.12253089 -0.2729209 -0.057958197 0.93849564 -0.1232517
0.33430263 0.059991315 -0.20158516 -0.086351484 -0.20556206 0.072698705 -1.1797001 -0.04642093
-0.43662313 0.08413559 -0.37639195 1.0487398 -0.44968343 0.071229145 -0.15986429 -0.124885745
-0.0071499343 0.22677037 -0.13496676 -0.08386565 0.16638483 -0.11771637 0.08953395 0.06523246
0.11028564 -0.11631 -0.24009758 -0.29406846 -0.058834136 -0.08231968 -0.20352845 -0.18638104
0.38772902 0.41321564 -0.105732374 -0.37995708 -0.30904257 -0.25644284 -0.5062336 -0.014793474
-0.07698011 0.30914167 -0.16914567 0.12518416 -0.32984832 0.07498663 0.035189588 0.11768326
-0.5843227 -0.10721254 -0.007247235 -0.2428988 -0.08308471 -0.1783587 -0.005654944 0.08611304
-0.11365203 0.123549275 0.04078946 -0.3885643 0.44881618 -0.058922578 0.017215235 -0.17780708
-0.16045682 0.020741252 -0.1566381 -0.24883808 0.048494063 -0.12018002 -0.0058877124 -0.0695793
0.02732645 -0.055990346 -0.12458326 -0.043914046 -0.049397673 -0.11616428 -0.06118633 -0.21906781
0.035560057 -0.06561078 0.093589194 -0.20919424 0.046084568 -0.2804426 0.13640888 -0.25245333
0.050398882 -0.06302685 -0.12127934 -0.0892953 -0.07303872 0.09778175 -0.14720206 -0.14855321
0.22953513 0.04967843 0.031972732 -0.10548047 -0.23355722 0.004095278 -0.9349261 -0.13687071
-0.25858825 0.21718624 -0.15020855 0.95123464 -0.42901424 0.02723329 -0.010747979 -0.046487413
-0.10338172 0.02236057 -0.14259245 0.0897328 0.11487363 -0.046948988 -0.16672309 -0.11727395
0.055759907 -0.059093583 -0.28935507 -0.277124 0.49277848 -0.056251008 -0.22870503 -0.08164948
-0.04817404 -0.14562729 -0.39022687 -0.13359118 0.025555676 -0.217155 0.15322344 -0.17563933
0.014231601 0.09275837 -0.28613952 -0.17358488 -0.058375698 0.022218198 0.02532035 0.09293287
0.13142912 -0.19557914 -0.30029708 -0.20842777 -0.023154173 -0.1258074 -0.23589389 -0.13557878
-0.21146838 -0.062351976 -0.2844435 -0.15443364 -0.1351522 0.121232376 -0.08089294 0.020834275

hidden.3.bias f4 [32]
00000000: fbaf 80be bedb 753f 7c18 383f 09d7 c53e
00000010: 4a61 b3bd 339b 1fbe cf40 a33e 7f2e 07bf
00000020: 47a2 d5bc a2dc 443f 3ceb 8a3c c245 053f
00000030: 6adf 173f dc3f 933f 3f33 143f 106d 07bf
00000040: d1a9 c0be ad9f fe3e 3262 ac3e d59a bdbc
00000050: e081 c13d 21b4 653f 4008 d6be 9a4e 353e
00000060: e03f 593f bce1 08bf d8d7 a63e a97b 593f
00000070: a472 843e d0d3 453f 8c7a 6abe 8c31 2c3f
-0.25134262 0.96038425 0.7191236 0.3864062 -0.08758791 -0.15586548 0.31885383 -0.5280532
-0.026078356 0.7689916 0.016957872 0.52059567 0.5932528 1.1503863 0.57890695 -0.5290079
-0.3762956 0.49731198 0.33668667 -0.023145119 0.094486 0.8972798 -0.4180317 0.17705765
0.8486309 -0.53469443 0.3258655 0.84954315 0.25868714 0.77276325 -0.2289831 0.672631

hidden.4.weight f4 [32, 32]
00000000: fbec f33c e491 363c a7dc a93d 52f1 1abe
00000010: 679f 1ebe 0cb8 79bd c891 48bd ba23 54be
00000020: 75f6 d13e 2927 21be 8297 863d 77b4 48be
00000030: 64ad b93c f35f 31bd 521d 09be 6561 1bbe
00000040: d27d b3bd ac07 f538 471f 6cbe cc99 11bb
00000050: 8462 08bd 3131 c7bd 619b dabc dc9d 5fbe
00000060: 64ae 9a3c 304d 1a3e 86db d33b 9856 80be
00000070: 93e0 3ebe 04d9 f6bd db18 c7be 7432 91bc
00000080: 1b35 253e 8e39 9f3f 16eb a23f ee27 fbbd
00000090: decd 6d3b f11e b53d 9be4 75be 4a69 35bd
000000a0: b1b3 4abb 9607 403f 3af3 77bd 3208 24be
000000b0: 106e dc3e 30f4 663f 666f a8be e46f cfbd
000000c0: eeff 783d 4786 fb3e bec6 94be 980f 333e
000000d0: 49fe 3fbe e2e3 613f 2cb6 d73d 1b25 71be
000000e0: 74d4 803f 5874 8ebe c980 85bd eec7 4d3f
000000f0: 0d05 8bbe 3fd4 663f ab27 35be 38f7 9e3f
00000100: 1782 9cbd 8ee8 f03c b2ae 223d 0b4e 123e
00000110: 87fc b03d 6c60 e73c 3e55 e13d 40ab 2cbe
00000120: 4f00 4fbf ab3c 76be 9dc0 18be cd08 63be
00000130: ab3d 803d f36c 94be 2027 263e fae2 af3d
00000140: f794 d9bd 5e0a 6e3d 67f6 e53b 7cab 53bd
00000150: eb29 253e 3a9e 05be 33b0 b23b e249 e5bd
00000160: e246 c1bc 65a1 65bb e847 473d f37f 33be
00000170: 893c cd3d d9d4 0bbc 460a 81be 2cee 87be
00000180: c048 4fbc 4d12 01be 4cef a6bd 5f69 97be
00000190: 24bd c7be 653b 9bbc d4e3 a4be 4e17 48be
000001a0: c0c9 be3e 6d71 bcbd 91fc 03be 2b68 5f3f
000001b0: af89 c1be 3090 bdbe 29cd 6abf 8725 ccbe
000001c0: 9f9b 86bd 379c e3be 4cc2 babe 5efe db3c
000001d0: 3768 9bbe 8def e3be 7d79 51be bb24 babe
000001e0: 4143 8bbe 24a9 b6be 485b 1abe fecc b1be
000001f0: 0610 62be 68ed 0fbd 4310 1f3e a8e5 9fbe
00000200: 37f0 803d 0585 34be 3ca3 e9bc 6ddb 8b3c
00000210: 5557 e2bd 21db f83d 50d7 4fbe c2ff 01be
00000220: 7ff7 e4bd 4872 fabd ddd8 ac3d bde2 b0bd
00000230: 3624 efbc 3576 57be 9da0 9dbc bcba 543d
00000240: 0678 fc3d 5441 a4bd ed5e 66bc d208 c23d
00000250: 02dd fe3d f3fe b9bd fef9 fd3b 32df 00bc
00000260: 2a46 2bbe 4ba7 98bd 2143 0cbe 84ce 753d
00000270: 4c50 e0bb 4a3e 14be 2547 95bd 9e9f 7c3d
00000280: a511 db3d e02b 893e 7899 983d 4183 e7be
00000290: d96f 01bd 164d 9ebd a14e d6be d67b 37be
000002a0: 3eb7 80bd 6b3c e7bc 3fe9 a2bc 8f51 12be
000002b0: 32e8 49be 893f 753e 4c4b d93c 0493 a4bc
000002c0: ad30 c33e fece dabd 344a dcbe 2e59 1ebe
000002d0: 7426 99be ca24 043e 028a 973d a903 9bbe
000002e0: 128e ac3e a3c3 2abc 888c 70be a541 fe3d
000002f0: 5553 9fbe 3fa0 003e d03c c6be 5e48 acbd
00000300: a895 573d c599 20be ca9d ffbd 1582 05be
00000310: 9159 80be 5d94 d4bd 1fe0 63be 478d a73c
00000320: 9888 8abe 7fab cbbc 509b 503d 683f 82be
00000330: 3f9b 29be cc80 3e3e 0326 603d 1621 a7bd
00000340: 7b03 893e 28e5 40bd 9771 58be b07a 79bc
00000350: 5a3a 54be 10e7 babe fd52 b6bc db4d d03d
00000360: aae7 ef3b 3516 253e d6dd a5bd ec05 a0bd
00000370: 53db 21be d605 07be 2faa 0d3e e93b 2d3d
00000380: d940 293e 6d23 febd 4ee1 13be d26a bbbd
00000390: 54ae 17bd 05e3 33be edbd ddbd b759 9ebd
000003a0: f14c 24be a822 5c3d 3881 24bd dcd2 013d
000003b0: e4be 2dbe c1fa 95bd f75b c6bd 1d30 88be
000003c0: 3a28 87bd e8bd 4abd f44c 223d fb71 c9bd
000003d0: 3d66 09be c28e 4b3d 709e 123e 802a 1cbe
000003e0: 1695 23bd ab56 113e 5ce7 1dbe e0cd f9bc
000003f0: 0a07 d6bd 39be 53bd b63a ac3d 03b9 1d3e
0.029776087 0.0111431815 0.08294039 -0.15131119 -0.15490495 -0.060966536 -0.048967153 -0.20716754
0.41008344 -0.15737595 0.065718666 -0.19600092 0.022665687 -0.043304395 -0.13390091 -0.15173872
-0.08764233 0.000116839394 -0.23058806 -0.0022216914 -0.033297077 -0.097261794 -0.026685419 -0.21837562
0.018881984 0.15068507 0.006465378 -0.25066066 -0.18640356 -0.12053111 -0.3888615 -0.017724253
0.1613354 1.2439439 1.2727993 -0.12263475 0.0036286036 0.08843792 -0.24012987 -0.044289865
-0.0030929858 0.75011575 -0.060534693 -0.16018751 0.4305272 0.9021635 -0.3289749 -0.10128763
0.06079095 0.49125883 -0.29057878 0.17486417 -0.18749346 0.88238347 0.105327934 -0.23549311
1.0064836 -0.27823138 -0.065187044 0.80383193 -0.2715229 0.9016761 -0.17690913 1.2419195
-0.07642 0.029407766 0.039717384 0.14287584 0.08641916 0.02824422 0.11002587 -0.16862202
-0.80859846 -0.2404658 -0.14917226 -0.22171326 0.06261762 -0.28989372 0.16225863 0.08588214
-0.10624116 0.058115356 0.007017899 -0.051677212 0.16129272 -0.1304864 0.0054531335 -0.11195733
-0.02359337 -0.0035038826 0.04865256 -0.17529278 0.10021312 -0.008534634 -0.2520315 -0.26548898
-0.012651622 -0.12604637 -0.08151111 -0.2957258 -0.3901149 -0.01894922 -0.3220507 -0.1954014
0.37263298 -0.09201322 -0.12889315 0.8726832 -0.37800357 -0.3702407 -0.917193 -0.3987238
-0.06572651 -0.4445512 -0.36476362 0.02685469 -0.30352947 -0.445187 -0.204565 -0.36356148
-0.27199748 -0.3567592 -0.15073884 -0.3472671 -0.22076425 -0.035138518 0.15533547 -0.312299
0.06295817 -0.17628868 -0.028520219 0.017072404 -0.110518135 0.121511705 -0.20296979 -0.1269522
-0.11180019 -0.12228829 0.08439801 -0.08636997 -0.029192071 -0.21041186 -0.019241625 0.051935896
0.1232758 -0.08020273 -0.014060718 0.094743386 0.12444498 -0.09081831 0.0077507487 -0.007865714
-0.16725984 -0.074537836 -0.13697483 0.0600114 -0.0068455096 -0.14476886 -0.0728896 0.06167566
0.10696725 0.26791286 0.07451147 -0.45217326 -0.031600807 -0.07729547 -0.41856864 -0.17918333
-0.06284951 -0.028227052 -0.019886611 -0.14288925 -0.19717482 0.23950018 0.026525162 -0.020089634
0.38123074 -0.10684012 -0.43025362 -0.15463707 -0.2991215 0.12904659 0.0739937 -0.3027623
0.3370214 -0.01042262 -0.23491108 0.124148645 -0.31118265 0.12561129 -0.3871827 -0.084122404
0.052632958 -0.15683658 -0.12481268 -0.13037904 -0.25068334 -0.103798606 -0.22253464 0.020453108
-0.27057338 -0.02486205 0.050929368 -0.25439 -0.16563128 0.1860382 0.05472375 -0.081606075
0.26760468 -0.04709354 -0.21137081 -0.015227005 -0.20725384 -0.36504412 -0.022256369 0.101711
0.0073213177 0.16121753 -0.080989525 -0.078136295 -0.15806322 -0.1318582 0.13834451 0.042293463
0.16528644 -0.12409101 -0.14441416 -0.09151234 -0.037031487 -0.1756707 -0.10827241 -0.077319555
-0.16044976 0.05374399 -0.040162295 0.03169523 -0.1696735 -0.07323218 -0.0968551 -0.26599208
-0.065994695 -0.049497515 0.03962417 -0.09836193 -0.13417907 0.04969669 0.14318252 -0.15250587
-0.0399371 0.14193217 -0.15420288 -0.030493677 -0.10450561 -0.051695082 0.08409636 0.15402608

hidden.4.bias f4 [32]
00000000: 5ece 7c3a 95b9 e43f e10d 483f 8994 e4be
00000010: b10e 3abe 44aa fc3f c84c 1fbd 4cab 38be
00000020: d599 1b3e cad7 c83d 95d3 b23d 02b5 e9bd
00000030: 37cd 51be b287 99be 7e5d 92bd 526a 83be
00000040: cd8c b8be b5c1 5abe 56af 7b3f ca6d a03e
00000050: 2020 62be 15ea 46be b1a9 dc3d 6cf6 e03e
00000060: 0167 023e a5bf 42bd b689 393e 0635 fe3e
00000070: 7ceb 6f3d aee1 07bf 32d9 a03c 5327 2e3d
0.0009643788 1.7869135 0.7814618 -0.44644573 -0.18169667 1.9739461 -0.038891584 -0.18034095
0.15195401 0.098067835 0.08731762 -0.114114776 -0.2048844 -0.2998634 -0.071467385 -0.25667053
-0.36044922 -0.21362956 0.98314416 0.31333762 -0.22082567 -0.19425233 0.107745536 0.43938005
0.12734605 -0.047546048 0.18118939 0.4964983 0.058574185 -0.53078735 0.019634817 0.04251797

out_layer.weight f4 [1, 32]
00000000: fb7c 3e3d 34be 5d3f 6cc6 73bd e583 43bc
00000010: 5a98 f43c 945c 0e3e 5483 c4bd ba64 dabc
00000020: 9a64 80bd 601b 173a 2fd1 fa3e 258f 233c
00000030: 6fb5 713d 0f44 30bd 0b5e dbbd 2e41 f6bd
00000040: fb89 7cbc 83e5 1c3c 2a06 81bf 1245 e23c
00000050: 39e9 e7be 7c8d 8d3c 943d 23bd e90b 26bd
00000060: 59ab 423c 7a90 01be d6c6 62bc d592 acbc
00000070: 272c 03bd a8e8 67bd 8fe5 013d ee20 aabd
0.04650591 0.8661835 -0.0595154 -0.011933302 0.029857803 0.13902503 -0.09595361 -0.026659358
-0.06269188 0.0005764272 0.4898772 0.009982859 0.05901092 -0.043033656 -0.10711297 -0.12024151
-0.0154137565 0.009576204 -1.0080006 0.027620826 -0.45295122 0.01727938 -0.039853647 -0.040538702
0.011881673 -0.1265277 -0.0138413515 -0.021066109 -0.03202453 -0.056618363 0.031713065 -0.08307062
