models/30Improve.pt (torch_old, 54633 bytes, 23 tensors)

in_layer.weight f4 [32, 68]
0	0xbde0f648	-0.109844744
1	0xbd75e24d	-0.06003027
2	0xbdb75b2b	-0.08952936
3	0xbd06d480	-0.0329175
4	0xbd7a3f3a	-0.061095454
5	0xbd9ab1a6	-0.07553415
6	0xbdaac752	-0.083387986
7	0x3d81239c	0.0630562
8	0xbdf51e8d	-0.11968718
9	0x3c2a3538	0.010388665
10	0x3d8d816c	0.06909451
11	0xbc964ff1	-0.018348666
12	0x3d30e05c	0.043182716
13	0xbd3dadde	-0.04630839
14	0x3da95b0e	0.082693204
15	0xbd6fd12a	-0.058549084
16	0x3c88b1ab	0.016686281
17	0x3cc6dd40	0.024275422
18	0xbdab7859	-0.08372564
19	0xbd93a7d0	-0.07209742
20	0x3d97fef1	0.07421673
21	0x3ada1e00	0.0016641021
22	0x3d88ccb9	0.06679673
23	0xbdad535e	-0.08463167
24	0x3cc24958	0.023716614
25	0x3d0e2771	0.034705583
26	0x3dc512b4	0.09622708
27	0x3dab489f	0.08363461
28	0xbc7c7b20	-0.015410215
29	0xbad09d73	-0.0015916064
30	0x3dbd6dc6	0.09249453
31	0x3d8a8a11	0.06764615
32	0x3dac9df0	0.08428562
33	0xbd97093c	-0.07374808
34	0x3d863d91	0.065547116
35	0xbb9a1680	-0.0047023892
36	0xbcea9dbc	-0.028639667
37	0x3dd8db7c	0.10588738
38	0x3de98483	0.11402228
39	0xbdaf6aa1	-0.0856526
40	0xbde3dfdf	-0.111266844
41	0x3d40d350	0.047076523
42	0x3cd7d830	0.026348203
43	0xbd591938	-0.053002566
44	0xbd86a60e	-0.06574641
45	0x3e0c7880	0.13717842
46	0x3d62cafc	0.055369362
47	0x3dbe39dd	0.0928838
48	0x3d635a34	0.055505946
49	0xbd8f1b5c	-0.0698764
50	0xbceabceb	-0.028654536
51	0xbd85560c	-0.06510553
52	0x3e015c7c	0.12632936
53	0x3d69beb8	0.05706665
54	0x3df5b93e	0.11998223
55	0x3dddc33c	0.108282536
56	0x3ddb6dee	0.10714327
57	0x3d266e01	0.04063225
58	0x3c4765e0	0.012170285
59	0x3d5a7954	0.053338364
60	0xbd94b11e	-0.07260345
61	0x3d9fc544	0.07801297
62	0x3c4256e0	0.011861533
63	0x3d16aaf5	0.03678413
64	0x3e1239c7	0.14279853
65	0xbbc12c0d	-0.005895144
66	0x3db47ca0	0.08812833
67	0x3c000ee9	0.007816055
68	0x3db99d70	0.09063232
69	0x3d9d09ac	0.076678604
70	0x3dc37fdb	0.09545871
71	0xbdd18377	-0.10230153
72	0xbd85f84d	-0.065415
73	0x3d5bec14	0.05369194
74	0x3de4e405	0.11176304
75	0x3de62c16	0.112388775
76	0x3d559a6c	0.05214922
77	0x3ddcce2c	0.10781512
78	0xbdc71a8d	-0.09721861
79	0xbad1b456	-0.0015999179
80	0xbddda029	-0.10821564
81	0xbd49794c	-0.049187943
82	0xbd4251f8	-0.047441453
83	0xbd2fbc46	-0.04290416
84	0x3df66887	0.12031656
85	0x3dd61f24	0.10455158
86	0xbc78e8ed	-0.015192253
87	0xbd85d47a	-0.06534667
88	0x3de78f5a	0.11306639
89	0x3d87ead8	0.0663659
90	0x3e05f981	0.1308346
91	0x3df50d10	0.11965382
92	0x3ddb349e	0.10703395
93	0x3d9ad2d8	0.075597465
94	0xbdc2c532	-0.09510268
95	0xbd9f66ab	-0.07783254
96	0xbc3f38b8	-0.011671238
97	0x3d9f5336	0.07779543
98	0xbc5c42f0	-0.0134436935
99	0xbd0d6d3c	-0.034528002
100	0x3d812761	0.06306339
101	0xbc8e94bc	-0.017404906
102	0xbd4f0796	-0.050544344
103	0x3b5d6660	0.0033782944
104	0xbd1ab72a	-0.037772335
105	0x3c280400	0.01025486
106	0x3e0d67c6	0.13809118
107	0xbdb37085	-0.08761696
108	0x3de97ca6	0.11400728
109	0xbd9cf542	-0.07663967
110	0xba75bf00	-0.00093744695
111	0xbdf41a15	-0.11919037
112	0xbc09f130	-0.00841932
113	0x3d1a57be	0.037681334
114	0x3bbe5860	0.005808875
115	0x3c8fa7f1	0.017536135
116	0xbdce2993	-0.100665234
117	0x3d8383dc	0.064216346
118	0xbd3a0f66	-0.04542484
119	0x3d270c5c	0.04078327
120	0xbcd6e2ce	-0.026231196
121	0xbd7b2363	-0.061313044
122	0x3b497373	0.003073898
123	0x3d827672	0.06370248
124	0xbced6908	-0.028980747
125	0x3d0c7fa6	0.034301423
126	0xbdd15daa	-0.10222943
127	0x3dec7b28	0.11546928
128	0x3dc66e4c	0.09689006
129	0xbdd3a9b1	-0.103351004
130	0xbdbecd1b	-0.093164645
131	0xbe2888fa	-0.16458502
132	0xbc0cfb4b	-0.008604835
133	0x3d2028e0	0.03910148
134	0x3e1eb246	0.15497693
135	0x3da50df2	0.080593005
136	0x3dc4b947	0.09605651
137	0x3d86e61c	0.06586859
138	0x3de102e4	0.109868795
139	0xbd955822	-0.072922006
140	0xbcd3d1e6	-0.025856923
141	0x3dda5b6e	0.1066197
142	0xbd3aad37	-0.045575347
143	0x3dbd1d32	0.09234084
144	0x3d864774	0.06556597
145	0xbdaeb405	-0.0853043
146	0x3d727358	0.05919203
147	0x3db185c9	0.086680956
148	0xbd99cbe4	-0.07509592
149	0x3db2392e	0.087023124
150	0xbdd6f844	-0.10496572
151	0x3d962fe2	0.07333352
152	0x3d9e0ecd	0.07717667
153	0x3d0bfa94	0.034174517
154	0x3e0424bd	0.1290464
155	0x3d2ed5c0	0.042684317
156	0x3daa8bdd	0.08327458
157	0xbd406074	-0.046966985
158	0x3dd90681	0.10596944
159	0xbdf82611	-0.121166356
160	0xbcabdda0	-0.020979702
161	0xbdbd17bc	-0.092330426
162	0x3cb6dfa8	0.022323444
163	0xbdab4b73	-0.08364
164	0x3ddda646	0.1082273
165	0xbca9b27b	-0.020714989
166	0xbde3e7d5	-0.11128203
167	0x3e13e576	0.14443001
168	0xbcbbec61	-0.022939863
169	0xbd0fd468	-0.035114676
170	0x3dc0b2ad	0.0940908
171	0x3dd1207e	0.102112755
172	0xbdaeffe9	-0.08544905
173	0xbd89565e	-0.06705926
174	0x3c461e02	0.012092115
175	0xbd4192ec	-0.047259256
176	0xbcc97a5c	-0.024594478
177	0x3c5038bb	0.012708838
178	0xbcfbf388	-0.030755773
179	0x3d963386	0.07334046
180	0x3d974bde	0.073875174
181	0xbdf8f3d2	-0.1215588
182	0x3d6eae58	0.058271736
183	0x3d0cb8f8	0.034356087
184	0xbdbad3a5	-0.09122399
185	0xbdb1af0a	-0.08675964
186	0xbd0fb673	-0.035086107
187	0xbcc79ecc	-0.024367712
188	0xbd373e38	-0.04473707
189	0x3d5c67d0	0.05380994
190	0xbd804319	-0.06262798
191	0xb99ac100	-0.00029516965
192	0xbd8eaf29	-0.06967003
193	0x3d9eba39	0.07750363
194	0x3d183160	0.037156463
195	0x3dfbfe41	0.123043545
196	0xbc59ddb0	-0.013297483
197	0x3c79bd3d	0.015242872
198	0xbd9ef9ce	-0.0776249
199	0xbe1de678	-0.15419948
200	0x3dad2b76	0.08455555
201	0xbcc70c6d	-0.024297917
202	0xbce9ff5a	-0.028564144
203	0x3d4f633d	0.05063175
204	0xbddc29fd	-0.10750196
205	0xbca67a7c	-0.020322077
206	0xbdeb8193	-0.11499324
207	0x3c5d97c0	0.01352495
208	0xbdb9f070	-0.09079063
209	0x3da9ee22	0.08297373
210	0xbd262da5	-0.040570874
211	0xbdb6a32d	-0.08917842
212	0xbc859548	-0.016306534
213	0xbd656644	-0.05600573
214	0xbdb375aa	-0.08762677
215	0xbcf21ee9	-0.029555755
216	0xbdd19976	-0.102343485
217	0xbd9ca484	-0.07648566
218	0xbdcf8254	-0.1013228
219	0xbd607bae	-0.05480545
220	0xbd1b89a8	-0.037973076
221	0x3ddc6842	0.10762073
222	0x3d9f683c	0.07783553
223	0x3dceccc4	0.1009765
224	0x3e09c0c3	0.13452439
225	0xbd85371e	-0.065046534
226	0x3da0a355	0.07843653
227	0xbd8629fc	-0.06550977
228	0xbdcfc41c	-0.10144827
229	0x3ccfd65c	0.02537077
230	0xbc443aa8	-0.011976875
231	0xbcb37184	-0.021904714
232	0x3c926ad8	0.017873213
233	0x3da1bc25	0.07897214
234	0xbd94e948	-0.07271057
235	0x3d5b1a10	0.053491652
236	0x3d79be36	0.060972415
237	0x3b421840	0.0029616505
238	0x3d36a99d	0.04459535
239	0xbc0066d8	-0.00783702
240	0x3d5d9dd2	0.054105587
241	0xbdc211a8	-0.09476024
242	0x3e22bd2d	0.15892477
243	0x3cefd238	0.029275045
244	0x3dbbb93e	0.091661915
245	0x3db640b5	0.08899061
246	0x3cdfe838	0.02733241
247	0x3e2dd492	0.1697562
248	0xbd3c78cc	-0.04601364
249	0x3e0c046e	0.13673565
250	0xbc5daec8	-0.013530441
251	0x3dc40bbc	0.09572551
252	0xbc1004b5	-0.008790185
253	0x3d821802	0.063522354
254	0x3e0f59f3	0.13999157
255	0x3d5e9224	0.05433859

in_layer.bias f4 [32]
0	0xbd3d8e47	-0.046278264
1	0x3df5d0d9	0.12002725
2	0x3d8b06b1	0.06788386
3	0xbc569b62	-0.01309857
4	0x3d3cf97e	0.04613637
5	0xbd52a70b	-0.051428836
6	0x3cbac064	0.022796817
7	0x3c38a545	0.011269872
8	0x3da2a19d	0.079409815
9	0x3d1a6e40	0.0377028
10	0xbdb33404	-0.087501556
11	0xbd065903	-0.032799732
12	0xbd86f574	-0.06589785
13	0x3bc5daf9	0.0060380665
14	0x3ddd14a2	0.10794951
15	0x3e2a301d	0.16619916
16	0x3dd71a02	0.105030075
17	0x3e1e9035	0.15484698
18	0x3c39a6b2	0.011331247
19	0x3ca27683	0.019831901
20	0xbb6a8347	-0.0035783814
21	0xbd8ea923	-0.06965854
22	0x3c50fff4	0.0127563365
23	0xbca16875	-0.01970313
24	0xbcc13994	-0.023587026
25	0xbce7464f	-0.028231768
26	0x3d9d9038	0.07693523
27	0x3e1f5298	0.15558851
28	0xbd125e8d	-0.035734702
29	0x3c493e5f	0.012282937
30	0xbda535a2	-0.0806687
31	0xbd626fba	-0.055282332

hidden.0.weight f4 [32, 32]
0	0x3cdb01ba	0.026734222
1	0xbd8eb4a8	-0.06968051
2	0x3dfd5493	0.12369647
3	0xbe1bf8f4	-0.15231687
4	0x3dd706c4	0.10499337
5	0x3e1959c8	0.14975655
6	0x3d5b588c	0.05355124
7	0x3ce80a33	0.028325176
8	0xbddfbe59	-0.10924978
9	0x3e3981c0	0.18115902
10	0x3cf6892b	0.030094704
11	0x3e066179	0.1312312
12	0xbce56d4a	-0.028006215
13	0xbdb6f321	-0.08933092
14	0xbc88102a	-0.01660927
15	0xbd561299	-0.05226383
16	0x3df60bcc	0.12013969
17	0x3e1b77a0	0.15182352
18	0xbd398dc2	-0.045301206
19	0xbd6ab62c	-0.05730264
20	0x3da685cd	0.08130989
21	0xbcc3e543	-0.023913031
22	0xbe07f37a	-0.13276473
23	0xbd22a355	-0.039706547
24	0xbcd1b6e2	-0.0255999
25	0xbe1ddf6c	-0.1541726
26	0xbbca37f6	-0.006171222
27	0xbe1c0063	-0.15234523
28	0x3db795d7	0.089641266
29	0xbdc03c3e	-0.0938649
30	0x3c8efb7f	0.017453907
31	0x3d5a664a	0.053320207
32	0x3e49c72c	0.19704884
33	0x3e317c2e	0.17332527
34	0xbe1e3bba	-0.15452471
35	0x3c457673	0.012052166
36	0xbdc1eec4	-0.09469369
37	0x3df307dc	0.118667334
38	0xbe2b0a4c	-0.16703147
39	0x3df0f4fe	0.117654786
40	0x3e00939e	0.12556311
41	0xbdde1045	-0.10842947
42	0x3dc1ed9b	0.09469148
43	0xbd7805fd	-0.060552586
44	0xbc42e0ed	-0.011894447
45	0x3c90c762	0.017673198
46	0x3ddd09be	0.10792874
47	0x3dc2816a	0.0949734
48	0x3bc21db5	0.0059239515
49	0x3d265c53	0.04061539
50	0x3d5256a0	0.051352143
51	0xbdc40062	-0.095703855
52	0xbe1d60cd	-0.15368958
53	0x3dcc7d4e	0.099848375
54	0xbe2646b6	-0.16237912
55	0xbe620418	-0.22071874
56	0x3e34987a	0.1763629
57	0xbda3079f	-0.07960438
58	0xbc9569fb	-0.018239012
59	0x3cbdfad4	0.023190893
60	0x3da1dd57	0.07903545
61	0x3e0616db	0.13094656
62	0xbe3c9a0d	-0.1841814
63	0xbd8cd313	-0.06876197
64	0xbd99b51e	-0.075052485
65	0x3df4288c	0.11921796
66	0xbe27074b	-0.16311376
67	0xbe0a9f6f	-0.13537382
68	0xbe089458	-0.13337839
69	0xbd083ed5	-0.033263046
70	0xbc7c5219	-0.015400433
71	0xbe0cb0d8	-0.13739336
72	0xbe3d4b65	-0.18485792
73	0xbd3c0619	-0.045904253
74	0xbdaca34e	-0.084295854
75	0x3d420108	0.047364265
76	0x3d2e73a2	0.042590745
77	0xbe37f125	-0.17963083
78	0xbc918255	-0.017762342
79	0x3df70ade	0.120626196
80	0xbd37a535	-0.044835288
81	0xbdc19bcb	-0.09453543
82	0xbdb04785	-0.08607391
83	0x3e0b738f	0.13618301
84	0xbd4b3b4c	-0.049617097
85	0xbe29e6d2	-0.16591957
86	0x3d2267c9	0.03964976
87	0x3c3adc95	0.01140513
88	0xbd834ced	-0.06411157
89	0xbe2e0ab3	-0.16996269
90	0xbdcd9d10	-0.10039723
91	0x3d170279	0.036867592
92	0xbe5f5129	-0.21808304
93	0xbd4ad10d	-0.049515773
94	0xbd13ac9b	-0.03605328
95	0xbc1f58af	-0.009725734
96	0xbe00d331	-0.12580563
97	0x3df64526	0.12024908
98	0x3dbf7e6b	0.09350284
99	0x3d5f6836	0.054542743
100	0x3cd2500d	0.025672937
101	0x3c372381	0.011177898
102	0xbd8cc754	-0.06873956
103	0xbbad4d95	-0.0052887895
104	0x3cd57a2c	0.026059233
105	0xbe05846f	-0.130388
106	0x3d4236c9	0.04741553
107	0x3dd3e66f	0.10346686
108	0x3d8b9a44	0.06816533
109	0xbde2d4b3	-0.110757254
110	0xbb806c17	-0.0039191353
111	0xbcdd4bbc	-0.027013652
112	0x3d84c332	0.06482543
113	0x3df174c1	0.11789847
114	0xbde20094	-0.110352665
115	0xbe1b9cb6	-0.15196499
116	0xbcb10870	-0.021610469
117	0xbd7d6cc1	-0.061871294
118	0xbd6a40aa	-0.057190575
119	0x3d41e2ee	0.047335558
120	0xbd956cfb	-0.07296177
121	0x3dfb4ddd	0.122707106
122	0xbcefe96c	-0.029286109
123	0xbda80e37	-0.08205836
124	0x3d9b484f	0.07582151
125	0x3e2eef6e	0.17083523
126	0x3d928c6f	0.07155692
127	0x3e04ee1d	0.12981458
128	0x3d7f4eb0	0.0623309
129	0x3d8c8bb5	0.068625845
130	0x3dcee55e	0.10102342
131	0x3d7307a8	0.059333473
132	0xbd964b38	-0.073385656
133	0xbd9b0836	-0.075699255
134	0xbdf51e47	-0.119686656
135	0xbd06d010	-0.032913268
136	0x3e10ebf5	0.1415251
137	0x3e1777d1	0.147918
138	0x3d11f561	0.035634402
139	0xbd6e5d38	-0.05819437
140	0x3bbb0165	0.0057069534
141	0x3bd3f05a	0.006467861
142	0x3db556d7	0.08854454
143	0x3d572fb3	0.052535724
144	0x3c9f20b1	0.019424768
145	0xbcf836d6	-0.030299585
146	0xbdcbae38	-0.09945339
147	0x3d9604bd	0.073251225
148	0xbb5103d5	-0.0031893153
149	0x3d397340	0.045275927
150	0xbd3e0f62	-0.04640139
151	0xbdaef463	-0.08542707
152	0x3e3173f8	0.17329395
153	0xbe11267a	-0.14174834
154	0xbd81abc8	-0.06331593
155	0x3c0eabc3	0.008707943
156	0x3e0c56af	0.13704942
157	0xbe1d7b34	-0.1537903
158	0xbd65fc79	-0.05614898
159	0x3dbb3ba2	0.091422334
160	0x3dd42f8b	0.103606306
161	0xbe0762f1	-0.13221337
162	0xbd7f99fa	-0.062402703
163	0xbcaaeddd	-0.020865375
164	0x3da8a71c	0.082349986
165	0xbd8d198d	-0.06889639
166	0x3d8fcadf	0.070211165
167	0xbd0008be	-0.031258337
168	0xbc612da9	-0.013743796
169	0xbd8b8178	-0.068118036
170	0x3e12545b	0.14289992
171	0xbe09c560	-0.13454199
172	0x3d91b982	0.07115461
173	0xbdf1a970	-0.11799896
174	0xbd2e70d5	-0.042588074
175	0xbdffc22f	-0.124882095
176	0xbe298e89	-0.16558279
177	0x3e436ba8	0.19084036
178	0xbd86aa45	-0.06575445
179	0x3e3d32b3	0.18476371
180	0xbde4e183	-0.111758254
181	0x3dcf551d	0.10123656
182	0xbd39bcb4	-0.045345977
183	0x3c661dbd	0.014045176
184	0xbdc2cdf1	-0.095119365
185	0xbe2d4530	-0.16920924
186	0x3dc5bf9d	0.09655688
187	0x3dd77ea1	0.105221994
188	0x3d2dd9fd	0.042444218
189	0x3db0e2d2	0.086370125
190	0x3d970c6f	0.073754184
191	0x3e11104d	0.14166375
192	0x3dca50f1	0.098787196
193	0x3df9f67d	0.12205217
194	0x3c76edb1	0.0150713185
195	0xbdcac528	-0.09900886
196	0xbde214eb	-0.11039146
197	0xbe01645c	-0.1263594
198	0xbd157f4c	-0.036498353
199	0x3db8de0e	0.090267286
200	0xbc85bb16	-0.016324561
201	0x3e45be4b	0.19310872
202	0x3dce18dc	0.10063335
203	0x3d81e6e0	0.06342864
204	0x3d956068	0.07293779
205	0xbe30e805	-0.17276008
206	0xbd401b49	-0.04690102
207	0x3d2f00ac	0.04272525
208	0xbbcdc63b	-0.0062797344
209	0x3d8ebb7a	0.06969352
210	0x3e2c43d8	0.16822755
211	0x3c876f7b	0.01653265
212	0xbcbe84bb	-0.02325665
213	0xbcb95be6	-0.022626828
214	0x3d30cb55	0.043162663
215	0xbcc3e39f	-0.02391225
216	0x3e28c3f5	0.16481002
217	0xbd4b16db	-0.049582344
218	0x3e0f9397	0.14021145
219	0xbdf9e19a	-0.12201233
220	0xbd33ebab	-0.043925922
221	0x3e1ffeb9	0.15624513
222	0x3e2ebf99	0.17065276
223	0x3dd906a2	0.10596968
224	0xbe07af11	-0.13250376
225	0xbd14219e	-0.036164872
226	0xbe02cf83	-0.12774472
227	0x3e18b0e2	0.14911225
228	0x3d458e01	0.04823113
229	0xbe287b11	-0.16453196
230	0x3d1920c5	0.037384767
231	0x3d1e452b	0.038640182
232	0xbd9620ab	-0.0733045
233	0xbc5178db	-0.012785162
234	0x3d982e3e	0.07430695
235	0xbda2daf8	-0.07951921
236	0x3e002249	0.12513079
237	0x3d23810f	0.039918
238	0x3bf41cc2	0.0074497173
239	0xbd3b3409	-0.04570392
240	0xbdf1ebc1	-0.118125446
241	0xbe283bbb	-0.16429035
242	0xbd178b03	-0.036997806
243	0xbdfdd4c7	-0.123941
244	0xbe13ca6e	-0.1443269
245	0xbdd80f1b	-0.10549756
246	0xbe1d68f8	-0.15372074
247	0xbe098809	-0.134308
248	0xbde8ecc4	-0.113732845
249	0x3dfcb6fb	0.12339588
250	0xbd5c5d9d	-0.053800214
251	0x3db46c47	0.08809715
252	0xbd0dd483	-0.034626495
253	0xbd9213bc	-0.0713267
254	0x3dc0949a	0.094033435
255	0x3e0b826f	0.13623975

hidden.0.bias f4 [32]
0	0x3d0aec70	0.03391689
1	0xbced4f88	-0.028968588
2	0x3bf0aab7	0.0073445695
3	0xbdb55d3a	-0.08855672
4	0xbe15e839	-0.14639367
5	0xbe00a002	-0.12561038
6	0x3d16f7b9	0.03685734
7	0xbd3e40b2	-0.046448417
8	0x3c772a2f	0.015085741
9	0xbe2d8f61	-0.16949226
10	0xbe2d9cb1	-0.16954304
11	0x3d64738a	0.05577425
12	0x3cc3a4c8	0.023882285
13	0x3dab91d6	0.083774254
14	0xbbf0a330	-0.007343672
15	0x3bcf306d	0.0063229115
16	0xbe251bdb	-0.16123907
17	0xbe2f07b2	-0.1709278
18	0xbcac48fb	-0.021030894
19	0xbcd318b2	-0.025768612
20	0xbdbc8422	-0.0920489
21	0x3d330a8f	0.04371124
22	0x3e0cb077	0.13739191
23	0x3dde11ca	0.10843237
24	0x3e4b5ccd	0.1985962
25	0xbe1d16ac	-0.1534068
26	0xbd1bc75c	-0.03803192
27	0x3e1c826b	0.15284126
28	0x3d9681e2	0.07348992
29	0xbd081f43	-0.03323294
30	0xbe16c60a	-0.14723983
31	0xbd3afee2	-0.04565323

hidden.1.weight f4 [32, 32]
0	0x3e0e2950	0.13882947
1	0x3d9c4463	0.07630231
2	0x3d7bb64e	0.061453156
3	0x3e2ca939	0.16861428
4	0x3ccf1140	0.02527678
5	0xbd07b2da	-0.03312955
6	0x3d9d122a	0.0766948
7	0x3bb92109	0.00564969
8	0xbe2f8a57	-0.17142616
9	0x3d10ad01	0.03532124
10	0x3c93e075	0.018051365
11	0x3e4b286d	0.1983964
12	0x3e1463bf	0.14491175
13	0x3d1aec77	0.037823167
14	0x3e09a07f	0.1344013
15	0x3d71f6e0	0.05907333
16	0x3e16f9bd	0.14743705
17	0x3d5463ab	0.051852863
18	0x3b83c18d	0.004020876
19	0xbe11c209	-0.14234175
20	0xbe377203	-0.17914586
21	0x3dd2804d	0.10278378
22	0x3b924e6e	0.004464916
23	0xbc70d157	-0.014698348
24	0xbca761ee	-0.020432439
25	0xbe283d19	-0.16429557
26	0xbd28e481	-0.041233543
27	0x3dac1d6a	0.08404048
28	0x3e72bb6e	0.23704311
29	0x3d5418a6	0.05178132
30	0xbdecf15b	-0.115694724
31	0x3d4bb450	0.049732506
32	0xbe3a143c	-0.18171781
33	0x3e66aab9	0.22526063
34	0xbe09440a	-0.13404861
35	0x3c20148b	0.009770523
36	0xbd5d3e47	-0.05401447
37	0xbdcdaf7b	-0.10043236
38	0x3e1b6536	0.15175328
39	0xbcac6a5b	-0.021046808
40	0xbdc94e74	-0.09829417
41	0xbd5e6958	-0.054299682
42	0xbe42d78e	-0.1902754
43	0x3e2f2791	0.17104937
44	0x3e3fdb18	0.18735921
45	0xbd430001	-0.047607426
46	0x3e0e5228	0.13898528
47	0xbcc37541	-0.023859622
48	0x3d79cf7f	0.0609889
49	0xbd09a9b5	-0.03360911
50	0x3d879379	0.06619925
51	0x3e2e3cb1	0.1701534
52	0x3e0ec375	0.13941748
53	0xbde6f00a	-0.112762526
54	0x3df57b6f	0.11986434
55	0xbd5bda4f	-0.053674992
56	0xbe0a169b	-0.13485186
57	0x3d802485	0.062569655
58	0x3dc95a97	0.09831732
59	0x3dcb8db2	0.099391356
60	0xbd54aeeb	-0.051924627
61	0xbd985015	-0.074371494
62	0x3deae8ad	0.11470161
63	0xbd37fe4f	-0.044920262
64	0xbe0801a7	-0.1328188
65	0xbd9ac412	-0.07556929
66	0xbe154086	-0.14575395
67	0xbe21621c	-0.15760082
68	0xbe1a94fb	-0.15095894
69	0xbd9ae73d	-0.075636365
70	0x3e34ac4f	0.17643856
71	0xbbfd9074	-0.0077381674
72	0xbda7d976	-0.08195774
73	0x3e19c2a2	0.15015653
74	0x3dc5244a	0.09626062
75	0xbe44ddce	-0.19225237
76	0x3ba6f21c	0.0050947797
77	0x3df123b1	0.11774386
78	0xbdfc6737	-0.12324374
79	0xbc8f3bfb	-0.017484656
80	0xbe23186d	-0.15927286
81	0x3e052223	0.13001303
82	0xbd811d4f	-0.06304418
83	0x3e111579	0.14168347
84	0x3dce8de2	0.10085656
85	0xbd92fdb7	-0.071772985
86	0xbdef72d2	-0.11691822
87	0x3e389de3	0.18028979
88	0x3d6e99de	0.058252208
89	0xbd7f8c66	-0.062389754
90	0xbd946462	-0.07245709
91	0x3bda9df7	0.006671663
92	0xbd651248	-0.055925637
93	0x3d8b9e74	0.06817332
94	0xbd9ade6d	-0.075619556
95	0xbcc2aaa4	-0.023763008
96	0xbce0d973	-0.027447438
97	0xbdf69d14	-0.12041679
98	0xbcc545d1	-0.024081143
99	0x3d24aaff	0.040202137
100	0x3d8f4f70	0.069975734
101	0xbdd7d1d0	-0.105380654
102	0x3e1710b6	0.14752468
103	0xbd45c025	-0.048278946
104	0xbdc84ea4	-0.097806245
105	0x3c7fce35	0.015613128
106	0x3dd591ac	0.10428175
107	0xbe017d35	-0.12645419
108	0x3e1186b7	0.14211546
109	0xbc52926a	-0.012852291
110	0xbdbbfcd1	-0.0917908
111	0x3d60399d	0.054742444
112	0x3c50299e	0.012705235
113	0xbc93d53f	-0.01804602
114	0x3e179efe	0.14806744
115	0x3e500b61	0.2031684
116	0x3df4721e	0.119358286
117	0x3c5e27d0	0.013559297
118	0x3e012cf4	0.12614805
119	0x3dd5a720	0.10432267
120	0x3d9672cf	0.07346117
121	0xbdb6eff1	-0.08932484
122	0x3e164090	0.14673066
123	0x3c1ad646	0.009450501
124	0xbd60beee	-0.054869585
125	0x3e061f85	0.13097961
126	0x3e17d3f6	0.1482695
127	0x3e0b100e	0.13580343
128	0xbda933d0	-0.082618356
129	0x3cdfd920	0.027325213
130	0xbe1edec5	-0.15514667
131	0xbdc233d1	-0.094825394
132	0xbe0b1e8b	-0.1358587
133	0xbd9a1ff0	-0.07525623
134	0xbe2f3a3f	-0.17112063
135	0x3dafa1ce	0.08575784
136	0x3dfa091e	0.1220877
137	0xbd26d848	-0.040733606
138	0xbda255ce	-0.07926522
139	0xbd0bcee0	-0.03413284
140	0xbe27ab96	-0.16374049
141	0xbe070c5c	-0.13188308
142	0x3e046ec7	0.12932883
143	0x3d93898e	0.07203971
144	0x3d446334	0.04794617
145	0xbcf02550	-0.029314667
146	0x3e0ea9a7	0.13931905
147	0xbda5a625	-0.0808833
148	0xbd443e70	-0.047911108
149	0x3ce9e8f8	0.028553471
150	0x3e28ce7b	0.16485016
151	0x3d1584d0	0.036503613
152	0xbc85feb0	-0.016356796
153	0x3e0e4f4f	0.13897441
154	0xbd11f458	-0.035633415
155	0xbcbe70f0	-0.023247212
156	0xbdc58ce8	-0.09646016
157	0xbcd0e4b0	-0.025499672
158	0x3c3a94b0	0.011387989
159	0xbd914368	-0.07092935
160	0x3e174757	0.14773308
161	0x3d8238ec	0.06358513
162	0x3e03fea5	0.12890108
163	0x3d24ed74	0.040265515
164	0x3da5cd76	0.08095829
165	0xbd7bce86	-0.061476253
166	0xbe2832f4	-0.16425687
167	0x3e096897	0.13418804
168	0x3dc58c26	0.09645872
169	0xbdd298af	-0.10283028
170	0xbdf55446	-0.119789645
171	0x3e1949c1	0.14969541
172	0x3c11e790	0.008905306
173	0x3b168040	0.0022964627
174	0x3d43ba68	0.047785193
175	0x3e01b277	0.12665735
176	0xbd982bba	-0.07430215
177	0x3d09345c	0.0334972
178	0x3d72c27c	0.059267506
179	0x3c829750	0.015941292
180	0xbe1508e4	-0.14554173
181	0x3d1783a4	0.036990777
182	0x3c006410	0.007836357
183	0x3d3c9bec	0.046047136
184	0xbdc74008	-0.0972901
185	0xbe13c2b3	-0.1442974
186	0xbdee3932	-0.11632003
187	0xbdb5a9c8	-0.08870274
188	0xbe0d51a2	-0.13800672
189	0x3d80fc24	0.06298092
190	0x3dec759e	0.11545871
191	0xbd872c83	-0.06600287
192	0xbd88c3a9	-0.06677944
193	0xbe4db125	-0.20087107
194	0x3e0d75f3	0.13814525
195	0x3d41eeb3	0.047346782
196	0xbe028291	-0.1274512
197	0x3e19b926	0.15012035
198	0x3dc4befd	0.096067406
199	0xbd0620ca	-0.032746114
200	0xba91f32e	-0.0011135095
201	0xbdf77c44	-0.12084249
202	0xbcfca81c	-0.03084188
203	0xbe87cf51	-0.26525357
204	0xbd896732	-0.06709136
205	0x3e1cf0f1	0.15326287
206	0xbe87505a	-0.2642849
207	0xbe056de6	-0.13030204
208	0xbdb7e3ab	-0.08978971
209	0xbda382d1	-0.079839356
210	0x3e12ab4b	0.14323156
211	0xbd97a5b8	-0.07404655
212	0xbd7427fc	-0.059608445
213	0xbd9a556c	-0.07535824
214	0xbc098250	-0.008392885
215	0x3db3b9dd	0.08775685
216	0x3e0c4681	0.1369877
217	0x3d8a3538	0.06748432
218	0xbbdd2464	-0.006748723
219	0xbd81d5f5	-0.06339637
220	0xbe3f48af	-0.1868007
221	0xbb246e03	-0.0025089986
222	0xbe1a2168	-0.15051806
223	0xbe0ec494	-0.13942176
224	0x3c8da1fb	0.017289152
225	0xbdc7a5b0	-0.09748399
226	0xbe3c1299	-0.1836647
227	0xbe0c3393	-0.13691549
228	0x3e187198	0.14887083
229	0xbe1b93e3	-0.15193133
230	0xbd1c8be2	-0.03821934
231	0xbe328466	-0.17433318
232	0xbd856503	-0.06513407
233	0xbe49b9e2	-0.19699815
234	0xbe1b1f24	-0.15148598
235	0x3ca7f37c	0.020501845
236	0x3e26ea9a	0.16300431
237	0x3d501d7f	0.05080938
238	0xbd3bd7ea	-0.04586021
239	0xbdb32891	-0.08747972
240	0x3afc9d30	0.001927292
241	0x3dc7f395	0.097632565
242	0xbd6d0c3f	-0.057873007
243	0xbe3d057d	-0.18459125
244	0xbdaad7f5	-0.08341972
245	0x3a1ed0a6	0.0006058313
246	0x3db869ec	0.09004578
247	0xbd4fe389	-0.050754104
248	0xbdb0e09a	-0.08636589
249	0x3e07948b	0.13240258
250	0x3e4b5d39	0.1985978
251	0x3d713335	0.058886725
252	0x3e329ae1	0.17441894
253	0x3ddfe031	0.10931433
254	0xbe144dae	-0.14482757
255	0xbe5e8dfb	-0.21733849

hidden.1.bias f4 [32]
0	0x3e49ac77	0.19694696
1	0x3e537f68	0.2065407
2	0x3e30852a	0.17238298
3	0x3cd23817	0.025661511
4	0xbe347ead	-0.17626448
5	0xbde87ee9	-0.11352331
6	0x3df79c7d	0.12090395
7	0x3e1ee1d9	0.15515842
8	0x3e4a3966	0.19748458
9	0x3e108409	0.14112867
10	0x3cbf1fa8	0.023330525
11	0xbcd1ac36	-0.025594812
12	0xbd17ab96	-0.03702887
13	0x3de391d2	0.111117974
14	0xbd7b25f2	-0.061315484
15	0x3e390eb9	0.18072022
16	0xbe00adba	-0.12566271
17	0x3db1cdc0	0.08681822
18	0xbc26afdc	-0.010173764
19	0x3ce816b7	0.028331144
20	0x3e188803	0.14895634
21	0xbdd90ff2	-0.105987445
22	0xbd86d09f	-0.0658276
23	0xbe132fcc	-0.14373702
24	0xbd828729	-0.06373436
25	0x3df776a1	0.120831735
26	0xbd96774b	-0.07346972
27	0x3dd3b1b4	0.103366286
28	0x3bba1da7	0.0056798044
29	0xbe1baa98	-0.15201795
30	0xbc669ee6	-0.01407597
31	0x3d2fd043	0.042923223

hidden.2.weight f4 [32, 32]
0	0x3de61e9e	0.112363085
1	0x3d80f377	0.06296437
2	0xbe55fcf5	-0.20897277
3	0xbe1b8c50	-0.15190244
4	0xbd89ead0	-0.0673424
5	0xbc8f0970	-0.017460555
6	0xba2c0ae3	-0.00065629015
7	0xbd58657e	-0.052831165
8	0xbe81865b	-0.25297818
9	0xbdaf11dd	-0.08548329
10	0xbd7e6e6e	-0.062117033
11	0x3d75c848	0.060005456
12	0x3e1f752b	0.1557204
13	0x3c88d3ef	0.01670262
14	0xbdc123f4	-0.09430686
15	0x3ca9f26a	0.020745475
16	0x3e0bbf9a	0.13647309
17	0x3e0b8120	0.13623476
18	0xbc76a2f9	-0.015053504
19	0x3de811b6	0.11331503
20	0x3c59d203	0.0132947
21	0xbd2f9532	-0.042866893
22	0x3cd160c2	0.025558833
23	0xbe20c27d	-0.15699191
24	0x3bffca25	0.00780608
25	0x3e0115df	0.12606
26	0x3dc061f4	0.09393683
27	0xbe0a2f7c	-0.13494676
28	0x3d0a5c32	0.03377933
29	0xbd2c7898	-0.042107195
30	0x3de4d1d3	0.11172833
31	0x3d4b824b	0.049684804
32	0x3e183c21	0.14866687
33	0x3e2516b6	0.16121945
34	0x3e3a5b11	0.18198802
35	0x3de44d51	0.111475594
36	0xbc996688	-0.018725649
37	0xbdf54822	-0.11976649
38	0xbe8e6dfc	-0.27818286
39	0xbda96650	-0.08271468
40	0x3e94e25e	0.29078954
41	0xbda8386f	-0.08213889
42	0xbd1f3986	-0.038873218
43	0x3d3dd5d2	0.046346493
44	0x3da7f5c7	0.08201175
45	0x3e00441a	0.12525979
46	0x3d29d328	0.04146114
47	0xbe110262	-0.14161065
48	0x3d96604e	0.073425874
49	0xbe0cb166	-0.13739547
50	0xbd503222	-0.05082906
51	0xbd6cd4f8	-0.05782029
52	0x390c20c1	0.00013363642
53	0xbdd9699a	-0.10615845
54	0x3d710b2d	0.05884855
55	0xbd37c96d	-0.04486983
56	0xbbcf05c3	-0.0063178255
57	0x3e346e8a	0.17620292
58	0x3cb86caf	0.022512762
59	0xbd8aa2df	-0.067693464
60	0x3de9465e	0.113903746
61	0xbe04ff48	-0.12988007
62	0x3df8d47d	0.12149904
63	0xbe413ab2	-0.18870047
64	0xbda5f9f1	-0.08104313
65	0x3d5c5684	0.053793445
66	0x3d8bf0e5	0.06833056
67	0x3e4f13e3	0.2022243
68	0x3cc61e70	0.024184436
69	0x3cff4d20	0.031164706
70	0xbe4d8c13	-0.20072965
71	0xbd7cc57c	-0.061711773
72	0x3e4f675c	0.20254272
73	0x3e35cdcb	0.17754285
74	0x3de9a608	0.11408621
75	0xbd59fff1	-0.0532226
76	0x3ca7a57b	0.02046465
77	0xbded473d	-0.11585853
78	0x3d40d40c	0.047077224
79	0xbe17c53f	-0.14821337
80	0x3dfdaa3e	0.12385987
81	0xbbc7b498	-0.0060945265
82	0xbd914f77	-0.07095235
83	0xbcf97d24	-0.03045518
84	0x3e5acb35	0.2136658
85	0xbc5553df	-0.013020485
86	0x3e89a0fb	0.2688063
87	0xbdcd5238	-0.100254476
88	0xbe0ff667	-0.14058839
89	0xbc628a3c	-0.013826903
90	0x3d8c66c3	0.06855538
91	0x3d8db444	0.069191486
92	0x3d9773a8	0.073951066
93	0xbe226f7c	-0.1586284
94	0x3d88d5ea	0.06681426
95	0xbe3e2544	-0.18568903
96	0x3dfa137a	0.12210746
97	0xbce4b3d0	-0.027917773
98	0x3dc709ae	0.09718643
99	0x3e03ccd7	0.12871109
100	0x3da68da2	0.08132483
101	0x3cfa21a8	0.030533627
102	0xbde2053e	-0.11036156
103	0xbdf1de3c	-0.11809966
104	0xbda44fdf	-0.08023047
105	0xbe2f0850	-0.17093015
106	0x3e09984d	0.13437004
107	0x3d4e3448	0.050342828
108	0x3e036bc5	0.1283408
109	0x3e1dfbc5	0.15428074
110	0xbd237514	-0.039906576
111	0xbe314fa1	-0.17315532
112	0xbd7d3114	-0.061814383
113	0xbe226d8f	-0.15862106
114	0x3e14f17d	0.14545245
115	0xbca37368	-0.01995249
116	0xbdcbca56	-0.09950702
117	0x3e11b363	0.14228587
118	0x3d49eccc	0.049298093
119	0x3e1185e5	0.14211233
120	0x3e106de5	0.14104421
121	0xbdaff87e	-0.08592318
122	0x3d452968	0.04813519
123	0xbc8fb480	-0.017542124
124	0x3d963082	0.07333471
125	0x3c69d8a0	0.014272839
126	0xbd77968e	-0.060446315
127	0xbd29a9b8	-0.041421622
128	0xbd6a35ae	-0.0571801
129	0xbddbfea8	-0.10741931
130	0xbc3fb2b0	-0.011700317
131	0x3defe50e	0.117136106
132	0xbdfa4837	-0.12220805
133	0xbdf4fc48	-0.11962181
134	0x3d9a1c56	0.07524936
135	0x3dca4d36	0.09878008
136	0xbe14fa9e	-0.14548728
137	0x3d6cd40c	0.05781941
138	0xbd5255c4	-0.051351324
139	0xbc3b7850	-0.011442259
140	0xbdff80b4	-0.1247572
141	0x3e13a1e7	0.1441723
142	0x3d460120	0.048340917
143	0xbe0f1873	-0.1397417
144	0x3e2c66b1	0.16836049
145	0x3baaa780	0.005207956
146	0x3de09efa	0.109678224
147	0xbde83239	-0.11337704
148	0x3e0e00bf	0.13867472
149	0xbdccb8b3	-0.09996166
150	0x3d89f84e	0.067368135
151	0x3ceb57c0	0.028728366
152	0x3d10f3cc	0.035388753
153	0x3c8f6190	0.017502576
154	0xbe2a27f8	-0.1661681
155	0xbbd690a0	-0.0065480024
156	0xbd590d6c	-0.052991316
157	0xbc7df440	-0.015500128
158	0xbe223977	-0.15842234
159	0xbdb42cd7	-0.08797615
160	0xbdb139a1	-0.0865357
161	0x3cd4689c	0.025928788
162	0xbd32a7b1	-0.043616954
163	0xbd8d20a8	-0.06890994
164	0xbe29e3ee	-0.16590855
165	0xbcde6ce0	-0.027151525
166	0xba90ae21	-0.0011038223
167	0x3e015752	0.12630966
168	0xbdaf221a	-0.08551426
169	0x3b57f255	0.0032950838
170	0x3e900610	0.28129625
171	0x3e0007c4	0.12502962
172	0x3e09bc96	0.13450846
173	0x3e4971e9	0.1967236
174	0xbe212084	-0.1573506
175	0x3cc025dd	0.023455555
176	0xbd26f222	-0.04075826
177	0x3e3d3a7f	0.18479346
178	0x3db0a828	0.08625823
179	0x3e809477	0.2511327
180	0xbde5eaaa	-0.11226399
181	0xbe16d87d	-0.14731021
182	0x3d420e67	0.047377016
183	0x3e030159	0.12793483
184	0x3e0d8491	0.13820101
185	0x3e250cda	0.16118184
186	0xbe28a443	-0.16468911
187	0x3db18947	0.08668762
188	0xbdd93a0f	-0.10606777
189	0xbddc95ca	-0.107707575
190	0xbdbf329c	-0.09335825
191	0x3d2ad03d	0.041702498
192	0x3e1e4222	0.15454915
193	0xbdd88e25	-0.10573987
194	0x3e75d762	0.24007943
195	0x3e547862	0.20749047
196	0x3e276b93	0.1634963
197	0xbe14943c	-0.14509672
198	0xbe61af6f	-0.22039579
199	0xbdb9ba6d	-0.09068761
200	0x3e845984	0.25849545
201	0x3e21b7cd	0.1579277
202	0x3c862dda	0.016379286
203	0x3a289784	0.0006431269
204	0x3d90102d	0.07034335
205	0xbbfed3f6	-0.0077767326
206	0x3cd9b248	0.026574269
207	0x3d9fc083	0.078003906
208	0x3d9dced6	0.077054664
209	0xbcfc41a7	-0.030793024
210	0x3ac39cfa	0.0014924102
211	0x3d6dde38	0.058073252
212	0x3d6997e3	0.057029616
213	0x3c43d1c0	0.011951864
214	0x3e643eba	0.22289553
215	0x3d72efc2	0.059310682
216	0x3df7f3bc	0.121070355
217	0x3e3b87e4	0.18313557
218	0xbdc472d1	-0.09592212
219	0x3d93ca75	0.0721635
220	0x3db412d1	0.087926514
221	0x3dd7e97a	0.10542579
222	0x3cfb33ad	0.03066429
223	0xbe06a49e	-0.13148734
224	0x3c019d50	0.007911041
225	0xbdad4266	-0.0845993
226	0xbd994b11	-0.07485021
227	0xbddfe1ca	-0.10931738
228	0x3d2cc86c	0.042183325
229	0x3db15d1a	0.08660336
230	0x3d8d6510	0.06904042
231	0xbcbc0fd0	-0.022956759
232	0xbb258840	-0.0025258213
233	0xbe2cb7a8	-0.16866934
234	0xbd665df6	-0.056241952
235	0xbd15fe48	-0.036619455
236	0x3d670d2c	0.056409046
237	0xbd2bf3a8	-0.041980416
238	0xbe0590f6	-0.1304358
239	0x3dec5736	0.11540072
240	0x3d8f657c	0.070017785
241	0x3b8e98e0	0.00435172
242	0x3db97922	0.090563074
243	0x3d924106	0.071413085
244	0xbd246474	-0.040134862
245	0x3e1f6b7f	0.1556835
246	0xbce23528	-0.027613238
247	0x3dff65d6	0.124705955
248	0xbe027ddb	-0.12743323
249	0x3e09c0bd	0.1345243
250	0xbdbaa058	-0.091126144
251	0x3cd8b038	0.026451215
252	0xbd61e04c	-0.055145547
253	0x3da3a992	0.07991327
254	0xbe17902d	-0.14801092
255	0x3dc6aec2	0.09701301

hidden.2.bias f4 [32]
0	0x3e3231c8	0.17401803
1	0x3dce1aca	0.10063703
2	0x3da1df5d	0.07903931
3	0xbd6db37c	-0.058032498
4	0xbe04c8c8	-0.12967217
5	0x3d9908ee	0.07472406
6	0x3d3e4f87	0.046462562
7	0xbdebff1d	-0.11523268
8	0x3cc0d963	0.023541158
9	0x3d9c7b35	0.076406874
10	0x3de2d99e	0.110766634
11	0x3e46c8a0	0.1941247
12	0x3e9c7743	0.3055974
13	0xbe145a7f	-0.14487647
14	0x3cc5c94a	0.024143834
15	0x3d5c8a44	0.053842798
16	0xbc4beb9c	-0.01244631
17	0x3e450e46	0.19243726
18	0xbe2d0219	-0.16895331
19	0x3e344198	0.17603147
20	0x3dc1354c	0.09433994
21	0x3d46b281	0.04851008
22	0xbd72c70b	-0.059271853
23	0x3dbc4448	0.09192711
24	0x3e2709b7	0.163123
25	0xbde7733e	-0.113012776
26	0xbdcf67a4	-0.1012719
27	0xbe39a38c	-0.18128794
28	0x3e5d0acb	0.21586148
29	0x3e226aa4	0.15860993
30	0xbbf80e1f	-0.0075700427
31	0x3df4e218	0.119571865

hidden.3.weight f4 [32, 32]
0	0xbd0e4367	-0.03473225
1	0x3e2c2bfe	0.16813657
2	0x3e1dc27f	0.15406226
3	0xbe1e3d38	-0.1545304
4	0x3b918720	0.004441157
5	0x3e1ad904	0.15121847
6	0x3e66f7dd	0.2255549
7	0xbd468adc	-0.04847227
8	0x3e02cfb7	0.1277455
9	0x3e9e225f	0.30885598
10	0x3e2ed557	0.1707357
11	0xbd0ba3a7	-0.034091618
12	0x3d7aafb5	0.061202724
13	0x3dccbda2	0.09997107
14	0x3e09b773	0.13448887
15	0x3e7749dc	0.24149269
16	0x3e6ddd94	0.23229057
17	0x3e72682c	0.23672551
18	0x3d5dffa0	0.05419886
19	0x3e87e4ed	0.26541844
20	0xbd93a451	-0.07209075
21	0x3d9fcb80	0.078024864
22	0x3e16f89a	0.14743271
23	0xbd8c8b93	-0.06862559
24	0x3e1e7514	0.1547435
25	0xbc46901b	-0.012119318
26	0x3de077be	0.10960339
27	0xbdd51ee3	-0.10406282
28	0x3d58fc2a	0.052974857
29	0x3de0d0b0	0.10977304
30	0x3e199ca9	0.15001167
31	0x3e10d04b	0.14141957
32	0x3d0527b0	0.032508552
33	0xbde6df6c	-0.11273083
34	0xbdd8920a	-0.1057473
35	0xbba69680	-0.005083859
36	0x3d4901e4	0.04907407
37	0x3e76a122	0.24084905
38	0xbd2190a6	-0.039444588
39	0x3dbcb4d2	0.09214176
40	0x3e9c273a	0.30498677
41	0x3e069491	0.13142611
42	0x3e026a2a	0.12735811
43	0x3e8d3821	0.27581885
44	0x3df9584e	0.12175046
45	0x3d3c0670	0.045904577
46	0x3d70b185	0.058763046
47	0x3e82875f	0.25493905
48	0x3e5a60fd	0.2132606
49	0xbc02b031	-0.007976578
50	0x3e12f369	0.14350666
51	0x3e846008	0.25854516
52	0xbd283ea8	-0.04107538
53	0x3e3d6317	0.18494831
54	0xbe233806	-0.1593934
55	0xbd75be2d	-0.05999582
56	0x3e1be252	0.15223053
57	0x3e1acbcc	0.15116805
58	0x3e33b9ab	0.17551295
59	0xbe01212d	-0.12610312
60	0x3ea1f6fa	0.3163374
61	0x3d72b543	0.059254896
62	0x3e8c4996	0.27399892
63	0x3e36885d	0.17825456
64	0xbd97c5f1	-0.07410801
65	0x3d2abf6c	0.04168646
66	0xbe3677c3	-0.17819123
67	0xbdb0c878	-0.086319864
68	0x3d70d2e4	0.05879487
69	0x3db52970	0.08845794
70	0xbd1bd30b	-0.038043063
71	0x3e18b1b7	0.14911543
72	0x3e892fbf	0.2679424
73	0x3dfebc5f	0.12438273
74	0x3e108d1f	0.14116333
75	0x3dd0eaf9	0.102010675
76	0xbd6c62d8	-0.057711452
77	0x3cf5a602	0.029986385
78	0xbe2a5987	-0.16635714
79	0x3e8153fa	0.25259382
80	0x3e23f8ec	0.16012925
81	0x3de66dab	0.11251386
82	0xbbd9d820	-0.0066480786
83	0x3df83d0f	0.12121021
84	0xbe55a107	-0.20862208
85	0x3e9b1615	0.30290285
86	0xbd8fe6e1	-0.070264585
87	0x3d1c4990	0.038156092
88	0x3dad1cb6	0.08452742
89	0xbdca2ec8	-0.09872204
90	0xbe0b543d	-0.13606353
91	0x3e35a689	0.1773931
92	0x3db2786f	0.08714377
93	0xbe04b8c7	-0.12961112
94	0x3e43896b	0.1909539
95	0x3d2c4231	0.042055313
96	0x3e48b48d	0.19600125
97	0xbe32d973	-0.17465763
98	0xbe0e2d2c	-0.13884419
99	0x3cf4d158	0.02988498
100	0xbba96060	-0.0051689595
101	0x3d699e7a	0.0570359
102	0xbadb24e7	-0.0016719372
103	0xbe1d98b5	-0.15390284
104	0x3e9ca764	0.3059646
105	0x3e2b07e5	0.1670223
106	0x3ddfe976	0.10933201
107	0x3d1c20bb	0.03811715
108	0x3e35f3ec	0.1776883
109	0xbd7708f0	-0.060311258
110	0xbd616143	-0.055024397
111	0x3e971566	0.29508513
112	0x3e11f3f1	0.14253213
113	0xbb5e84e0	-0.0033953711
114	0x3dce8096	0.100831196
115	0x3e3ac5de	0.18239543
116	0xbe2d2ee8	-0.16912425
117	0x3dc208c4	0.09474328
118	0x3df6545e	0.120278105
119	0x3b54301f	0.0032377315
120	0x3e1dfd9e	0.15428779
121	0xbe16d6b9	-0.14730348
122	0xbdac2320	-0.08405137
123	0xbdea6774	-0.11445513
124	0x3e95dd6b	0.2927049
125	0xbd4b5d7f	-0.04964971
126	0x3e6bfcc8	0.23045647
127	0x3ddad8ea	0.10685904
128	0xbe345590	-0.17610765
129	0x3ae38d03	0.001736075
130	0x3e962e98	0.29332423
131	0xbe132553	-0.14369707
132	0xbdb24f41	-0.08706523
133	0xbdc8b3bb	-0.09799906
134	0x3e6a482a	0.22879091
135	0x3d35c610	0.04437834
136	0x3ca8e7aa	0.020618279
137	0x3d04aebf	0.032393213
138	0x3da70c5b	0.081566535
139	0x3d30e8e7	0.043190863
140	0x3da50a10	0.0805856
141	0x3deca4a2	0.11554839
142	0xbd5a1089	-0.053238425
143	0xbc812592	-0.015764985
144	0xbe0ba05f	-0.13635395
145	0x3d801be8	0.06255323
146	0xbd76fb7a	-0.06029842
147	0x3e0406d5	0.12893231
148	0x3e78c948	0.24295533
149	0xbe1ca649	-0.15297808
150	0x3e08e2bd	0.13367744
151	0x3d2109c2	0.039315946
152	0x3da62bfb	0.08113857
153	0x3e138510	0.14406228
154	0xbde467bb	-0.111525975
155	0xbcecadc8	-0.02889146
156	0xbdd89d9a	-0.10576935
157	0x3e8e6567	0.2781174
158	0xbe17de35	-0.14830859
159	0xbdfae384	-0.122504264
160	0xbe098f1a	-0.13433495
161	0x3e230d4f	0.15923046
162	0xbcdc6679	-0.026904332
163	0xbd4b5b78	-0.04964778
164	0xbe07d97e	-0.1326656
165	0x3d156400	0.03647232
166	0x3e178825	0.14798029
167	0xbd8dc1e7	-0.069217496
168	0x3e3074b5	0.1723202
169	0x3e3d983c	0.18515104
170	0xbdd13e1b	-0.10216924
171	0xbd748db4	-0.05970545
172	0x3cb2fa1d	0.021847779
173	0xb8df0c8a	-0.00010635804
174	0x3cfa461b	0.030551007
175	0x3e21ceed	0.15801592
176	0x3dd5c045	0.10437063
177	0xbe2a52a2	-0.16633084
178	0x3db7cbd6	0.089744255
179	0x3e173817	0.1476749
180	0x3c994d47	0.018713607
181	0xbd43c0c6	-0.047791265
182	0x3dc1a0ee	0.09454523
183	0xbe17dd50	-0.14830518
184	0x3c950bae	0.018194046
185	0xbdc5f0cc	-0.09665069
186	0x3e2cc8d1	0.1687348
187	0x3e0aab1e	0.13541839
188	0x3dfa3eed	0.122190334
189	0x3dd3a63a	0.103344396
190	0x3d966309	0.07343108
191	0xbde3a408	-0.11115271
192	0x3d6aa90c	0.057290122
193	0xbce3bf08	-0.027801052
194	0x3cb0f9d8	0.02160351
195	0x3daf85e6	0.08570461
196	0xbbf8ffc0	-0.007598847
197	0x3dc0dd3a	0.094171956
198	0x3d1c6574	0.03818269
199	0xbc781580	-0.015141845
200	0xbd24f360	-0.040271163
201	0xbdbc2a55	-0.09187762
202	0xbe287d60	-0.16454077
203	0xbe2676af	-0.16256212
204	0xbc1f3ce0	-0.009719104
205	0x3d90f658	0.07078236
206	0x3c2184c0	0.00985831
207	0x3d1fb754	0.038993195
208	0xbe32b9d2	-0.17453697
209	0xbe2ceb03	-0.16886525
210	0x3d9f2c2e	0.077720985
211	0xbdba03fc	-0.09082791
212	0xbde7bdfb	-0.11315533
213	0xbdb42a74	-0.0879716
214	0xbc882718	-0.016620204
215	0xbd9ec058	-0.077515304
216	0x3e26905d	0.16266008
217	0xbe13ed71	-0.14446045
218	0x3e2215df	0.15828656
219	0x3c9ff650	0.01952663
220	0xbdae9964	-0.08525351
221	0x3c8d2a30	0.01723203
222	0xbe22a75c	-0.15884155
223	0xbd38b200	-0.04509163
224	0x3c48ff96	0.012267968
225	0x3e899445	0.26870933
226	0x3d8f97d2	0.07011379
227	0xbdfd34cf	-0.12363588
228	0x3dac1de2	0.08404137
229	0x3dc03f23	0.093870424
230	0xbb66af16	-0.0035199574
231	0xbd83ab35	-0.064291395
232	0xbe2c79aa	-0.16843286
233	0xbe16e69b	-0.14736407
234	0x3df26951	0.11836494
235	0xbbae9785	-0.005328121
236	0x3e17cd4e	0.14824411
237	0x3e2b499c	0.16727298
238	0x3e84a83b	0.259096
239	0x3d0c0258	0.034181923
240	0xbc9a92e1	-0.018868865
241	0x3e28e264	0.16492611
242	0x3dd0b45a	0.10190649
243	0x3e0a90d7	0.13531815
244	0x3dbce0e3	0.09222581
245	0xbdc4df6d	-0.096129276
246	0xbe02a653	-0.1275876
247	0x3c9fc849	0.019504683
248	0xbda23063	-0.07919385
249	0xbe13f2ee	-0.14448139
250	0xbe32c7e6	-0.17459068
251	0xbd9089da	-0.07057543
252	0xbe25b24f	-0.161813
253	0x3e8cb409	0.27481106
254	0xbd5901c7	-0.05298021
255	0xbdd1b27c	-0.10239121

hidden.3.bias f4 [32]
0	0x3df6de2d	0.120540954
1	0x3d84b4ab	0.06479772
2	0x3e2149e1	0.15750839
3	0x3da94a40	0.08266115
4	0x3dfe1257	0.12405842
5	0xbe1c19b4	-0.1524418
6	0xbdec4581	-0.11536694
7	0x3e219d18	0.15782583
8	0x3df68ab7	0.120381765
9	0x3e8e3971	0.277782
10	0xbb9e148c	-0.0048242267
11	0x3e5a618e	0.21326277
12	0x3e151098	0.14557111
13	0xbd13d1d6	-0.036088787
14	0x3be34bdd	0.006936534
15	0x3e6b3127	0.22967969
16	0x3e4be526	0.19911632
17	0xbd92b808	-0.071640074
18	0x3dc4e6ab	0.09614309
19	0xbe290481	-0.16505624
20	0x3dab8961	0.08375812
21	0xbd9fa241	-0.07794619
22	0x3e96555d	0.29362002
23	0xbc7ad187	-0.015308744
24	0x3a6a1288	0.0008929153
25	0xbc6caaf0	-0.014445052
26	0x3d9ef5ab	0.07761701
27	0x3e703a60	0.23459768
28	0x3e4553fc	0.19270319
29	0x3caaa5b9	0.020830976
30	0x3e66cd28	0.22539198
31	0xbd486ed6	-0.048933826

hidden.4.weight f4 [32, 32]
0	0xbd8ede3e	-0.06975983
1	0x3e7454d7	0.23860489
2	0x3e0f3fe9	0.13989224
3	0x3dd0664b	0.10175761
4	0xbb7b290d	-0.0038324029
5	0x3d8af687	0.067853026
6	0x3e1f096f	0.15530942
7	0xbbafdade	-0.005366667
8	0xbe0950a0	-0.13409662
9	0xbd831573	-0.064005755
10	0x3b9ad532	0.004725122
11	0x3e3a1f63	0.18176036
12	0x3dc1f6ef	0.09470927
13	0x3df7c3b3	0.120978735
14	0x3e9b766e	0.30363792
15	0xbe7f80f9	-0.24951543
16	0x3d44729a	0.047960855
17	0x3e055f89	0.13024725
18	0xbd4a8d85	-0.04945137
19	0x3dda878a	0.10670383
20	0xbdc923bd	-0.0982127
21	0x3db2abd6	0.08724181
22	0x3dfb68d1	0.122758515
23	0xbdf8abd4	-0.121421486
24	0x3df1c9d4	0.11806074
25	0x3d9e14fa	0.07718845
26	0xbc0f5160	-0.008747429
27	0x3d96ed92	0.07369532
28	0x3cc7997b	0.024365177
29	0x3dc6b03f	0.09701585
30	0xbe50265c	-0.20327133
31	0x3d5ff243	0.0546744
32	0xbd803abc	-0.06261203
33	0xbd9558a0	-0.072922945
34	0x3dc07a6e	0.093983516
35	0xbd872790	-0.06599343
36	0x3d23cbc7	0.03998926
37	0xbe4f1d01	-0.20225908
38	0xbd8cec3f	-0.06880998
39	0x3e8e1c90	0.27756166
40	0x3e3307fa	0.17483512
41	0x3c6c8957	0.014437041
42	0x3cc288d6	0.02374689
43	0x3d4f5aaa	0.050623573
44	0x393fff91	0.00018310385
45	0xbdbb8be3	-0.09157541
46	0xbe5a81f5	-0.21338637
47	0x3e33854d	0.17531319
48	0x3dd478b1	0.103745826
49	0xbbd7f300	-0.006590247
50	0x3e8a3528	0.2699368
51	0x3dc73382	0.09726621
52	0x3da9ce3f	0.082912914
53	0xbe111707	-0.1416894
54	0x3e1e6653	0.15468721
55	0x3dd10954	0.10206857
56	0x3d2491d8	0.04017815
57	0x3d72c6c0	0.059271574
58	0xbe3bcd2b	-0.18339984
59	0x3e63ca20	0.22245073
60	0xbe25ad71	-0.16179444
61	0xbc44a77a	-0.01200282
62	0x3e9a1790	0.30096102
63	0xbdfa46c2	-0.12220527
64	0x3e0eafa5	0.1393419
65	0x3dea9ded	0.11455903
66	0x3e58b251	0.21161772
67	0x3d1b6265	0.037935633
68	0xbe115063	-0.14190821
69	0xba14cd7e	-0.00056763727
70	0xbe22bdfe	-0.15892789
71	0x3d831d66	0.06402092
72	0xbe81e0c6	-0.253668
73	0x3e37af46	0.17937955
74	0x3e0e4aca	0.13895717
75	0x3e2fe48e	0.1717703
76	0x3e99bd49	0.30027226
77	0xbc3a40aa	-0.011367956
78	0x3d98326a	0.07431491
79	0xbd88a450	-0.06671965
80	0xbe69b9e8	-0.22824824
81	0xbe0bde0c	-0.13658923
82	0xbddca64f	-0.10773908
83	0xbe19c1d2	-0.15015343
84	0x3bf06d52	0.0073372507
85	0xbd274e40	-0.04084611
86	0x3d869dda	0.065730765
87	0x3d860caf	0.06545388
88	0xbe0d04d8	-0.13771379
89	0x3c998890	0.018741876
90	0x3e335d24	0.17515999
91	0x3e55feef	0.2089803
92	0x3e13cb47	0.14433013
93	0x3e9cd8c4	0.3063413
94	0xbdf728fa	-0.120683625
95	0x3df4063a	0.1191525
96	0x3db1abde	0.08675359
97	0xbdb20445	-0.086922206
98	0xbd8e7ed0	-0.06957781
99	0x3dd0c4d5	0.10193793
100	0xbd50975f	-0.05092561
101	0xbcfc3688	-0.030787721
102	0x3bae6a40	0.0053227246
103	0x3dc00e1f	0.093776934
104	0xbcb82c00	-0.022481918
105	0xbe1eda97	-0.15513073
106	0xbe1a7003	-0.15081792
107	0xbdc5ee6a	-0.096646145
108	0x3da48ecc	0.08035049
109	0xbe031503	-0.12800984
110	0x3e24e177	0.16101633
111	0xbda99e7b	-0.08282181
112	0x3d93bd6a	0.07213862
113	0x3cc289c0	0.023747325
114	0x3e24878b	0.1606733
115	0xbde5c4fa	-0.11219211
116	0xbc77391c	-0.0150892995
117	0xbe094e09	-0.13408674
118	0xbe32b171	-0.17450501
119	0x3d146ae8	0.036234766
120	0x3e2b0cc5	0.1670409
121	0x3dc70202	0.0971718
122	0x3de90672	0.113781825
123	0xbd5ac447	-0.05340984
124	0x3e025d3c	0.12730879
125	0x3dda50da	0.106599525
126	0x3d848ca0	0.064721346
127	0xbd6f58a2	-0.058434136
128	0x3dccc9db	0.099994384
129	0x3d081f49	0.03323296
130	0x3d24bf93	0.040221762
131	0xbd7ece79	-0.062208626
132	0xbde504d3	-0.11182561
133	0x3af4fdfb	0.0018691415
134	0x3ce53788	0.02798058
135	0xbd01b9bd	-0.031671274
136	0xbe24f162	-0.16107705
137	0xbdd9cdae	-0.106349334
138	0x3e1b37a9	0.15157951
139	0x3e2e83a7	0.17042409
140	0xbdaf00f3	-0.08545103
141	0xbbc18456	-0.0059056683
142	0xbd85c43a	-0.06531568
143	0x3e26f314	0.16303664
144	0xbd41410a	-0.047181167
145	0xbe1cef0a	-0.15325561
146	0xbe1b9bff	-0.15196227
147	0x3e2cc109	0.16870512
148	0x3d75835b	0.059939723
149	0xbe04af0c	-0.129574
150	0xbbd472d6	-0.006483416
151	0xbdf5a884	-0.119950324
152	0xbd8e7e11	-0.06957639
153	0xbd20984c	-0.03920774
154	0xbe2c49e1	-0.16825058
155	0x3e1e2e2e	0.15447304
156	0xbd43cc18	-0.04780206
157	0x3d7e5a72	0.062097974
158	0xbdb138f5	-0.08653442
159	0x3dc3875a	0.09547301
160	0xbddcf425	-0.107887544
161	0xbc8ae5a0	-0.016955197
162	0xbe51bbdf	-0.20481823
163	0xbe2c3c4c	-0.16819876
164	0xbcd59a35	-0.026074508
165	0xbe44cc0c	-0.19218463
166	0xbd4e5f10	-0.050383627
167	0x3e8d86b2	0.27641827
168	0x3e871393	0.2638212
169	0xbdbce7df	-0.092239134
170	0x3dba96f8	0.09110826
171	0xbb66d0fd	-0.0035219782
172	0x3d773fe0	0.06036365
173	0x3c73dd04	0.014884237
174	0xbccc842d	-0.02496537
175	0x3e4c35b1	0.19942357
176	0x3e838542	0.25687605
177	0x3d9c76da	0.07639857
178	0xbccd0f1e	-0.025031622
179	0xbe1254c0	-0.14290142
180	0x3e1b9412	0.15193203
181	0xbe0d0b2a	-0.1377379
182	0x3e6f7c65	0.23387296
183	0xbddf9ba6	-0.109183595
184	0xbcd29aeb	-0.025708636
185	0xbd0d6240	-0.034517527
186	0x3d973978	0.07384008
187	0x3d4955f7	0.049154248
188	0xbdebe647	-0.11518531
189	0x3bf5527e	0.0074866405
190	0x3e556109	0.20837797
191	0x3e001f1f	0.12511872
192	0xbdf45bfa	-0.11931606
193	0xbdff03bc	-0.12451884
194	0xbde02091	-0.109437115
195	0x3d220a4f	0.039560612
196	0xbd158918	-0.036507696
197	0x3db0dd12	0.08635916
198	0xbddad826	-0.10685758
199	0x3e833ae0	0.25630856
200	0x39ee3246	0.00045432354
201	0xbcbbb802	-0.02291489
202	0xbd2f247a	-0.042759396
203	0x3d21e0c7	0.039521005
204	0x3c7d498e	0.015459431
205	0x3db7353f	0.08945703
206	0xbdec99a3	-0.115527414
207	0x3e855615	0.26042238
208	0x3e95083d	0.29107848
209	0x3d7e9dd4	0.062162235
210	0x3b92de2f	0.0044820528
211	0x3e11196f	0.14169858
212	0x3b7642d8	0.0037576463
213	0x3d0763e0	0.033054233
214	0x3db3d036	0.087799475
215	0xbc97d2d4	-0.018533148
216	0x3e734305	0.23756035
217	0x3e246b59	0.16056575
218	0xbc89b583	-0.016810184
219	0x3e13a8ff	0.14419936
220	0xbe45cab6	-0.1931561
221	0xbc7d25d0	-0.01545091
222	0x3e88b469	0.26700142
223	0xbdc7a4fc	-0.09748265
224	0x3c81b2db	0.015832355
225	0x3bd2a98d	0.0064289034
226	0xbdcc6c75	-0.09981624
227	0xbe1f0544	-0.15529352
228	0x3e7a4dd7	0.24443756
229	0xbe098c48	-0.1343242
230	0xbd301dc0	-0.04299712
231	0x3e3b6989	0.18301977
232	0x3c36477a	0.01112544
233	0xbd920734	-0.0713028
234	0x3bb96e2e	0.0056588864
235	0xbd681912	-0.056664534
236	0x3d89293c	0.06697318
237	0x3c9a1642	0.018809441
238	0xbd82f368	-0.06394082
239	0x3d9a25a9	0.07526714
240	0xbd25ee3b	-0.040510397
241	0xbdf2bbce	-0.11852227
242	0x3d839cd7	0.06426399
243	0x3e2e8a87	0.17045031
244	0x3e198438	0.14991844
245	0xbe0a6259	-0.13514079
246	0x3e0d144d	0.13777275
247	0x3d3ec1ba	0.04657147
248	0xbc45cc7d	-0.01207268
249	0xbe237cf6	-0.15965638
250	0x3cd2b26a	0.02571984
251	0x3e608ce3	0.21928744
252	0x3d4e6e60	0.05039823
253	0x3e0e9ae3	0.13926272
254	0x3e0c4673	0.13698749
255	0x3dae680f	0.08515941

hidden.4.bias f4 [32]
0	0x3dfadaa0	0.12248731
1	0x3dc5bc7e	0.09655093
2	0x3daa6fad	0.08322082
3	0xbcb9f702	-0.02270079
4	0xbe300f2f	-0.17193292
5	0x3ddfddc2	0.10930969
6	0x3e4d6e3f	0.20061587
7	0xbda21faa	-0.07916196
8	0x3da57011	0.080780156
9	0x3df394da	0.118936256
10	0xbe2c4f14	-0.16827041
11	0xbdfecb9a	-0.12441178
12	0x3e15d9b8	0.14633834
13	0x3c2fcd96	0.010730168
14	0x3d529048	0.05140713
15	0x3d871585	0.065959014
16	0xbe05987c	-0.1304645
17	0x3cb1ce20	0.021704733
18	0xbddfddb0	-0.109309554
19	0xbde4896b	-0.11159023
20	0x3e992e13	0.29917964
21	0x3d82c9f7	0.06386178
22	0xbe212624	-0.15737206
23	0x3d92013e	0.07129143
24	0xbe3219c9	-0.17392649
25	0xbc10e930	-0.008844659
26	0x3e846e11	0.25865224
27	0x3e23cd61	0.15996315
28	0x3eaa44b9	0.33255556
29	0x3e083c6b	0.13304298
30	0x3e134073	0.14380054
31	0x3e2d3779	0.16915692
