models/40000games.pt (torch_old, 110375 bytes, 13 tensors)

in_layer.weight f4 [64, 96]
000000 12 33 a1 bc e8 13 c3 3c e2 13 f2 39 94 6f 21 bd
       -0.019677673 0.023813203 0.0004617265 -0.03941305
000010 56 87 c9 3d 48 9e 95 bd 35 8b 59 3a c4 21 49 3d
       0.098402664 -0.073055804 0.00082986365 0.049104467
000020 78 63 05 bc 4c 6c ca bc b0 e4 95 bb f4 76 09 bc
       -0.008141391 -0.024709843 -0.004574381 -0.008390177
000030 d8 c4 35 3c 54 d5 7e bd d8 b1 ff 3c 89 e5 fe bb
       0.0110942945 -0.062215164 0.031212732 -0.0077788276
000040 03 d9 96 3d fc 76 09 3d f1 6b 62 3d 5f ad a2 bd
       0.073656105 0.033560738 0.055278722 -0.07943224
000050 2f 46 b7 bd c4 cd 3d 3d 7a ab bc bd 90 4b cf bb
       -0.08948933 0.04633881 -0.09212394 -0.0063261464
000060 dc e0 83 3c 4c bf 20 bc ae a1 9d 3d f8 8c b8 3d
       0.016098432 -0.009811234 0.076968536 0.09011263
000070 3c b1 66 3d 8f d6 bf bd e8 96 22 bc b1 c2 6d bd
       0.056321368 -0.09367096 -0.009923674 -0.058047
000080 af 40 19 3d f8 d0 24 3d 7e fb d4 bd 58 17 c1 3d
       0.037415203 0.04023835 -0.10399531 0.094282806
000090 3a 03 82 bd 81 76 c5 bd d0 54 f0 3c a8 8f 5f 3d
       -0.06348272 -0.096417435 0.029337317 0.05458036
0000a0 dd f1 4d bd c3 a4 45 bd a0 12 c5 3d 45 4d 9c 3d
       -0.050279487 -0.048252832 0.09622693 0.076319255
0000b0 b4 36 41 bd 65 3e 95 bc 70 55 de bc 4c e7 b3 3d
       -0.04717131 -0.018218229 -0.02714035 0.08784351
0000c0 26 07 02 bd 50 88 58 bc b2 b7 b5 bd d8 d7 d0 bc
       -0.0317451 -0.013216093 -0.08872928 -0.025493547
0000d0 bd 5c ef 3c e8 c5 a6 3d 3f c0 e7 3c e5 5d 37 bd
       0.029219026 0.08143216 0.028289912 -0.04476728
0000e0 12 7f 97 3d fd 65 97 3d 84 05 8f bc 69 a3 86 bd
       0.073972836 0.073924996 -0.017458685 -0.06574137
0000f0 a4 bc c5 bd 99 f2 9b 3d 9c d8 c9 3d 55 5e 9e 3d
       -0.09655121 0.07614631 0.09855768 0.07732836
000100 c6 a4 6b bd fc dd 80 3d bc 49 23 3d 5c 5f 7a bd
       -0.057530187 0.0629234 0.03986524 -0.061126098
000110 b0 9b 98 3d 36 f5 98 bd f1 5d f0 3c 9f 36 7d bd
       0.0745157 -0.07468645 0.02934167 -0.06181967
000120 4d 33 3c bc 32 27 88 3d 9e 22 8d 3d d9 7d fe bc
       -0.01148684 0.06648101 0.06891368 -0.031065868
000130 4e 04 d9 3d 2d 39 ce 3c 78 c3 b4 bd a1 15 5d bd
       0.10596524 0.025173748 -0.08826345 -0.053975705
000140 5b 16 c1 bd e2 56 a8 3c b8 00 b3 bc 38 77 42 3d
       -0.09428092 0.020549241 -0.021850929 0.047476977
000150 bb ba 3e 3d 45 0a 10 bc 17 42 3b 3d 21 d3 be 3d
       0.0465648 -0.008791511 0.045717325 0.093176134
000160 77 92 ba bd 47 52 54 bb 6b b9 e7 b9 57 df a3 bd
       -0.09109967 -0.0032397674 -0.000441979 -0.08001583
000170 b0 f9 7c 3d 39 05 79 bd eb eb 13 3c 3d c3 8c bd
       0.061761558 -0.060795996 0.009028415 -0.06873176
000180 54 b5 f3 bc 90 91 36 3d a9 61 9d 3d be 5b c6 bd
       -0.02974955 0.044572413 0.07684643 -0.09685467
000190 61 ab aa 3c 8f fb bd bd e7 90 d9 3c d8 53 54 3d
       0.020833673 -0.092764966 0.026558353 0.051837772
0001a0 34 fc 62 3d 04 6b a1 bb c9 d7 6d bd fc 11 93 3c
       0.0554163 -0.0049260873 -0.058067117 0.017952912
0001b0 c0 5e 10 bb 93 db 23 bd a3 9d 96 bd ca c5 ac 3c
       -0.0022029132 -0.040004324 -0.073542856 0.021090407
0001c0 fb db 5b 3d d8 90 6f bc fe 58 9c bd 68 e2 c0 bd
       0.053676587 -0.014621936 -0.076341614 -0.094181836
0001d0 aa b7 57 bd 08 7a b2 3d 35 f9 fe bc b0 12 c9 bd
       -0.05266539 0.08714682 -0.03112469 -0.098180175
0001e0 a3 7a 73 bd fe e0 b5 bd e0 f4 a6 3d 1d 85 aa bd
       -0.059443127 -0.088808045 0.08152175 -0.083261706
0001f0 1c eb 17 3d f8 f7 bd bd 2a ea 93 3d 6d 66 6d 3a
       0.037089452 -0.09275812 0.072223976 0.0009056095
000200 2f e5 0a bd f0 79 b5 bc 6a 78 e7 bc 80 ea 09 bb
       -0.033909973 -0.02215287 -0.02825566 -0.0021044314
000210 91 88 51 bd b6 36 98 3d ef 1c 01 3d d4 b7 0e bd
       -0.05115563 0.0743231 0.031521734 -0.03484328
000220 82 49 c6 3d 0a a5 63 3d 06 5b 80 3d 03 54 16 bc
       0.09681989 0.055577315 0.06267361 -0.009175303
000230 0d f2 2e bd ba 3a 11 3c 38 d6 cf bd 52 ff 07 bd
       -0.042711306 0.008864099 -0.10148281 -0.033202477
000240 a1 78 8d bc e0 75 00 bb 61 b3 11 bd f0 9c 7c 3d
       -0.017269434 -0.001960151 -0.03557146 0.061673105
000250 e3 ed 4c bc 40 3b e0 3c 9b f0 14 b9 41 12 83 bd
       -0.0125078885 0.027372003 -0.00014204012 -0.06399966
000260 24 7e d7 bc 8e aa 62 3d 48 b1 bc 3d b4 85 72 3d
       -0.026305266 0.055338435 0.09213501 0.05920954
000270 41 15 94 bd 07 3f 66 3b 24 5b 0a bd fb b8 b9 bd
       -0.07230616 0.0035132782 -0.033778325 -0.09068485
000280 fc 01 b8 3d 46 e0 f5 3c 49 10 41 bd 4f 7c ac 3d
       0.089847535 0.030014168 -0.04713467 0.084221475
000290 c9 c8 69 bd 0c 27 39 bd f4 40 4d bd 9d 3d 6f bd
       -0.05707625 -0.045203254 -0.050110772 -0.05840837
0002a0 2b d1 98 ba 20 8a 28 3c 05 81 da 3d b7 4f 13 3d
       -0.0011659017 0.010286838 0.1066914 0.035964694
0002b0 b4 0c 92 bd d6 49 a9 bd b0 7a 5a bd d8 e9 a8 3d
       -0.07131329 -0.08266036 -0.05333966 0.08247727
0002c0 d0 e0 2a 3d 70 9f 3a bd a2 f4 72 bc f9 f6 1d 3d
       0.041718304 -0.045562208 -0.014828833 0.03856561
0002d0 70 44 31 3d db 7e 66 bd b3 62 99 3d 81 04 24 3d
       0.043278158 -0.056273323 0.074895285 0.040043358
0002e0 08 0b bc 3c 55 19 3a bc 9a 2f 69 3d ff ae 4f bd
       0.022954479 -0.011358579 0.056930162 -0.050704
0002f0 16 9d 9b bd 30 f1 05 3d c4 e5 09 bd 7f cf a6 bc
       -0.07598321 0.032700717 -0.033666387 -0.020362614
000300 66 1f 99 3d 40 db c1 3b 70 2a 06 bd 7e 8a a6 bd
       0.07476692 0.005916029 -0.032755315 -0.08131884
000310 0e 9b 35 3d 1a df c4 3d b8 cd a5 3d 0c 07 85 3c
       0.044337325 0.09612866 0.08095878 0.016238712
000320 80 30 8d bd 05 48 f0 3c 72 e5 95 bd 4c 57 11 3d
       -0.06894016 0.029331217 -0.07319154 0.035483643
000330 80 ca 65 bb 2c 05 b0 3d d7 21 8b bd 82 49 3e 3d
       -0.0035063326 0.085947365 -0.06793564 0.04645682
000340 19 e2 ea 3d 58 39 2f bc 8b 91 fd bc c8 71 86 bd
       0.11468906 -0.010694824 -0.03095319 -0.06564671
000350 29 9c ed bc 98 e8 d3 bc d7 03 38 3d f8 63 54 3d
       -0.029005127 -0.025867745 0.044925537 0.05185315
000360 c8 5f 55 3c de a1 88 bd c0 85 c3 bc 5a d0 7c bd
       0.013023324 -0.06671499 -0.023867488 -0.061722137
000370 55 e8 32 bd ae 06 b2 3d 30 74 e8 bc 8c ba 20 bd
       -0.0436786 0.0869268 -0.028375715 -0.039240405
000380 e2 d7 87 bd ec 62 8d 3d c4 a4 89 3c 4e e2 91 3d
       -0.06632973 0.069036335 0.0168022 0.07123242
000390 6c e1 af 3d ca 97 8d 3d 70 c3 19 bd 50 dc a8 bc
       0.08587918 0.06913717 -0.0375399 -0.020612866
0003a0 24 65 23 3d 88 c0 68 bd 80 2e 90 3d 80 04 a5 bd
       0.039891377 -0.056824237 0.07040119 -0.08057499
0003b0 3c c4 9b 3c 51 2b 97 bd ef 24 6d bd 9a 94 4b bd
       0.01901447 -0.07381309 -0.05789655 -0.049702264
0003c0 9c ca 81 bc 70 24 36 bd 9d 41 f2 3c 50 e9 77 bd
       -0.015843682 -0.044468343 0.029572302 -0.06052524
0003d0 b5 c7 eb 3b 5c 0c 01 bd ee 5a 1d bd 9e 64 af 3d
       0.007195438 -0.031505927 -0.038416795 0.08564113
0003e0 cc 83 62 3d 91 ff a6 bd c7 d0 a5 bd 97 f1 c8 bd
       0.055301473 -0.08154214 -0.08096462 -0.098117046
0003f0 7c 73 61 3d cd 99 30 bd b0 8d 2e bc 04 ec c3 bd
       0.055041775 -0.043115426 -0.010653898 -0.09566501

in_layer.bias f4 [64]
000000 a9 bd b5 3d d3 63 3c 3d 28 9b d0 3d 0e 11 91 bd
       0.088740654 0.045993637 0.10185844 -0.07083331
000010 3a 60 84 3d 54 b3 2f 3d 46 93 09 3c ac 9a 28 ba
       0.06463666 0.04289563 0.008396929 -0.00064317393
000020 cb 07 05 3c 79 dc b3 bd 4f 4e ce bd 2a be 85 3d
       0.008119534 -0.08782286 -0.1007353 0.065304115
000030 81 e9 6b 3d ac 31 7e 3b d3 63 42 3d f2 51 b9 bd
       0.057595734 0.003878693 0.04745848 -0.09048833
000040 37 e7 a2 3d 9a 87 a0 3d cb 2e a5 bc ac 6d 71 bb
       0.07954257 0.07838364 -0.020163914 -0.0036839051
000050 79 da 4e bd 4d 03 c9 bd 8c 43 21 3d a4 dc 5b 3c
       -0.05050132 -0.09815083 0.03937106 0.013419304
000060 0e cf ba 3c c0 40 7a 3c 74 66 b3 3d 47 68 28 3d
       0.02280381 0.015274227 0.08759776 0.04111507
000070 3e c1 9c bc a4 68 4b 3b 27 20 fb 3b e4 b3 b5 3c
       -0.019135114 0.0031037712 0.007663745 0.022180505
000080 bc a1 d9 3d 29 3d 94 bd ac cd dd 3d 01 06 1e 3d
       0.106265515 -0.07238228 0.108302444 0.038579945
000090 ec 8d 42 3d 91 69 e4 3b 30 c2 12 ba f0 ad 54 bb
       0.04749863 0.0069705923 -0.0005598394 -0.0032452308
0000a0 77 f2 1a 3c eb 6a ac 3c f9 11 24 3d 29 d0 9f 3d
       0.009457222 0.021047076 0.040056203 0.07803375
0000b0 3a e4 12 3d c7 58 30 3d 5b 8e ba 3d d1 7f c5 bb
       0.035862185 0.043053415 0.091091834 -0.0060272
0000c0 7e f2 67 3c 50 66 2d 3d 04 2c 76 bc 9b b3 cb bb
       0.014156936 0.0423339 -0.015025143 -0.006216479
0000d0 da 27 a1 3b 07 c3 7f bc 61 5a 3e 3d 81 75 22 bd
       0.0049180808 -0.015610463 0.04647291 -0.03966284
0000e0 73 37 8e bd 62 86 9c bd 47 fc 52 3d c3 ed 5d bd
       -0.0694417 -0.07642819 0.05151012 -0.054181825
0000f0 9a fb 91 3c fe 0b a8 3d 23 0e 41 bd cd fd 59 bd
       0.017820168 0.08205412 -0.047132622 -0.05322056

hidden.0.weight f4 [64, 64]
000000 f2 72 ea 3d 74 63 8b bd 41 00 a6 3d 48 ae 60 3d
       0.11447705 -0.068060786 0.08105517 0.054853708
000010 4c 87 2a 3d 62 d9 7a bd cd 64 ec 3c 11 f9 e3 3d
       0.041632935 -0.06124247 0.02885666 0.1113149
000020 75 2a df bd 01 15 87 3b 96 a9 61 bd 08 f8 86 bd
       -0.1089677 0.004122377 -0.05509337 -0.06590277
000030 d8 33 f5 3d 99 8e f2 bc 72 e4 96 bd 8a 1a e0 3d
       0.11972779 -0.029609011 -0.07367791 0.10942562
000040 65 ba 44 bc d8 bf a5 3c 61 88 f0 3c 2d e5 4b 3d
       -0.012007331 0.02023308 0.029361906 0.049779106
000050 8e aa d9 3d 04 8d e4 3d 62 64 03 3e 95 2f 00 bd
       0.10628234 0.11159709 0.12831262 -0.031295378
000060 cd 8e ba 3d 29 22 3a 3d a0 41 b2 bd 9d 9e 42 3c
       0.09109268 0.045442734 -0.08703923 0.011878637
000070 1d e5 fe 3d 23 a6 95 3d f4 e8 0e bd 88 a4 cb bd
       0.12446044 0.07307079 -0.03489013 -0.09943491
000080 1c e8 ba bd 2c db 3f bd 7d ab e2 3d a4 64 b0 bc
       -0.091263026 -0.046839878 0.11067865 -0.021532364
000090 0d 3d 9a bd 02 1b d9 3c 06 f4 94 3d ae 53 98 bd
       -0.07531176 0.026502136 0.07273106 -0.07437836
0000a0 71 ad a3 3d b8 99 8a bd b7 36 24 3d 8f 0d 4e 3d
       0.07992066 -0.06767601 0.040091243 0.0503059
0000b0 28 40 d4 bd d5 c7 e8 bd 53 cb 45 bd 65 2b ce bd
       -0.10363799 -0.1136624 -0.04828961 -0.100668706
0000c0 bf 5f 9b bd 1c 50 9a bd 41 47 88 bd 64 a1 7b 3d
       -0.075866215 -0.07534811 -0.066542156 0.06143321
0000d0 83 42 a0 bd 14 77 01 3e 2d 80 f8 3d e5 b6 00 3e
       -0.07825186 0.12643081 0.121338226 0.12569769
0000e0 0c d8 96 bd 6b 05 c7 3c 67 f0 81 bd 1e 52 ae 3d
       -0.073654264 0.024294576 -0.06344681 0.08511756
0000f0 1b 9c 61 bd e8 53 a9 bd 57 d6 1d bd e1 32 2f 3d
       -0.055080514 -0.08267957 -0.03853449 0.04277313
000100 d0 20 76 3d 05 62 a1 bd 73 57 e7 bd d2 b7 b6 bc
       0.060089886 -0.07880024 -0.112959765 -0.02230445
000110 0b 48 b4 bd 5f 28 b1 3d f2 cb f9 3d 12 50 81 3d
       -0.088028036 0.08650278 0.121971026 0.063141
000120 1c 5b c3 3d f4 5c 88 3d 72 f3 8b bd 54 c2 d7 3d
       0.09538862 0.066583544 -0.06833543 0.10535112
000130 19 32 69 ba bf 72 8b bd bd 3e ee 3d e7 f6 c5 3d
       -0.000889571 -0.068089955 0.1163306 0.096662335
000140 0a 0e b2 bd 21 2a 9e bc 96 24 e5 3d 6e f0 9f bd
       -0.08694084 -0.019307198 0.11188619 -0.0780953
000150 bd 42 d5 3a 26 8e 05 3e b7 b4 6c bc ae 95 1d bd
       0.00162705 0.13042507 -0.014447383 -0.038472824
000160 2b f8 9a bd 59 f5 70 3d 40 10 03 3e f2 46 07 be
       -0.075668655 0.05882773 0.12799168 -0.13210657
000170 57 d0 f7 bd 5f d8 9b 3d c6 e6 00 3d 0c dc f5 3d
       -0.121002845 0.07609629 0.031470083 0.12004861
000180 c8 70 00 be 4e fa 83 bc e1 f5 58 3d ea eb ca bd
       -0.12543023 -0.016110566 0.052968863 -0.09908278
000190 74 77 bd 3d e1 bc f5 bc a9 b0 0c 3d dc ce 93 bd
       0.092512995 -0.029997291 0.034348164 -0.0721719
0001a0 3b 8c d9 3d 78 e4 0d bd 88 26 49 3d 66 49 fe bc
       0.1062245 -0.034641713 0.049109012 -0.031040858
0001b0 f8 31 cb 3c f3 1f fc 3d ed 32 90 3d 82 07 0b bd
       0.0248041 0.12310781 0.07040963 -0.033942707
0001c0 0e 1f 2c bd 5d a3 55 bd f2 77 02 3e e6 15 6d 3d
       -0.042021804 -0.05215775 0.12741068 0.057882212
0001d0 24 64 f9 3d d9 99 cc 3d 43 00 b4 bc 50 19 5c bd
       0.121773034 0.099902816 -0.021972781 -0.053735077
0001e0 52 16 e5 bc aa cd f4 bd 8e b6 b2 bd 1d c4 0d bd
       -0.027964745 -0.1195329 -0.08726226 -0.034610856
0001f0 74 dc 1e 3b b9 a8 ae bd 99 73 04 bd 78 9a db bc
       0.0024240287 -0.08528275 -0.032336805 -0.026807055
000200 8c da 85 3d 8e 00 00 3e c3 db 38 3d 4a 11 86 bb
       0.06535825 0.12500212 0.045131456 -0.0040914165
000210 4c 56 38 bc e6 e9 ae 3d 71 61 53 bb 1e b4 48 bd
       -0.0112510435 0.08540706 -0.0032254125 -0.048999898
000220 ab 19 43 3d 12 1e c6 3c 16 58 05 bd 22 10 05 3d
       0.0476319 0.02418426 -0.03255471 0.03248609
000230 c1 0f f3 ba 40 f5 22 3d 78 f9 21 bd ea b4 8a 3d
       -0.0018544124 0.03978467 -0.039544553 0.06772788
000240 c1 8c cd bd 3b c0 bb 3d 75 d8 de 3b ee 55 15 3b
       -0.10036612 0.091675244 0.006800706 0.0022786814
000250 58 fd 97 3b 7a 55 64 3d b8 4b 02 be c5 46 bc 3d
       0.004638355 0.05574558 -0.12724197 0.09193186
000260 92 e1 b5 3d 96 e6 a5 bb 7c 4b bf 3d e4 35 8b bd
       0.08880915 -0.0050628884 0.093405694 -0.06797388
000270 a3 dd 10 bd 75 6d a4 3b 99 f0 ba bc 4e 5e 0f bd
       -0.03536762 0.005017931 -0.022819804 -0.035002045
000280 be a7 f3 bd 93 2d 0a 3c d6 12 03 3e b1 11 ba bc
       -0.11897229 0.008433717 0.12800154 -0.022713514
000290 2f 90 99 3d d0 d5 5d bd bb 9c d7 bd b5 9c db bc
       0.07498204 -0.054158986 -0.10527941 -0.026808122
0002a0 f0 3f 31 bd f0 3b 93 bd a6 9b c6 3d 6c dd 06 bd
       -0.043273866 -0.071891665 0.09697656 -0.032926008
0002b0 ca 0f c4 bc e8 80 ab 3d c2 71 ed bd c5 d7 f3 3d
       -0.02393331 0.08374196 -0.11593963 0.11906389
0002c0 55 ab 44 3d 05 a6 3c 3d 18 ac b7 3d 66 80 35 bd
       0.048014957 0.046056766 0.08968371 -0.044311903
0002d0 e9 b2 dc 3d 3a f7 9a bb a9 b1 26 bd 64 5b ce bd
       0.10776312 -0.0047291787 -0.040696774 -0.10076025
0002e0 ac 79 1b 3d 32 55 42 bd 43 3f fd 3c 6c 8c 0a 3b
       0.037957832 -0.04744453 0.030913955 0.0021140827
0002f0 25 a8 8f 3c c4 bb a0 3b dc 02 80 3c 81 ff ce bd
       0.017536232 0.004905196 0.015626363 -0.10107327
000300 ba cb 43 3d 60 8b d1 bd 25 4c 7e 3c e0 1c fa 3d
       0.04780171 -0.10231662 0.015521084 0.12212539
000310 1e 24 ec 3d c0 c5 60 bd 8e 5d 90 bd 72 89 fd 3d
       0.11530326 -0.05487609 -0.07049094 0.12379731
000320 b9 78 b4 3d fc f4 ed bd 21 8d 48 3d db b0 1a 3d
       0.088120885 -0.11618993 0.048962716 0.03776632
000330 97 af 02 be c1 67 07 be 3a 66 b5 bd f1 78 8a bd
       -0.12762295 -0.13223173 -0.08857389 -0.06761349
000340 64 2d a6 bd 69 67 70 bd 01 c3 8f 3d c4 d3 d7 bd
       -0.08114126 -0.05869237 0.07019616 -0.10538438
000350 ef d4 5e bd c9 b5 89 3d bd c9 49 3d 07 05 65 3d
       -0.054402288 0.06724126 0.04926466 0.055912998
000360 dc 7e 5a 3d e3 a9 bd bd 8c b8 04 3e a2 c6 50 3d
       0.05334364 -0.09260919 0.12961024 0.05097068
000370 79 4a 64 bd 2f b8 90 3d 30 b1 0a 3d 49 86 4a 3d
       -0.055735085 0.0706638 0.033860385 0.04944447
000380 b9 fe f5 3d ff 10 a5 3c b2 5e d0 3d af 4d b2 bc
       0.12011475 0.020149706 0.10174312 -0.021765558
000390 5a 76 f8 3b 0d 33 da bd 0a 16 f6 3d 8d 03 3b 3d
       0.007582468 -0.106542684 0.12015922 0.045657683
0003a0 9e 0a e1 3c bd cd 23 bc fa e6 98 3d 03 45 b1 3d
       0.027470883 -0.009997782 0.0746593 0.08655741
0003b0 17 0e d0 3d f8 03 ea bc d1 09 5e 3d 81 b1 8c bd
       0.101589374 -0.028566346 0.05420858 -0.06869794
0003c0 ca 42 d1 3d 60 30 f9 3c ed 0b d0 bb 9c 16 3e bd
       0.10217817 0.030418575 -0.006349078 -0.04640828
0003d0 a8 1f 54 3d 02 df aa bd c4 29 83 bd 53 a5 84 3c
       0.051788002 -0.083433166 -0.064044505 0.016192114
0003e0 4a 7d a8 3d ad 02 90 3d 52 8f 1c bd 64 66 28 3d
       0.08227022 0.0703176 -0.03822262 0.041113272
0003f0 e2 27 ff 3b 7b 45 05 3e b0 3d 0e 3a a5 5e 2d bd
       0.007786737 0.13014786 0.0005426062 -0.04232659

hidden.0.bias f4 [64]
000000 99 c7 88 bd ec e5 2b 3d 0c 23 dd 3d 15 88 de bd
       -0.06678695 0.041967317 0.107977 -0.10865799
000010 5e 58 ad bc b7 fc cf 3d 8b 51 ea bd 06 4b 2b bd
       -0.0211603 0.101556234 -0.11441334 -0.041819595
000020 9a 5e 85 3d c2 47 0c 3e 00 b5 51 3d 24 2a 29 bd
       0.065121844 0.13699248 0.051198006 -0.041299954
000030 54 e9 c5 bd 08 2d 8f bd 17 d1 72 bd 2a 2a de 3d
       -0.096636444 -0.06991011 -0.059281435 0.10847886
000040 49 bb f2 3d c1 ba 3a 3d 29 31 76 3d a1 a9 f4 bd
       0.11852128 0.04558826 0.060105477 -0.11946417
000050 d5 c4 bb bd ea ee ff 3d 1a bf 46 3c f0 61 81 bd
       -0.09168402 0.12496741 0.012130523 -0.06317508
000060 d1 c6 36 3c fd db 87 bd f4 e6 94 3d af 7d a4 3b
       0.0111558 -0.06633756 0.07270613 0.0050198655
000070 0b 3f e1 bd f8 7a df 3c c7 87 b2 bd 7b e3 62 bd
       -0.109983526 0.027280316 -0.08717304 -0.055392724
000080 84 dd 33 bd 04 e9 c6 bd 38 0b 7f bb 8e 5b e5 3d
       -0.043912426 -0.09712413 -0.00389166 0.11199103
000090 60 b9 bd bd bf 75 71 3c 93 a1 f3 bd da 59 a8 bd
       -0.09263873 0.0147375455 -0.11896052 -0.08220263
0000a0 00 b0 fb bd 0f bf 1f 3d b8 39 4f bb 45 a1 95 3d
       -0.12289429 0.039000567 -0.0031620096 0.0730615
0000b0 95 ea fc bd 86 9b 01 3e fa a2 5e 3d 54 c6 79 bd
       -0.123494305 0.12656984 0.054354645 -0.060980156
0000c0 fe 41 e9 bc 07 04 28 3d 9c cb cc bd 94 44 e4 bd
       -0.02847385 0.041019466 -0.09999773 -0.11145893
0000d0 25 c0 9d 3d c0 69 82 bd d6 5c f9 bd 35 27 d7 3d
       0.07702664 -0.063678265 -0.1217591 0.10505525
0000e0 8b 19 e1 bd 67 63 28 bd 8d a2 a8 3d 32 60 0a bb
       -0.109912 -0.041110422 0.08234129 -0.0021114466
0000f0 d7 e3 66 3d e9 2c b4 3d aa 1f dc bd bf 33 36 3d
       0.05636963 0.087976284 -0.10748227 0.044482943

hidden.1.weight f4 [64, 64]
000000 ea 30 3d bd 48 b9 b0 3d 22 c4 9b 3d df 90 7e bc
       -0.046189226 0.086290896 0.07605769 -0.01553747
000010 f9 16 c1 3d 7e 21 e1 3c 28 b3 52 3c a7 c7 08 3e
       0.0942821 0.02748179 0.012860097 0.13357411
000020 45 d0 c2 3d 00 17 cc bc bb d5 78 3d 38 3f 06 3e
       0.095123805 -0.024913311 0.060750704 0.13110054
000030 8c d2 97 3c d2 a2 75 bc 3e 2c a9 bd a4 fe a0 3c
       0.018533014 -0.014992433 -0.08260392 0.019652672
000040 d4 e0 55 bb bf 56 b3 bb 83 33 4f 3d a0 ca f1 3d
       -0.0032635229 -0.0054729874 0.050586235 0.11806226
000050 bc eb 2c bc cd 91 90 3c 58 14 76 bd 5c ad 2c 3d
       -0.01055425 0.017647648 -0.060077995 0.042157516
000060 dc d6 b8 3d 20 f0 c9 3c 87 dc dc bc 35 d5 b6 3d
       0.09025356 0.024650633 -0.026960624 0.08927385
000070 ec ed 7e 3d 6c 93 34 3d 3c fd 7c 3c bb cd b7 3d
       0.06223862 0.044085905 0.015441235 0.08974787
000080 29 5d 57 bc 03 26 f1 3d 2f c0 a0 3c ca bf be 3d
       -0.01314477 0.11774828 0.01962289 0.093139246
000090 07 33 54 3c 4c 92 b1 bd ba 1a f5 bd c7 e3 fd bd
       0.012951619 -0.08670482 -0.11967988 -0.12396961
0000a0 32 54 bb 3d 24 f0 0f 3d e9 37 6d bd 80 fb bd 3c
       0.09146918 0.035141125 -0.05791465 0.023191214
0000b0 6f d6 e7 bc ff 83 02 be 33 d3 07 be 14 ef f4 3d
       -0.028300492 -0.12745665 -0.1326416 0.11959663
0000c0 00 8c 07 be 75 5c 34 bd 55 ad f6 bd 4b 8b 54 3d
       -0.13237 -0.044033486 -0.12044779 0.051890653
0000d0 91 9e c2 3d 3f cf 32 3d c5 94 e6 bd ee 5f ce 3d
       0.095029004 0.043654677 -0.11258844 0.10076891
0000e0 f4 ad 1f 3a 2c 33 dd 3d 90 84 57 bd df 87 88 bd
       0.00060912897 0.10800776 -0.052616656 -0.0666654
0000f0 82 0d 99 bd 4b df f6 3d 52 62 bc 3d 19 fe 36 3d
       -0.074732795 0.120543085 0.091984406 0.04467592
000100 89 1c 44 bd 3d 0f 1e bd e3 e3 6f 3d 11 5f f9 bd
       -0.047878776 -0.03858875 0.05856694 -0.121763356
000110 55 c9 a2 bd 81 ea 77 3d 01 d3 ef bd 3a bd 79 bd
       -0.07948557 0.060526375 -0.11710168 -0.060971476
000120 f5 36 03 bd f7 4f a8 3d 54 9c af 3d d8 95 ed 3d
       -0.032034833 0.08218377 0.08574739 0.11600846
000130 68 ad 91 3d d1 fc be bd 77 1b 95 3d 03 a3 3d 3c
       0.07113153 -0.09325565 0.07280629 0.01157451
000140 be 71 8b bd e9 ee a1 bc 60 38 7a bd c3 e6 42 bd
       -0.06808804 -0.019767242 -0.06108892 -0.047583353
000150 da ff 87 3d cf 8b e3 bd 61 ba 6d 3d 56 5d da 3c
       0.06640597 -0.11110651 0.058039073 0.026655834
000160 3e 56 81 bd cd fb 9f 3d ed f6 ae bd 2f 7d 1a 3c
       -0.063152775 0.07811699 -0.08543191 0.00942926
000170 16 8d bb 3d 62 4c 84 3d c8 7e 4d bd 27 35 ae bc
       0.091577694 0.06459881 -0.050169736 -0.02126558
000180 5a c6 2c bd fa ee ad bd 20 cb e6 bd 94 d6 ba bd
       -0.04218135 -0.08492847 -0.11269212 -0.09122959
000190 d5 88 78 3d c3 a9 80 bd 97 e9 96 bc 6e ce cf 3c
       0.06067737 -0.062823795 -0.018421931 0.025366988
0001a0 f4 86 ec bd 21 c0 d8 3d 58 5a b1 bd 78 4f 21 bd
       -0.11549178 0.10583521 -0.0865981 -0.039382428
0001b0 28 5b d9 bd 1a 66 dc bd 4f aa c9 3d 74 a6 2c bd
       -0.1061309 -0.10761662 0.09846937 -0.04215093
0001c0 13 e5 93 3d 52 dc 33 3d 26 17 c0 bd 63 a1 07 be
       0.07221427 0.043911286 -0.09379415 -0.13245158
0001d0 2c 32 24 bd f3 fb b1 bd c3 71 db 3d 01 41 32 3d
       -0.04008691 -0.086906336 0.10715058 0.043519024
0001e0 71 39 7f 3d 17 fe b2 3d ab cd 89 3d 05 81 e9 3d
       0.06231064 0.0873987 0.06728681 0.11401562
0001f0 52 74 82 bb 96 f8 3c bd dc 77 76 bd c2 f8 77 bc
       -0.0039811516 -0.046135508 -0.0601729 -0.015134992
000200 cf 9a aa bd 9b 0f ab 3d ee 28 64 bc 7d 36 d6 bc
       -0.08330309 0.08352586 -0.013925774 -0.026149029
000210 8e 7f ec bd 8c ee 9d 3d 94 77 f5 bc 74 95 60 bd
       -0.115477666 0.07711515 -0.029964246 -0.05483003
000220 36 d9 a8 3c 2c 70 2c bd 3e 59 57 bd 03 b1 ae bd
       0.020611387 -0.042099163 -0.052575342 -0.08529856
000230 e7 06 eb bd bd b7 8c 3d dd d8 94 bc b5 68 a8 3d
       -0.11475926 0.06870983 -0.018169815 0.08223096
000240 4e 5b a1 bd 9a 9f a5 bd 4a 34 d2 3d 5d db 1a 3b
       -0.07878743 -0.08087082 0.102638796 0.0023629286
000250 5c fd e6 bd 1e a1 62 3d df 71 f9 bd 95 dd a8 bd
       -0.11278793 0.055329435 -0.12179922 -0.082453884
000260 32 e5 26 3d 0f ac 40 3d db fd ec 3c a0 18 e1 3d
       0.04074592 0.047039088 0.028929641 0.10991025
000270 6a ed a3 3d 0a 37 0b bd 00 88 8b 3d d5 c5 e8 3d
       0.080042675 -0.033988036 0.06813049 0.113658585
000280 58 18 3a bd 27 71 f5 3d 67 51 df bd 0e 30 88 bd
       -0.045433372 0.11984473 -0.10904198 -0.06649791
000290 65 62 c1 bd 5a 97 99 bd 82 39 d8 bd 2b 60 d0 3d
       -0.094425954 -0.07499571 -0.10557844 0.101745926
0002a0 84 f3 1d bd a6 68 4a bc d8 1d 90 3d c0 31 a9 3d
       -0.038562313 -0.012354052 0.07036942 0.08261442
0002b0 de 9d 13 3d ad 4c 83 bd 1e fa eb 3c ed ed ec bd
       0.036039226 -0.06411109 0.028805789 -0.11568818
0002c0 72 b3 92 bd 48 ee 56 3d 85 cc ba 3d d3 24 a0 3d
       -0.07163133 0.052473336 0.0912104 0.07819524
0002d0 47 6a c9 3d aa 13 d7 3d 17 21 e4 3d 65 d7 e7 3d
       0.09834724 0.105017975 0.11139124 0.1132038
0002e0 b5 96 db 3c c7 74 b8 3c 01 27 5e 3c 15 e2 b2 bd
       0.026805261 0.022516621 0.013559104 -0.08734528
0002f0 a2 20 06 3e b3 14 c6 bd 5b 6e 11 3d ea e2 b3 3c
       0.13098386 -0.09671917 0.035505634 0.021958787
000300 c4 31 a1 bb 1e 18 ee 3c c4 f0 96 bd c0 2f 9a 3d
       -0.0049192626 0.029064234 -0.07370141 0.07528639
000310 8d 0c 09 bc 60 55 a0 bd 4e 31 82 bd 55 93 80 bd
       -0.008364809 -0.07828784 -0.063570604 -0.06278101
000320 ca a9 1b 3d 72 f6 07 3c f7 62 c6 3d 6c fd 9a 3d
       0.03800372 0.008298503 0.09686845 0.07567868
000330 94 f4 5b bb 0f 27 e6 3d d9 21 73 3d a6 60 bd bc
       -0.0033562528 0.112379186 0.05935845 -0.023117375
000340 d0 34 e6 bd 58 a0 22 3d f0 0e b2 3d 0e df aa 3d
       -0.11240542 0.039703697 0.08694255 0.083433256
000350 57 cc 75 bd e8 d4 bd bd 4c 16 65 3d 65 b8 2c 3d
       -0.060009327 -0.09269124 0.055929467 0.04216804
000360 0d ce 2a bc 09 fb 70 3d f4 1c cc bd 49 12 da 3d
       -0.010425103 0.058833156 -0.0996646 0.10648019
000370 5c 52 fc 3d 92 11 ec bd d4 62 e9 bd ca 5a c7 bd
       0.12320396 -0.11526789 -0.11395803 -0.097341135
000380 35 59 12 3d ab 8e 2f bd 49 41 a9 3d 67 85 86 3d
       0.035729606 -0.04286067 0.08264405 0.06568413
000390 c1 55 2b bd cd b0 80 bd 82 13 d8 bc ab 5b 8f bd
       -0.04182983 -0.06283722 -0.02637649 -0.06999906
0003a0 46 af f7 bd dc 81 bb bd 91 5b 7f 3d 98 e6 6a 3d
       -0.12093978 -0.09155628 0.062343184 0.057348818
0003b0 80 e9 4f bb b3 d7 c1 3d 26 f1 b5 3d 47 33 51 bd
       -0.003172487 0.094649695 0.08883886 -0.051074293
0003c0 e5 76 8a 3a a1 87 fa 3d 2e 2e c6 bd 39 89 a8 bd
       0.0010563998 0.122329004 -0.09676777 -0.08229298
0003d0 df 2f 23 bb e6 09 b1 3d a1 05 64 3c 41 ad 54 bd
       -0.002490036 0.08644466 0.013917358 -0.05192304
0003e0 2f d4 24 3d 85 12 a6 bc 54 10 dd bd 81 22 88 bd
       0.040241417 -0.020272503 -0.1079413 -0.06647206
0003f0 55 0f 06 3e 79 d8 a0 bd e7 17 f7 bd c0 ed 00 3e
       0.13091786 -0.07853789 -0.12065106 0.12590694

hidden.1.bias f4 [64]
000000 e3 86 34 3d 8d 7b bd bb 89 9f 30 3d 43 58 f4 bb
       0.04407395 -0.0057825507 0.043120895 -0.0074568107
000010 d8 b4 a9 bc 13 b3 87 3d ef d2 3e 3d 10 67 94 bd
       -0.020716116 0.066259526 0.04658788 -0.0724622
000020 46 da eb bd 36 5d fb bd 1d 87 b4 bd 50 31 09 3d
       -0.11516242 -0.12273638 -0.08814833 0.033494294
000030 0e b2 88 bd d1 56 93 3d 38 64 11 3d fa df 8c 3d
       -0.06674586 0.07194293 0.035495967 0.06878658
000040 94 06 89 bd d4 f8 2e 3d 21 5a 44 bd b6 f7 d0 3c
       -0.06690708 0.04271777 -0.047937516 0.025508743
000050 e4 ce 75 bd 3f d7 ac 3c ff cb 5b bd 2f 25 62 3d
       -0.06001176 0.021098731 -0.053661343 0.055211242
000060 47 15 87 bc 34 14 a6 bd 47 1e c8 bd c8 28 69 bd
       -0.016489638 -0.08109322 -0.097714 -0.056923658
000070 fc c1 b1 3d cf 47 9b 3d c8 71 08 3d d3 d7 0a 3e
       0.08679578 0.07582056 0.033311635 0.13558893
000080 35 4a 72 bd 53 5c 98 bc 0b a2 9f 3d 04 97 3c 3b
       -0.0591528 -0.018598711 0.07794579 0.0028776536
000090 11 ca f2 3d 1d 1b f2 3d 3b 89 e8 3c 3b 58 74 bc
       0.11854947 0.11821578 0.02838575 -0.014913614
0000a0 c9 ee b3 3b ae f6 8b 3d f3 bc a1 3d bc 33 dc bd
       0.005491112 0.0683416 0.07897367 -0.10752055
0000b0 f8 db c7 3b 7a 4f c5 bc 40 19 86 bd c6 d2 f1 bd
       0.0060992204 -0.024085749 -0.06547785 -0.1180778
0000c0 52 1b dc bd ac 66 96 bd e9 1e 0e 3d cf b3 c0 3d
       -0.107473984 -0.07343802 0.034697447 0.09409296
0000d0 24 59 84 3b f9 3c 96 3d c6 57 de bd e8 e4 0b 3e
       0.0040389467 0.07335848 -0.10856585 0.1366154
0000e0 69 78 d6 bd 3b db 07 be 54 91 46 bd 90 c3 07 3d
       -0.10472185 -0.13267224 -0.04847844 0.033145487
0000f0 52 78 87 bc 1c 4f af 3d 64 cf 83 3d 5a fe b0 bd
       -0.016536865 0.08560011 0.06436041 -0.08642264

hidden.2.weight f4 [64, 64]
000000 4c 0b 5a 3d 80 d4 30 bc 30 71 ee 3c 90 7c 2a 3d
       0.05323343 -0.010792851 0.029106706 0.0416227
000010 80 40 19 3b 70 63 84 bc d4 63 1d bd 78 50 da 3c
       0.0023384392 -0.016160697 -0.03842528 0.026649699
000020 b0 aa ba bd 70 2f b6 bd a4 c1 eb bd 18 e1 be 3d
       -0.09114587 -0.08895767 -0.115115434 0.09320277
000030 b0 0d 78 3d 00 87 d6 bd 00 54 ef 3b 28 04 f4 bd
       0.06055993 -0.10474968 0.0073037148 -0.11914855
000040 80 cf 78 bd 78 94 e2 3d 64 bb 59 3d 7c aa 01 3d
       -0.060744762 0.110634744 0.053157225 0.031656727
000050 22 fb dd 3d 00 a8 e2 3a 58 99 c4 bc 6c f2 65 3d
       0.108389154 0.00172925 -0.023998901 0.056139395
000060 ba 8f bc bd c4 13 7f 3d 22 fc ad bd 60 7c aa 3b
       -0.09207101 0.06227471 -0.08495356 0.005202815
000070 4e 3f 94 3d f6 81 cc bd 50 c1 65 bc 34 c0 2d bd
       0.07238637 -0.099857256 -0.01402314 -0.042419627
000080 5c c6 46 bd 1a 18 9a 3d cc d7 ea 3d c6 60 bf bd
       -0.048529014 0.07524128 0.11466941 -0.0934463
000090 42 56 b2 bd b0 97 1c 3d 78 b8 a3 bd c8 3b f3 bc
       -0.087078586 0.038230598 -0.07994169 -0.029691592
0000a0 c0 f0 11 3b 20 0e 37 3c 38 c1 74 bd 30 0a 7c bd
       0.0022268742 0.011172801 -0.05975458 -0.061533153
0000b0 e0 5f a8 bc 70 6d 18 bc f6 50 bf bd 1c 45 54 3d
       -0.02055353 -0.009303436 -0.09341614 0.05182372
0000c0 c0 d1 fe 3c f4 03 14 3d e6 05 9b bd 04 3b 50 bd
       0.031105876 0.036136582 -0.075694844 -0.05083753
0000d0 20 58 c3 3c 54 9e b4 3d ca b5 83 3d 18 6e 12 3d
       0.023845732 0.08819261 0.06431158 0.035749525
0000e0 98 b8 42 3d 74 86 cd bd f0 25 ad bc 10 a4 92 bd
       0.047539324 -0.100354105 -0.021136254 -0.07160199
0000f0 80 59 0a bd 2c 7a 37 3d 70 5c fe 3d 24 2a 7b 3d
       -0.03377676 0.044794247 0.12419975 0.061319485
000100 c0 a6 17 bd 49 79 87 3d 8b 77 51 3d aa ba e9 3c
       -0.03702426 0.0661493 0.051139396 0.028531391
000110 b8 da 07 bd db c8 b0 3d 03 eb 2e bb 94 2a a0 bd
       -0.03316757 0.0863206 -0.002669037 -0.07820621
000120 18 fb fa bc 16 09 df 3d 9b 8e 67 bd 8f 87 4b 3c
       -0.030637309 0.10890405 -0.056532484 0.012422456
000130 9c 3e 6c 3d 4a 85 a2 3c 5f 99 f6 bd e3 7c 19 bd
       0.057676896 0.019838948 -0.12040972 -0.037472617
000140 f5 91 a9 bd bb 69 a2 3d e7 ca e4 3d c9 b6 02 3d
       -0.08279792 0.07930323 0.11171513 0.0319126
000150 ca ae b6 3d 3f 1d be 3d de ae 9e b8 c5 40 9a bd
       0.08920057 0.09282922 -7.566599e-05 -0.07531885
000160 6c d6 85 3d 5e 6c e6 3d 95 c9 55 3d 20 6d b1 3c
       0.06535038 0.11251138 0.052194197 0.02165848
000170 6d 87 b7 3d 6d d8 ea bd 7e f1 e9 3a a5 ab a0 bd
       0.08961377 -0.11467061 0.001784846 -0.078452386
000180 bb f3 a9 3d 82 c9 95 bd b3 1d d2 bd 6a 26 99 3d
       0.08298441 -0.07313825 -0.10259571 0.0747803
000190 9c e1 73 bd 35 0a 5f 3d 9d f6 94 3b d0 6c 66 bd
       -0.05954133 0.054453094 0.004546 -0.056256115
0001a0 17 e0 a0 3d 8d 1f 49 3c 5a 9b 09 bd b0 48 fb bd
       0.07855242 0.012275589 -0.03359542 -0.122697234
0001b0 b7 54 a7 3d 15 04 44 3d 3d 3b 8f 3d 04 c6 4d bd
       0.08170455 0.047855455 0.06993721 -0.05023767
0001c0 80 ff 2a bb 16 8a ad 3d 19 61 cf bd 0d f5 c3 bd
       -0.0026092231 0.084736034 -0.10125942 -0.09568224
0001d0 3e 1e 05 bd 01 f4 25 3d c0 70 98 3d b1 25 21 3d
       -0.032499544 0.040515903 0.0744338 0.039342586
0001e0 ec 8b 81 3c dc 63 0f bd 3b a0 cf bd 2c ab 8f 39
       0.01581379 -0.035007343 -0.101379834 0.00027402618
0001f0 d7 db f4 3d 40 ec a2 3d db 53 ef bd a0 eb d3 3c
       0.119559936 0.07955217 -0.11685916 0.02586919
000200 f3 cc f1 3d 11 a8 6c 3d d7 6d 09 be bc 2f 26 3b
       0.11806669 0.057777468 -0.13420807 0.0025358042
000210 ac aa 9f 3d 97 ee bf 3d ad 5d 81 bd b2 d4 94 3d
       0.07796225 0.09371679 -0.06316695 0.07267131
000220 20 36 89 3b 90 6f 15 bc 3d b8 a6 bd 72 83 da bd
       0.0041873604 -0.009120837 -0.081406094 -0.106696025
000230 85 e0 20 3d 9c b0 ed bd 9d 4c f5 bd ea f5 22 3d
       0.03927662 -0.11605951 -0.119775034 0.039785303
000240 8a 1b a1 3d f6 c5 00 bc 24 3e 92 bd a5 a2 a8 3d
       0.07866581 -0.007859698 -0.07140759 0.08234147
000250 2c 20 22 3d fb ac 92 3d f8 09 e0 3d 04 ef 6a 3d
       0.039581463 0.071619 0.109394014 0.05735685
000260 6b f2 60 bd 84 89 3f bd 6e 8a 22 bd 80 45 d2 bd
       -0.054918688 -0.046762004 -0.039682798 -0.10267162
000270 fe af 8d 3c fd 24 32 3d 3f 85 5d bd cb e6 33 bd
       0.017295834 0.043492306 -0.05408215 -0.043921273
000280 bb 84 0d 3c 8d 62 bb 3d dd e2 ba bd 98 b5 1f bd
       0.008637602 0.091496564 -0.09125302 -0.03899154
000290 24 6a 82 3d e1 8d 9b bc b8 97 08 be 54 4e fe 3d
       0.06367901 -0.018988552 -0.13339126 0.12417284
0002a0 30 f7 46 3c f0 2f a0 bd c6 96 84 3b a2 19 d7 3d
       0.012143895 -0.07821643 0.004046294 0.10502936
0002b0 7e 4b c7 bc 2a ab 50 3d 43 da bb bc 68 c2 82 3c
       -0.02432799 0.050944485 -0.022931224 0.01596184
0002c0 06 31 84 3d fb b0 c9 bd 44 d8 64 bd 85 f7 25 3c
       0.06454663 -0.098482095 -0.05587031 0.010129814
0002d0 1e 95 a7 3c 59 8c 0c 3d 80 d7 16 3b 4c 5f 68 3d
       0.020456847 0.034313533 0.0023016632 0.056731507
0002e0 36 00 a1 3d e3 51 0c 3d d4 59 0a 3d 1f 16 eb 3d
       0.07861368 0.03425778 0.033777073 0.11478829
0002f0 ba f9 ab 3d cb a1 3c 3b b9 1a 64 3c dc 89 2a 3d
       0.08397241 0.002878296 0.013922387 0.04163538
000300 aa ba 80 bd f0 16 62 bd a4 ae 64 bd 24 a3 ed 3d
       -0.06285603 -0.055197656 -0.055830613 0.11603382
000310 50 ac be bc fc 20 c2 bd f0 0d 59 3d 68 dd 58 bd
       -0.023275524 -0.094789475 0.052991807 -0.052945524
000320 ac 46 3c 3d d4 3c 94 3d 28 bb 87 bd 5c 2b 01 3d
       0.045965835 0.072381645 -0.06627494 0.03153549
000330 c0 93 4a bc 40 cb 5b bd 5e 2d e0 3d b0 84 de bd
       -0.012364328 -0.05366063 0.10946153 -0.10865152
000340 f0 cb f9 bc f8 1e aa bc de df 94 bd f6 ad fd 3d
       -0.030492753 -0.02076672 -0.07269262 0.12386696
000350 ec 10 23 3d f0 e0 24 3d a0 c0 5a bd 20 0e b9 3d
       0.03981106 0.04025358 -0.053406358 0.09035897
000360 94 db 8f bd fe 76 f2 bd 92 d5 a8 3d 04 a6 8f 3d
       -0.07024303 -0.11839102 0.0824386 0.07014087
000370 f4 9b 3e bd c4 88 74 3d 2c 57 e7 bd 00 5f 4d bd
       -0.046535447 0.059700742 -0.112959236 -0.050139427
000380 62 cf 92 3d 14 c6 b6 3d 00 ca 0c bd 90 01 24 3c
       0.071684614 0.08924499 -0.03437233 0.010010138
000390 96 8b ef bd 00 08 3e 3c 40 5b f4 3d 6a 6f 8f 3d
       -0.11696546 0.011598587 0.11931467 0.070036724
0003a0 6c a4 e2 bd 68 54 d3 3d 40 94 96 3c 00 41 bc 3b
       -0.11066517 0.103188336 0.018381238 0.0057450533
0003b0 c0 00 37 3b 3a c9 86 bd 78 db 47 bd d8 e6 5f 3d
       0.002792403 -0.0658135 -0.048793286 0.05466351
0003c0 40 8b 77 3d f0 7e 2c bd 04 a4 a5 bd 90 9f 5b 3d
       0.060435534 -0.042113245 -0.08087924 0.053618968
0003d0 a8 e8 a2 3d 04 fc 84 3d 34 25 7d 3d a8 60 65 bd
       0.07954532 0.06493381 0.061803058 -0.05600038
0003e0 0c ab 40 3d 70 cc d3 bc 88 b0 cd bc 98 53 9d bd
       0.047038123 -0.02585432 -0.02510859 -0.0768196
0003f0 80 8a 15 3c d0 76 9e 3c a6 55 9a bd b6 15 b9 3d
       0.009127259 0.019343764 -0.075358674 0.09037344

hidden.2.bias f4 [64]
000000 ae 11 f5 bd bb 30 1e 3c 08 84 01 3d 18 0a de bd
       -0.11966263 0.009655173 0.031620055 -0.10841769
000010 ac 66 cc bd 0c 88 fe 3d e3 83 45 bd c4 76 d1 bd
       -0.099805206 0.12428293 -0.04822148 -0.10227731
000020 8b 1d ac 3d 94 59 e4 bd 42 8c b7 bd f1 21 c2 bc
       0.084040724 -0.11149898 -0.08962299 -0.023697825
000030 f4 65 c5 bd 80 51 e5 3d f2 7a f7 bd 3e 31 8b bd
       -0.09638587 0.111971855 -0.12083997 -0.067965016
000040 2c aa af bc 54 f9 e9 bd e8 15 a2 bc b4 a5 08 3e
       -0.021443449 -0.11424509 -0.019785836 0.1334446
000050 75 b7 b4 3d 8c f2 51 bd d8 be 83 bd e0 57 e1 bc
       0.08824054 -0.0512567 -0.06432885 -0.027507722
000060 50 d7 2a bd 82 48 8e 3d e8 10 09 3d d8 c5 cf bd
       -0.041709244 0.069474235 0.03346339 -0.101451576
000070 94 48 5e bd 53 c0 e4 3c 08 4a fd bc ee b5 ee bd
       -0.054268435 0.027923739 -0.03091909 -0.11655794
000080 de ec 81 3d b8 1e e5 3d 30 0b 8d 3d e5 ef d8 3d
       0.06344007 0.111875 0.068868995 0.10592631
000090 b8 0f 95 bd d2 7f 8e 3d e0 4d fe bc f7 23 00 3d
       -0.07278389 0.069579735 -0.031042993 0.0312843
0000a0 86 e1 89 3d c9 de 9c bd 33 4e cc 3d b4 ec 9a bd
       0.06732468 -0.076596804 0.09975853 -0.07564679
0000b0 c8 2e e9 bd b3 8e 5c 3d f6 7b a2 bd fa 2a aa 3c
       -0.11385876 0.053847026 -0.079338 0.020772446
0000c0 34 47 0b bd ec ad 7a 3d 40 30 24 bb e9 4f 04 3e
       -0.03400345 0.06120102 -0.0025053173 0.12921108
0000d0 50 43 82 bc 82 b1 95 3d db f4 f7 3c 93 ca 84 bd
       -0.015901238 0.073092476 0.030268123 -0.064839505
0000e0 98 a7 69 bd 7c 7d a8 3c c9 2b eb 3d c6 96 ab bd
       -0.057044595 0.020567648 0.11482961 -0.08378367
0000f0 18 0b 86 bc 94 60 f2 bd 59 32 0e 3c f0 50 46 3d
       -0.016362712 -0.11834827 0.008678996 0.04841703

hidden.3.weight f4 [64, 64]
000000 74 29 23 bd ab 34 a2 3d a5 0e d9 3d 9c 6b 03 bd
       -0.039834455 0.07920202 0.10598496 -0.032085046
000010 b2 14 d3 3d 18 bc b1 bd ea 27 34 3c 00 33 97 3b
       0.10306682 -0.08678454 0.010995844 0.004614234
000020 66 ef 14 be 46 fb d2 3d ca 9d b3 3d c6 eb 5c 3d
       -0.14544448 0.10301833 0.0877033 0.05393579
000030 9c 5c 7d bd 06 ec f7 3d 74 0f f1 bd c0 81 85 3b
       -0.061855897 0.12105565 -0.117705256 0.0040743053
000040 01 e0 64 3d 94 2e 5c bd 2e 31 c6 3d 9b fa 11 bc
       0.05587769 -0.053755358 0.09677349 -0.008909847
000050 51 8d 2f 3d 54 71 a2 3d c6 ad ac bc 70 d4 b8 bc
       0.04285938 0.07931772 -0.021078955 -0.022562236
000060 f6 eb 9b bd 12 d2 7b 3d c3 f9 40 bd 4a bb cb 3d
       -0.07613365 0.061479636 -0.04711319 0.09947832
000070 c4 4f 04 bd 71 5c 97 bc 50 f9 03 3c e2 76 e6 bd
       -0.032302633 -0.018476697 0.008055046 -0.11253144
000080 18 02 56 3d 0e 00 c7 3d 5d 5b 81 bd 52 e7 de 3d
       0.05224809 0.09716807 -0.06316254 0.108839646
000090 f7 02 c5 bc 54 c7 90 bc b0 af 54 bc 35 84 55 3a
       -0.024049265 -0.017673172 -0.01298134 0.00081450056
0000a0 42 b1 59 bb a2 16 cf bd dd 9b df 3d e0 ba f7 3c
       -0.0033217226 -0.10111739 0.109184004 0.030240476
0000b0 fc 26 a1 bd a5 9e e4 3c 40 81 ba bd 1e c0 12 bd
       -0.07868764 0.027907679 -0.09106684 -0.03582775
0000c0 00 36 01 3d c0 5d 97 3c bc 7c 3f bd 83 b6 f9 bd
       0.03154564 0.01847732 -0.046749815 -0.121930145
0000d0 12 27 86 3d 0e 6c be bd 35 b5 da bc fe 08 fb 3c
       0.06550421 -0.092979535 -0.026697734 0.030643936
0000e0 70 64 4c bd 62 39 b6 3d 32 6f 19 3d a6 29 c1 3d
       -0.049900472 0.08897664 0.03745956 0.09431772
0000f0 d0 5c f2 3c 84 46 46 3d af 5d 1f 3d 15 3f cd 3d
       0.029585272 0.048407093 0.038907703 0.100217976
000100 22 d5 f1 bd 42 13 c9 3d cb 32 3d bd b2 cb 95 3d
       -0.1180823 0.09818126 -0.046191018 0.073142424
000110 26 38 85 3d c5 52 04 be 0d 56 08 bc c2 68 de 3d
       0.0650485 -0.12922199 -0.008321297 0.10859825
000120 c2 dc 81 bc 80 3c f4 bc 26 b5 d3 bd 04 36 44 3c
       -0.015852336 -0.029814005 -0.10337286 0.011975769
000130 fa 4f f4 3d 5e 7f cb bb 90 3d 0f bd c0 70 a8 3b
       0.11929317 -0.0062102517 -0.03497082 0.005140394
000140 43 7b 0c 3e e0 c7 82 bb fa 5b f4 bd 06 42 8b bd
       0.13718896 -0.003991112 -0.11931606 -0.06799702
000150 41 62 03 3e 20 84 e6 3c 48 0b 8b bd 60 c3 c4 bd
       0.1283045 0.028139174 -0.06789261 -0.09607577
000160 60 76 90 3d af 91 8e bd bd 74 ea 3d 80 59 43 bc
       0.07053828 -0.06961381 0.11448047 -0.011923194
000170 8c 89 74 bd 5c fb 63 bd bc f8 1f 3d c0 d6 57 bd
       -0.059701487 -0.055659637 0.03905557 -0.052695036
000180 39 de c0 bd 69 dc 18 bd bd 3e 8e bd 06 4a ee bd
       -0.094173856 -0.037319575 -0.0694556 -0.116352126
000190 2a b8 a9 3c be 50 e1 bd c8 ac 41 bd 5f 2b d1 3d
       0.0207177 -0.110017285 -0.047283918 0.102133505
0001a0 b7 45 cd bd 1c bf 31 bb f2 88 1b 3b 14 0b a4 bd
       -0.10023063 -0.0027121967 0.0023732749 -0.080099255
0001b0 3c 54 d1 3d a0 8a 7f 3d d0 69 59 bc 7f 03 7a bd
       0.102211446 0.062388062 -0.013269857 -0.06103849
0001c0 00 5f a8 bd bc 99 c0 3d 98 db 0c bd 26 07 63 3d
       -0.08221245 0.094043225 -0.03438911 0.05542674
0001d0 da 01 d3 bd e4 01 68 bc 96 6a 9e 3d f0 44 a8 bd
       -0.103030875 -0.014160607 0.077351734 -0.08216274
0001e0 f2 9c 6b 3d a6 6d 8f 3d 2d 4e 9c 3d 80 25 be 3c
       0.05752272 0.07003336 0.07632098 0.02321124
0001f0 44 c3 4b bd ca 5e bd 3d 2b c1 07 bc a3 c3 0b 3e
       -0.049746767 0.09246595 -0.008285801 0.13648848
000200 88 e6 a5 bd 2c 05 b4 bc 53 54 0a 3b 34 f7 85 3d
       -0.08100611 -0.021975122 0.002110739 0.06541291
000210 00 70 2f 39 b5 be 91 3a 41 4e f6 bc 00 e6 b0 bc
       0.00016731024 0.0011119457 -0.030066611 -0.021594048
000220 28 5a c4 3d ec 64 6f 3d 0c 36 02 bd 27 7f fa bd
       0.095875084 0.058445856 -0.031789824 -0.12231284
000230 d8 82 a6 3c 9d 68 f0 bd b8 a6 c7 3d be 30 c1 3d
       0.020326063 -0.117387034 0.09748596 0.09433125
000240 11 af 39 bc 6a f2 ca bd 34 de c3 bd 3e 25 a9 bd
       -0.011333243 -0.09909518 -0.09563866 -0.082590565
000250 40 af 72 bc 1a 3b df 3d 78 32 d9 3d 52 08 c8 bd
       -0.014812291 0.108999446 0.10605329 -0.09767212
000260 8e 48 bd bd 06 62 4c bd df fd f8 bd 78 59 ae 3d
       -0.09242354 -0.04989817 -0.12157797 0.085131586
000270 b0 b9 19 3c 04 47 10 3c 20 2b 9e 3b 82 20 d9 3d
       0.00938265 0.008805994 0.0048269182 0.106019035
000280 6a 17 48 bd 86 e2 72 3d f8 f0 6d bd 70 87 f2 3c
       -0.048850454 0.05929806 -0.058091134 0.029605597
000290 2c e9 2e bd 48 47 b1 bc 9c fb 94 bd 59 57 95 3d
       -0.04270284 -0.021640435 -0.07274553 0.07292051
0002a0 fd 38 d9 bd 4b 3e aa 3d bc d1 5c bd 54 90 45 bd
       -0.10606573 0.08312663 -0.053910956 -0.048233345
0002b0 ec d8 96 3d 5f 79 d1 bb 90 eb 5b 3c d2 7b f2 bd
       0.07365593 -0.0063926424 0.013422862 -0.11840023
0002c0 c0 48 4e bd f8 05 46 bc 80 be 8f 3a f2 ad 3d 3c
       -0.05036235 -0.012086384 0.0010966808 0.011577116
0002d0 a0 12 32 3d 5f 0b 51 3c 26 b4 ad bd cc 50 e9 bd
       0.043474793 0.012759059 -0.08481626 -0.11392364
0002e0 97 17 8d bc e7 bf 8b bd c0 6a 02 bd 98 65 c9 bc
       -0.017223163 -0.06823712 -0.031840086 -0.024584576
0002f0 fc 84 d1 bd 60 e7 94 bd c9 db 00 bd 67 c1 de bd
       -0.10230443 -0.07270694 -0.031459603 -0.10876732
000300 2c e0 86 3d f9 fb 00 3d 8a 55 21 ba 98 52 dc bd
       0.06585726 0.0314903 -0.0006154409 -0.10757941
000310 ec bc 15 bd ba 23 90 3d 39 fa 9b 3d 2e 3a be 3d
       -0.036557123 0.07038064 0.076160856 0.09288441
000320 32 e0 59 bd 20 89 f7 3b e4 57 5b 3d 93 b5 7d 3b
       -0.053192325 0.0075541884 0.053550616 0.0038712963
000330 cc c9 3b bd 17 b9 1f 3d a0 44 e4 bd 40 01 7e bd
       -0.045846745 0.038994875 -0.11145902 -0.06201291
000340 07 49 c4 3d e0 5f 52 bd 10 66 96 bc 6f 4e a6 bd
       0.09584241 -0.051360965 -0.018359214 -0.08120429
000350 a6 0e 8b bc 7c 43 4a bd 26 2e ac 3d 28 46 bc 3d
       -0.016974758 -0.049380764 0.084072396 0.09193069
000360 d6 8e ad bd b3 39 a9 3d d6 8d f0 3d 08 39 72 bd
       -0.084745094 0.082629584 0.11745803 -0.05913642
000370 be ea dd 3d 51 86 dd bd ec 3f d1 bd f4 73 a9 bd
       0.10835789 -0.108166344 -0.1021727 -0.082740694
000380 ed e5 ed 3d 8d 3f 20 bc 57 b2 a7 bd 09 a3 b4 3d
       0.116161205 -0.009780777 -0.081883125 0.08820159
000390 ac 6c 07 3e 90 21 bb bc 28 cc 43 3d 74 23 5a 3d
       0.13225049 -0.022843152 0.04780212 0.053256467
0003a0 ad 88 9f 3d 05 92 03 bd 4b 90 e3 3d 26 c0 91 3d
       0.07789741 -0.032121677 0.11111506 0.071167275
0003b0 bc 67 f1 3d 2b d9 09 3e 08 9c a4 bd 30 49 ff 3d
       0.11787364 0.1346175 -0.08037573 0.12465131
0003c0 7a c7 e6 bd 36 1d 21 bd 68 5f d7 bd ce 58 b3 3d
       -0.11268516 -0.0393345 -0.10516244 0.087571725
0003d0 f8 bd 79 3d 92 ed 9b bc 8a 6b 56 ba 8b 1c a3 bd
       0.060972184 -0.01903418 -0.0008179477 -0.079644285
0003e0 0d 2a b7 3d fe 55 9a bd ef e9 c4 bb f2 73 97 bd
       0.089435674 -0.07535933 -0.0060093324 -0.07395162
0003f0 d0 d8 18 3d f6 1b ae 3d fe 55 f0 bd 38 1f 86 3c
       0.037316144 0.08501427 -0.11735152 0.016372308

hidden.3.bias f4 [64]
000000 75 0a 88 3c 1a 36 8f 3d f7 77 e5 3d 29 81 09 3d
       0.016606549 0.06992741 0.11204522 0.033570442
000010 18 c7 01 bd bb 59 e8 3c 2a 99 ca 3c cc 17 e8 bc
       -0.03168401 0.0283631 0.024731237 -0.02833166
000020 8a ff 28 3d cb 01 c5 3d b0 8a fb bc 58 1d 14 bd
       0.041259326 0.096194826 -0.03070578 -0.036160797
000030 fc 83 29 bd 42 0b fc bd 15 8a 45 3d dc ee 4e bd
       -0.041385636 -0.12306835 0.04822739 -0.050520763
000040 a4 b8 99 bd 41 77 b4 bc 82 d3 01 3e 48 8e 8b 3d
       -0.075059205 -0.022029521 0.1267834 0.06814247
000050 d0 53 a5 3d 22 65 40 3d 91 dd 85 3d cf dc 59 bd
       0.080726266 0.046971448 0.06536401 -0.053189095
000060 64 3b 70 3d 55 0f ff 3d 9e 91 0d bd 03 3e 1e 3a
       0.05865039 0.12454096 -0.0345627 0.0006036462
000070 2d eb 85 3d 1e be 86 bd 99 64 ca 3d 9e d5 91 3d
       0.06538997 -0.06579231 0.09882469 0.07120822
000080 c7 23 38 3d 7c 0e 99 bd 00 b2 c9 3d c0 0d ed 3d
       0.044955995 -0.07473466 0.09848404 0.11574888
000090 a6 14 92 3d 8d fa 82 3d 3e 2b dc bd d2 f7 02 3e
       0.071328446 0.06395445 -0.10750435 0.12789848
0000a0 9a d3 f7 bd 27 d8 72 bc 2f 4b bc 3b b4 58 ee 3d
       -0.12100907 -0.014822043 0.0057462673 0.116380125
0000b0 10 b5 66 bc 89 60 56 3d 05 61 d0 3d 16 de ed bd
       -0.014081255 0.052338157 0.10174755 -0.11614625
0000c0 96 fd 7a 3d ca 23 e2 bd bb 28 84 bc 9f 95 a4 3d
       0.061276995 -0.110419825 -0.016132703 0.080363505
0000d0 f8 e3 e3 bd 2a e1 cd bd 9c 56 d8 bd 24 05 6e bd
       -0.11127466 -0.10052712 -0.105633944 -0.05811037
0000e0 d4 f9 c6 3c 72 29 eb bd f1 d2 0e 3c d9 da c6 3d
       0.02428905 -0.114825144 0.008717285 0.09709711
0000f0 0c 5f b0 3d 9a bd 8f bd 46 d9 46 bd 2a 0b cf bd
       0.08611879 -0.070185855 -0.04854705 -0.10109551
