models/5000epoch.pt (torch_old, 110375 bytes, 13 tensors)

in_layer.weight f4 [64, 96]
0	0x3b8c9a1a	0.0042908313
1	0xbdafc785	-0.08582977
2	0x3d2e758c	0.04259257
3	0x3d4942c0	0.049135923
4	0xbce5db10	-0.028058559
5	0x3dcce9d4	0.10005537
6	0x3ddb0b15	0.10695473
7	0x3ce2c930	0.027683824
8	0xbdba5996	-0.090991184
9	0x3d15c78e	0.036567263
10	0x3da6f68e	0.08152495
11	0xbd9ee978	-0.077593744
12	0xbcf4ed5c	-0.029898338
13	0xbda4cf7b	-0.08047386
14	0x3da99478	0.08280271
15	0xbde74329	-0.11292107
16	0xbcd06daa	-0.025442917
17	0x3d959d88	0.07305437
18	0xbda764d0	-0.08173525
19	0x3d58434c	0.052798554
20	0x3d7133c2	0.05888725
21	0xbcdf608c	-0.027267717
22	0xbd1754fe	-0.03694629
23	0x3dd09e6c	0.101864666
24	0xbd9ded17	-0.07711237
25	0x3deb00b6	0.11474745
26	0xbd2f4df2	-0.042798944
27	0xbc0ebb48	-0.0087116435
28	0xbdced2c3	-0.10098793
29	0xbd9c4372	-0.07630052
30	0x3a486700	0.0007644743
31	0xbd66e57a	-0.05637119
32	0x3dc1793e	0.09446953
33	0x3b5eb200	0.0033980608
34	0xbd9a6aed	-0.07539926
35	0x3d518e8c	0.051161334
36	0xbd207da2	-0.039182313
37	0x3d839214	0.064243466
38	0x3c6ee853	0.014581758
39	0xbda8063a	-0.082043126
40	0xbd176a3c	-0.036966547
41	0x3cf190fe	0.029488083
42	0xbdb3a825	-0.087723054
43	0x3d9e0640	0.07716036
44	0x3dc77ee4	0.09740999
45	0x3de27c92	0.11058916
46	0x3cd4b308	0.025964275
47	0x3db98329	0.0905822
48	0x3d629983	0.05532218
49	0xbdbe914c	-0.09305057
50	0xbc18d46e	-0.009327991
51	0x3d535650	0.051595986
52	0xbd65fabf	-0.056147333
53	0x3db5737e	0.08859919
54	0xbd4ab0b9	-0.049484942
55	0xbd9187da	-0.0710599
56	0x3caba92c	0.02095469
57	0x3d8c4104	0.06848338
58	0xbd72f2e8	-0.059313685
59	0x3c47c8d4	0.012193877
60	0xbd76244c	-0.06009321
61	0xbd80c281	-0.06287099
62	0xbc3e5018	-0.0116157755
63	0x3d97675f	0.07392763
64	0x3c91af2d	0.017783726
65	0xbd231e08	-0.039823562
66	0x3d1ba8f0	0.03800291
67	0xbdcbb0c3	-0.09945824
68	0xbdc8c90e	-0.09803973
69	0x3c78359d	0.015149501
70	0xbd8b7405	-0.06809238
71	0x3dc213b0	0.09476411
72	0xbd9e0d62	-0.07717396
73	0x3c1b6b0b	0.00948597
74	0x3d955d0c	0.07293138
75	0xbd4a1296	-0.04933413
76	0x3c540754	0.0129412
77	0x3c496537	0.012292198
78	0x3dc0f26c	0.09421238
79	0x3ce53e8b	0.027983924
80	0xbd0a197a	-0.033715703
81	0xbd11ea80	-0.035624027
82	0xbd1f9fa6	-0.038970612
83	0xbc4c418f	-0.012466802
84	0xbdca9b73	-0.09892931
85	0x38f02781	0.0001145145
86	0xbb332924	-0.0027337754
87	0x3d01e5a7	0.031713154
88	0xbcc51c12	-0.024061237
89	0x3dc6b43e	0.09702347
90	0xbc3d78dc	-0.01156446
91	0xbc84a8e3	-0.016193813
92	0xbd2f2369	-0.04275838
93	0x3d8ae3b0	0.06781709
94	0xbcdb41cd	-0.026764775
95	0x3cc5e117	0.024155183
96	0xbdbbef6a	-0.09176524
97	0xbd51d458	-0.051227897
98	0x3d34b9ed	0.044122625
99	0x3d6f5410	0.058429778
100	0x3d73aae3	0.059489142
101	0xbcb5d70c	-0.022197269
102	0x3da14e44	0.07876256
103	0x3d8ddd3e	0.06926964
104	0xbd12a6dc	-0.03580366
105	0x3d4c0231	0.049806777
106	0xbdbf268d	-0.09333525
107	0xbdc2a7f3	-0.0950469
108	0x3c481308	0.012211569
109	0xbdd904a0	-0.10596585
110	0x3d61af74	0.055098966
111	0x3c144cbf	0.009051501
112	0xbda5e97c	-0.08101174
113	0xbd91ca0e	-0.07118617
114	0x3dddef71	0.108366854
115	0x3db5e5da	0.08881731
116	0x3d308588	0.043096095
117	0x3d37c2e8	0.04486361
118	0xbe02cce3	-0.1277347
119	0xbb3d8680	-0.002891928
120	0xbd168c7a	-0.036755063
121	0x3dc85fcb	0.09783896
122	0x3d964d84	0.07339004
123	0xbde47d39	-0.11156697
124	0xbcca85e8	-0.024722055
125	0x3bc710d3	0.0060750037
126	0x3be633b0	0.0070252046
127	0xbe20137e	-0.15632436
128	0x3e225d07	0.158558
129	0xbd9f3674	-0.07774058
130	0xbc1c75fb	-0.009549613
131	0xbda57fec	-0.0808104
132	0xbd2fecf0	-0.04295057
133	0xbd0b57dc	-0.034019336
134	0x3cccaf60	0.024985969
135	0x3daae478	0.08344358
136	0xbd9bae5c	-0.07601616
137	0x3dd9826a	0.10620578
138	0xbd1f1402	-0.03883744
139	0x3c67c1b6	0.014145305
140	0x3d7e76b4	0.062124923
141	0x3d9a7085	0.07540993
142	0xbd679ab5	-0.056544024
143	0x3c8deb95	0.017324248
144	0x3dae317d	0.08505533
145	0x3d5a2ef0	0.05326742
146	0x3d1fc15a	0.039002754
147	0x3d110a9c	0.03541051
148	0xbd60114c	-0.054703996
149	0x3d8dfa86	0.06932549
150	0x3da91120	0.082552195
151	0xbd4e2a78	-0.05033347
152	0xbd13a1b4	-0.036042884
153	0x3d866dbd	0.065639
154	0xbdc2dc86	-0.09514718
155	0xbcfc5ded	-0.030806506
156	0x3db9ff16	0.09081857
157	0x3db81ab7	0.089894705
158	0x3c4de420	0.012566596
159	0xbd9a4327	-0.075323395
160	0xbd8dfcef	-0.06933009
161	0x3cf05fb3	0.029342508
162	0x3c169d3c	0.009192761
163	0x3cc9f381	0.024652245
164	0xbc1945d5	-0.009355028
165	0xbdaf6352	-0.08563866
166	0xbd921b01	-0.07134057
167	0x3d0c0fa8	0.03419462
168	0xbd2ce742	-0.042212732
169	0x3d5272fb	0.051379185
170	0xbd306cd5	-0.04307254
171	0xbd54e700	-0.05197811
172	0xbbdb7731	-0.0066975583
173	0x3d67c058	0.056579918
174	0xbc1c2786	-0.0095309075
175	0xbc151a92	-0.009100573
176	0x3d8f32a6	0.06992082
177	0x3c51b48c	0.012799393
178	0xbc871ccd	-0.016493225
179	0xbd164641	-0.036688093
180	0x3dc9126b	0.09817966
181	0xbc8a62ce	-0.016892817
182	0xbd995fbe	-0.074889645
183	0xbb169956	-0.002297958
184	0xbc1ae318	-0.009453557
185	0x3d62a15b	0.05532966
186	0x3d14c185	0.036317367
187	0x3d42bff5	0.047546346
188	0x3d96523d	0.073399045
189	0x3c8655d9	0.016398357
190	0x3dabc41f	0.083870165
191	0xbcc4e875	-0.024036625
192	0x3d838bce	0.0642315
193	0x3b71b6a0	0.0036882535
194	0x3d9b7b2d	0.07591853
195	0x3d8d3388	0.068945944
196	0x3d8507a2	0.064955965
197	0x3b9d7a70	0.0048058555
198	0xbcdf1f09	-0.027236478
199	0x3d035d8c	0.032071635
200	0xbba866d0	-0.0051392093
201	0x3c25fbf3	0.01013087
202	0x3d293d58	0.041318268
203	0xbdc70d78	-0.09719366
204	0xbc2dcfc0	-0.0106086135
205	0xbda4a52a	-0.08039315
206	0x3d2da53c	0.042393908
207	0xbcbf4d1e	-0.023352202
208	0xbd256b98	-0.040385813
209	0x3d8437cc	0.06455955
210	0xbd92f737	-0.07176059
211	0xbd543f77	-0.051818337
212	0xbc5e7c1e	-0.0135793965
213	0xbdbf4888	-0.09340006
214	0xbe3c61dc	-0.18396705
215	0xbca50d80	-0.020148039
216	0xbdb43677	-0.08799451
217	0xbddafeea	-0.10693152
218	0xbd817496	-0.06321065
219	0xbde66e50	-0.11251509
220	0x3d25d9d4	0.04049094
221	0xbd82bbb3	-0.06383457
222	0x3daf97ec	0.08573899
223	0x3d407f30	0.046996295
224	0xbdfe6e71	-0.12423409
225	0x3db15b26	0.08659963
226	0xbd04ae79	-0.032392953
227	0x3c834bd8	0.016027376
228	0xbe06d2ba	-0.13166323
229	0x3d7b552c	0.061360523
230	0xbcfabea7	-0.030608488
231	0x3d34f940	0.044183016
232	0xbda7b85b	-0.0818946
233	0xbce68c2c	-0.028143011
234	0xbd376e05	-0.044782657
235	0x3d952803	0.07283022
236	0xbd95f294	-0.07321659
237	0xbcd9c01f	-0.026580868
238	0xbd3b7725	-0.045767922
239	0x3d615c99	0.05501995
240	0xbdd21c1d	-0.102592684
241	0x3d38f1a0	0.045152307
242	0x3b9d4129	0.0047990275
243	0x3d7987e8	0.060920626
244	0x3cc74861	0.024326505
245	0x3c6dac10	0.014506355
246	0x3d11b06b	0.035568636
247	0xbcebd788	-0.028789297
248	0xbcce0e4c	-0.025153302
249	0xbbff9d22	-0.007800714
250	0xbda4451a	-0.080209926
251	0x3cbb2073	0.022842621
252	0x3d9d0cf4	0.07668486
253	0x3d9cd51b	0.07657834
254	0x3da7c0ac	0.08191046
255	0x3dd66751	0.10468925

in_layer.bias f4 [64]
0	0xbd8099b1	-0.06279314
1	0xb957f4dc	-0.00020595215
2	0xbd154033	-0.03643818
3	0x3d2d0132	0.042237468
4	0x3dd2f51e	0.10300659
5	0x3c40a7ee	0.011758788
6	0xbd856bfa	-0.065147355
7	0xbd9d12fc	-0.076696366
8	0x3dd7a6a0	0.10529828
9	0x3d3a7401	0.045520786
10	0xbd183432	-0.037159152
11	0x3d8cc925	0.06874303
12	0xbd88cbe6	-0.066795155
13	0xbbe887b1	-0.007096254
14	0x3de3c906	0.111223266
15	0x3dc96e74	0.098355204
16	0x3e213014	0.15740997
17	0xbb2b73fd	-0.0026161664
18	0x3da56d80	0.08077526
19	0x3cb498f3	0.022045588
20	0x3e1020a9	0.14074959
21	0x3dbacc8f	0.09121048
22	0x3df407bb	0.11915537
23	0x3d063fd7	0.032775726
24	0xbd8bce61	-0.06826473
25	0x3d318c43	0.043346655
26	0xbd72bb78	-0.059260815
27	0xbdc56c32	-0.09639777
28	0x3df98c61	0.12184978
29	0xbc976628	-0.01848133
30	0xbd3cbaf2	-0.046076722
31	0xbd86da71	-0.06584633
32	0xbaaffd21	-0.0013426879
33	0x3c8f23ee	0.017473187
34	0x3ac1c9dd	0.0014784891
35	0x3c8ea9a2	0.017414872
36	0x3cc21aaf	0.023694364
37	0x3cbd51d9	0.023110317
38	0xbda38340	-0.07984018
39	0xbd432136	-0.047639094
40	0xbd7bb6e4	-0.061453715
41	0x3d9e759b	0.07737275
42	0xbd89bbc0	-0.067252636
43	0x3d8c89f2	0.068622485
44	0x3c8cb86e	0.017177787
45	0x3dad383f	0.08457994
46	0xbd67c49c	-0.056583986
47	0xbc86a4b4	-0.016435958
48	0x3d586e8f	0.052839812
49	0x3da670bc	0.08126971
50	0x3d8e1f8c	0.06939611
51	0xbcbc5830	-0.02299127
52	0xbd8c378e	-0.06846534
53	0x3de1f1b4	0.11032429
54	0x3c498aa5	0.012301122
55	0xba92cd97	-0.0011200187
56	0x3d994372	0.07483567
57	0xbd7c6d04	-0.061627403
58	0xbd94c416	-0.07263963
59	0x3d7ceae9	0.061747465
60	0xbd2265ae	-0.03964775
61	0xbd0e87e4	-0.034797564
62	0xbcc4fda3	-0.024046725
63	0x3db559d0	0.08855021

hidden.0.weight f4 [64, 64]
0	0x3d2f214e	0.04275637
1	0x3cec359a	0.028834153
2	0x3cf1d815	0.029521981
3	0xbd93fc92	-0.07225908
4	0xbe0c193d	-0.13681503
5	0xbdbd21f6	-0.09234993
6	0xbcf2d975	-0.029644707
7	0xbced90be	-0.028999683
8	0xbd0984ad	-0.033573795
9	0xbb92ffe7	-0.0044860723
10	0xbd4a528f	-0.04939514
11	0x3ddb44b3	0.10706463
12	0xbbf40fbb	-0.0074481643
13	0x3d4cbe04	0.0499859
14	0x3ddb6498	0.10712546
15	0xbc86d0fd	-0.016457075
16	0x3dce9f64	0.10088995
17	0x3d392ede	0.04521071
18	0xbdbac8a0	-0.091202974
19	0x3d4bae4c	0.04972677
20	0x3e353879	0.17697324
21	0x3de6abd1	0.1126324
22	0xbd9b4bc1	-0.07582808
23	0x3abbf78a	0.001434074
24	0xbe16ba4e	-0.14719507
25	0x3cc4e9ce	0.024037268
26	0x3e01c16c	0.12671441
27	0xbe67f034	-0.22650224
28	0x3e61a76a	0.2203652
29	0x3cba5a92	0.022748265
30	0xbd409842	-0.047020204
31	0x3d7a93c9	0.061176095
32	0xbd0cb20c	-0.034349486
33	0xbbb52ae5	-0.005528795
34	0x3e1b8948	0.15189087
35	0xbd8643cf	-0.06555902
36	0x3d823209	0.063572
37	0xbdcb8812	-0.09938063
38	0xbd644276	-0.055727445
39	0x3d81af42	0.06332256
40	0x3e363024	0.17791802
41	0x3dfa6bba	0.122275785
42	0x3e0f1401	0.13972475
43	0x3c6d831e	0.014496593
44	0xbc1426ac	-0.009042423
45	0x3ddddaa3	0.10832717
46	0x3d28a421	0.04117215
47	0x3df15622	0.11784007
48	0x3e1c6ae5	0.15275152
49	0x3da6b2aa	0.08139546
50	0x3d9ec75b	0.07752868
51	0x3d0b8c90	0.034069598
52	0xbd8ed4e4	-0.069741994
53	0xbd8b02dd	-0.067876555
54	0x3b90ed2e	0.0044228053
55	0x3cb995fa	0.022654522
56	0x3e12c62c	0.14333409
57	0x3db92687	0.09040552
58	0x3d8b4932	0.0680107
59	0x3db3a55b	0.087717734
60	0xbbcd4d5f	-0.006265327
61	0x3d80cc02	0.062889114
62	0x3da281d7	0.07934921
63	0x3d02c83f	0.03192925
64	0x3d9d9c50	0.0769583
65	0x3dc01307	0.09378629
66	0x3daa9408	0.08329016
67	0x3cf8b9cb	0.03036203
68	0x3d8e07c7	0.06935077
69	0x3d27d0f3	0.040970754
70	0x3dbc011d	0.091799
71	0x3e3f8caa	0.18706003
72	0xbd0edc6e	-0.034878187
73	0x3d631be4	0.05544652
74	0xbdf24f7d	-0.118315674
75	0x3c698526	0.0142529365
76	0x3d8df1e8	0.069309056
77	0xbd3033d5	-0.04301818
78	0xbd151ed2	-0.036406346
79	0xbc9df21c	-0.019280486
80	0xbe2b63a5	-0.1673723
81	0xbe1e4f28	-0.15459883
82	0x3df07ba6	0.11742334
83	0x3da21b96	0.07915418
84	0x3decdf33	0.11566009
85	0xbd2718e6	-0.04079523
86	0x3cd8fc6a	0.026487548
87	0xbd1c5afd	-0.03817271
88	0x3d19e7b1	0.037574474
89	0x3d1bf356	0.03807386
90	0x3d10ef06	0.0353842
91	0xbccb67ca	-0.024829764
92	0xbdf8bfd3	-0.121459626
93	0x3d7da60f	0.061925944
94	0xbe147e87	-0.14501391
95	0x3d71c37d	0.059024323
96	0xbde64190	-0.11242974
97	0x3dad4b7a	0.08461662
98	0xbcf9a93a	-0.030476201
99	0x3a2c1715	0.0006564719
100	0x3da2aab8	0.07942718
101	0x3cbad2c9	0.022805588
102	0x3c201f6d	0.0097731175
103	0xbcacefb7	-0.021110399
104	0x3cd0c7fe	0.025485989
105	0xbdb87512	-0.090067044
106	0xbd1bb3a4	-0.038013116
107	0x3e09515c	0.13409942
108	0xbd47e2c8	-0.04880026
109	0xbde9688c	-0.11396894
110	0x3cb3b51f	0.021936951
111	0xbd2481fa	-0.040163018
112	0x3d97e75e	0.07417177
113	0xbd07bd2b	-0.03313939
114	0x3dc18837	0.09449809
115	0xbdab9888	-0.083787024
116	0x3d515394	0.051105097
117	0x3e10dd27	0.14146863
118	0xbdd2d989	-0.10295398
119	0x3de69c1c	0.11260244
120	0x3cb7bab7	0.0224279
121	0x3d895446	0.06705527
122	0xbded4b3b	-0.11586615
123	0x3c3e8c16	0.011630079
124	0x3d9bd97c	0.07609841
125	0xba6870ee	-0.00088669255
126	0x3d987c3e	0.07445572
127	0x3db7d0b9	0.089753576
128	0x3c8c5558	0.017130539
129	0x3d405ac2	0.046961553
130	0x3d122acf	0.035685357
131	0x3e07b00d	0.13250752
132	0x3e064791	0.13113238
133	0x3cb08a26	0.02155025
134	0x3b8423ac	0.0040325727
135	0x3e00b90e	0.12570593
136	0x3d8745c1	0.066051014
137	0x3de0c457	0.10974949
138	0xbdb260ea	-0.08709891
139	0x3d95b789	0.07310397
140	0xbcbd93cc	-0.023141764
141	0x3dd9ee04	0.10641101
142	0xbd3a63a3	-0.045505177
143	0x3d98c0e8	0.07458669
144	0x3dedab89	0.11604983
145	0xbdac2085	-0.0840464
146	0x3d397e56	0.0452865
147	0x3c461a82	0.012091281
148	0xbdb51c00	-0.08843231
149	0x3dd56733	0.10420074
150	0x3e19ef81	0.1503277
151	0xbe027cee	-0.1274297
152	0xbc497333	-0.012295532
153	0x3de84746	0.11341719
154	0x3dd6467c	0.104626626
155	0xbcc649b4	-0.024205066
156	0xbdc4f177	-0.09616368
157	0xbde71552	-0.112833634
158	0x3baac2c1	0.0052112048
159	0xbda2e1f2	-0.07953252
160	0xbdce099b	-0.10060426
161	0x3d9ab686	0.07554345
162	0x39fe6609	0.00048522677
163	0xbd99206d	-0.07476888
164	0x3e075bd4	0.13218623
165	0xbd229ba0	-0.039699197
166	0x3dbf075f	0.09327578
167	0xbdac9b6b	-0.08428081
168	0x3d22235c	0.039584503
169	0xbd90068a	-0.07032497
170	0xbcd6f6d8	-0.026240751
171	0xbc8f72ff	-0.01751089
172	0x3dbd1024	0.09231594
173	0x3d57e670	0.052709997
174	0x3cb6c56c	0.022310935
175	0x3d70bcb6	0.05877372
176	0x3d4bdbae	0.04977005
177	0x3dd66b52	0.104696885
178	0x3d9a84c1	0.07544852
179	0xbd1409e2	-0.036142237
180	0x3de5e2f4	0.112249285
181	0x3d5c60d1	0.05380327
182	0xbce6855e	-0.028139766
183	0x3e157f08	0.1459924
184	0x3dc4990f	0.09599506
185	0x3e007a7a	0.12546721
186	0xbe04393a	-0.12912455
187	0x3caf440d	0.021394754
188	0x3dc1d95b	0.094652854
189	0xbd6ffa0b	-0.05858807
190	0x3c28f780	0.010312915
191	0x3dc1f755	0.09471003
192	0x3ccc2c57	0.024923487
193	0xbd91cecd	-0.07119522
194	0x3d644b15	0.055735666
195	0xbd9f515d	-0.07779191
196	0x3dc62604	0.0967522
197	0x3d0bed76	0.034162007
198	0xbd98a97c	-0.074542016
199	0x3e3164c1	0.17323591
200	0xbd8c1ac6	-0.06841044
201	0x3e324e69	0.17412724
202	0xbd879a8d	-0.06621275
203	0x3de59b6f	0.11211287
204	0xbdfb5cfd	-0.122735955
205	0x3da5abe5	0.08089427
206	0x3dead278	0.11465925
207	0x3d2d2fe8	0.042282015
208	0xbda4358f	-0.08018028
209	0xbd2fb6f9	-0.042899106
210	0xbdc2ab3a	-0.09505315
211	0x3dc765db	0.09736224
212	0xbd66b50f	-0.056325015
213	0x3d32416c	0.043519422
214	0x3dd1253b	0.10212179
215	0xbd699e03	-0.057035457
216	0xbdc689be	-0.09694241
217	0xbd4242b1	-0.047426883
218	0x3e0875e1	0.13326217
219	0xbd8ac363	-0.06775548
220	0x3c4612c3	0.012089434
221	0x3dccd53e	0.1000161
222	0xbda0de1f	-0.07854866
223	0xbd958e15	-0.073024906
224	0x3c71c26b	0.0147558255
225	0x3db8e1b2	0.09027423
226	0x3d81ee3b	0.06344267
227	0x3c739a05	0.014868264
228	0x3d1a390d	0.037652064
229	0x3c9ca083	0.019119507
230	0xbd69a81a	-0.05704508
231	0xbdd087fb	-0.10182186
232	0x3dc69b0f	0.09697544
233	0x3d50bce6	0.050961398
234	0xbd98d256	-0.074619934
235	0xbb9847ae	-0.0046472168
236	0x3d5c8fca	0.053848065
237	0xbe198d74	-0.14995366
238	0x3ddea134	0.10870591
239	0x3c85ede5	0.016348789
240	0x3d152fd2	0.036422558
241	0x3dbedff0	0.093200564
242	0xbda8d115	-0.08243004
243	0xbd6d890e	-0.057992034
244	0xbbfc2fbd	-0.0076961205
245	0x3e20c6f9	0.15700902
246	0xbccba9d2	-0.02486125
247	0x3dd62f96	0.10458295
248	0x3d71f1fa	0.059068657
249	0x3d877a72	0.066151515
250	0xbdaa4c22	-0.083153024
251	0x3d8954c1	0.06705619
252	0xbd3c050d	-0.045903254
253	0xbded6410	-0.11591351
254	0xbd4ac108	-0.049500495
255	0x3df2b270	0.118504405

hidden.0.bias f4 [64]
0	0x3cc7c09c	0.024383835
1	0x3d5a2cec	0.053265497
2	0xbd4d10a5	-0.0500647
3	0x3bd43dd8	0.006477099
4	0x3dd8c1df	0.10583853
5	0xbc71fa9c	-0.014769223
6	0xbd0d8fc3	-0.03456093
7	0x3dce4613	0.10071959
8	0xbd70e333	-0.058810424
9	0xbda8e491	-0.082467206
10	0xbdc55c00	-0.09636688
11	0x3e0f7c57	0.14012276
12	0xbd56e683	-0.052465927
13	0x3c904921	0.017612996
14	0xbc17e2a9	-0.009270349
15	0x3c90e4d5	0.01768724
16	0x3d129f5b	0.035796504
17	0x3df557ed	0.11979661
18	0x3d84c04d	0.06481991
19	0xbdf498c5	-0.11943201
20	0xbd6fea29	-0.058572922
21	0x3ddc91df	0.1077001
22	0x3df79a8f	0.120900266
23	0xbd1f97ab	-0.038963
24	0x3c644621	0.013932736
25	0x3d22e8ea	0.039772905
26	0x3df2a120	0.118471384
27	0x3ba57aa9	0.0050500226
28	0x3db08daa	0.0862077
29	0x3da9212c	0.0825828
30	0x3dcff289	0.10153682
31	0xbdc7e07d	-0.097596146
32	0xbd12ba26	-0.035822056
33	0x3b993d31	0.004676484
34	0x3ddc1cb2	0.10747661
35	0x3dcc1df6	0.09966652
36	0x3dc7af43	0.097502254
37	0xbd949381	-0.07254697
38	0x3c81144b	0.015756747
39	0xbd3d4c00	-0.046215057
40	0x3e17fbcd	0.14842148
41	0x3d37d564	0.04488124
42	0xbd974fb6	-0.073882505
43	0x3ddf881b	0.10914632
44	0xbd79df6b	-0.061004084
45	0x3d9f9c3a	0.0779347
46	0x3ce8442d	0.028352821
47	0xbd9340d2	-0.07190098
48	0x3d878795	0.06617657
49	0x3dc07582	0.09397413
50	0xbdcd2e76	-0.10018627
51	0x3dc10be2	0.094260946
52	0x3d4785d5	0.048711617
53	0x3d77665d	0.060400356
54	0x3cef0d78	0.029181227
55	0x3dd8d6ec	0.10587868
56	0x3df61f95	0.120177425
57	0xbc11a8dd	-0.008890358
58	0x3da0bdf0	0.07848728
59	0x3da1b924	0.07896641
60	0xbcc86b22	-0.024465147
61	0x3d5e7f04	0.05432035
62	0x3d2252df	0.039629813
63	0x3d1f5c1b	0.038906198

hidden.1.weight f4 [64, 64]
0	0xbdddd1ee	-0.108310565
1	0x3e073f09	0.1320764
2	0x3da290f0	0.07937801
3	0xbd089c10	-0.033351958
4	0xbd457b68	-0.048213392
5	0xbdc315ba	-0.095256284
6	0xbda4c72e	-0.08045803
7	0xbba3a141	-0.004993588
8	0x3e34a307	0.17640315
9	0x3de186d6	0.11012046
10	0xbde90e0c	-0.11379632
11	0xbdb2aa3c	-0.08723876
12	0xbda95b1e	-0.08269332
13	0xbde2b928	-0.11070472
14	0x3cd7f11f	0.026360093
15	0x3da5de9d	0.08099101
16	0x3e185f5d	0.14880128
17	0xbd16703c	-0.03672813
18	0xbd4946e2	-0.049139865
19	0x3c1338cc	0.008985709
20	0x3dfa02dd	0.122075774
21	0x3e13b5d0	0.14424825
22	0xbc485d3a	-0.012229258
23	0x3d933767	0.071883015
24	0xbc21e38a	-0.00988091
25	0xbd8a80ae	-0.06762825
26	0x3daba611	0.08381284
27	0xbdc6e26e	-0.09711157
28	0xbd91535e	-0.07095979
29	0xbd21f546	-0.03954055
30	0xbd10c263	-0.03534163
31	0x3e17752b	0.1479079
32	0x3d186200	0.037202835
33	0x3b962988	0.0045825876
34	0x3e17695f	0.1478629
35	0x3db4c8cf	0.08827364
36	0xbd6ce649	-0.057836805
37	0x3d73832e	0.059451275
38	0xbd7fe2e6	-0.062472247
39	0x3d4bbee3	0.04974259
40	0xbd5e1304	-0.054217353
41	0x3d911009	0.070831366
42	0xbbf7563e	-0.0075481227
43	0x3e1c0d87	0.15239535
44	0xbc532674	-0.012887586
45	0x3dc4c540	0.09607935
46	0x3d81efe6	0.06344585
47	0xbcf1f52a	-0.029535849
48	0x3d5c976c	0.053855345
49	0xbdffd498	-0.12491721
50	0x3c8b1d9b	0.01698189
51	0x3c863d5c	0.01638668
52	0x3defa401	0.11701203
53	0x3c963b39	0.018338786
54	0x3d6bdddd	0.057584632
55	0x3d0ae4cb	0.0339096
56	0xba0229c9	-0.0004965333
57	0x3e0958a4	0.1341272
58	0xbc5a7de5	-0.01333568
59	0xbd6be250	-0.057588875
60	0x3c6a0fe9	0.01428602
61	0xbd068e43	-0.032850515
62	0xbd5a9576	-0.053365193
63	0xbce271b0	-0.027642101
64	0x3bd60673	0.0065315305
65	0x3da6432e	0.08118282
66	0x3c5b562e	0.013387246
67	0x3daf9939	0.08574147
68	0xbc46afe8	-0.0121269
69	0xbcfb0389	-0.030641334
70	0xbd01da2b	-0.0317022
71	0x3d80a7ad	0.062819816
72	0xbd90dcd1	-0.070733674
73	0xbdb483c8	-0.08814198
74	0xbdb673b9	-0.08908791
75	0xbd35a9db	-0.04435144
76	0x3e1e762f	0.15474771
77	0x3d410b57	0.047129955
78	0xbd9629ca	-0.073321894
79	0xbe075989	-0.13217749
80	0x3be3ff2f	0.0069579105
81	0x3d987829	0.07444794
82	0x3da24f81	0.079253204
83	0xbcfc1660	-0.030772388
84	0x3cce1c15	0.025159875
85	0x3d3b0de3	0.04566754
86	0xbc543b19	-0.012953543
87	0x3e3af32c	0.18256825
88	0xbd6aeb61	-0.05735338
89	0xbcfe3f43	-0.031036025
90	0xbe07e27a	-0.13269988
91	0x3dce0368	0.100592434
92	0x3e4ba371	0.19886567
93	0x3cc2e33a	0.02378999
94	0xb9489e16	-0.00019132378
95	0xbdecda8c	-0.11565122
96	0x3d004f90	0.031325877
97	0xbd3c8be2	-0.04603184
98	0x3db69cb4	0.089166075
99	0x3dfe6b13	0.124227665
100	0xbcf3fe80	-0.029784441
101	0xbde8ad82	-0.11361219
102	0xbdd1d154	-0.10245004
103	0xbdfbf787	-0.123030715
104	0x3df766b3	0.12080135
105	0xbca147e4	-0.0196876
106	0xb844de64	-4.693716e-05
107	0x3d2a048c	0.041508242
108	0xbcf7fd12	-0.03027204
109	0xbe0d240d	-0.13783284
110	0x3e1ad032	0.15118483
111	0xbd6c0dc8	-0.05763033
112	0xbe20030a	-0.1562616
113	0x3e1b5a64	0.151712
114	0x3e07ab29	0.13248886
115	0x3d5a82d7	0.053347435
116	0xbd5e7289	-0.054308448
117	0xbdee8bbc	-0.11647746
118	0xbc1c3ec1	-0.009536446
119	0xbd9cabde	-0.076499686
120	0xbdea7e16	-0.1144983
121	0xbda64442	-0.08118488
122	0x3d44b8fd	0.04802798
123	0x3d5ef363	0.05443133
124	0xbca885ca	-0.020571608
125	0x3c3d9378	0.011570804
126	0xbde740de	-0.11291669
127	0xbd874ac3	-0.066060565
128	0xbda81954	-0.08207956
129	0x3ccc6f31	0.024955364
130	0x3cf7e4b4	0.030260421
131	0xbcd10e03	-0.025519377
132	0x3d75c25d	0.059999812
133	0xbd5bf1f4	-0.05369754
134	0xbda6ce0f	-0.08144771
135	0x3e0c3277	0.13691126
136	0xbbaa37b2	-0.0051946277
137	0x3e2eba4b	0.17063253
138	0x3dbc7f1f	0.09203934
139	0xbd9bf5e1	-0.07615257
140	0x3d930d13	0.07180228
141	0xbc4477a4	-0.011991415
142	0xbe28211d	-0.16418882
143	0xbe2f5f26	-0.1712614
144	0xbcc02f59	-0.023460077
145	0x3e1afa76	0.15134606
146	0x3e1c0e17	0.1523975
147	0xbdd1fc6d	-0.102532245
148	0x3c0f9d2a	0.008765498
149	0xbd7b2b07	-0.06132033
150	0xbe0ef4db	-0.13960592
151	0x3e46e5a4	0.19423538
152	0x3e3f3625	0.18672998
153	0x3e11e0ea	0.14245954
154	0x3d5c9fe2	0.053863414
155	0xbd4ffcb6	-0.050778113
156	0x3d72c9fb	0.059274655
157	0x3dda0271	0.10644997
158	0x3daeb073	0.08529749
159	0xbd9e7a32	-0.07738151
160	0xbda652ac	-0.08121237
161	0x3cb54b85	0.022130737
162	0xbd9fd10c	-0.078035444
163	0x3e05d97d	0.13071246
164	0xbd0bf6cb	-0.034170907
165	0xbd4cd6d1	-0.050009552
166	0xbddab66a	-0.10679324
167	0xbdf79e05	-0.12090687
168	0x3d80aeeb	0.06283363
169	0x3d4f0078	0.050537556
170	0xbd1cfc37	-0.03832647
171	0xbe4e749d	-0.20161672
172	0x3e098b58	0.13432062
173	0x3dd15b60	0.102225065
174	0xbb2d06b1	-0.0026401693
175	0x3cf19e2e	0.029494371
176	0xbe0464bb	-0.1292905
177	0x3d7351f8	0.059404343
178	0xbd1c7207	-0.038194682
179	0xbd485e32	-0.048917957
180	0xbd0bcf56	-0.034133278
181	0x3d2d57b8	0.042319983
182	0x3dece9c7	0.11568027
183	0xbafad3ac	-0.001913657
184	0xbd63595e	-0.05550515
185	0xbd3c837e	-0.04602384
186	0x3d8496c5	0.064740695
187	0x3d734b6b	0.059398096
188	0xbe271773	-0.16317539
189	0x3d14bc62	0.03631247
190	0xbdac0b88	-0.08400637
191	0x3d3a32dd	0.045458663
192	0x3dd859ab	0.10563978
193	0xbd20708b	-0.03916983
194	0x3d9c9a9e	0.076466784
195	0xba047862	-0.0005053339
196	0x3df8b0e3	0.121431135
197	0x3e25565e	0.16146228
198	0x3e0a4682	0.13503459
199	0xbd5ee4ff	-0.054417606
200	0xbd45d37c	-0.04829739
201	0xbe55cbe1	-0.20878555
202	0xbdc07a45	-0.09398321
203	0x3e9961f3	0.29957542
204	0xbd498cb0	-0.049206436
205	0x3dd37f92	0.103270665
206	0x3e2654b6	0.16243252
207	0x3e5772b0	0.21039844
208	0x3aec9361	0.0018049293
209	0xbdafbc2b	-0.08580812
210	0xbd5cccd3	-0.053906273
211	0x3d49cc05	0.049266834
212	0x3e2d58f0	0.16928458
213	0x3cc74c72	0.024328444
214	0x3d88e700	0.06684685
215	0xbe2108eb	-0.15726058
216	0xbd4d3efe	-0.050108902
217	0xbd14845f	-0.03625905
218	0x3c6a9016	0.014316579
219	0xbb932734	-0.0044907574
220	0xbdba2f9b	-0.09091111
221	0xbc5ccfbf	-0.013477265
222	0x3d9bed1e	0.07613586
223	0x3d808dd6	0.06277053
224	0x3da45916	0.08024804
225	0xbdb36c8f	-0.0876094
226	0xbd6ce8f8	-0.057839364
227	0xbdb1ec14	-0.086876065
228	0x3c617069	0.013759711
229	0x3db86e73	0.090054415
230	0x3cb2627f	0.021775482
231	0x3e175391	0.14777972
232	0xbd750d33	-0.05982704
233	0x3d6a3820	0.05718243
234	0x3dfcdc49	0.123467036
235	0x3e1bc752	0.15212753
236	0x3c9714ad	0.018442476
237	0xbd0b5e0e	-0.034025244
238	0xbd051ddf	-0.03249919
239	0xbdca5ee4	-0.0988138
240	0x3e715530	0.23567653
241	0x3c98ca71	0.01865122
242	0xbdbffdea	-0.09374602
243	0xbc19f3b7	-0.009396485
244	0x3d1cf9f2	0.038324304
245	0x3e2f9b9e	0.17149207
246	0xbd08ed8e	-0.033429675
247	0xbe2cffab	-0.16894405
248	0xbd81a306	-0.063299224
249	0xbd56762f	-0.052358802
250	0x3c3ed909	0.011648425
251	0x3daef56b	0.085429035
252	0x3da9a7c6	0.08283953
253	0x3dc09dd4	0.09405103
254	0xbde4c9f3	-0.11171331
255	0xbd300ba8	-0.042979866

hidden.1.bias f4 [64]
0	0x3d9169dc	0.07100269
1	0x3dca4e58	0.09878224
2	0x3daffcde	0.085931525
3	0x3c1197d8	0.0088863
4	0xbd07862c	-0.03308694
5	0xbcfba400	-0.03071785
6	0xbe00da1f	-0.12583207
7	0xba50ac48	-0.0007960242
8	0x3d6f828f	0.05847412
9	0x3ccbe9a8	0.02489169
10	0xbc66a6aa	-0.014077822
11	0xbda97fe2	-0.08276345
12	0x3db26338	0.08710331
13	0xbd1d93e8	-0.038471133
14	0xbbc65f6c	-0.0060538556
15	0x3d770ec7	0.060316827
16	0x3e1e09dd	0.1543345
17	0x3da755cb	0.081706606
18	0xbdf66a4b	-0.120319925
19	0x3dab4a2f	0.08363759
20	0x3d375171	0.044755403
21	0x3d07793f	0.033074614
22	0x3dd1d8c3	0.10246422
23	0xbd06c89c	-0.03290616
24	0x3d838d78	0.064234674
25	0x3d8b0e69	0.06789858
26	0x3c4461e0	0.011986226
27	0x3dab4c5c	0.08364174
28	0xbc07ccdd	-0.008288589
29	0x3d9b6d91	0.075892575
30	0x3d01ef75	0.031722505
31	0x3e0247ae	0.12722656
32	0x3e0f5470	0.13997054
33	0x3cda1c3c	0.026624791
34	0xbdbfcc02	-0.09365083
35	0x3bfa7f35	0.007644559
36	0x3e0530a7	0.1300684
37	0xbde1c368	-0.11023599
38	0x3d7c2ca8	0.061566025
39	0x39ff98c6	0.00048751215
40	0x3d686781	0.056739334
41	0x3d6b9fbf	0.057525393
42	0xbdbad2d6	-0.09122245
43	0x3d2cea9b	0.042215925
44	0xbd2f8bed	-0.042858053
45	0xbcef451f	-0.029207764
46	0xbdd329ad	-0.103106834
47	0x3de53035	0.111908354
48	0x3e01037f	0.1259899
49	0xbb00fc4b	-0.0019681628
50	0x3d7afc05	0.0612755
51	0xbd05ec6e	-0.03269618
52	0x3d57fffe	0.052734368
53	0x3dc3a15b	0.095522605
54	0x3e0ff05b	0.14056532
55	0x3d7a54cb	0.06111602
56	0x3d83e5bb	0.06440302
57	0x3df42cc3	0.119226
58	0xbc1df438	-0.009640746
59	0xbdd2e350	-0.10297263
60	0x3de6f3e7	0.112769894
61	0x3db406b6	0.087903425
62	0x3ad86dc6	0.0016512207
63	0x3cf8d91e	0.030376967

hidden.2.weight f4 [64, 64]
0	0x3e1713dc	0.1475367
1	0x3de5ffb3	0.112304114
2	0xbd3b960e	-0.0457974
3	0xbbf87c8a	-0.0075832056
4	0x3d6d6176	0.057954274
5	0x3df897de	0.12138341
6	0xbdb4392f	-0.087999694
7	0xbd99e94f	-0.07515203
8	0xbd6bd459	-0.057575557
9	0x3dd7b1a5	0.1053193
10	0xbe5007dc	-0.20315498
11	0xbe0ab655	-0.13546117
12	0xbd0ce517	-0.034398165
13	0x3d44272c	0.04788892
14	0x3db1f024	0.08688381
15	0x3c46b880	0.012128949
16	0x3e2a99ad	0.16660185
17	0x3de17383	0.1100836
18	0xbd0769d1	-0.0330599
19	0xbd0554d5	-0.032551605
20	0x3e4c2344	0.19935328
21	0x3b80cdea	0.003930797
22	0x3e58442f	0.2111976
23	0x3dd69c87	0.10479074
24	0x3cbc3e27	0.022978855
25	0x3e3360ae	0.17517349
26	0xbc4e5b10	-0.012594953
27	0xbda1c8c5	-0.07899622
28	0xbd9b2551	-0.07575477
29	0xbda6192c	-0.0811027
30	0xbb6e5d4d	-0.003637153
31	0xbdcd1a22	-0.1001475
32	0xbd330cdb	-0.04371343
33	0x3d190502	0.03735829
34	0x3db4a276	0.088200495
35	0x3e0f9cd2	0.14024666
36	0xbd98b62a	-0.0745662
37	0x3de491a0	0.11160588
38	0xbd809f6d	-0.06280408
39	0xbd26c367	-0.040713694
40	0xbc082fdc	-0.008312192
41	0x3e517d1a	0.20457879
42	0x3c09673b	0.0083864285
43	0x3d71fa40	0.059076548
44	0x3bf17332	0.0073684687
45	0xbdc0c619	-0.09412784
46	0xbe0bf0ed	-0.13666125
47	0xbacd0294	-0.0015641027
48	0xbda5fc3f	-0.08104753
49	0x3e00c773	0.12576084
50	0xbd6f2962	-0.058389075
51	0xbd9839f9	-0.074329324
52	0x3e43c68b	0.19118707
53	0xbdeb1292	-0.114781514
54	0x3aa0ec10	0.0012277383
55	0xbdab4f35	-0.08364717
56	0x3deba674	0.11506358
57	0xbd51bb7a	-0.051204182
58	0xbd5bbc6d	-0.053646494
59	0x3e15f150	0.14642835
60	0xbc9e92bb	-0.019357076
61	0x3e2a0c50	0.1660626
62	0x3cafd5c8	0.021464244
63	0x3db531e2	0.08847405
64	0xbdbad060	-0.091217756
65	0x3dae21ac	0.08502516
66	0x3d5a728e	0.053331904
67	0x3df18bbc	0.1179423
68	0xbd8640f3	-0.06555357
69	0x3dc025f6	0.093822405
70	0x39dc5600	0.00042025745
71	0x3d785ead	0.060637165
72	0xbc098d92	-0.008395569
73	0xbcb136b4	-0.02163253
74	0xbdbd4f92	-0.092436925
75	0x3dd6770e	0.10471927
76	0xbce38d2e	-0.02777728
77	0xbcd1a060	-0.025589168
78	0xbd484637	-0.048895087
79	0x3d80aa83	0.062825225
80	0xbe04eb93	-0.1298049
81	0xbc1e58f4	-0.009664763
82	0xbdfb06c3	-0.12257149
83	0xbdfc8215	-0.12329499
84	0x3d164bf3	0.036693525
85	0xbdaa5005	-0.08316044
86	0xbd2994c4	-0.04140164
87	0x3d610ab8	0.054941863
88	0x3d869bf9	0.06572718
89	0x3da4fd42	0.080561176
90	0xbda02bb4	-0.07820836
91	0x3daa7993	0.0832397
92	0xbdc6bd7a	-0.097041085
93	0x3d6a0d4c	0.057141587
94	0xbdc51a1c	-0.096241206
95	0x3cdbdf60	0.026839912
96	0xbd9371a8	-0.071994126
97	0xbe00d99a	-0.12583008
98	0x3918a000	0.00014555454
99	0x3d95e91f	0.07319855
100	0xbcc281db	-0.02374356
101	0x3d77023c	0.060304865
102	0x3ce48c7e	0.027899023
103	0xbc4a9726	-0.012365138
104	0x3d20244e	0.039097123
105	0x3c9361eb	0.017991027
106	0x3dfaf3a4	0.12253502
107	0x3cbafd40	0.022825837
108	0xbd976f73	-0.07394304
109	0x3d00cc48	0.031444818
110	0x3d6d49f1	0.057931844
111	0x3d3a6ffe	0.04551696
112	0x3d8085f1	0.06275547
113	0xbc9bcfb7	-0.019019945
114	0xbdafbab4	-0.08580533
115	0xbd999496	-0.07499044
116	0x3d399252	0.045305558
117	0xbde2426a	-0.11047824
118	0xbd671fda	-0.05642686
119	0x3cc0b1ce	0.023522284
120	0xbc342203	-0.010994437
121	0xbbc40fdc	-0.005983336
122	0x3d371f60	0.044707656
123	0xbd896016	-0.0670778
124	0x3b2e824c	0.0026627956
125	0xbd5419ea	-0.051782526
126	0x3d6429f2	0.055704065
127	0x3cbae615	0.02281479
128	0xbc540517	-0.012940667
129	0xbd920b8c	-0.07131109
130	0x3d4172cc	0.04722862
131	0x3bb06788	0.0053834356
132	0x3d15c350	0.036563218
133	0xbc9ba998	-0.019001767
134	0xbd96deea	-0.07366736
135	0x3ccbe335	0.024888614
136	0x3d9b1e04	0.075740844
137	0x3d293ec8	0.04131964
138	0x3dd8be6d	0.10583196
139	0x3c43eca4	0.011958275
140	0x3b113500	0.0022156835
141	0x3dbaa3f9	0.091133066
142	0xbdb7de06	-0.089778945
143	0x3acbe855	0.0015556911
144	0xbd55367b	-0.05205391
145	0x3d175c70	0.03695339
146	0xbd8d1bb4	-0.068900496
147	0xbd643fac	-0.055724785
148	0xbdf84322	-0.121221796
149	0x3d84dff1	0.06488026
150	0xbde56f84	-0.112029105
151	0xbcbf70d0	-0.023369223
152	0xbdf25bee	-0.118339404
153	0xbdbb0858	-0.09132451
154	0xbdd67588	-0.10471636
155	0x3d0ff190	0.03514248
156	0xbb897922	-0.0041953484
157	0x3d205568	0.03914395
158	0xbda88bb7	-0.082297735
159	0xbddc0dce	-0.107448205
160	0xbd4b9eb8	-0.049711913
161	0x3dcf5506	0.10123639
162	0x3dd32fd8	0.1031186
163	0xbbca19cb	-0.0061676255
164	0x3dae1614	0.08500305
165	0x3c4092d0	0.011753753
166	0xbddebc9e	-0.108758196
167	0x3d26a58d	0.040685225
168	0x3d746944	0.0596707
169	0xbda77b9a	-0.08177872
170	0x3d411f1c	0.04714881
171	0x3d0d7fc5	0.03454568
172	0xbdbbae25	-0.09164075
173	0x3d39d349	0.045367513
174	0xbd9158f0	-0.070970416
175	0x3d02a3ac	0.03189437
176	0xbcd4c610	-0.02597335
177	0xbdb4157c	-0.0879316
178	0xbd9fb9d3	-0.07799115
179	0xbdbe90af	-0.0930494
180	0xbc33f1a0	-0.010982901
181	0x3d8b6c7c	0.06807801
182	0x3d3aa893	0.04557092
183	0x3ce4a6f8	0.027911648
184	0x3c5dfe0d	0.01354934
185	0x3d307d98	0.043088526
186	0xbd406104	-0.04696752
187	0xbd0c715c	-0.034287795
188	0x3daa8f7e	0.0832815
189	0xbdd1107f	-0.102082245
190	0x3d472801	0.048622135
191	0x3cd01e6f	0.025405137
192	0x3d293a33	0.04131527
193	0x3c91e2ca	0.017808337
194	0x3d85c7ae	0.065322265
195	0xbe10f16c	-0.14154595
196	0x3dbd4c96	0.09243123
197	0xbcabfdf0	-0.02099511
198	0xbd300da7	-0.04298177
199	0xbe046614	-0.12929565
200	0x3b5da605	0.003382088
201	0xbcd767c3	-0.026294595
202	0xbe1347c4	-0.14382845
203	0xbe38ff53	-0.18066148
204	0xbe05e0b0	-0.13073993
205	0x3d975977	0.07390111
206	0x3df5e97c	0.12007424
207	0x3e0d32e9	0.13788952
208	0x3e3ea519	0.18617667
209	0xbdad32a3	-0.08456924
210	0x3be6e413	0.0070462315
211	0xbdddba19	-0.10826511
212	0x3d18b8b2	0.037285514
213	0x3ce08ea1	0.02741176
214	0x3b15511e	0.0022783945
215	0x3e18a2da	0.14905873
216	0x3e460572	0.19338015
217	0x3d9bbab6	0.07603972
218	0x3aef0d07	0.0018238135
219	0x3dd6c484	0.10486701
220	0xbe0dc5d1	-0.13844992
221	0xbd79cb76	-0.06098505
222	0x3e1d2135	0.15344699
223	0xbdf461b9	-0.119327016
224	0xbe0dd4b9	-0.13850679
225	0x3d21cdae	0.039502792
226	0xbe03bac8	-0.1286422
227	0x3e01ef02	0.1268883
228	0x3daa63eb	0.08319839
229	0x3cdbd281	0.026833775
230	0xbe1fa59f	-0.15590523
231	0x3c39b8fc	0.011335608
232	0x3e09aef8	0.13445652
233	0x3dd3ba89	0.10338313
234	0xbda9c015	-0.0828859
235	0x3d86ac75	0.06575862
236	0xbdec4949	-0.115374155
237	0x3dbf53c6	0.093421504
238	0x3d42779a	0.047477342
239	0x3cac7582	0.021052126
240	0x3cceeff7	0.025260909
241	0x3e6064b2	0.21913412
242	0xbda74be5	-0.081687726
243	0xbe30e67a	-0.1727542
244	0x3ddf7567	0.109110646
245	0xbe163ce8	-0.14671671
246	0x3d8fa53f	0.0701394
247	0xbd09d613	-0.033651423
248	0x3e508fc5	0.20367344
249	0xbbf991da	-0.007616264
250	0xbdd8c97b	-0.10585304
251	0x3c686962	0.0141852815
252	0x3d1daa7a	0.038492657
253	0x3d07807d	0.03308152
254	0x3e44f278	0.1923312
255	0x3e3f94dd	0.1870913

hidden.2.bias f4 [64]
0	0x3de21611	0.11039365
1	0xbd059a1a	-0.032617666
2	0xbe04893d	-0.12942977
3	0x3dfc5ea5	0.123227395
4	0xbdd0adbe	-0.10189389
5	0x3d130334	0.035891727
6	0x3cac3a1f	0.021023808
7	0xbde6272e	-0.11237942
8	0x3c6f7583	0.014615419
9	0xbc69afa1	-0.014263065
10	0x3d3d9bc8	0.046291143
11	0xbd0f8fd6	-0.035049282
12	0x3dd3d854	0.10343996
13	0x3e081162	0.13287881
14	0x3e18c0b5	0.14917262
15	0x3cda2bb7	0.026632173
16	0x3c5f5c94	0.013632912
17	0x3dceabc5	0.10091356
18	0x3deddb0a	0.11614044
19	0x3df9c71f	0.121961825
20	0x3d927c39	0.071526
21	0x3a746980	0.0009323582
22	0xbc971520	-0.01844269
23	0x3d0af656	0.03392633
24	0xbd187e67	-0.03722992
25	0xbd34aa03	-0.04410745
26	0xbdd6e088	-0.10492045
27	0xbc71f53f	-0.014767944
28	0x3c92eb7c	0.017934553
29	0x3d4a3649	0.049368177
30	0x3dff64a4	0.124703676
31	0xbb8b0f68	-0.00424378
32	0x3d931a3b	0.071827374
33	0x3ddff0a5	0.10934571
34	0xbdbc86ed	-0.092054226
35	0x3e12e88e	0.14346525
36	0x3dd0780e	0.101791486
37	0x3d92be39	0.07165188
38	0x3b407021	0.002936371
39	0x3caefcb3	0.02136073
40	0x3dd99b95	0.10625378
41	0x3de0204a	0.10943659
42	0xbd61405a	-0.05499301
43	0x3c164e60	0.0091739595
44	0xbd9ed59e	-0.07755588
45	0xbddf0a05	-0.10890583
46	0x3e19e433	0.15028457
47	0xbdb082ab	-0.08618673
48	0xbd1c562d	-0.03816812
49	0x3d4ca2cf	0.049959954
50	0x3e1f960c	0.15584582
51	0x3e12726a	0.14301458
52	0xbdc71438	-0.09720653
53	0xbde3927a	-0.111119226
54	0x3da4f546	0.08054595
55	0xbde7748b	-0.11301526
56	0xbd23471c	-0.039862737
57	0xbd15ef64	-0.036605254
58	0x3dece07e	0.11566256
59	0x3e53d8c7	0.20688163
60	0xbd1d5661	-0.038412455
61	0xbc4505f5	-0.012025346
62	0x3d8a4bea	0.06752761
63	0x3d588672	0.052862592

hidden.3.weight f4 [64, 64]
0	0x3d3594ce	0.044331364
1	0x3d85e3ed	0.06537614
2	0x3dd80f66	0.10549812
3	0xbe02e0a2	-0.12781003
4	0x3d884dc6	0.06655459
5	0x3b023225	0.0019866314
6	0x3e4a1735	0.19735415
7	0xbce2e4c8	-0.027696982
8	0x3d63afe9	0.055587683
9	0x3d3d46e3	0.04621018
10	0xbe3826b9	-0.17983522
11	0x3d5a5801	0.053306583
12	0xbe23765e	-0.15963122
13	0x3e2e15ab	0.17000453
14	0xbc8ef996	-0.017452996
15	0xba151947	-0.00056876655
16	0xbddd1b79	-0.107962556
17	0x3e544fa9	0.20733513
18	0xbe0e61cf	-0.13904499
19	0xbbecc6ee	-0.0072258627
20	0x3e496863	0.19668727
21	0x3e6cb6dd	0.23116632
22	0xbe044d6d	-0.1292016
23	0x3e0cda7d	0.13755222
24	0xbe13a010	-0.14416528
25	0xbc3b29a7	-0.011423505
26	0xbd4937c4	-0.049125448
27	0x3d373a5e	0.044733398
28	0x3df0d0cd	0.117585756
29	0x3df2bc61	0.11852337
30	0xbdaf7000	-0.08566284
31	0xbe08c02c	-0.13354558
32	0x3d9dd649	0.07706887
33	0x3e500791	0.20315386
34	0x3b639ec0	0.0034732074
35	0x3e0f1483	0.13972668
36	0xbe1fe675	-0.15615256
37	0x3dd2a3c9	0.10285146
38	0x3d4e650c	0.050389335
39	0x3dc19bd5	0.09453551
40	0x3e0037f1	0.1252134
41	0x3e3e0764	0.18557507
42	0xbdddf4d6	-0.108377144
43	0x3d09c89c	0.03363858
44	0x3da9a56e	0.08283506
45	0x3d94632b	0.07245477
46	0xbc8a995c	-0.01691883
47	0x3dd69f10	0.104795575
48	0x3d340423	0.043949258
49	0xbbb82140	-0.005619198
50	0xbcd912fe	-0.026498314
51	0x3dfcde7a	0.123471215
52	0x3e5280f2	0.20557001
53	0x3da418b7	0.080125265
54	0x3d9995d3	0.0749928
55	0x3d0d308f	0.034470137
56	0x3ddfcad8	0.10927361
57	0x3defdc5e	0.117119536
58	0x3ca80a9d	0.020512873
59	0xbd02ef34	-0.031966403
60	0xbd2b8429	-0.041874085
61	0x3cac88d8	0.021061346
62	0x3d906b60	0.0705173
63	0x3e0545d5	0.1301492
64	0xbd3a0e0a	-0.045423545
65	0xbdce4024	-0.100708276
66	0xbd7fa756	-0.062415443
67	0x3db15ab1	0.08659876
68	0x3d7a729c	0.061144456
69	0xbdc9d7e7	-0.09855633
70	0xbd5768fe	-0.052590363
71	0x3d6c16c4	0.0576389
72	0x3ddc0a19	0.107441135
73	0xbd7cc594	-0.061711863
74	0xbdf07926	-0.11741857
75	0x3dd775ae	0.105204925
76	0xbdc5d3a3	-0.09659507
77	0x3c252ead	0.010081929
78	0xbb6867cd	-0.003546226
79	0x3ddde04d	0.108337976
80	0x3d0d11b8	0.034440726
81	0x3db1b040	0.08676195
82	0x3e0f23dd	0.13978525
83	0xbd9bd800	-0.07609558
84	0xbcd297e0	-0.025707185
85	0xbbf5bba1	-0.0074991737
86	0x3e045995	0.12924798
87	0x3da95b31	0.082693465
88	0x3d57b2d1	0.052660767
89	0xbe45af18	-0.19305074
90	0xbc6d0630	-0.014466807
91	0x3cfbaf51	0.030723246
92	0xbc930525	-0.017946789
93	0x3ce585f8	0.028017983
94	0x3dc96d3d	0.09835289
95	0x3dc19855	0.09452883
96	0xbc7630c4	-0.015026275
97	0x3d18fae1	0.03734863
98	0x3dedd6ec	0.11613259
99	0x3d247cb1	0.040157977
100	0xbd42feeb	-0.04760639
101	0x3e3fde7b	0.18737213
102	0xbd02d13e	-0.03193783
103	0x3d9c8d0e	0.076440915
104	0xbcd74f82	-0.02628303
105	0xbd0d749a	-0.034535028
106	0xbcdc2b78	-0.026876196
107	0xbda341aa	-0.07971509
108	0x3de02528	0.10944587
109	0xba8a8de2	-0.0010570849
110	0xbd50c158	-0.050965637
111	0x3cde5245	0.027138839
112	0x3e92c7dd	0.2866811
113	0xbdc6330b	-0.096777044
114	0xbdb49107	-0.08816724
115	0xbd6d4764	-0.05792941
116	0x3c3f3a44	0.011671606
117	0x3d2fc532	0.04291267
118	0xbdec4223	-0.11536052
119	0xbcda87b1	-0.02667603
120	0xbdc14cf0	-0.09438503
121	0x3e1e8122	0.15478948
122	0xbdcbb343	-0.09946301
123	0x3e7a9987	0.24472629
124	0xbdb769e2	-0.089557424
125	0x3de6d186	0.11270432
126	0x3e70e448	0.23524582
127	0x3d875215	0.06607453
128	0xbe029dfd	-0.1275558
129	0x3c8323d8	0.016008303
130	0xbd5872b8	-0.05284378
131	0xbbda08e6	-0.006653893
132	0x3be03340	0.006842047
133	0x3dfd0d1d	0.12356017
134	0x3d17c75d	0.037055362
135	0xbced8e80	-0.028998613
136	0x3ce0894c	0.027409218
137	0xbd8660a3	-0.06561401
138	0xbdf36043	-0.11883595
139	0xbcc32d10	-0.023825198
140	0xbdb1cb54	-0.0868136
141	0x3e1ff29f	0.15619896
142	0xbe24cd12	-0.16093853
143	0xbc8cd095	-0.017189303
144	0xbd6fb211	-0.058519427
145	0x3cdcee0e	0.026968982
146	0xbd258091	-0.040405814
147	0x3b155ae5	0.0022789773
148	0x3c3b927b	0.011448498
149	0x3e737182	0.23773769
150	0xbc2e5dac	-0.01064245
151	0x3e2e503c	0.17022794
152	0x3d500985	0.05079033
153	0xbbb8c5bf	-0.0056388075
154	0x3c714d70	0.014727935
155	0xbd23cd73	-0.039990854
156	0x3e47b71a	0.19503441
157	0x3d0a0e60	0.033705115
158	0xbd8cf993	-0.0688354
159	0x3d4241da	0.047426082
160	0x3e1d0843	0.15335183
161	0x3d3d9845	0.046287794
162	0xbd8b8d9e	-0.06814121
163	0xbbfe4128	-0.007759232
164	0xbd6a6706	-0.057227157
165	0x3e3b1536	0.1826981
166	0xbcaa29d4	-0.020771898
167	0x3e342dc8	0.17595589
168	0xb9ccd93c	-0.00039071764
169	0x3d369f2f	0.044585403
170	0xbdbeac2c	-0.09310183
171	0x3d5c59c0	0.05379653
172	0x3cd35dd0	0.02580157
173	0xbd95f2c5	-0.07321695
174	0xbe3feeec	-0.18743485
175	0x3e1f1266	0.15534362
176	0xbdf96378	-0.12177175
177	0xbc7371fa	-0.014858717
178	0x3e4eaafd	0.20182414
179	0x3d6862c1	0.056734804
180	0x3b75b900	0.0037494302
181	0xbc9d28a5	-0.01918442
182	0x3d589c4d	0.052883435
183	0xbdb09bfb	-0.08623501
184	0x3dab829e	0.083745226
185	0xbdd8f375	-0.10593311
186	0x3e4ac7d3	0.1980279
187	0xbd7f2af7	-0.062296834
188	0xbe148650	-0.14504361
189	0x3d8576c0	0.065167904
190	0xbdbe90a7	-0.09304934
191	0x3e5d13f8	0.21589649
192	0xbd537ed3	-0.05163462
193	0xbc8a201d	-0.016861016
194	0xba226e00	-0.0006196201
195	0xbdb4a95b	-0.088213645
196	0xbd59c450	-0.053165734
197	0xbcfea9eb	-0.031086883
198	0x3e37264f	0.17885707
199	0xbd616688	-0.055029422
200	0x3df11765	0.1177204
201	0xbc0fd6d0	-0.008779243
202	0xbe23f9b4	-0.16013223
203	0xbc270640	-0.010194361
204	0x3c8926c7	0.016742123
205	0x3d056278	0.03256461
206	0xbe394557	-0.18092857
207	0xbda7376c	-0.08164868
208	0xbd74e434	-0.059787944
209	0xbb8fa027	-0.0043831053
210	0xbe3f32da	-0.18671742
211	0x3e1afdb6	0.15135846
212	0x3e1eba3e	0.15500733
213	0x3ddab0f2	0.10678281
214	0x3c8d2cd6	0.017233294
215	0x3d4a6f11	0.049422327
216	0x3d272eeb	0.04081623
217	0x3d8a5524	0.067545205
218	0x3d20ec38	0.039287776
219	0x3d079be1	0.033107642
220	0x3e3a7f6a	0.18212667
221	0x3b0a136c	0.0021068705
222	0xbd32631f	-0.04355156
223	0xbdbcfd90	-0.09228051
224	0x3cef498e	0.029209878
225	0x3e22d188	0.15900242
226	0xbd762278	-0.060091466
227	0xbd0204cb	-0.031742852
228	0xbdba1f52	-0.09088005
229	0x3db03d32	0.08605422
230	0x3cd84042	0.026397828
231	0x3dc2cdad	0.09511886
232	0x3e204e56	0.15654883
233	0x3e0091f2	0.12555674
234	0xbd8c7606	-0.06858449
235	0x3b8f2480	0.004368365
236	0x3df54e50	0.119778275
237	0xbc912f33	-0.017722702
238	0xbdf64647	-0.12025123
239	0x3e31a72d	0.17348929
240	0x3bbd1096	0.0057697995
241	0xbe27ee21	-0.16399433
242	0x3cabc517	0.020968003
243	0x3e183553	0.14864092
244	0x3cb22972	0.021748278
245	0x3dd98aee	0.10622202
246	0x3e366c4b	0.17814748
247	0x3d60851e	0.05481445
248	0xbd91dd16	-0.07122247
249	0x3c6e23d4	0.014534909
250	0x3e04f119	0.12982596
251	0xbdfc36e8	-0.1231516
252	0xbc45600c	-0.012046825
253	0x3cddee19	0.027091073
254	0xbe232918	-0.15933645
255	0x3da670f5	0.081270136

hidden.3.bias f4 [64]
0	0x3d233e7e	0.03985452
1	0x3d096dd8	0.03355202
2	0x3d823f22	0.06359698
3	0x3d9cd9e4	0.07658747
4	0x3de0b9cc	0.10972938
5	0x3dfeb038	0.12435955
6	0x3c6e9a42	0.014563145
7	0x3deadbbd	0.11467693
8	0x3e014009	0.12622084
9	0xbdd91aba	-0.10600801
10	0x3d9a86c3	0.07545235
11	0xbe105186	-0.14093599
12	0x3cc32428	0.023820952
13	0xbd2ada5a	-0.041712143
14	0x3dd5b909	0.10435683
15	0x3d2ca7aa	0.042152084
16	0xbde75ac8	-0.11296612
17	0xbd276184	-0.040864483
18	0x3e06aded	0.13152285
19	0xbd43eefe	-0.047835343
20	0x3c934671	0.017977925
21	0x3d20c5b7	0.039251056
22	0xbd7cacfd	-0.061688412
23	0xbc6dfca1	-0.014525563
24	0x3e01bc45	0.12669475
25	0xbbc040a6	-0.0058670817
26	0xbdb76a51	-0.08955825
27	0xbc819c91	-0.015821727
28	0xbcf3a9ab	-0.02974399
29	0x3c55aa55	0.013041099
30	0x3c302a29	0.010752239
31	0xbddf1698	-0.10892981
32	0x3da4ee8d	0.080533125
33	0x3e080662	0.13283685
34	0xbd08b3a0	-0.03337443
35	0xbda568c0	-0.0807662
36	0x3d3377eb	0.043815535
37	0xbc6bd090	-0.014392987
38	0xba2a2ebc	-0.00064919493
39	0xbd1cb14f	-0.038255032
40	0x3db9fbd7	0.09081238
41	0x3df17f4b	0.11791857
42	0x3d857188	0.06515795
43	0x3d64bef6	0.055846177
44	0x3dae9199	0.08523864
45	0xbdf33637	-0.11875575
46	0x3d891900	0.066942215
47	0x3bc5375f	0.0060185636
48	0x3cff37b6	0.031154495
49	0x3db660b0	0.089051604
50	0x3df23570	0.11826599
51	0xbd81f9ca	-0.063464716
52	0x3d2207a8	0.039558083
53	0x3e14ed51	0.14543654
54	0x3d7a0d04	0.06104757
55	0x3ddf09f7	0.108905725
56	0x3d82a015	0.063781895
57	0x3dd14d9a	0.102198794
58	0x3d16127d	0.036638726
59	0x3de7619e	0.11297916
60	0xbd4a5b51	-0.049403492
61	0x3e073be0	0.13206434
62	0x3e06e827	0.13174497
63	0xbd482845	-0.04886653

hidden.4.weight f4 [64, 64]
0	0xbd049ea6	-0.03237786
1	0xbe652fea	-0.22381559
2	0xbcaecdf9	-0.02133845
3	0xbc586b98	-0.013209246
4	0xbd8218fd	-0.063524224
5	0x3d16c1c5	0.036805887
6	0x3d8f6c10	0.07003033
7	0xbda903af	-0.08252656
8	0x3e91e158	0.28492236
9	0x3c064a9f	0.008196502
10	0x3d904ce7	0.07045918
11	0x3e67d16a	0.22638479
12	0xbdb7194b	-0.08940371
13	0x3d7b5180	0.06135702
14	0xbe69895d	-0.22806306
15	0x3d123a3f	0.03570008
16	0x3c806f10	0.015677959
17	0xbd66f59c	-0.056386575
18	0x3e80b86e	0.2514071
19	0x3e4ce4f5	0.20009215
20	0xbdcce407	-0.1000443
21	0xbe7c24b2	-0.24623373
22	0x3e55de47	0.20885573
23	0x3be364e5	0.006939518
24	0x3d210715	0.039313395
25	0x3a8ca304	0.0010729735
26	0x3de5e13c	0.11224601
27	0xbda5abec	-0.08089432
28	0x3e8d0bc1	0.2754803
29	0x3d8f9ba0	0.07012105
30	0xbcc7f7eb	-0.024410209
31	0x3e8bc2e0	0.27297115
32	0x3c830442	0.015993241
33	0x3e286e32	0.16448286
34	0xbdd38dd5	-0.10329787
35	0xbdfb6cc6	-0.12276606
36	0xbe6f9e66	-0.23400268
37	0xbd679142	-0.056535013
38	0xbd18a32a	-0.03726498
39	0x3e1cc7b5	0.15310557
40	0x3e19bd80	0.15013695
41	0x3d9bab0b	0.07600983
42	0x3dc8bfe6	0.09802227
43	0xbdb83318	-0.0899412
44	0xbdbce24d	-0.09222851
45	0x3e890dcf	0.26768348
46	0xbe19839d	-0.14991613
47	0xbe19a297	-0.1500343
48	0xbe20ac64	-0.15690762
49	0x3d97d298	0.074132144
50	0x3c8205de	0.015871938
51	0x3d8f5dc6	0.07000308
52	0x3e35237c	0.17689317
53	0xbd7ccd2b	-0.0617191
54	0xbd4168e8	-0.047219187
55	0x3d8fffcb	0.070312105
56	0xbe2fa2bb	-0.1715192
57	0x3d69dbfc	0.05709456
58	0xbe54acc3	-0.20769028
59	0xbd2b4f39	-0.0418236
60	0x3d837826	0.06419401
61	0xbc987687	-0.018611206
62	0x3d632051	0.05545074
63	0xbe27ec1a	-0.1639866
64	0x3d16a1d3	0.03677542
65	0x3e0985f1	0.13430001
66	0xbdc10403	-0.09424593
67	0x3c379f6c	0.011207443
68	0xbddb7031	-0.10714758
69	0x3dea4c54	0.1144034
70	0xbd67713f	-0.056504484
71	0x3dab5c7a	0.08367248
72	0x3de03d51	0.10949195
73	0x3cb9025a	0.02258413
74	0xbd179fea	-0.03701774
75	0xbe0b01c8	-0.13574898
76	0x3d4fead1	0.050761048
77	0x3d92b67d	0.07163713
78	0x3da47eae	0.08031975
79	0xbe0ad37b	-0.13557236
80	0xba127400	-0.00055867434
81	0xbd64d1e0	-0.055864215
82	0xbe129635	-0.14315112
83	0xbcdc3ed9	-0.026885437
84	0x3de708f0	0.112810016
85	0x3be2f9ef	0.006926767
86	0xbda58d96	-0.08083646
87	0xbc9b366f	-0.018946854
88	0xbd985263	-0.07437589
89	0x3d01f3f2	0.031726785
90	0xbdde8f24	-0.10867146
91	0x3b5b0594	0.0033420073
92	0x3ce4f057	0.027946634
93	0xbbf51ec9	-0.0074804765
94	0x3cead6c3	0.02866686
95	0x3db8ec96	0.090295
96	0xbdc8faee	-0.09813486
97	0xbcba8cdd	-0.022772247
98	0xbda0b8b5	-0.0784773
99	0x3e18d32b	0.14924304
100	0x3c0f8038	0.008758597
101	0x3c9c89f8	0.019108757
102	0xbc2fc78c	-0.010728728
103	0xbc29a077	-0.010353199
104	0x3dbe784c	0.093002886
105	0xbe025e58	-0.12731302
106	0x3de50484	0.11182502
107	0x3dde8ae0	0.10866332
108	0xbb621bfa	-0.0034501539
109	0x3da29e59	0.07940359
110	0x3d683f1b	0.056700807
111	0x3dbba13e	0.09161614
112	0x3d9e062b	0.0771602
113	0xbce8b4a7	-0.028406454
114	0xbd553566	-0.052052878
115	0x3e419964	0.1890617
116	0xbdedcd20	-0.1161139
117	0x3caae466	0.020860862
118	0xbd21fbdf	-0.039546844
119	0x3dc892be	0.09793614
120	0xbdc19578	-0.09452337
121	0xbc153923	-0.009107861
122	0x3dd94de2	0.10610558
123	0x3c840dad	0.016119802
124	0x3cf08538	0.029360399
125	0xbdeba3da	-0.115058616
126	0xbdf6caa0	-0.120503664
127	0xbe1aa982	-0.15103725
128	0xbd082e29	-0.033247147
129	0xbdd67f19	-0.10473461
130	0x3da09c08	0.078422606
131	0xbc5081da	-0.0127262715
132	0xbd554b00	-0.05207348
133	0xbd3bb0ed	-0.045823026
134	0xbe0a9d13	-0.13536482
135	0x3d998d2f	0.07497632
136	0x3e1357a2	0.14388898
137	0xbe050615	-0.12990601
138	0x3e59c0d0	0.21264958
139	0x3d9dc744	0.077040225
140	0xbbee81bf	-0.0072786505
141	0x3ddd4ded	0.10805879
142	0xbe296fa2	-0.16546491
143	0xbd72a13c	-0.059235796
144	0xbdee7b8e	-0.1164466
145	0x3d18d534	0.0373127
146	0x3e56596b	0.20932548
147	0x3e04b3d4	0.12959224
148	0xbde52fd2	-0.111907616
149	0xbe5f04d5	-0.21779187
150	0x3d3418a2	0.043968804
151	0xbd645ac3	-0.05575062
152	0x3d5c5777	0.05379435
153	0x3c0eb256	0.008709511
154	0xbcf597f8	-0.02997969
155	0xbcc76001	-0.02433777
156	0x3e0a5b97	0.13511501
157	0x3e7c6a73	0.24649982
158	0x3dc6901b	0.09695455
159	0x3e63ff75	0.22265418
160	0xbb9b2b5b	-0.004735393
161	0x3de4d1b0	0.11172807
162	0x3bbd6fc0	0.005781144
163	0x3dcdd5a0	0.10050511
164	0xbe394b3b	-0.18095104
165	0x3d65dc2c	0.056118175
166	0x3db03366	0.086035535
167	0x3de3b695	0.11118809
168	0x3cc6c180	0.02426219
169	0x3e636d0c	0.22209567
170	0x3ca95cc1	0.020674111
171	0xbe25926f	-0.16169141
172	0x3d41af16	0.047286116
173	0x3df124dc	0.117746085
174	0x3ce7a67f	0.028277634
175	0xbd4803e8	-0.04883185
176	0xbd8fb3d2	-0.0701672
177	0x3e29a5a0	0.16567087
178	0xbcf70f76	-0.03015874
179	0xbcc581a0	-0.024109662
180	0x3e6d5380	0.23176384
181	0x3c34fcb2	0.011046575
182	0x3d3ea117	0.046540346
183	0x3cb2da84	0.021832712
184	0xbdc110cb	-0.09427031
185	0xbdd1bd33	-0.10241165
186	0xbdb231b4	-0.08700886
187	0xbde9285b	-0.1138465
188	0x3e01b1f7	0.12665544
189	0xbcde6bb3	-0.027150964
190	0xbd7a14f1	-0.061055128
191	0xbd93aaf6	-0.072103426
192	0x3dacc6d1	0.08436359
193	0xbd740968	-0.059579283
194	0x3d759ba5	0.059962887
195	0x3e75e840	0.24014378
196	0x3e43fff0	0.19140601
197	0x3e686590	0.22694993
198	0x3daab43a	0.08335157
199	0x3e1505f5	0.14553054
200	0x3d3f6be1	0.04673374
201	0x3e2fb378	0.17158306
202	0xbe0a6cba	-0.13518038
203	0x3db208af	0.086930625
204	0x3e040880	0.12893867
205	0x3da43ef0	0.08019817
206	0xbde46af8	-0.11153215
207	0x3d136ea6	0.035994194
208	0xbd0de754	-0.03464444
209	0x3d5fd0c0	0.05464244
210	0x3d9aeb34	0.07564393
211	0xbde5e242	-0.11224796
212	0x3dd61bdd	0.10454533
213	0xbce40a59	-0.027836965
214	0xbd903465	-0.070412435
215	0x3e570f20	0.21001863
216	0x3c8da975	0.017292717
217	0x3d9747b5	0.07386724
218	0x3d552896	0.05204066
219	0x3de72c59	0.112877555
220	0x3cd7e39b	0.026353648
221	0xbe055960	-0.13022375
222	0xbd005e97	-0.031340208
223	0xbd512492	-0.051060267
224	0x3d2bb37d	0.04191922
225	0x3dbf03e2	0.093269125
226	0x3d820670	0.06348884
227	0xbd6e9781	-0.058249954
228	0xbe3e9887	-0.18612872
229	0xbde202b8	-0.11035675
230	0x3e7ba3b9	0.24574174
231	0xbd184e70	-0.03718418
232	0x3de06efb	0.10958668
233	0xbdadedcc	-0.08492622
234	0x3e316409	0.17323317
235	0xbde9cc7d	-0.11415956
236	0x3e2d6090	0.16931367
237	0xbdbad113	-0.09121909
238	0x3e297924	0.16550118
239	0x3e47eeab	0.19524638
240	0xbe257779	-0.16158856
241	0xbe08496c	-0.13309258
242	0x3db42902	0.08796884
243	0xbd9210a1	-0.07132078
244	0xbd03444c	-0.032047555
245	0x3d502c3c	0.050823435
246	0x3e2d90ae	0.16949722
247	0x3d0c5af6	0.034266435
248	0x3db2f390	0.08737862
249	0x3c31a2ba	0.01084202
250	0xbe1eedaa	-0.15520349
251	0x3dcb2272	0.09918679
252	0xbdb86ffb	-0.090057336
253	0x3d472fb7	0.04862949
254	0x3e54f914	0.20798141
255	0xbc35c01a	-0.011093164
