models/dqn.pt (torch_old, 110431 bytes, 13 tensors)

in_layer.weight f4 [64, 96]
000000 90 ac c3 3d d8 fa 7a bc 06 1e ab bd 52 8b 8e 3d
       0.09554398 -0.015318595 -0.08355336 0.06960167
000010 e3 19 76 bd 28 5e 8d 3d 40 2c c7 3d b8 c9 f0 3c
       -0.06008328 0.069027245 0.09725237 0.029393062
000020 b9 7f 43 bd 64 bc c4 3d 50 ce d5 3c 24 4a c3 bc
       -0.047729228 0.09606245 0.026099354 -0.023839064
000030 07 c6 32 bd c2 06 38 bd 96 62 b2 3d 50 48 c3 3c
       -0.043645885 -0.04492832 0.0871021 0.023838192
000040 88 1e 91 bd 14 1f b0 bc f8 12 92 bd ba ed 29 bd
       -0.070859015 -0.021499194 -0.07132524 -0.04148648
000050 c0 2c 09 3d cc 65 98 3d a4 ba cc 3d d0 0d ab bb
       0.033489943 0.07441291 0.099965364 -0.0052201524
000060 a4 0a 54 3d 38 9e bc bd 83 e6 8c bd 42 81 a8 bd
       0.05176796 -0.09209865 -0.06879904 -0.08227779
000070 6c 37 2a 3d 86 dc b2 bd e4 d8 b5 bc d8 c3 14 bc
       0.04155676 -0.08733468 -0.022198148 -0.009079896
000080 1c 41 5d bd 20 45 df 3c 80 cf 18 3d dc 30 90 bd
       -0.05401717 0.027254641 0.037307262 -0.07040569
000090 c4 2f 13 bd 20 f4 d4 3b 60 6c aa bc ec 00 b1 bd
       -0.035934225 0.0064988285 -0.02080363 -0.08642754
0000a0 58 e2 c8 3c 80 d7 68 3d 0a 9e b0 3d 34 f3 2f 3d
       0.024521992 0.05684614 0.086238936 0.042956546
0000b0 a2 25 77 bd 1b 90 c2 bd 48 35 97 3d 0e a6 c9 3d
       -0.060338624 -0.09500142 0.073832095 0.098461255
0000c0 64 5a b7 3d b0 af 8f 3c b6 ca 80 3d b6 c7 c4 3d
       0.089527875 0.017539829 0.06288664 0.09608404
0000d0 ee 99 8b 3d d5 c1 3a bd 1a 09 c1 3d e0 16 cc 3b
       0.06816469 -0.04559501 0.09425564 0.006228313
0000e0 bc 4e aa 3d 40 fb 13 bd 58 1e 49 3d 28 41 66 3d
       0.08315799 -0.036128283 0.049101204 0.05621448
0000f0 24 a1 43 3d e0 cb 97 3d 88 3c cf bd a2 22 a7 3d
       0.047761098 0.07411933 -0.10118967 0.081609026
000100 6c f3 61 3d 87 e1 c6 bd 41 4b 5d bd 78 a9 bd 3c
       0.055163786 -0.09710985 -0.054026846 0.023152098
000110 3c 78 a1 3d 58 4b 46 3c ee 97 99 bd c0 71 80 3c
       0.07884261 0.012102924 -0.074996814 0.01567924
000120 d0 9d d3 bc 5d 6c 3b bd ac f1 77 3d b9 2b a4 bd
       -0.025832087 -0.04575764 0.06053321 -0.08016152
000130 20 20 a2 3d ee db 64 bd 78 17 9c bc 65 ee 8c bd
       0.079162836 -0.055873804 -0.01905416 -0.06881408
000140 8f 38 b1 bd 6e 33 c0 bd c4 6b bb 3d b8 87 40 bc
       -0.08653366 -0.093848094 0.09151414 -0.011751108
000150 b4 21 82 3d 9c 3f 8b bc d1 20 b3 bd 24 53 d9 bc
       0.063540846 -0.016998105 -0.087464936 -0.026528902
000160 a0 37 2b bb 70 ce cd 3d cc 78 b9 bd 60 da 04 bd
       -0.0026125684 0.100491405 -0.09056243 -0.03243482
000170 80 ab 7d 3c cc 19 b8 bd 5e e0 c6 bd 00 da 25 3d
       0.015482783 -0.08989295 -0.097107634 0.040491104
000180 9e 32 bc 3d a4 a0 39 3d 90 07 2b 3c 10 ee 13 3d
       0.09189342 0.045319214 0.010438815 0.036115706
000190 0c c0 90 bd f0 29 a0 3d 40 4c 47 3b 43 03 a3 bd
       -0.0706788 0.07820499 0.0030410439 -0.079596065
0001a0 9c 7f 3e 3d a0 29 2a bd 44 d2 8d 3c 40 62 80 bb
       0.046508417 -0.041543603 0.017312177 -0.0039179623
0001b0 8a 63 9e bd f0 e6 8b bc 5c 79 98 bc aa 59 56 bd
       -0.07733829 -0.017077893 -0.018612556 -0.052331604
0001c0 16 1d ae bd 10 20 6d 3d 28 87 a6 bc a0 46 ee bc
       -0.085016415 0.057891905 -0.02032812 -0.029086411
0001d0 c8 7d ae bd 16 31 b1 3d f0 62 db 3c 42 1e 9e bd
       -0.085200846 0.086519405 0.026780576 -0.07720615
0001e0 4e 49 c9 bd b6 26 1f bd 70 e3 ce bd e7 14 75 bd
       -0.09828435 -0.038855277 -0.10101974 -0.059834387
0001f0 68 93 3a 3d 70 74 85 bb ac 3c d1 bc a8 7a aa bd
       0.045550734 -0.0040727183 -0.025541626 -0.08324176
000200 3d 58 99 bd 8d e1 c7 bd a8 1b 51 3d f2 bd 41 bd
       -0.07487533 -0.09759817 0.051051766 -0.047300287
000210 60 be 9a 3c c0 eb 6d 3c d9 56 ab bd 50 16 8b 3c
       0.018889606 0.014521539 -0.08366174 0.016978413
000220 28 3a ad bd 64 8c 8f bd 84 2d 82 3c 94 f3 42 3d
       -0.08458358 -0.07009199 0.015890844 0.047595575
000230 90 51 16 3d d0 9d 72 3c d1 dd ac bd ac d8 9e 3d
       0.036698878 0.014808133 -0.084407456 0.07756171
000240 4c 7b 6d 3d 85 28 a8 bd 80 1e 8e bb ca 4c 83 3d
       0.057978913 -0.082108535 -0.004337132 0.06411131
000250 7a 85 a6 3d 9e 63 03 bd f8 90 02 3d bc 02 d7 bc
       0.081309274 -0.032077424 0.031876534 -0.026246421
000260 2a 88 be 3d 60 b8 fe 3b 50 97 84 3b 38 57 06 3d
       0.09303315 0.007773444 0.004046358 0.032798022
000270 7c 34 27 3d 34 63 da bc 33 f9 5f bd bc f3 c5 bd
       0.040821537 -0.026658632 -0.054681014 -0.09665629
000280 e8 06 97 bd d8 4c 9f bc 58 7f 2c bc ec e9 5c bd
       -0.07374364 -0.019445822 -0.010528408 -0.053934023
000290 00 d1 0c 3c 06 e3 82 3d 30 c0 f0 3c 85 85 4e bd
       0.008594751 0.063909575 0.029388517 -0.050420303
0002a0 be 64 21 bd 3e cc ad 3d f8 11 17 bc c4 9e a8 bd
       -0.039402716 0.08486222 -0.009220593 -0.08233407
0002b0 5a 1c 9c 3d 51 a1 74 bd b8 4c 08 bc 10 77 fd bc
       0.07622595 -0.059724156 -0.008319072 -0.030940562
0002c0 5a 91 c6 bd e0 f8 9e 3c 78 d6 4e 3d e6 6c a4 bd
       -0.09695692 0.019405782 0.050497502 -0.08028583
0002d0 9c ab 6a 3d 3a 7d d0 3d 70 b0 7c bc ac 03 d0 bd
       0.057292566 0.10180135 -0.015422925 -0.1015695
0002e0 8c ca c7 bc ec 9c a0 3d a0 17 87 3b 82 2c 9b bd
       -0.024388574 0.078424305 0.0041226894 -0.075768486
0002f0 cb 60 68 bd ac 98 8d 3c c2 16 89 3d f0 7b 2f 3c
       -0.056732934 0.017284714 0.06693794 0.010710701
000300 59 f8 b0 bd 10 0b f3 3c 00 9c 0e 3b c4 44 9b 3c
       -0.086411186 0.029668361 0.0021760464 0.018953688
000310 3e ee 1d bd f6 38 9e bd 08 11 ed 3c c0 b2 ab 3d
       -0.038557284 -0.07725708 0.028938785 0.08383703
000320 00 f5 b6 ba b8 c7 27 3d 80 e8 49 3d 1c f6 1c 3d
       -0.0013958514 0.04096195 0.049293995 0.038320646
000330 00 05 c0 3d 00 30 4f 3b ca 33 79 bd ee a8 91 bd
       0.09375954 0.0031614304 -0.060840406 -0.07112299
000340 06 c0 94 bd 40 20 20 bb 9a ec 90 3d 80 65 07 bb
       -0.07263188 -0.0024433285 0.07076378 -0.0020659864
000350 44 c5 f4 bc 98 af 7b 3c 8a ef 25 bd 00 f5 33 3a
       -0.02987922 0.015361689 -0.040511645 0.0006864816
000360 38 02 06 3c 7a 71 3d bd e4 08 96 3d 84 18 15 bd
       0.00817924 -0.046250798 0.073259145 -0.036400333
000370 80 a7 f2 ba 31 f3 31 bd 40 d5 19 bd 98 55 70 3d
       -0.0018513054 -0.043444816 -0.037556887 0.05867538
000380 5e fb 84 bd a8 5b dc bc 74 a5 9e bc 00 20 c3 3c
       -0.06493257 -0.026899174 -0.019366004 0.02381897
000390 4c 6c a6 3d 45 28 82 bd c4 d6 64 3d a0 85 ac bc
       0.08126125 -0.06355337 0.05586888 -0.021059811
0003a0 6e 02 b7 bd a0 67 4b 3b 80 a5 94 3d 32 76 6a bd
       -0.0893601 0.0031037107 0.07258129 -0.057241626
0003b0 89 9d ba bd 26 72 cb bd 50 9b a4 3b 7c 23 a9 bd
       -0.09112079 -0.099338815 0.0050233975 -0.08258721
0003c0 d7 a5 23 bd 16 bf 8b bd f8 c1 ef 3c 44 d3 8f bd
       -0.03995308 -0.06823556 0.029267296 -0.070227176
0003d0 f8 7d 29 3c 08 da 0a 3c 80 db 8d bc b0 66 6a 3d
       0.010344975 0.008474834 -0.01731658 0.057226837
0003e0 00 d7 c8 bc 0e 7a 95 3d dc 61 0e bd b4 67 b5 bc
       -0.024516582 0.07298671 -0.034761295 -0.022144176
0003f0 10 cd 5d bd 49 56 95 bd ac b2 b3 3c c5 38 ba bd
       -0.05415064 -0.07291848 0.021935783 -0.09092859

in_layer.bias f4 [64]
000000 a0 42 db bc c0 e3 4d bb 8a ee ab bd e0 6d 40 bb
       -0.026765168 -0.0031416267 -0.08395107 -0.0029362366
000010 13 aa ad bd 58 64 cf 3d 00 8c 60 ba 18 c1 b7 3c
       -0.08479705 0.10126561 -0.00085657835 0.022430941
000020 ec f3 a5 3c 00 15 84 bd a0 8a b7 bc 5c a3 a2 3d
       0.020257913 -0.06449318 -0.022404969 0.079413146
000030 bc 4c c7 3d 18 f5 ce 3d c9 63 9f bd 24 2f 72 bd
       0.09731433 0.10105342 -0.077827044 -0.059126988
000040 40 49 86 3b 2a 87 a9 3d e3 51 92 bd a2 66 00 bd
       0.0040980875 0.082777336 -0.07144525 -0.03134788
000050 96 63 8d bd ec f8 3a 3d 22 52 b6 3d 9c b7 b9 3c
       -0.0690376 0.045647547 0.08902384 0.02267056
000060 90 59 21 3d 1f 42 41 bd f8 73 c9 3d c4 0e ba bd
       0.039392054 -0.0471822 0.098365724 -0.090848476
000070 6a ac 8e bd 16 a3 c2 3d 1c 73 00 bd 18 40 bf 3d
       -0.06966479 0.095037624 -0.031359777 0.09338397
000080 77 4b 81 bd fc ed 87 bc af d5 75 bd b8 fe e7 bc
       -0.06313222 -0.016592972 -0.060018238 -0.028319702
000090 03 7f c4 bd f7 f7 89 bd 28 b5 4f bd 76 41 8a bd
       -0.09594538 -0.06736749 -0.050709873 -0.06750767
0000a0 a0 c2 60 3c 8b b2 57 bd fc a7 a8 bd a0 ff e4 bb
       0.013718277 -0.052660506 -0.082351655 -0.0069884807
0000b0 00 16 5e b9 55 0f 61 bd f2 7d 86 bd 44 78 b4 3d
       -0.00021179765 -0.054946262 -0.06566991 0.08812001
0000c0 90 95 c7 bd 88 ef 51 3d 20 fe 21 3b 90 09 5f 3d
       -0.09745324 0.051253825 0.002471812 0.05445248
0000d0 9e 84 a4 bd 80 e0 29 3c dc 3b 61 3d 96 69 83 3d
       -0.08033107 0.010368466 0.054988727 0.06416623
0000e0 62 50 b6 3d 6e fa 02 bd 24 3d cc bd ec 7f 4f 3d
       0.089020506 -0.03197711 -0.09972599 0.050659105
0000f0 b0 cb 80 3b 08 39 8c bd b4 19 11 3d 48 7c 03 bc
       0.0039305314 -0.06846815 0.035424903 -0.008025236

hidden.0.weight f4 [64, 64]
000000 e0 50 71 bd 38 c8 8e 3d a2 2b f7 bd a0 61 af bd
       -0.05891502 0.069717824 -0.12068869 -0.08563542
000010 d6 72 fc 3d 24 b4 85 3d 84 5f 9c 3d 00 45 37 bc
       0.12326591 0.065285 0.07635406 -0.0111858845
000020 42 95 ef bd 6e 63 fd 3d a4 a2 4b 3d 72 26 87 bd
       -0.116983905 0.1237248 0.049715653 -0.0659913
000030 b2 f9 e1 3d a2 02 d8 bd 4e 35 c8 bd 76 4f d2 bd
       0.11033954 -0.10547377 -0.09775792 -0.10269062
000040 40 9c 74 3b 58 88 1a 3d 30 55 28 bd 00 aa ca 3b
       0.0037324578 0.037727684 -0.041096866 0.0061848164
000050 68 80 b3 3d 88 3b 1c bd 08 58 7c 3d 4c 89 a3 3d
       0.08764726 -0.03814271 0.06160739 0.07985172
000060 a4 b9 90 bd 00 72 1a ba de f2 c9 3d 40 75 d8 bd
       -0.07066658 -0.0005891621 0.09860776 -0.10569239
000070 20 51 25 bc 00 b0 60 3a e6 2b 80 bd d8 be 07 bd
       -0.0100901425 0.0008571148 -0.06258373 -0.033140987
000080 4c c7 57 3d a0 ad ed bc 14 1e a2 bd e2 2d 9c bd
       0.0526803 -0.029013455 -0.07915893 -0.07625939
000090 50 cb 4d bc d8 31 c3 bd 88 f2 fa 3c 54 5b 3d bd
       -0.0125606805 -0.09530991 0.030633226 -0.046229675
0000a0 d8 b4 93 bc 0e bb b2 3d 94 00 dd 3d 3c eb 24 3d
       -0.018030569 0.08727084 0.10791126 0.0402634
0000b0 fe cb f9 3d 44 68 17 bd 20 77 32 3d 40 95 3c bb
       0.121971115 -0.03696467 0.043570638 -0.0028775483
0000c0 bc 09 2a bd 1c 6b ef bd 80 bf fc ba fa 5b b8 3d
       -0.04151319 -0.11690351 -0.0019283146 0.09001918
0000d0 40 91 31 bb b4 63 8b 3d ae cd 93 3d f2 5e e1 3d
       -0.0027094632 0.06806126 0.07216965 0.110044375
0000e0 c4 f1 52 3d b4 98 79 3d e8 30 34 3d 20 e0 e1 3c
       0.051500097 0.060936645 0.043991953 0.027572691
0000f0 e0 53 81 3b 14 8c 9d bd ac 1d df 3d 28 6a 85 3d
       0.0039467663 -0.076927334 0.10894331 0.06514388
000100 c8 cb 81 3d b0 6c 4d 3d 80 44 4a 3b d8 ac 65 bd
       0.06337696 0.05015248 0.0030863583 -0.05607304
000110 d0 49 2c 3c e4 1b b0 bd 58 40 da 3c bc fe 34 bd
       0.010515645 -0.0859907 0.02664201 -0.044188246
000120 fc de fe bd f2 bf a3 3d b0 82 d1 3d c0 51 ef bd
       -0.12444875 0.07995595 0.10230005 -0.116855145
000130 20 7e 57 bd 0c 04 cd bd 24 f0 87 bd 28 65 fa bd
       -0.052610517 -0.100105375 -0.066376 -0.12226325
000140 00 13 03 3a 1c 7d da 3d dc a2 cc 3d 86 22 c3 bd
       0.00050000846 0.10668394 0.099920005 -0.09528069
000150 36 a3 ea 3d 84 39 ca 3d 68 5f bc bd bc 16 94 bd
       0.11456911 0.098742515 -0.09197885 -0.07230899
000160 40 18 31 3b 70 0f 3c 3d cc d4 d9 bd 00 0e e4 ba
       0.002702251 0.04591316 -0.10636291 -0.0017399192
000170 58 08 fa bc 24 cd f3 bd 0e a4 ea 3d 78 fa 9d 3c
       -0.030521557 -0.11904362 0.11457072 0.019284472
000180 c0 9b a3 3d 8e e0 c0 bd fe d7 d4 3d e0 92 4a 3d
       0.07988691 -0.094178304 0.1039276 0.049456477
000190 96 33 df 3d c0 54 99 3b 90 7c a5 3d 04 3b 34 bd
       0.10898511 0.0046792924 0.08080399 -0.044001594
0001a0 72 50 e0 bd 48 76 43 bd 38 0b 21 3d c0 17 fc bc
       -0.10952844 -0.047720224 0.03931734 -0.030773044
0001b0 f4 54 71 3d 92 cf a6 bd 92 5f c0 bd f0 1c d3 bd
       0.05891891 -0.0814506 -0.093932286 -0.10308254
0001c0 58 65 69 bd 60 41 11 3d d8 4a c8 3c 40 1e f6 3d
       -0.056981415 0.035462737 0.02444975 0.120174885
0001d0 00 2c 0d b9 48 39 26 3d c0 8f cc 3d 64 84 99 bd
       -0.00013463199 0.04058197 0.09988356 -0.07495955
0001e0 bc 58 19 bd 90 05 dc bd a6 09 98 3d 58 28 d5 bd
       -0.03743814 -0.107432485 0.07423715 -0.104080856
0001f0 e0 49 2f bc 88 6d 80 bd f4 07 ea bd 40 50 8e 3c
       -0.0106987655 -0.062708914 -0.11427298 0.01737225
000200 9c 51 16 bd c0 2e 53 3d 80 7a f5 3b 6c 5e a8 bd
       -0.036698923 0.051558256 0.00749141 -0.082211345
000210 30 72 6b 3c 56 53 8e bd 9a 5f a0 bd 3c 4e de 3d
       0.014370486 -0.06949489 -0.078307346 0.10854766
000220 a2 5a 99 bd 2e 40 c3 bd 56 de a7 3d 90 db fb 3d
       -0.0748799 -0.09533726 0.08196704 0.122977376
000230 fe ec 9d 3d c2 ad 84 3d e0 90 68 3d 62 e9 c7 3d
       0.07711218 0.06478454 0.05677879 0.09761311
000240 c0 7f bc bb 28 47 cd 3d 68 eb 99 bc dc fe ca 3d
       -0.0057525337 0.100233376 -0.018789008 0.09911892
000250 f0 e5 cd 3d c4 96 d1 3d 28 40 1a bd fc 35 81 bd
       0.10053623 0.102338344 -0.03765884 -0.06309125
000260 f2 c2 fb bd 04 bf b2 bd ce 9d e1 3d c4 5a 67 bd
       -0.12293042 -0.087278396 0.11016427 -0.056483045
000270 30 02 41 bd 90 70 d2 3d a4 bc 04 3d e0 68 a8 3c
       -0.047121227 0.10275376 0.032406464 0.02055782
000280 4c 34 a6 bd 8e d3 f7 bd fe 88 e3 bd f0 a9 06 3c
       -0.081154436 -0.12100898 -0.111101136 0.008219227
000290 4a ef f7 bd 3e 8f da bd 50 69 5c 3c 70 ef e4 bc
       -0.12106188 -0.106718525 0.013452843 -0.027946204
0002a0 50 ed de bc f6 d5 c0 bd 12 c3 e9 bd 00 93 6c 3b
       -0.027212769 -0.0941581 -0.1141416 0.003609836
0002b0 98 91 85 bc e0 4d e1 3c c8 de ee bc e8 10 c7 3c
       -0.016304776 0.027502954 -0.029158965 0.024300054
0002c0 68 d5 bb 3d 0e 72 d0 bd dc c2 c6 3d 4a a9 84 3d
       0.091715634 -0.10178004 0.09705135 0.06477602
0002d0 48 af f4 bd f0 c4 a2 3d 96 71 82 3d 80 cf de bd
       -0.11947495 0.07947719 0.06369321 -0.10879421
0002e0 d0 f5 8e 3d b8 b0 ba bd ea cc df 3d d8 70 cb 3d
       0.06980479 -0.09115738 0.10927756 0.099336326
0002f0 80 ee da bc 3c 57 6a 3d 60 0b 10 bc 90 81 92 3c
       -0.026725054 0.0572121 -0.0087917745 0.017884046
000300 fa 54 f9 3d 88 0f bb 3c e0 95 d0 bc 98 bb ea bd
       0.12174411 0.022834554 -0.025462091 -0.11461562
000310 2c 47 8f bd 00 99 e1 3d a0 9c 07 3c 52 ad ea bd
       -0.06995997 0.110155106 0.008277088 -0.114588395
000320 40 8b d5 3d ce b2 ad 3d ae 11 d5 bd b4 dd f8 bd
       0.104269505 0.0848137 -0.10403763 -0.121516615
000330 4a 81 8a 3d d0 9c b3 bc 60 f3 c6 bc 10 05 0b 3c
       0.06762941 -0.02192536 -0.024285972 0.008485094
000340 88 94 43 3d 74 b7 f0 bd 1e 28 91 bd 38 95 53 3d
       0.047749072 -0.11753741 -0.0708773 0.051655978
000350 2c b5 00 bd 96 2d b7 3d 44 9e 0b bd 58 df 0f bd
       -0.03142278 0.08944242 -0.03408648 -0.035125107
000360 20 95 cc 3b b8 b8 cc bc f6 79 9c 3d f4 2d cf 3d
       0.006243363 -0.024990425 0.0764045 0.10116187
000370 c0 cf 39 3c 10 93 58 bc f0 79 ab bd 66 4b c6 3d
       0.011341035 -0.013218656 -0.08372867 0.0968235
000380 ea ec 8c bd 04 2a 0d 3d 5a c1 ae 3d 98 86 89 3c
       -0.06881125 0.034463897 0.08532973 0.016787812
000390 94 ae 36 bd d0 70 2a 3d 48 e3 03 bd 1c bd cb 3d
       -0.044600084 0.041611493 -0.032199174 0.09948179
0003a0 20 c7 f2 3d 60 c4 71 bd 24 a5 5f bd 4e 7c c1 bd
       0.11854386 -0.05902517 -0.05460085 -0.09447537
0003b0 10 ac 71 3c 40 a2 bf 3b 40 0d 5d bd 84 58 06 3d
       0.014750496 0.005848199 -0.053967714 0.03279926
0003c0 50 57 02 bc 82 d3 c1 bd 48 11 e0 bd 7c b1 6a 3d
       -0.007955387 -0.0946417 -0.10940796 0.05729817
0003d0 e2 e9 cd 3d d8 15 2f 3d 04 fc 8c bd 40 f4 fc 3b
       0.10054375 0.04274544 -0.06884006 0.0077195466
0003e0 28 39 b7 bc 84 5d d4 bd d0 67 cb 3d f8 6e 46 3d
       -0.022366121 -0.10369399 0.0993191 0.04844567
0003f0 f2 a7 e8 bd 3c c2 a7 bd f4 c2 8a 3d c0 70 60 bb
       -0.11360158 -0.08191344 0.067754656 -0.0034246892

hidden.0.bias f4 [64]
000000 20 06 a5 bb 1c 34 65 3d 60 04 ec bb de a2 a6 bd
       -0.0050361305 0.0559579 -0.00720267 -0.08136533
000010 a8 18 70 bd 5e bc dc 3d de 26 bf 3d 3c 46 86 bd
       -0.058617264 0.10778116 0.09333585 -0.06556365
000020 1c b8 7f 3d de 0a f6 bd 34 b0 f7 bd 2a ef 96 bd
       0.06243144 -0.120137915 -0.12094155 -0.07369836
000030 2c b8 03 bd d4 ff 8e bd a0 2d de bb 00 13 17 3b
       -0.03215806 -0.06982389 -0.0067803413 0.0023052096
000040 36 79 e5 3d 20 74 8c 3d d0 28 7d bc f6 86 95 bd
       0.1120476 0.068580866 -0.015451625 -0.073011324
000050 40 74 72 3b 88 53 f8 bd c8 32 9a bc 42 94 bb bd
       0.003699556 -0.12125307 -0.018823043 -0.09159137
000060 08 a2 47 bd 5e aa bc bd e2 df d9 3d 08 3c fa 3d
       -0.04873851 -0.092121825 0.106384054 0.12218481
000070 c8 31 f7 bc 40 c8 58 bc 7c de 4f 3d 4a 4a d9 3d
       -0.030175105 -0.013231337 0.050749287 0.10609873
000080 d0 90 70 3c 7a 6f 99 bd 24 55 d3 bd 46 c9 9c bd
       0.0146829635 -0.074919656 -0.10318974 -0.07655577
000090 2c 8b f6 bd 44 5c bb 3d 62 5a 80 bd cc 1a 83 3d
       -0.12038264 0.09148458 -0.06267239 0.064015955
0000a0 08 46 ab 3c 60 fc 73 3c 20 4a f9 3d 40 29 1d bd
       0.020907417 0.014891714 0.12172341 -0.038369417
0000b0 14 a8 94 3d 48 dd e4 bc e0 7e 8f 3b 44 05 cb 3d
       0.07258621 -0.027937546 0.0043791384 0.09913114
0000c0 c0 15 bb 3b 50 08 e1 3d 1e 69 96 bd d8 01 da bd
       0.00570938 0.109879136 -0.07344268 -0.10644883
0000d0 10 3e 48 3c 3e 80 e6 bd 78 bd 35 bd 6a 04 a1 bd
       0.012221828 -0.11254929 -0.044370145 -0.0786217
0000e0 20 0f 16 3c cc e2 00 bd 08 bf b2 bc 04 09 3e 3d
       0.0091588795 -0.03146629 -0.021819606 0.046395317
0000f0 e4 53 bf bd 68 b8 f8 bc 32 d8 97 3d 46 ff d5 3d
       -0.09342173 -0.03036137 0.07414283 0.1044908

hidden.1.weight f4 [64, 64]
000000 18 9f c5 3c d0 03 4f 3c 94 ec a9 bd 24 52 3e bd
       0.024123713 0.012635186 -0.08297077 -0.046465054
000010 ac d4 77 bd 40 c3 05 bd e4 13 55 3d 3e 0c de bd
       -0.060505554 -0.032656908 0.052020922 -0.10842179
000020 a8 54 b4 3d 50 87 fd bd ce b6 cf bd a0 1f 24 3c
       0.088052094 -0.123793244 -0.10142289 0.010017306
000030 c8 70 fa 3d 58 60 bb 3d 2c b5 7c bd b8 d3 d8 bc
       0.122285426 0.091492355 -0.061696216 -0.026468143
000040 fa 68 b1 3d 26 b0 c3 bd 1a 0b fa bd 0c 16 07 bd
       0.08662601 -0.09555082 -0.12209149 -0.03298001
000050 8c 7a b1 3d 64 8b 5a bd 96 d9 96 3d d4 3e 69 3d
       0.08665952 -0.05335559 0.0736572 0.056944683
000060 2e eb c3 3d d0 22 58 3c 7a be b3 bd 88 e2 8b 3c
       0.09566341 0.013191894 -0.08776565 0.017075792
000070 d0 62 be bd 10 ae 2e 3d 18 eb ec bc b0 45 1d bc
       -0.09296191 0.042646468 -0.028920695 -0.009599134
000080 ee 5c 88 bd 10 18 a0 bc 70 e5 94 3d b0 b7 56 3d
       -0.0665835 -0.019542724 0.07270324 0.05242127
000090 a8 7c ae 3c ee 58 b8 bd 30 bd 5e bd b2 01 e2 bd
       0.021299675 -0.09001337 -0.054379642 -0.110354796
0000a0 a4 6e e7 3d b4 2e da 3d 38 f5 72 bd a8 fc cf bd
       0.113004 0.10653439 -0.05931589 -0.10155612
0000b0 b0 a1 ad bd 64 30 0f 3d 30 e4 f0 bd c0 8f 9a 3d
       -0.08478105 0.03495826 -0.11762273 0.075469494
0000c0 d0 f6 8a 3d bc 0e df 3d ae e2 83 3d 58 9a eb 3d
       0.06785357 0.10891482 0.0643972 0.11504048
0000d0 b8 02 f4 3d 8e 27 c8 3d 4c d2 fd bd 20 07 ff bb
       0.11914581 0.097731695 -0.123936266 -0.007782832
0000e0 be 57 96 bd 00 52 89 bd 20 88 82 3d f8 df 8e 3c
       -0.07340954 -0.067050934 0.0637362 0.017440781
0000f0 74 08 2f 3d 9e 0e 89 bd e4 22 17 3d 5c e3 a0 3d
       0.04273267 -0.06692241 0.03689851 0.07855865
000100 7c d5 20 bd 80 7b 97 bb 30 b2 bf 3d 46 58 cc 3d
       -0.039266095 -0.0046228766 0.093601584 0.09977774
000110 de 38 b2 bd 58 bf c7 3c fa c4 9c 3d 0e 79 ca 3d
       -0.08702253 0.024383232 0.07654758 0.098863706
000120 94 8a ff bd a4 fd 01 bd a0 60 02 bc 18 60 4b 3d
       -0.124776036 -0.03173603 -0.0079576075 0.04965219
000130 7c 28 02 3d c4 b6 19 bd ee be e2 bd 3a 86 c4 bd
       0.03177689 -0.037527815 -0.11071573 -0.09595914
000140 50 a6 12 bd 46 34 96 bd 60 ce fb bd b8 76 b9 bd
       -0.03580314 -0.07334189 -0.12295222 -0.09055847
000150 76 61 a7 3d 92 c3 89 bd ae 8d a8 3d 40 63 f3 3b
       0.08172886 -0.06726755 0.08230148 0.007427603
000160 a8 53 2b 3d c6 c0 d7 bd 08 f4 e2 3c 12 a7 8c 3d
       0.041827828 -0.105348155 0.027704254 0.06867804
000170 a0 71 82 3b 88 38 11 3d 90 7f 93 bd 76 fd c7 3d
       0.0039808303 0.035454303 -0.07202065 0.09765141
000180 00 08 93 3a 5a 7e 91 3d 10 8d 3d bc 60 54 d1 3b
       0.0011217594 0.07104178 -0.011569276 0.006388232
000190 86 6c f2 3d b8 2e 62 bd 40 7e 19 bd 90 df 6d bd
       0.118371055 -0.055220336 -0.037473917 -0.058074534
0001a0 30 75 05 bd 24 37 7e 3d e2 52 b8 bd c8 87 14 bd
       -0.03258246 0.062064305 -0.09000184 -0.036262304
0001b0 28 bd d3 3c 2c b9 d2 bd 30 79 4f 3d d0 bc 57 bc
       0.025847033 -0.10289225 0.050652683 -0.013167575
0001c0 c8 41 ab bc 74 19 d0 3d 32 bb b3 bd 28 b9 b5 3c
       -0.02090539 0.10161105 -0.08775939 0.022183016
0001d0 a2 d6 c5 3d c8 69 b8 bd 3c a8 7c 3d b4 97 b9 3d
       0.096600786 -0.09004551 0.06168388 0.09062138
0001e0 58 72 af bc 3c 18 86 3d a0 c2 4a 3c 60 77 ab bc
       -0.021416828 0.06547591 0.012375504 -0.020930946
0001f0 9c 69 23 bd 40 9c d8 3c ac e3 7c bd 36 fc a1 bd
       -0.03989564 0.026441693 -0.061740562 -0.079094335
000200 82 b3 b2 bd 20 46 80 bb d8 d6 0c 3d 80 80 6a bc
       -0.08725645 -0.0039146096 0.03438458 -0.014312863
000210 34 97 0b 3d 00 b0 ee 38 00 14 3a 39 44 2e 85 3d
       0.034079745 0.00011381507 0.00017745793 0.06502965
000220 a0 c4 38 3d 40 27 90 3b 28 e5 ee 3c e0 c1 c4 bb
       0.04510939 0.00439921 0.029162005 -0.006004557
000230 b0 f3 90 bc b6 09 b2 bd f0 96 80 3d 60 26 ef 3b
       -0.017694324 -0.086932585 0.06278789 0.007298276
000240 8e 0c e8 bd 64 3d 9a bd 6c 74 ad bd 28 e7 28 3d
       -0.113305196 -0.075312406 -0.08469471 0.041236073
000250 08 65 c3 bd 8c a2 12 3d fc e9 0f 3d 68 24 78 3d
       -0.095407546 0.035799548 0.035135254 0.060581595
000260 10 3c 54 3c 48 5e ae bc 6c 0f 92 bd d4 d9 e4 3d
       0.012953773 -0.021285191 -0.07131848 0.1117436
000270 b0 a8 33 bc 30 89 07 bc 54 77 59 3d 7a 31 b9 bd
       -0.010965511 -0.008272454 0.053092316 -0.0904264
000280 48 c5 7f bd e4 e4 33 bd 40 e8 17 bd 92 df 9d 3d
       -0.062444 -0.04391946 -0.037086725 0.07708658
000290 9a 7d f4 3d 0c bb 3c bd 5c 04 3a 3d 30 25 b2 3c
       0.11938019 -0.04607682 0.045414314 0.021746248
0002a0 a8 4a 2d 3d 6e bb 9a 3d 00 be 98 ba 58 5e df 3d
       0.042307526 0.075552806 -0.0011653304 0.109066665
0002b0 2c 10 94 3d d0 48 65 3c c4 6c f2 3d a4 c2 4f bd
       0.07229647 0.013994411 0.11837152 -0.050722733
0002c0 60 6f c8 3c 6e 4e bc 3d 14 00 df 3d a0 ab a1 3d
       0.02446717 0.09194647 0.10888687 0.07894063
0002d0 60 cd d0 bd d8 42 48 bd fc e6 0b 3d 7e 4e 9b bd
       -0.10195422 -0.048891872 0.03415583 -0.075833306
0002e0 1c cd 3c bd b8 45 dd 3d 74 a2 d9 3d 98 f0 85 bd
       -0.046094045 0.108043134 0.106266886 -0.0654003
0002f0 20 81 5a bc 58 f8 f1 3d 32 c8 95 3d f8 ad e8 3c
       -0.01333645 0.11814946 0.07313575 0.028403267
000300 70 f0 a2 3c 70 87 13 bc 50 ba 75 bd 88 bf e8 bd
       0.01989004 -0.009004459 -0.059992135 -0.11364657
000310 9c 9e 58 3d 5a 91 ef 3d dc 11 01 3d 50 86 b9 3c
       0.052885637 0.116976455 0.031511173 0.022647053
000320 ce ef a3 3d 68 7f 73 bd c0 76 bd 3d 26 8f a6 3d
       0.080047235 -0.059447676 0.092511654 0.08132772
000330 1a 2e 9a bd 70 51 dd 3c 88 26 19 3d 0c d9 30 bd
       -0.075283244 0.027016371 0.037390262 -0.043175742
000340 90 7d ec 3d 7a 5e 9e 3d bc ff 9b 3d bc 41 e0 bd
       0.11547387 0.07732864 0.07617137 -0.10950038
000350 00 97 b3 ba 90 fc 60 3c 10 28 49 3d a0 4e b4 bc
       -0.0013701618 0.013732091 0.049110472 -0.022010148
000360 66 c7 c6 bd f4 84 1a 3d 18 ec d8 3d 74 ce 74 3d
       -0.09706001 0.03772445 0.10591906 0.0597672
000370 ae b8 df 3d c6 43 d0 bd 50 47 20 3c 38 0e 15 bd
       0.10923897 -0.10169177 0.009782627 -0.036390513
000380 b4 a0 a8 bd e0 13 87 bd f4 1c e7 3d 1c 3d ce bd
       -0.08233777 -0.06595588 0.11284819 -0.100702494
000390 32 0a 97 3d 74 23 7c 3d 78 62 e6 bd 38 51 f4 3d
       0.073749915 0.06155725 -0.1124925 0.11929554
0003a0 32 94 b1 3d d8 00 5a 3d a0 2f 64 bd 2a 94 e6 bd
       0.08670844 0.05322346 -0.05570948 -0.11258729
0003b0 9c 9c 94 bd bc 79 5e 3d aa 13 ac 3d 0c 28 fc bd
       -0.07256433 0.054315314 0.08402188 -0.12312326
0003c0 c4 03 41 3d 20 40 f6 3c 68 4f 50 bd 4c 9b ca 3d
       0.04712273 0.030059874 -0.050856978 0.09892902
0003d0 06 2a 8e 3d e0 0a ed bb f4 b8 07 bd 6c b0 f4 3d
       0.06941609 -0.0072339624 -0.03313537 0.11947712
0003e0 74 14 97 bd be 7a a3 bd 3a c2 8b bd 84 e6 14 bd
       -0.07376948 -0.079823956 -0.06824155 -0.03635265
0003f0 60 17 e4 bb c0 49 09 bd b8 d6 aa bd e8 9f e0 3c
       -0.0069607943 -0.0335176 -0.083417356 0.02742

hidden.1.bias f4 [64]
000000 24 47 92 3d 00 7f 75 bc 2e eb e8 3d da cd f2 bd
       0.07142475 -0.014983892 0.11372982 -0.11855669
000010 c4 d8 e2 3d 48 67 a1 3c e0 e3 05 3c 20 74 cc bb
       0.11076501 0.019702569 0.008172005 -0.006239429
000020 40 3d 29 3d 4c 5a 41 3d 00 17 c6 bd c4 0b 7e 3d
       0.04131818 0.047205254 -0.09672356 0.06202294
000030 e0 fd f4 3d 74 7a 2f 3d 4e 84 c7 3d 3a 44 93 3d
       0.11962485 0.04284139 0.09742032 0.071907476
000040 7e cb f5 3d cc 61 c0 bd 08 44 c1 bc 10 ef ee 3c
       0.12001704 -0.09393653 -0.02359201 0.029166728
000050 b8 83 75 3d 8c 9a 37 3d 30 01 b3 3d f0 1c d0 bd
       0.05994007 0.04482512 0.08740461 -0.101617694
000060 c8 64 d7 3d 8c d7 2f bd b8 de ce 3c e2 d8 8b bd
       0.105172694 -0.04293017 0.025252685 -0.068284765
000070 e0 31 f1 3d 20 15 fe 3c d8 2c b6 3c 64 28 b5 3d
       0.11777091 0.031015933 0.02223818 0.088455945
000080 da d3 b7 bd 0e bb f7 bd b0 11 6b 3c 9c 1a 1c bd
       -0.08975954 -0.12096225 0.014347479 -0.038111314
000090 00 3b 09 bc 40 50 b7 3b d8 59 89 3c c0 c3 cb 3b
       -0.008375883 0.0055942833 0.016766474 0.0062184036
0000a0 b2 59 c7 bd da 48 ca bd 82 da a3 bd 4c c3 e1 bd
       -0.09733905 -0.098771766 -0.080006614 -0.11023578
0000b0 52 d9 dd 3d 14 62 2a bd c0 28 98 bb c2 8e a9 bd
       0.10832466 -0.04159744 -0.0046435297 -0.08279182
0000c0 a0 f8 87 bc 5e 40 af bd 18 ec 5c 3d 5c ab b4 3d
       -0.016598046 -0.08557199 0.053936094 0.08821747
0000d0 20 62 be 3d 1e 37 c3 3d 18 1d e2 3d 00 23 9e 3c
       0.092960596 0.09531997 0.110407054 0.019303799
0000e0 e0 b3 b1 3d 2a 0d ad bd c0 5f 5e 3d a8 b5 04 3d
       0.086768866 -0.084497765 0.054290533 0.032399803
0000f0 c6 52 d3 bd 78 6d 06 3d b6 2c b8 3d 18 56 85 bd
       -0.10318522 0.03281924 0.08992903 -0.06510562

hidden.2.weight f4 [64, 64]
000000 16 53 86 3d 04 c7 8e bd e8 7f 88 bd 00 9d d0 ba
       0.06558816 -0.06971553 -0.06665021 -0.001591593
000010 b2 1c ce 3d 00 d7 fd ba e2 02 de bd cc 6f 2d bd
       0.10064067 -0.0019366443 -0.108403936 -0.042342946
000020 80 9d 38 3b 34 1d 71 3d 60 f8 7a bd c6 fd dc 3d
       0.002817005 0.05886574 -0.061272025 0.10790591
000030 c8 b0 6e bd d8 8c 94 3c f4 de 02 3d 10 3a 9c 3d
       -0.05827406 0.018133566 0.031950906 0.07628262
000040 70 65 c5 bc 70 47 f6 bd 30 06 38 3d 92 52 fa 3d
       -0.02409622 -0.12025344 0.044927776 0.1222278
000050 5a b0 f4 3d c0 77 74 3d c0 ef 9b 3d 72 49 fc bd
       0.11947699 0.059684515 0.07614088 -0.12318696
000060 68 34 d5 3c 96 19 f9 bd 94 42 fc bd 78 54 37 3d
       0.026025966 -0.12163083 -0.12317386 0.04475829
000070 b6 ee e4 3d b0 54 a1 bd c0 13 bd bb d8 d8 cf 3c
       0.11178343 -0.07877481 -0.0057701766 0.025371954
000080 40 c9 e8 bb fe 1b bd bd 78 50 55 bd 80 ab d8 3b
       -0.007104069 -0.09233855 -0.052078694 0.0066122413
000090 ce 5d a8 bd a6 a9 fb bd d0 27 21 bd 60 2a bd 3c
       -0.08221017 -0.12288217 -0.03934461 0.023091495
0000a0 90 56 d3 bd 40 1d 7e bc 28 a8 dd 3d 8c 61 a3 bd
       -0.10319245 -0.015509903 0.10823089 -0.0797759
0000b0 58 5e 33 bd a0 b5 b0 3d 4e fd fa bd a4 5f a0 3d
       -0.043791145 0.08628392 -0.12255345 0.07830742
0000c0 bc 25 ba 3d 26 8f 96 bd 04 b4 c2 bd 98 a4 90 bc
       0.090892285 -0.07351522 -0.095069915 -0.01765661
0000d0 3e f3 a3 3d 40 93 5c 3c ca 60 ea bd b0 de 5d 3c
       0.08005379 0.0134628415 -0.11444242 0.013541862
0000e0 44 ef 92 bd 5a 36 ba 3d 54 8c 17 3d 5c 52 8f 3d
       -0.071745425 0.09092398 0.03699906 0.06998131
0000f0 68 6c dc 3c 5e a2 89 bd 14 a9 ae bd 7a 08 df 3d
       0.02690716 -0.06720422 -0.08528343 0.10890289
000100 10 95 76 bd 40 6b 94 bd a0 8e 29 3c a8 ea b8 bc
       -0.06020075 -0.07247019 0.010348946 -0.02257283
000110 b4 0a 44 3d 90 42 2b 3c 80 c8 21 3d e4 aa 73 3d
       0.04786177 0.010452881 0.039497852 0.059489146
000120 fc 17 59 3d 8e 46 af bd 30 fa 52 3d be 29 b3 3d
       0.05300139 -0.08558379 0.05150813 0.08748196
000130 08 ff cb 3c e4 1e ab 3d 30 b2 b3 bd 50 bb fe bc
       0.024901882 0.08355501 -0.08774221 -0.031095177
000140 80 d5 ec 3c 38 26 4f bd 54 64 f9 bd a8 6a ec 3c
       0.028910398 -0.050573558 -0.12177339 0.028859451
000150 c2 87 da bd 08 d5 6d 3d fc 62 36 3d 58 1d e8 bc
       -0.10670425 0.05806449 0.044527993 -0.028334305
000160 8c 1f 92 bd aa 4d 8d bd 94 4e d2 3d 70 bb a6 bd
       -0.07134923 -0.06899579 0.10268894 -0.081412196
000170 ba ed e6 bd 24 40 91 3d 5e ca a4 bd 1e a7 a8 bd
       -0.112758115 0.07092312 -0.08046411 -0.08235
000180 de 01 86 3d ae 94 db bd 20 14 dc 3c dc bb a5 bd
       0.06543325 -0.10721718 0.026865065 -0.08092472
000190 50 a8 08 3c 4c 9f 06 bd c0 bb f5 3c 04 ea 62 bd
       0.00834091 -0.03286676 0.029996753 -0.055398956
0001a0 00 04 e0 3d a6 6a f9 3d 2e 48 b6 bd 00 cc a1 3c
       0.10938263 0.12178545 -0.08900486 0.019750595
0001b0 24 26 94 3d 4a 86 c4 3d f0 fc 1e 3d 4c c6 dc bd
       0.07233837 0.09595926 0.03881544 -0.107800096
0001c0 b8 2c b3 bd 58 40 95 3c 10 e7 b1 bc a0 64 d9 bc
       -0.08748764 0.018219158 -0.021716624 -0.02653724
0001d0 38 7a 9d 3c 50 a8 16 3c 56 7e 9c 3d 74 31 9d 3d
       0.019223318 0.009195402 0.07641284 0.07675448
0001e0 28 45 a8 3d 0c c4 8b 3d 30 16 ec bd 38 60 1a bd
       0.082163155 0.06824502 -0.115276694 -0.037689418
0001f0 c0 4c 8e bd c6 bb f4 bd 18 95 c7 bd b4 da 03 bd
       -0.06948233 -0.119498774 -0.09745234 -0.032190993
000200 60 28 38 bd f4 87 16 bd 30 d3 7c 3d 00 a3 90 3d
       -0.04496038 -0.03675075 0.06172484 0.0706234
000210 a8 95 0f 3d 38 63 b3 bd 04 eb 35 3d c0 04 1c bd
       0.035054833 -0.08759159 0.04441358 -0.038090467
000220 d6 34 9c 3d 58 c8 47 bd 66 92 fc 3d 58 1e 07 3d
       0.07627265 -0.048775047 0.12332611 0.032987922
000230 00 d2 35 3d b4 7a dd 3d 44 10 de 3d d8 e3 a1 bd
       0.044389725 0.108144194 0.10842946 -0.07904786
000240 d0 d2 39 bd f2 40 9c 3d 70 d4 84 3c f0 56 86 3c
       -0.045367062 0.07629575 0.01621458 0.016398877
000250 a4 72 55 3d 70 a4 9e bc 60 02 c0 3c 40 ed 1d bd
       0.052111283 -0.01936552 0.023438632 -0.038556337
000260 c8 b1 ca bd 58 26 f9 bc b0 0e 92 bd 7a 28 db bd
       -0.0989719 -0.030413792 -0.07131708 -0.1070108
000270 a6 1a f9 3d 80 24 15 bc f0 b3 57 3c 7c 8d 13 bd
       0.12163286 -0.009102941 0.013165459 -0.036023602
000280 28 09 81 bc 08 69 49 3d 9a 69 d6 bd c8 3b b2 3d
       -0.015751436 0.04917243 -0.10469361 0.087028086
000290 80 92 1a bb e0 e0 43 3c 60 62 6a bc 4e d1 dc 3d
       -0.0023585856 0.01195547 -0.014305681 0.10782109
0002a0 f0 7a c3 3d aa 43 88 3d 40 b7 c3 bd 38 e2 1d 3d
       0.09544933 0.06653531 -0.095564365 0.038545817
0002b0 60 74 81 bb dc 45 32 3d 2c 57 e4 bd d0 57 03 3c
       -0.0039506406 0.043523654 -0.11149439 0.008016542
0002c0 90 53 88 bc 78 84 a8 3d a6 b8 d9 bd 00 98 15 39
       -0.016641408 0.082283914 -0.10630922 0.00014266372
0002d0 b6 fc d2 bd 48 1c 9d bc 9e 71 d7 3d cc cb 43 3d
       -0.10302107 -0.019178525 0.10519718 0.047801778
0002e0 0a ab a0 bd 4a 06 ab 3d 20 99 c8 3b a8 db c4 3c
       -0.07845123 0.08350809 0.0061217695 0.024030522
0002f0 8c 78 b1 3d e6 e3 96 3d 30 86 be bd 34 53 02 bd
       0.086655706 0.07367687 -0.09302938 -0.03181763
000300 2e ba e1 3d c0 e8 13 3d 3a 8a 91 3d 6a ca a1 3d
       0.11021839 0.03611064 0.07106443 0.078999355
000310 98 47 39 3d 14 77 ae bd 36 43 8f bd 00 44 a1 3d
       0.045234293 -0.08518806 -0.06995241 0.07874298
000320 ba b8 fc bd 30 5a 51 3d 28 73 ee 3c 00 02 8f b9
       -0.12339921 0.0511114 0.029107645 -0.00027276576
000330 02 d1 ca bd 06 95 bf 3d 66 64 dd bd da 64 fe 3d
       -0.09903146 0.09354596 -0.10810165 0.1242158
000340 48 ad 91 bc 6c a6 e3 3d b4 cf d0 bd 50 02 6f bc
       -0.017782822 0.11115727 -0.10195866 -0.014587954
000350 96 37 ad bd 3c ee a6 3d 40 a6 0c 3c 00 34 09 bd
       -0.08457868 0.08150908 0.008584559 -0.033496857
000360 f8 5d 2d bd b0 f1 d8 3c fc 01 8d 3d 00 cc b5 bc
       -0.042325944 0.026482433 0.06885144 -0.022192001
000370 58 a8 8a 3c 3a 9b 9d bd 50 68 07 bc ca 5a ae bd
       0.016925976 -0.07695623 -0.008264616 -0.085134104
000380 a8 0f 9b 3c 2a d8 cd 3d c0 42 34 bc 50 29 8c bd
       0.018928364 0.10050996 -0.011002243 -0.06843817
000390 b4 e8 a2 bd 10 aa e2 bc 28 2e f5 bd 68 11 8e bc
       -0.07954541 -0.027668983 -0.11971694 -0.017342284
0003a0 a4 65 64 3d d0 83 8e 3c e0 3a f1 3b a8 09 ba bc
       0.055760995 0.017396837 0.007361755 -0.022709683
0003b0 f0 80 54 bd 7e 8a dd 3d 00 83 5c bc 7e 1c f8 3d
       -0.051880777 0.10817431 -0.013458967 0.121148095
0003c0 8a 99 fd bd b6 e3 db 3d f0 85 89 bd c8 31 56 bd
       -0.12382801 0.10736792 -0.06715 -0.05229357
0003d0 1a 4c f9 bd ea b7 ec bd 10 50 48 3d 18 1e 4d 3d
       -0.12172718 -0.11558516 0.04890448 0.050077528
0003e0 80 e6 fd ba 7a c3 e4 bd de 29 ec bd 04 77 b4 bd
       -0.0019371063 -0.11170097 -0.11531423 -0.08811763
0003f0 0a 10 ad bd 6e 04 f6 3d 2e fb 89 3d 76 77 d7 3d
       -0.08450325 0.12012564 0.06737362 0.10520832

hidden.2.bias f4 [64]
000000 74 b5 c5 bd d2 09 8b bd 58 a3 0e bd 08 3e a6 3c
       -0.0965375 -0.067889825 -0.034823745 0.02029325
000010 ea c1 8b bd ee 06 a9 3d 78 12 54 bd 30 ed 92 3d
       -0.068240955 0.08253275 -0.051775426 0.07174146
000020 60 7c 1e bd ea 89 fe 3d 9a aa a9 bd 5a 1a a9 3d
       -0.038692832 0.12428649 -0.08284493 0.08256979
000030 c2 ed ab 3d c0 5c 8c bc 74 92 41 3d 92 78 cf bd
       0.08394958 -0.01713407 0.04725881 -0.10130419
000040 7c 36 17 3d b4 1c 37 bd f0 16 bb bd 86 90 e3 3d
       0.036917195 -0.044705108 -0.09135234 0.1111155
000050 c0 7e 9d bb 36 0a ee 3d a2 d5 d2 3d 88 e0 fd 3d
       -0.0048063695 0.11623041 0.102946535 0.123963416
000060 18 d8 51 bd 22 38 a8 3d 94 ed 65 bd 88 da aa bd
       -0.051231474 0.082138315 -0.056134775 -0.08342463
000070 82 58 ad bd 76 c8 95 bd 80 11 09 3b f2 99 e1 3d
       -0.08464147 -0.073136255 0.0020914972 0.11015691
000080 70 36 db 3d 80 c0 38 bd a0 78 f4 3c 3a 51 ab bd
       0.107037425 -0.045105457 0.029842675 -0.08365102
000090 b2 6e da 3d 40 b4 2e 3c d8 f3 8b bd ec 82 1f bd
       0.10665645 0.010663092 -0.06833619 -0.038943216
0000a0 c8 2a dd 3c c0 1b 64 bc a0 22 c2 3d 00 b8 1c 3b
       0.026997939 -0.013922632 0.094792604 0.0023913383
0000b0 6a d8 df 3d f0 36 74 bd 4c b7 8a bd 70 e5 64 3c
       0.109299496 -0.059622705 -0.06773242 0.013970718
0000c0 56 a0 fb 3d f4 d7 92 3d a4 0b b0 3d 02 95 c2 bd
       0.12286441 0.07170096 0.0859597 -0.09501077
0000d0 b0 ab c1 3d f0 d0 e9 bd c0 a2 73 bb 00 59 2d 3a
       0.09456575 -0.11416805 -0.0037175864 0.00066126883
0000e0 4a f5 e4 3d b4 2b 85 bd 40 c0 23 bc 7c 20 9f bd
       0.11179598 -0.06502476 -0.009994566 -0.07769868
0000f0 40 97 1e 3c 88 4d ab 3d d8 de f6 bd c4 df 41 3d
       0.0096796155 0.08364397 -0.12054223 0.04733254

hidden.3.weight f4 [64, 64]
000000 dc 9f a9 3d 40 71 f6 3b 60 a3 aa bd 8c 65 ac bd
       0.08282444 0.0075208247 -0.083319426 -0.08417806
000010 a8 5e ee bd c0 ab 9a bc e0 02 f7 bb 08 9d fa 3d
       -0.11639148 -0.018880725 -0.0075381845 0.122369826
000020 3a 7a de bd 88 cf 51 bd 38 4f 31 3d 70 ab c4 3d
       -0.108631566 -0.051223308 0.04328844 0.096030116
000030 10 09 7a bc 9c 92 60 bd dc b6 74 bd b6 50 92 3d
       -0.01526095 -0.054827318 -0.0597447 0.07144301
000040 f2 6f b0 3d a8 cb 29 bd 80 31 30 bd 80 f7 9e bc
       0.08615102 -0.041453987 -0.043015957 -0.019405127
000050 80 9d 86 3d a0 6e 87 bd 40 fd fb 3c ac 63 11 3d
       0.065730095 -0.06612897 0.030760407 0.035495445
000060 e6 e0 bf bd 68 1e 8a bd 50 9a 23 bd 1a 43 f4 3d
       -0.09369068 -0.06744081 -0.039942086 0.11926861
000070 d8 24 89 3d 34 35 1b bd c0 da e1 3d 48 5a ac 3d
       0.066964805 -0.037892535 0.110280514 0.08415657
000080 58 52 91 3c d0 4b ac 3c 30 92 a6 bc cc 74 93 3d
       0.01773946 0.021032244 -0.02033338 0.072000116
000090 d6 81 8b 3d 52 ca f1 3d b8 40 f6 3d 20 de 36 bd
       0.068118736 0.11806168 0.12024063 -0.04464543
0000a0 50 3f 43 bd 50 e7 f5 bc 0a 2b c4 3d 2c a6 bd bd
       -0.0476678 -0.030017525 0.095785215 -0.092602104
0000b0 a8 1a 66 bd 30 92 86 3c 40 e5 1f bc 0e b3 91 3d
       -0.056177765 0.01642713 -0.009759247 0.0711423
0000c0 10 0a 4f 3d 40 08 a0 3b 14 ce f1 3d 3c 60 49 3d
       0.050546706 0.004883796 0.118068844 0.049164042
0000d0 8c 68 d0 bd ec 87 e2 3d a0 da a9 bc f0 1b 82 3c
       -0.10176191 0.11061081 -0.020734131 0.015882462
0000e0 10 a2 b9 bc 88 cf d7 bc d4 d4 cf bd 40 5e 84 bc
       -0.022660285 -0.026344076 -0.101480156 -0.016158223
0000f0 bc eb fc bd 9a 23 f0 3d ca 8b d4 bd a8 68 77 bd
       -0.1234965 0.117255405 -0.10378225 -0.060402542
000100 fc 9b 76 bd 86 6d ab 3d 2a e7 f2 bd f8 ef a2 3d
       -0.060207352 0.08370499 -0.11860497 0.07955927
000110 b8 25 70 bd a6 fc 81 3d a2 3a 97 bd f0 1e 5c bd
       -0.05862972 0.06347017 -0.0738423 -0.05374044
000120 b4 59 4c 3d b4 85 4c 3d 20 9b ff 3d 80 ea a9 3a
       0.049890235 0.049932197 0.124807596 0.0012963563
000130 40 f3 59 bd e0 71 88 3d 64 c8 6c bd 58 62 81 bd
       -0.053210497 0.06662345 -0.057808295 -0.06317586
000140 16 2b cb bd 76 ad cd bd e4 4d 5e 3d fc a8 e8 3d
       -0.09920327 -0.10042851 0.0542735 0.11360356
000150 00 41 28 bd b0 c0 8c 3c da 37 a0 3d f0 98 11 3d
       -0.041077614 0.017181724 0.07823153 0.035546243
000160 60 78 75 3c 40 4b f5 bd 9c 2c 9e bd b4 11 7a 3d
       0.014982313 -0.119772434 -0.07723352 0.06105204
000170 18 5d e6 3c 58 4e 22 3d 7c 56 6b bd be 52 a0 bd
       0.028120562 0.039625496 -0.057455525 -0.07828282
000180 00 dd 90 3b f8 75 40 3d c0 39 ea bb 10 68 21 3c
       0.0044208765 0.046987504 -0.0071479976 0.009851471
000190 44 ac 22 bd 48 ef b6 3d 40 d1 ae 3c 30 49 cc bd
       -0.039715067 0.08932358 0.021340013 -0.09974897
0001a0 36 2e f4 bd 18 d8 c3 3d 4c 1c 65 3d 10 5d b7 3c
       -0.119228765 0.09562701 0.05593519 0.022383243
0001b0 a0 56 81 3d 50 fc cd 3c 80 ee 1b bd 98 ce de 3d
       0.063153505 0.025144726 -0.03806925 0.108792484
0001c0 10 df f5 3c 10 17 6d 3c e4 95 24 3d c8 a6 9e 3d
       0.030013591 0.014470831 0.04018201 0.07746655
0001d0 f4 a1 65 3d ce 69 a9 bd 80 78 ae 3c 8e 57 df bd
       0.056062654 -0.08272134 0.021297693 -0.109053716
0001e0 54 e4 57 3d c0 c4 5f 3b ca 65 b5 bd b6 c9 dc 3d
       0.052707985 0.0034144372 -0.08857305 0.10780661
0001f0 90 60 ae 3c 00 44 c6 bc 46 75 81 bd c0 7c ed 3d
       0.021286279 -0.024202347 -0.06321196 0.1159606
000200 ee 37 9d bd c0 50 bf 3c e0 24 e7 bd 86 c7 ee 3d
       -0.07676683 0.023353934 -0.1128633 0.1165915
000210 c0 c2 e5 3d 80 fb 82 3c e0 a7 a0 bc 86 a7 81 bd
       0.11218786 0.015989065 -0.019611299 -0.06330781
000220 f8 dd dd bd 90 97 6d 3c 90 d5 53 3d a0 7e 0c 3c
       -0.10833353 0.014501467 0.05171734 0.008575112
000230 00 18 d2 bd a6 ba d1 bd 80 54 46 3c 88 e5 ce bd
       -0.10258484 -0.102406785 0.012105107 -0.10102373
000240 80 25 90 bd 96 ea fc 3d e2 39 dc 3d 8c 9c b4 3d
       -0.070384026 0.12349431 0.10753228 0.088189214
000250 70 95 d9 bc 88 a0 dc 3c 80 d1 fd bc d0 ff c3 bc
       -0.026560515 0.026932016 -0.030983686 -0.023925692
000260 4a 79 e0 bd c8 01 94 3d 7a fa de bd 84 17 2f 3d
       -0.10960634 0.07226902 -0.10887618 0.042747036
000270 00 73 a8 bd 84 64 b0 3d 8c 56 e8 3d 3c 2f 69 3d
       -0.082250595 0.08612922 0.113446325 0.05692981
000280 fe 90 e8 bd ae 25 e3 bd 4c 39 ab 3d 88 51 93 3c
       -0.1135578 -0.11091171 0.08360538 0.017983213
000290 34 b1 ed bd 98 01 bc 3d ee 8f 9d 3d 32 78 d9 3d
       -0.116060644 0.091799915 0.07693468 0.106186286
0002a0 74 fa 21 bd 2a 08 a5 3d 34 1a 44 bd 48 1b b7 bc
       -0.03954549 0.08058198 -0.04787655 -0.022351876
0002b0 ca 3f a2 3d bc 79 a0 bd 20 2b e9 3c 26 bb 9d 3d
       0.07922323 -0.07835719 0.028462946 0.07701711
0002c0 7a f1 80 3d 68 cc 86 3d 50 48 df 3c a4 c3 97 3d
       0.06296058 0.06581956 0.027256161 0.07410362
0002d0 52 e7 b0 bd c8 9d 29 bd 76 1a e8 bd 20 0b 7b bc
       -0.08637871 -0.041410238 -0.11333172 -0.015322477
0002e0 20 16 a5 bb 00 a3 ca 3a fa 8c af bd 58 c6 bf bc
       -0.005038038 0.0015459955 -0.08571811 -0.023410007
0002f0 14 43 e7 3d 8c 55 96 bd e8 97 98 3d 52 b8 84 bd
       0.11292091 -0.073405355 0.07450849 -0.06480469
000300 2e 45 f9 3d b8 0e 12 bd fe 53 88 3d 3c ea 43 bd
       0.12171398 -0.03565857 0.06656645 -0.047830805
000310 f4 d8 10 3d 20 8b 41 3d f0 ed cd bd 08 ff f8 3d
       0.035363153 0.04725182 -0.100551486 0.12158018
000320 00 30 d8 ba b2 43 83 3d 74 8c 09 bd 56 da a4 3d
       -0.0016493797 0.06409396 -0.033581212 0.08049457
000330 58 ba 97 bc da ab 8a 3d 24 4c ec 3d 50 b6 9e bd
       -0.018521473 0.06771059 0.1153796 -0.07749617
000340 80 6b 35 3d 50 4a 6b 3d d8 08 4d bd 00 f6 44 bb
       0.044291973 0.057443917 -0.050057262 -0.0030053854
000350 ba 5b b4 bd aa 9d a5 bd a0 6c cd bb d4 cb 57 3d
       -0.08806558 -0.08086713 -0.0062690526 0.05268462
000360 38 66 c9 bd 3c ac 4c 3d 48 1e b1 bc 80 bc 46 3b
       -0.0983395 0.049968943 -0.021620885 0.0030324757
000370 34 d2 0a bd b8 fd e0 bc 70 fc 5f 3c c8 dd a8 3c
       -0.03389187 -0.027464733 0.013671026 0.020613566
000380 00 47 42 3b 08 31 fb 3d 08 00 d1 3d 16 d3 97 3d
       0.002964437 0.12265211 0.10205084 0.07413308
000390 da 7a ef 3d 98 c2 b7 3d 8a 91 ab 3d 4c 40 9e 3d
       0.11693354 0.08972663 0.08377369 0.077271074
0003a0 86 55 ce 3d d0 aa 46 3c b8 82 ea bc 78 58 93 3c
       0.10074906 0.012125686 -0.028626785 0.017986521
0003b0 f8 04 e2 bc 2e 24 91 3d e8 39 cc 3d 38 04 05 bd
       -0.02759026 0.07086979 0.09971982 -0.032474726
0003c0 b0 16 ed 3c bc e0 f6 bd 58 b8 cf 3c 5c b6 44 3d
       0.028941482 -0.120545834 0.025356457 0.048025474
0003d0 38 0e 91 bc d8 42 4d bd 28 22 95 bd c0 c7 24 bc
       -0.017706975 -0.050112575 -0.072819054 -0.01005739
0003e0 70 05 e6 bc 04 5c db bd 1c 84 39 bd ae 77 eb bd
       -0.028078765 -0.1071091 -0.045292005 -0.114974365
0003f0 f8 e4 59 3d a0 e2 a3 bc de 7d f9 bd d8 3c 09 3d
       0.053196877 -0.020005524 -0.121822104 0.03350529

hidden.3.bias f4 [64]
000000 72 bf b7 3d 80 15 c5 3a f0 32 94 bd b6 79 b0 3d
       0.08972062 0.0015036315 -0.07236278 0.086169645
000010 c0 51 76 bb 3c f9 a5 3d 48 be 37 3d b4 e8 52 bd
       -0.0037585348 0.08104178 0.0448592 -0.051491454
000020 da ba c2 bd 0c 3c 63 bd 20 ae 80 3c 12 78 a9 3d
       -0.09508295 -0.055477187 0.01570803 0.08274855
000030 38 65 92 3c 18 75 db 3d 20 04 6f bc 70 25 ba 3d
       0.01787053 0.10715693 -0.014588386 0.09089172
000040 18 88 87 bd 54 98 f5 3d 02 ef b6 bd 30 21 99 bd
       -0.06617755 0.11991945 -0.08932306 -0.07477033
000050 64 40 b1 bd 76 52 e3 bd 6e 65 ca bd de 5b cd bd
       -0.0865486 -0.110997126 -0.098826274 -0.10027288
000060 36 3c f3 bd f8 fe 6a 3d 18 9a f0 3c bc 56 ad 3d
       -0.11876719 0.057372063 0.029370353 0.08463809
000070 fe 32 a3 bd 60 a5 b5 3d da 5e fc bd 3c 16 b5 bd
       -0.0796871 0.088694334 -0.12322779 -0.088421315
000080 6c be 0a 3d b4 5c 55 bd 14 da f8 bd ba 55 9d bd
       0.033873007 -0.05209036 -0.1215097 -0.07682367
000090 18 00 3b bd d0 c6 52 bc 18 d8 9c bd 70 bb 97 3d
       -0.045654386 -0.012864783 -0.07658404 0.07408798
0000a0 54 43 90 3d 08 7c c1 3d 80 1a 6a bc 4e 27 99 bd
       0.07044092 0.09447485 -0.014288545 -0.074782
0000b0 f0 55 0a bc 00 8b 09 ba bc 39 3e 3d c0 18 11 bd
       -0.008443341 -0.0005246848 0.04644178 -0.035423994
0000c0 2c 20 8d bd 8c cc e0 bd 1c c6 2b bd 84 1d 5b 3d
       -0.06890902 -0.10976514 -0.04193698 0.053494945
0000d0 c0 e0 06 bb fa eb 8f 3d 92 57 eb 3d cc e6 0c 3d
       -0.0020580739 0.07027431 0.11491312 0.034399793
0000e0 28 72 4e 3d d2 cd 94 3d 98 1b e5 bd b8 b3 68 3d
       0.050401837 0.072658196 -0.11186904 0.05681202
0000f0 88 13 39 bd 40 0b be bb 78 0a d4 3c 40 ae 3b bb
       -0.045184642 -0.005799681 0.025883898 -0.0028637797
