models/dqn.pt (torch_old, 76635 bytes, 9 tensors)

in_layer.weight f4 [64, 96]
00000000: c63e a4bd f259 8abd dcc5 c7bd 7caf 5f3d
00000010: d34e 29bd 24dc 733d 7f4d 2fbd 9063 893c
00000020: ed65 bcbd e8be 23bc f89c 8a3c be00 413d
00000030: 7c92 8b3c 5aad c7bc a460 36bd 9e0a 5d3d
00000040: 3749 5d3d c01e 013d 9426 ad3c cc13 163d
00000050: 1ca3 233d 014a 58bd a89c 93bd c6b2 a83d
00000060: a290 873d 68ed ab3d bc78 2e3d c8f3 43bc
00000070: 5ea2 ce3d 61db 1ebd 7804 a33c d5ca bdbd
00000080: 65ea c23d 6cab be3d 947f 153d 6013 133d
00000090: 727b 6b3d 80f0 993d 2a0f 99bc fd87 b8bd
000000a0: bc36 443d 975b f3bc 7222 bebd 2479 c83d
000000b0: 04a9 933d b487 653b 145e 9c3c e0ee b7bd
000000c0: 589d 8a3d 7611 46bd 7ddf c93d caf3 a23d
000000d0: b0d9 5abd 2e7e ab3d 1f04 a53d 480d 553d
000000e0: 98e8 a03d a578 adba 865e c63d b469 babd
000000f0: 2084 1b3c 0afb 8b3d 08b6 5ebd a437 d33d
00000100: a29b 253d 405d d93d e624 9f3d 921b 983d
00000110: 44cb 74bd d986 ca3d 660f b4bd 4415 2abd
00000120: d622 993c 2670 d93c 2350 033c 1192 e93c
00000130: 2283 703c a6a0 8a3d 5702 c2bd c866 7b3c
00000140: 18f2 f13c cdf7 87bd 396e abbd 5203 433d
00000150: 9138 abbd 3181 ccbc fc5f b33d 812f 80bc
00000160: 3f2c cbbd 6235 d33d 78ab a73d da20 6bbd
00000170: d6df 473c 5dba 123d 99b3 7abd 1f5d b3bc
00000180: 6f99 adbd 825c b73d 7c25 923d 013c cebd
00000190: 7495 773d 289c a43c 09b8 a6bd 00c3 b53a
000001a0: 14ec 81bd eec7 343c fcba d0bd fdee d5bc
000001b0: 7c2f b33d 126c 99bd 7de7 3cbd 2d42 f9bc
000001c0: 39f0 c83c 20ad 9dbb 0748 cfbb 2c55 64bd
000001d0: 7b02 85bd 343e 77bd 8c76 be3d a8c9 b3bc
000001e0: 64a0 b6bc ea2e 67bc d6de b83d 9cc9 0f3d
000001f0: 90bb 323d aa67 563d 2a94 0ebd 5890 66bc
00000200: 4b47 45bd d229 84bd b7bf b1bd 4747 36bd
00000210: 474f 2d3d 5cc5 dabc a613 cf3b b48a 88bc
00000220: c00f 693d e26f 27bd f12e 66bd 1802 be3d
00000230: e614 80bd e8dc 083d 90d0 56bc c0da 2e3d
00000240: 0279 06bc 806a bbbd aaea 8dbd 2842 f13c
00000250: ba1c 86bd 4c40 aebd 9fb7 eabc d022 bc3b
00000260: 58df 203d cbb9 17bd 21b0 98bd 1d31 0d3d
00000270: 18b9 733d 88cd 9f3d c038 073c 32c0 f13c
00000280: c2cf 623d a3d2 89bd cc61 93bd a958 d2bd
00000290: 9584 82bd 3d9e d33c 73a9 b1bd 82d2 923d
000002a0: 0539 d2bb 7cb2 c93d 96b5 363d 0336 d7bd
000002b0: 14e7 a53c d92d 5bbd 674b 633d 3fc9 ca3d
000002c0: 4a15 babd 09dd 27bd 1fe5 213d 54b2 a9bd
000002d0: ab19 9b3d 6096 25bc 5c3d ae3d 3cb2 17bd
000002e0: a043 6bbd ba06 98bd 3d24 403d 0e94 6abd
000002f0: 79b4 68bd d3b1 1b3d 2ae3 0abd 24ca a83d
00000300: a1bc f4ba 6070 1abd 2ee2 a8bd c111 b1bd
00000310: 6929 1cbd 7ea4 03bd a5ef 0c3d 9247 0ebd
00000320: 5856 9e3c 3fe3 963d bc25 813d aeef 60bc
00000330: 4064 c7bc e958 aabd dde8 81bd c57d 90bd
00000340: f528 4fbd 5a82 973d 245c ab3d caa4 89bd
00000350: fe42 9b3b f02a 6e3d ed65 7dbc a8c1 a43c
00000360: b170 43bd 9955 213c 8cdc 8b3c c30c b4bc
00000370: be1a b43d 7c5b 763d 3708 b7bd 7155 bdbd
00000380: fe07 c3bc 404a bdbb ad14 d93c 7c12 003d
00000390: dd20 0e3d 2cdf 3a3d 7651 c5bc c085 dabb
000003a0: 0575 bebd a9a5 6b3d 2a68 81bd 5a46 c33d
000003b0: 309f c5bd d832 793c ca1e b33d db70 b83d
000003c0: 593d 243c ffd5 aabd 393a b63d 3cf0 493d
000003d0: b7f1 893d 40d8 ec3c b9e2 433d 2074 fcbc
000003e0: b0c0 87bd 8731 af3d 68d9 973d a907 b9bc
000003f0: 5402 8d3c dd8a 043d 5046 a83d 3dba b73c
-0.080197856 -0.06755437 -0.097545356 0.054610714 -0.04133494 0.059536114 -0.042798515 0.016771108
-0.09199128 -0.009994246 0.016920552 0.04711985 0.017037623 -0.024374653 -0.044525757 0.053965203
0.0540249 0.031523466 0.02113656 0.036639974 0.039950475 -0.05280495 -0.07207614 0.08237223
0.066193834 0.08394891 0.04259561 -0.011959977 0.10089563 -0.038783435 0.019899592 -0.09267203
0.095173635 0.0931004 0.03649862 0.03590715 0.057490773 0.07516575 -0.018683989 -0.09010313
0.04790376 -0.02970676 -0.09283914 0.09788731 0.072099715 0.0035023512 0.019087829 -0.08981109
0.06768292 -0.048356496 0.0985708 0.07956655 -0.05343026 0.08373676 0.08057427 0.05201462
0.07856864 -0.0013234807 0.09685998 -0.091021925 0.00949195 0.06834991 -0.054372817 0.10313347
0.040431626 0.10613489 0.0777071 0.074271336 -0.05976416 0.098890014 -0.087919995 -0.041524187
0.018693369 0.026542734 0.008014712 0.028512033 0.014679702 0.067689225 -0.094731025 0.015344329
0.029534385 -0.06639061 -0.08370633 0.04761059 -0.083603986 -0.024963947 0.08758542 -0.015647652
-0.09920549 0.10312916 0.08187002 -0.057404377 0.012199363 0.03582226 -0.061206434 -0.02189499
-0.08476531 0.08953191 0.07136056 -0.100700386 0.060445264 0.020093992 -0.08140571 0.0013867319
-0.063438565 0.011033995 -0.101919144 -0.026114935 0.08749291 -0.07491316 -0.046119202 -0.030427063
0.02452861 -0.004811898 -0.006325725 -0.05574529 -0.06494614 -0.060362056 0.09299955 -0.021946743
-0.022293277 -0.014110306 0.090268776 0.03510438 0.043635905 0.052344956 -0.03480927 -0.0140725
-0.048163693 -0.06453289 -0.08679145 -0.04450157 0.042311933 -0.026705436 0.006319481 -0.016667701
0.056899786 -0.040878184 -0.05619711 0.09277743 -0.06253986 0.033413798 -0.013111249 0.042689085
-0.008207561 -0.09151173 -0.06929524 0.029450491 -0.06548448 -0.085083574 -0.02865201 0.0057414547
0.039275497 -0.03704242 -0.07455469 0.034470666 0.05950269 0.07802874 0.008253276 0.029510591
0.055373915 -0.06729629 -0.07196388 -0.10270817 -0.06372944 0.02583229 -0.08674898 0.071690574
-0.0064154887 0.09848496 0.044606768 -0.10508349 0.020251788 -0.05351052 0.05549183 0.09901666
-0.09086092 -0.04098228 0.039525148 -0.082859665 0.07573255 -0.010106653 0.08507797 -0.037035212
-0.05743754 -0.07423158 0.04690956 -0.057270102 -0.056812737 0.038011383 -0.033908047 0.0824168
-0.0018671938 -0.037704825 -0.08246265 -0.086459644 -0.03812543 -0.032139294 0.03440823 -0.034736224
0.019328281 0.073675625 0.063060254 -0.013729019 -0.024339795 -0.083177395 -0.06343243 -0.07055239
-0.05057617 0.073979095 0.08367184 -0.06720884 0.0047382107 0.058146417 -0.0154661955 0.020111874
-0.047714893 0.009847068 0.017072938 -0.021978742 0.08794163 0.06014584 -0.08937114 -0.09244812
-0.023807522 -0.0057766736 0.026499117 0.031267628 0.03469931 0.04562299 -0.024086695 -0.0066687763
-0.092996635 0.057531033 -0.06318696 0.09534903 -0.09649503 0.015209876 0.08746107 0.090059005
0.010024392 -0.08341598 0.08897824 0.04930137 0.067355566 0.02891171 0.04782364 -0.030817091
-0.06628549 0.085543685 0.07414514 -0.02258666 0.017213024 0.032358993 0.08216536 0.022427673

in_layer.bias f4 [64]
00000000: c02a 603d 5926 12bd 6f05 053d f1ed 89bd
00000010: 41a5 0fbd bf21 d03c 97c2 7fbc b3e1 9abd
00000020: cd1d cf3d 1776 b1bd 3062 1fbd 2d31 98bd
00000030: 004b 3dbd c3fe eabc 3d31 79bd 6877 9d3a
00000040: 2787 19bd 7820 8bbc 3957 a13d b002 b03d
00000050: c28b 8ebd 62e7 c1bc 3cfc b13d 550a 13bd
00000060: 7ef8 9cbd f253 d73c bf71 ce3d 1650 a73d
00000070: 7886 233c 04f0 d93d 5c24 34bd 9292 2c3d
00000080: 2af7 cf3d 7d26 283d 7cd9 ab3d 6409 53bd
00000090: 1ac1 083d 6881 89bd d7f0 153c f1bb bf3d
000000a0: 8b74 d1bd a857 953d e93e cd3d df9b 8cbd
000000b0: cc01 0c3d d554 c73d 1d64 87bb 1ed1 2f3d
000000c0: 5d39 88bd 10e7 bebc ceb9 12bd e93c 6b3d
000000d0: 2b1b 9b3d 3b2b 803d f9b0 133d ef14 423d
000000e0: 3d97 98bc 3667 33bd b470 773c a77c a6bd
000000f0: 332e a43d 0e77 bdbd d6b5 a33d 7864 ddbb
0.05472827 -0.035681102 0.032475885 -0.06734837 -0.035069708 0.025406716 -0.015610359 -0.0756258
0.10113106 -0.08665102 -0.038912 -0.074312545 -0.046214104 -0.028685933 -0.060837973 0.0012013735
-0.037482407 -0.016983256 0.078779645 0.085942626 -0.069602504 -0.023669902 0.08690688 -0.035898525
-0.076645836 0.026285145 0.10080289 0.08169572 0.00998079 0.106414825 -0.043979988 0.042131968
0.10154565 0.04105233 0.08391091 -0.051522627 0.03338728 -0.067141354 0.009151659 0.09362019
-0.10227307 0.0729211 0.10021765 -0.068656676 0.0341814 0.09732977 -0.0041318075 0.04292404
-0.06651566 -0.023303539 -0.03582173 0.057431135 0.07573541 0.062582456 0.036057446 0.047383245
-0.018626804 -0.0437996 0.015102554 -0.08129244 0.08016624 -0.092512235 0.07993667 -0.0067563616

hidden.0.weight f4 [64, 64]
00000000: 56a6 89bd 8609 ef3d 7c11 183d fe4d ba3d
00000010: 714f 073e 275b bcbd 0711 ef3d d4bc 80bc
00000020: e63c fbbd 8d28 6f3d aa09 33bd cb0f 8b3b
00000030: f1dc c73d 314c 2ebd 2773 0e3d af03 b73c
00000040: 850e c7bd f3e9 c63d e17f 773d 7613 c63d
00000050: cf2d 683d 9658 e33d a570 483d d7c2 8ebd
00000060: 6dda 3fbc 7cc4 c43d 44b6 febd 9374 a03d
00000070: af80 2b3d 347a 12bc 942b 56bd ede7 95bc
00000080: d480 01bd 4753 04bd d949 dc3d 20e9 31bd
00000090: f021 d43d 66ed 99bd 46cb b03d 5cdc 3ebd
000000a0: d507 aabd f364 2a3c d7c3 eb3c 49ca 843c
000000b0: f283 04bd 8b0e 063e 2ae8 fb39 7a02 d63d
000000c0: b26e ddbd 117c dc3d 83fd bc3d 6c1d d13d
000000d0: dcaf b83d ddbc 05bd 24e3 293d 0821 82bd
000000e0: 8500 923d 4cc7 cbbd 5794 3a3d 095e e33d
000000f0: ab39 8dbd 691d 113d 991d 57bd 5c58 c0bd
00000100: 1a7b 6c3d 0530 06bd 33ac 99bd 8f22 c93d
00000110: 3d58 a2bc cc29 3bbd 9dce e9bd 5708 833d
00000120: 5f1c 963d 5beb ad3d 7ec0 e53d 2e69 d1bd
00000130: 565d 243d 4a7c b83c 4620 74bd d7e3 e3bd
00000140: 1954 423d ef67 353d c028 dcbc 8ccb d43d
00000150: 8864 45bd c0fd 68bd fae6 06bd 5bf7 c23d
00000160: c370 e2bd 6405 e63d ea6d 54bd 59b8 ff3c
00000170: 7396 aa3d 8f2e 94bd e12d a9bc 62ca 1ebd
00000180: 6d84 043d 9fd3 563d 9e3d 733d 71ea 55bd
00000190: 2d5d a8bc 3299 a5bd 9544 8abd 9cc5 c3ba
000001a0: 40c6 eabd 593b b43c 6d6f e2b8 2565 c43d
000001b0: 181a dcbd c9e4 96bd e6cb dfbb 389a 59bd
000001c0: 6d86 603d 15f6 913d 26ae 4abd 17f6 a7bd
000001d0: cfd2 353d ad4a e6bd b713 b63d b45a 8d3b
000001e0: c0bb dd3c 1a11 fd3d ece3 a4bd 9ed6 ccbd
000001f0: fa60 8cbd ee0e 1ebc 3dcc bdbd 59bf f93d
00000200: 330f 063e 4dc1 ad3d 87c4 17bd 949c c0bd
00000210: e24a c63d 174d 213d 4298 4a3d 1ef4 3b3d
00000220: 7ebb e7bd 549b adbd fc87 d83c 7dd7 c7bc
00000230: fbdd 99bd fc37 a8bd 230f be3a ce70 f03d
00000240: 21cb eb3d f0d1 cebd 31ce d2bd f9ab dcbd
00000250: 8851 81bd f892 993d ae05 dbbd bd63 babd
00000260: 581a 8a3d 6ba1 f03c c8a2 ec3d 074f babd
00000270: 4f67 c33d 57f1 0b3c 15dc 1abd 4144 873d
00000280: 7060 163d 52ca 78bb 5ee3 efbd 87e4 553d
00000290: d986 963d 718e 22bd 9197 bd3d c5c4 b03d
000002a0: 0a1a eabc cd2f 633d 85e8 37bd ab69 3f3d
000002b0: 5b62 e13b 6762 c6bd 55d0 e63d 1536 2fbd
000002c0: e216 ef3d 7406 6dbd e811 e63b f017 be3d
000002d0: 0a89 aebd 60a6 01bd 0cf0 8abb 1f26 eb3d
000002e0: 8f21 823c 71b3 b73d ae9f a63d fe03 9dbd
000002f0: 208c 713d c64d e6bd 9d8c 03bc 4a48 a9bd
00000300: a114 d6bd 2fda 60bd d2f2 3b3d b082 a43d
00000310: d973 bdbd 30e7 2f3c 4e13 693d 9575 c73d
00000320: 1f24 ee3d 704c 9c3d fa9b b93b cc27 d6bd
00000330: 8a58 173d ab2c 2f3c 00ed a1bd c881 00be
00000340: 89cb 03bd c135 8b3d 0330 96bd dff6 f5bd
00000350: 740d 033d b7f7 923c 75a7 51bc 1ac6 773c
00000360: 1ab3 c9bd fc78 a2bd 2fb5 b33d 92d1 e83d
00000370: 1534 68bd d49a a13d 7809 c73c c52f 19bc
00000380: 4628 b8bd 21fb c6bd 6ec0 0fbd bb3c a63d
00000390: c0d6 bbbd 8ad1 b43d fb10 aebd 0fbf 693d
000003a0: 6bff dcbd a268 d9bb 4d6a d63d 1352 4bbd
000003b0: 259a a7bc 8ad6 febd ce75 c63c 6646 4cbd
000003c0: 2c65 9fbd ef6f d6bd 61e8 82ba c7e2 ec3d
000003d0: 8ae4 c83d c9fb 0d3d 7373 6c3d 2232 90bd
000003e0: 13d8 e1bd 7f17 6bbd 1578 4abc 9614 d0bc
000003f0: ea07 943d 503b 80bd 529d d5bd 63db 86bd
-0.06721179 0.11671738 0.03712605 0.09096907 0.13213898 -0.091970734 0.116731696 -0.01571504
-0.12267475 0.05838828 -0.04371039 0.004243826 0.09758938 -0.04255313 0.034777787 0.022340624
-0.09719566 0.09712591 0.06042469 0.09671681 0.05668431 0.11100881 0.04893555 -0.069707565
-0.011709792 0.09607789 -0.12437108 0.07834735 0.04187077 -0.008940268 -0.052287653 -0.018299067
-0.031617 -0.032305982 0.10756273 -0.043435216 0.103580356 -0.07515983 0.08632521 -0.04659687
-0.08302275 0.010400045 0.028779907 0.016209738 -0.032352395 0.13091485 0.00048047426 0.10449691
-0.10812129 0.10765851 0.09228041 0.1021069 0.090179175 -0.032650817 0.041476384 -0.063539565
0.07129005 -0.09950122 0.045551624 0.1110192 -0.06895765 0.03542844 -0.05251846 -0.09391853
0.057734586 -0.03276064 -0.075035475 0.09821045 -0.019817466 -0.045694157 -0.114163615 0.06398075
0.0732963 0.08492156 0.112183556 -0.102251396 0.040128075 0.022520203 -0.05960109 -0.111274414
0.047443483 0.044288572 -0.0268749 0.10390386 -0.048191577 -0.05688262 -0.03293512 0.095198356
-0.11056664 0.11231497 -0.051862635 0.031215834 0.08329477 -0.07235443 -0.02065176 -0.038767226
0.032352854 0.05244791 0.059384935 -0.052225534 -0.020552242 -0.0808586 -0.06751362 -0.0014936212
-0.114635944 0.022000955 -0.000107972744 0.09589604 -0.107471645 -0.07367856 -0.0068297265 -0.05312559
0.0548157 0.071270145 -0.049482487 -0.08201235 0.044390496 -0.11244712 0.08890479 0.004313791
0.027067065 0.123567775 -0.08051285 -0.100018725 -0.06854434 -0.009647114 -0.09267471 0.121947
0.13091736 0.08484135 -0.037052657 -0.09404865 0.096822515 0.03938016 0.04946161 0.045887105
-0.11315058 -0.08476892 0.02643203 -0.024394745 -0.075130425 -0.08213803 0.0014500361 0.11740266
0.11513353 -0.10098636 -0.10293234 -0.10774989 -0.06314379 0.07498735 -0.10694443 -0.09101055
0.06743306 0.029373845 0.115544856 -0.090971045 0.09541189 0.008541427 -0.037807543 0.06604815
0.036713064 -0.003796239 -0.11713289 0.052219894 0.07349939 -0.039686624 0.092574246 0.08631281
-0.02857687 0.05546551 -0.044899482 0.046731632 0.00687818 -0.096867375 0.11270205 -0.042776186
0.116742864 -0.057867482 0.0070211776 0.092819095 -0.08522232 -0.03165281 -0.0042400416 0.114818804
0.015885143 0.089697726 0.08135925 -0.07666777 0.058971524 -0.11245303 -0.00802913 -0.08265741
-0.104531534 -0.054895576 0.04588587 0.08032739 -0.09250612 0.010736272 0.056903176 0.09739224
0.11627983 0.07631767 0.005664346 -0.104568094 0.03694967 0.010691802 -0.07906532 -0.12549508
-0.032176528 0.06797362 -0.07333376 -0.120099775 0.03199525 0.017940385 -0.0127962725 0.015122915
-0.09848614 -0.07933232 0.087747924 0.11368097 -0.056690294 0.07890859 0.024296507 -0.009349768
-0.089920565 -0.09715868 -0.035095625 0.08117052 -0.0917182 0.08829029 -0.084993325 0.057066973
-0.107909046 -0.0066347877 0.10469494 -0.04963882 -0.020459244 -0.12443264 0.024226096 -0.049871825
-0.07782969 -0.104705684 -0.0009987467 0.11566692 0.09809215 0.03466395 0.05772729 -0.07040812
-0.11027541 -0.057395454 -0.012357731 -0.025400441 0.07228072 -0.06261313 -0.10430397 -0.065848134

hidden.0.bias f4 [64]
00000000: bc39 783c ad03 d93d 962d a03d d38a babd
00000010: 9c65 ebbd 33e2 b13d be3f f83b 4fca 85bc
00000020: 8838 313d 45f7 f63c 7aa8 bfbc 45e2 f0bb
00000030: 1054 3bbd f3cc fabd 7f66 853d a352 03bd
00000040: 0683 e5bd fad3 633c eaa2 68bd 4b5e 37bd
00000050: ad54 843d 6824 85bd a13c ffbd d405 bc3c
00000060: 54d8 a4bd aa96 b2bc 89b6 d43d 082e f5bc
00000070: cd31 973d 3b32 be3c 901e 883d c469 c6bd
00000080: 41e4 7a3d 3d2a fb3d 85a8 993d 5cfc c6bb
00000090: c5a1 d3bd 2bfe fbbc 9a7b fcbd b113 f53d
000000a0: bc1e 23bd 8a48 34bb 3348 813d 5e7f f0bd
000000b0: c3a9 ae3d ca99 ab3d 7995 5dbd 9ad2 b33d
000000c0: 1e7a 933d 91b9 01bd ee52 47bd 2328 973c
000000d0: ff41 f8bd 205e f03d 4e6a 523c 12ff 883d
000000e0: 91e8 473d 8ff4 af3d 3726 1a3d b57e 893c
000000f0: 607f 85bd 3026 1a3d d084 8a3c 5c3d fa3c
0.015150484 0.10596404 0.07821195 -0.0910851 -0.1149399 0.08685722 0.007575958 -0.01633182
0.043266803 0.030147204 -0.023395766 -0.007351192 -0.045734465 -0.12246122 0.0651369 -0.03206123
-0.11206631 0.01390552 -0.056795992 -0.04476766 0.06461463 -0.065010846 -0.12462736 0.022951998
-0.08049074 -0.021800358 0.10386378 -0.029929176 0.073825456 0.023217311 0.06646454 -0.09688142
0.061252836 0.12263916 0.07502846 -0.006072564 -0.103335895 -0.030760845 -0.123282626 0.119666465
-0.039824232 -0.0027509057 0.06312599 -0.11743043 0.08528473 0.08378942 -0.054097626 0.087804034
0.072010264 -0.03167111 -0.048663072 0.018451756 -0.12121963 0.11736703 0.012842728 0.06689276
0.048805777 0.08591568 0.0376341 0.016784051 -0.065184355 0.037634075 0.016909033 0.030546837

hidden.1.weight f4 [64, 64]
00000000: 46d9 e03d fe72 d13d 1cab 8fbd bef9 5fbd
00000010: 40b7 513b 202d 05bc 2005 a23d 7c89 8e3d
00000020: b4d2 2ebb 204d 633d d271 a93d 68b4 123c
00000030: 0dad 7a3d 327b 853d e3ad 9bbd 373b 36bc
00000040: 284e 2dbc 2edd 7cbd 39d2 65bd 53f7 c43d
00000050: 7b41 b63d d5ca f43c e633 4bbd 5eb8 29ba
00000060: 31bc 893b bffc fe3d 8e15 bebd a5ec c53b
00000070: 5385 223d 8845 6fbc cb17 213d 5787 efbd
00000080: f035 c6bd 6283 603d fcad 823d e27a c13a
00000090: 1137 dcbd 7f8b 8c3c 2cd7 e5bc b4c4 5cbd
000000a0: d7ee d8bc d61b df3d c938 bcbd 0495 e53d
000000b0: 2db4 ee3d 7459 423d 538a d8bd ad45 b2bc
000000c0: e592 44bd bc3b 25bb 6a1f 3fbd 23a9 d33d
000000d0: 3863 b3bd 1b84 af3d 0ff0 2f3d 73db 9b3d
000000e0: ea3d c5bd 5da8 523d cbd7 a63c 2aab f33d
000000f0: 0354 833d 0886 433d 8ebf a53c 371e b93d
00000100: e67a 283d 9df3 c2bd 93cd 16bc c895 f43d
00000110: 4cd4 3abd 3da5 883a 523b ca3d 0d1b 983d
00000120: f540 1fbc 07dd 343d efbb 03be eb79 c73d
00000130: 4455 aabd 7497 efbd 790b 9a3d 483b ea3d
00000140: 3e40 263c 9bc0 063d 2434 bebd 0e8d b7bd
00000150: 4b50 323d db23 bfbd 7c20 e83d 3864 38bc
00000160: 95f3 763d 0a3b b5bc 8b31 a83d 24c0 7e3d
00000170: e9ca 9a3d 0dab f9bd 15da bbbd 8830 8a3d
00000180: d10f aebc cf19 893c 76e2 ecbd bb4a 3bbd
00000190: 723d 8bba 82bc fbbd 2173 123d 7d0b 2d3c
000001a0: f7a2 01be 62b9 b73c 2d30 ec3d 0bfc b1bc
000001b0: 1833 babd 8839 60bd 1f33 47bd 1736 d13d
000001c0: 6755 343d e76f 003c 1def 3b3d 2901 893d
000001d0: 0405 3d3c 0a4e b5bd 032f 2abc 5fb0 e1bd
000001e0: 2061 e63d d6d1 00bd 050a 723c dd91 b1bd
000001f0: fc7a 043c df52 e4bd c2af 0b3d ac46 be3c
00000200: 30f3 99bc 0abd 343d 475e c6bd 33a3 173d
00000210: b885 bebd b910 9dba 92a3 f33d 161e 82bd
00000220: 2097 c53d 3f07 c3bd 76cd d4bc 4f84 8a3d
00000230: 2185 1d3d 1e91 d23c 2601 dbbb b649 c9bd
00000240: 7ec6 7bbb be3c a9bd 2fab 9bbd 927e a83c
00000250: 52ca e13d faba ddbc bc05 973d 9e88 053d
00000260: c3c7 6bbd 0579 1b3d db72 5ebd d7c8 4fbc
00000270: 4eea abbd 5fee bcba 4bc4 90bd 50b6 05be
00000280: 68e9 b43d ade8 5c3d f010 d9bc d300 c93d
00000290: eeab e33d 5cab deb9 0697 c23d e4d2 cbbd
000002a0: 38fc a23d cd56 54bd 2072 81bd 9959 383d
000002b0: 8e90 84bc 20f3 18bd 01da 793d f974 513d
000002c0: 58ae d3bd 47a2 3dbd ef36 fabc ee96 923c
000002d0: 15a7 7e3c 13a9 57bc a3c9 d43d 7d67 ec3c
000002e0: 2058 89bc 01a5 4fbd 3ed7 5b3d 1b03 a0bc
000002f0: 2361 e83d 1b3d 603c ba36 013e 80d0 0ebc
00000300: 6331 ddbd f112 f93d 4cff 163d e725 dfbd
00000310: 2061 0ebd 3193 e7bd a8db 66bd 47db e93d
00000320: 1c7f 003d ad5e cfbd 3f84 eb3d e741 803d
00000330: 4218 5bbd 1286 82bd 298a 183d 0778 d4bd
00000340: 0670 76bd 39c8 503d 5c19 79bc 30db b4bd
00000350: db0a 51bd ae10 dc3c db0d ad3c 7368 2cbd
00000360: 958f 50bd 58cf ff3d c695 48bd 3b41 8c3d
00000370: 98ce f6bd 805d ca3d ee2f edbd 24d3 81bc
00000380: d300 f13d 17cb d6bd b8b8 c1bc fece 113d
00000390: 726e bfbd b225 a63d d340 e8bd 1071 dcbc
000003a0: 501d d9bd 1159 333d a4da ddbd b0d9 6b3d
000003b0: 4ef6 533d 83f7 d6bd 90d3 803d 6b22 993d
000003c0: 9521 b1bd 6ea3 b9bc 46c4 49bd 97b4 b4bd
000003d0: 756e ec3c b285 91bd 3636 c63d 0ebd 503d
000003e0: 8b59 24bd 35c1 89bd 5b80 953c 6f88 d9bd
000003f0: f24b 9d3d fa27 b93d 3cf5 d3bd 2869 8fbd
0.109789416 0.10227011 -0.070150584 -0.054681532 0.0032000095 -0.008128434 0.07911134 0.06959817
-0.0026675882 0.055493474 0.082736626 0.008954145 0.06120019 0.06517638 -0.07601526 -0.011122516
-0.010577716 -0.06173437 -0.056108687 0.09617486 0.08899208 0.029881874 -0.04961004 -0.0006474311
0.0042033424 0.12450551 -0.09281455 0.006040173 0.03967793 -0.01460398 0.03932933 -0.11695736
-0.096782565 0.054812796 0.06380841 0.0014761353 -0.107526906 0.01715636 -0.028056704 -0.05389853
-0.026481075 0.10893981 -0.091905184 0.11210063 0.116554596 0.04744859 -0.10573258 -0.02176174
-0.047991652 -0.0025212606 -0.04666082 0.10334995 -0.08759159 0.08570119 0.042953547 0.07610216
-0.0963095 0.051430095 0.02036657 0.11897881 0.06412508 0.047735244 0.020232942 0.09038966
0.04113283 -0.09519122 -0.009204286 0.11942631 -0.04561262 0.0010425221 0.09874596 0.074270345
-0.009720077 0.0441561 -0.1286466 0.09740051 -0.083170444 -0.11698809 0.075217195 0.11437088
0.0101471525 0.032898527 -0.09287289 -0.08962451 0.043533605 -0.09333011 0.11334321 -0.011254363
0.06029089 -0.022122879 0.082125746 0.06219496 0.07558233 -0.121908285 -0.09172455 0.06747538
-0.021247776 0.01673594 -0.115666315 -0.045725565 -0.001062317 -0.122918144 0.035754327 0.010561821
-0.12659822 0.022427265 0.11532626 -0.021726629 -0.090917766 -0.054742366 -0.048632737 0.10215395
0.04402676 0.00783918 0.045882333 0.066896744 0.01153684 -0.088527754 -0.010387185 -0.11019968
0.11248994 -0.031450115 0.014772897 -0.08670399 0.008085962 -0.11148619 0.034103163 0.023227058
-0.018792719 0.044125594 -0.09685951 0.037020873 -0.093028486 -0.0011983133 0.11896433 -0.06353395
0.096479654 -0.095228665 -0.025976878 0.06763517 0.03845704 0.025703963 -0.0066834865 -0.09828512
-0.003841787 -0.08263539 -0.0760101 0.020568166 0.11024918 -0.027066696 0.073741406 0.03260099
-0.057563554 0.03795721 -0.054308753 -0.012682161 -0.083942994 -0.0014414302 -0.0706869 -0.13057828
0.08833581 0.053932834 -0.026497334 0.0981461 0.11116777 -0.00042470812 0.09501462 -0.099523336
0.07958263 -0.051840592 -0.06320596 0.045007322 -0.01618221 -0.037341237 0.06099892 0.051136944
-0.10335988 -0.046297338 -0.030543773 0.017894235 0.015542765 -0.013162869 0.10390022 0.02885794
-0.016765654 -0.05069447 0.053672068 -0.01953273 0.11346652 0.013686444 0.12618533 -0.008716702
-0.108004354 0.12161816 0.036864564 -0.10895901 -0.034760594 -0.113073714 -0.056361824 0.11418777
0.03137122 -0.1012548 0.11499833 0.0626257 -0.05348993 -0.06373228 0.037241135 -0.10374456
-0.060165428 0.050972197 -0.0152038 -0.08830869 -0.051035743 0.026863422 0.02112477 -0.042091798
-0.05091818 0.124907196 -0.04897096 0.06848379 -0.120511234 0.09881115 -0.115814075 -0.01584775
0.11767735 -0.10487955 -0.023647651 0.035597794 -0.09347238 0.081126586 -0.11340489 -0.026909381
-0.10601294 0.043786112 -0.10832718 0.05758065 0.051748566 -0.10496428 0.06290352 0.07477268
-0.086489834 -0.022660937 -0.049259447 -0.08823507 0.028861264 -0.071055785 0.09678309 0.050961547
-0.040124457 -0.067263044 0.018249681 -0.10621726 0.07680501 0.09040828 -0.10349509 -0.07002479

hidden.1.bias f4 [64]
00000000: 3195 a53d 7629 d93d 9c37 f83d a378 c43d
00000010: f4b7 44bd 25a7 793d dfc6 3f3d eafa 6d3d
00000020: 027a 793d bfba 00be cce2 7c3c 77f7 c53c
00000030: 182d 76bd 35e1 49bd b440 c83c 48f5 4fbd
00000040: 9308 d33d 7d07 083d e3ce 2bbc 6482 fa3d
00000050: 0037 b9bd fe74 913c 6216 4cbd 4e4c b3bc
00000060: 7cb9 ddbd 090d ef3d 35ee 643d f95d b03c
00000070: bbc3 ee3d 23d5 e1bd dcf0 5cbd e394 a83d
00000080: 5ea2 963d e44a dbbd 706f 9ebd d799 80bd
00000090: bb5f 2d3d 1453 0d3c 0481 b63d 554d 61bd
000000a0: 10ef 003e bc73 b93d 18e3 3abd 0188 503c
000000b0: fe00 403c 04eb b3bc 358a 283c 8d72 a93c
000000c0: 65e2 b33d 3dc0 f23d f234 eabc 92ec 96bc
000000d0: 60ed fdbd 8048 093b 60e4 e03c fc84 d6bd
000000e0: 5db9 c6bc 80ea 31bb 7525 be3b 1f45 8e3d
000000f0: 5601 8a3d 4f2c b43d cc2b 4dbd 298b 9abc
0.08085097 0.10603611 0.12119982 0.09593322 -0.048026994 0.060950417 0.046820518 0.05810062
0.06090737 -0.12571238 0.015434932 0.024165852 -0.0601016 -0.04928704 0.024444915 -0.050771028
0.1030437 0.033210266 -0.010486337 0.12231901 -0.090436935 0.017755982 -0.049826033 -0.02188697
-0.10826394 0.11672408 0.055891234 0.021529185 0.116584264 -0.11026981 -0.05394064 0.08231523
0.07355188 -0.10707644 -0.07736099 -0.062793426 0.042327624 0.008625764 0.089113265 -0.05500539
0.12591195 0.09055278 -0.04562673 0.012727738 0.011718987 -0.02196265 0.010286857 0.020684505
0.08783416 0.11853073 -0.0285897 -0.018423352 -0.12398791 0.0020947754 0.027452648 -0.104745835
-0.02425831 -0.002714783 0.005802805 0.069467776 0.06738536 0.08797514 -0.050090596 -0.018865185

hidden.2.weight f4 [64, 64]
00000000: 88fc 72bd 2027 183c 103b 703d 04c7 44bd
00000010: c4e7 4dbd 1a27 b93d 6206 f03d be32 aebd
00000020: f404 1dbd e05d fc3b 9e75 f73d e0c4 8abd
00000030: 0096 f2ba 38e0 2abd 1603 c2bd 045c 963d
00000040: 4045 ce3b 749b e33d c0df d3bc 6a4d b03d
00000050: b600 b33d ccbb c0bd 6827 e73d 0af4 c03d
00000060: b812 293d 6c6d 8b3d e0a9 c1bb 6018 a93d
00000070: f405 da3d c0d1 033c 5498 27bd 12cb 853d
00000080: f887 863d 9e7c b6bd f0e0 d0bc bc2c ad3d
00000090: acf7 ac3d 7200 91bd 0801 1a3d 364b d63d
000000a0: 0c65 f53d 50ef 093d e00b 2a3d e075 d4bb
000000b0: 8c30 8c3d 4055 e23c f0ba 39bd a088 9e3c
000000c0: d8c4 b9bc c6cf fb3d e854 9cbc 5490 c3bd
000000d0: 4278 de3d cc0c e7bd 8e2b cabd 98c7 8e3c
000000e0: e0fe 8a3c ee5a febd dcb3 ccbd 50bc 58bd
000000f0: 4001 283d 006e 363a 00fe f0bd a248 ac3d
00000100: d2d9 f33d 9e4f 893c 7109 f33a 6539 5b3d
00000110: 1485 febd 36d9 c5bd 7001 1b3d 5547 a03c
00000120: d821 e13d dd6a 12bd 366b 22bc f928 babc
00000130: c076 c33b 1412 0d3d 4956 e03c 908e 103c
00000140: 4136 9abd e232 843d c51a 93bd cb41 97bd
00000150: 989c 3fbd 6f17 83bd 7ce6 b1bd ea37 dbbd
00000160: 388c 063d b46b a43d f7a3 b13d d25c 14b9
00000170: d760 46bd c26d 0e3d 9629 cdbd 9cda 043e
00000180: a367 bdbd d653 ac3d d8cc 943c ec14 99bd
00000190: 95d2 b83b 23f3 9dbd b10c aa3d 40bb c1bd
000001a0: c848 ddbc fde1 c9bd 6e0d c33c 6bea fc3d
000001b0: 913e b0bd b650 88bd 3d3e 8dbd 28ab ea3b
000001c0: 12be 283d 3c6f 01be 9cb9 a53d ad21 6ebd
000001d0: c044 b53b 1ecf efbd 6a51 2b3d 2a92 9f3d
000001e0: 1dbc babd e29e cf3d 2dc2 cd3d 3a79 863b
000001f0: 904d 2f3d 3ff6 02be 840d 18bd dc3d 4f3d
00000200: 781d 833c 06ea 82bb 982f c33c 8cde bdbd
00000210: 00a6 cb3a f110 e93c 0b47 bcbd 7c65 543c
00000220: fe35 a03b a4e9 d53b c309 f8bd de42 e53d
00000230: a267 c2bd 7169 f83d 3b93 243c 1027 82bd
00000240: 3026 373d ada1 dd3d f990 0dbc c88b 143d
00000250: 902e 5cbd 1a6e 903d 2b5e 423d 0a3c 2fba
00000260: 441c cf3d 78d8 d33c 5dab 383c 9ec6 7d3a
00000270: c6c0 30bd 87cd 223d e811 b7bc bed7 b53d
00000280: fc90 8ebd c6cc cebd e144 adbd 2829 013d
00000290: 94f7 6dbd dc38 683d c260 a13d d366 873d
000002a0: 83b5 823d 52a2 1bba cfea c1bd 54b7 da3d
000002b0: bbcb 403d 88d2 d53d 85e5 3b3d 0ccf d93d
000002c0: 6cc8 633d f68e ce3d d2ef d4bd 3a0f 22bd
000002d0: b028 143c 146e d9bd 3acc 443d c0d7 5fbd
000002e0: 855b 863d 9e97 a2bd d955 9c3d 5db2 8c3d
000002f0: c051 f93c 9dd5 59bc 7ce7 663d 3a7c c0bd
00000300: 9cb3 48bd 70fa 51bc c028 2a3d 3038 c03c
00000310: 3ef8 91bd 423f 923d 7824 bcbc 28f6 373d
00000320: 4011 493d 38bc 0c3d 1212 9abd c0c1 84bc
00000330: aad7 c03d 4eaf 92bd fc56 6abd 70d7 d7bc
00000340: 3e12 f2bd 12b5 ebbd 909f ed3d dc36 06bd
00000350: 5037 193c acdd 67bd c077 b93b e0c7 1c3d
00000360: 306c 93bd e81f 023d 947e 5bbd 1498 d53d
00000370: c032 bdbb c0f4 fd3d d020 20bd 0c1a 333d
00000380: 508e a1bd a083 95bc 148f 6c3d 747d fa3d
00000390: d88a 18bd 5c0b b03d cc14 793d 60a9 60bc
000003a0: a4cc c0bd a0b3 0abc ec2a 843d 9cc9 603d
000003b0: 003b 58ba 02dd f5bd c6e3 c13d 2cf2 6bbd
000003c0: 847d 30bd 48d8 babc 4243 b93d 8081 7fbc
000003d0: 0653 903d 4210 92bd 0cdb d2bd 24e3 493d
000003e0: d613 c43d 0096 09bd 2a8f a2bd 0027 203c
000003f0: 20cf 6c3c 8821 133d 3002 153c 1646 c93d
-0.059322864 0.009286672 0.058650076 -0.04804136 -0.050269857 0.09040661 0.117199674 -0.08505772
-0.0383348 0.0077016205 0.120829806 -0.06775832 -0.0018507838 -0.041717738 -0.09473245 0.07341769
0.0062948763 0.11113635 -0.025863528 0.086085156 0.0874037 -0.094108194 0.11286813 0.09421547
0.041277617 0.0680798 -0.0059101433 0.08256602 0.10645667 0.008045614 -0.040916756 0.06532873
0.06568903 -0.089104876 -0.025497884 0.08455798 0.08445677 -0.07080163 0.03759864 0.10463564
0.11982164 0.03367549 0.04151523 -0.0064837784 0.06845197 0.027628541 -0.045344293 0.019352257
-0.02267687 0.12295489 -0.019083455 -0.09549013 0.10862781 -0.11281738 -0.09871589 0.017429158
0.016967237 -0.12419687 -0.09995243 -0.052913964 0.041016817 0.00069591403 -0.11767197 0.08412291
0.1190678 0.016761597 0.0018542242 0.053521533 -0.124277264 -0.0966057 0.037843168 0.019565264
0.10992783 -0.035746444 -0.009913256 -0.022724615 0.005965084 0.03444107 0.027384894 0.008823052
-0.07529879 0.064550176 -0.0718284 -0.07385596 -0.0467802 -0.06400954 -0.086865395 -0.10704024
0.032848567 0.08028355 0.08673852 -0.00014148958 -0.048432197 0.034772642 -0.100176975 0.12974018
-0.09248283 0.08414428 0.018164083 -0.07474694 0.0056403377 -0.0771239 0.08303202 -0.09459543
-0.027012244 -0.09857557 0.023810115 0.12349399 -0.086056836 -0.066560194 -0.06896637 0.0071615167
0.04119689 -0.12640089 0.08092043 -0.058137584 0.0055318773 -0.11709426 0.04182569 0.077915505
-0.09117911 0.10137726 0.10046802 0.004103807 0.04279858 -0.12789248 -0.037122265 0.050596103
0.016005263 -0.003995183 0.023826405 -0.09270963 0.0015537143 0.028450461 -0.09193238 0.012963649
0.004889249 0.0065280963 -0.12111237 0.111943945 -0.09492423 0.12129486 0.010044868 -0.06355107
0.044714153 0.10821853 -0.008640521 0.03626612 -0.053755343 0.0705225 0.047453087 -0.0006684667
0.10112813 0.025860056 0.011271325 0.00096807803 -0.043152593 0.039746787 -0.022347406 0.0887904
-0.06961247 -0.10097651 -0.08460403 0.03153339 -0.058097437 0.05669485 0.07879783 0.06611409
0.06382277 -0.00059369684 -0.09468614 0.10679498 0.047069293 0.10440546 0.045873184 0.10635194
0.05561106 0.100858614 -0.103973046 -0.039565302 0.009042904 -0.10616699 0.048046328 -0.054649115
0.06560425 -0.07939075 0.07633562 0.068699576 0.03043449 -0.013295558 0.056373104 -0.09398694
-0.048999414 -0.012816057 0.04154277 0.023464292 -0.071274266 0.07140972 -0.022966608 0.044912487
0.049088717 0.034359187 -0.07522978 -0.016205668 0.09416135 -0.07162343 -0.05721186 -0.026347846
-0.11819886 -0.11509146 0.116027 -0.03276716 0.009351566 -0.056607887 0.0056600273 0.038276553
-0.071983695 0.03176871 -0.05358751 0.10429397 -0.005773872 0.12400198 -0.039093792 0.043726012
-0.07888472 -0.01825124 0.057753637 0.122309595 -0.037241787 0.08595917 0.06081085 -0.013712257
-0.09414032 -0.0084656775 0.06453499 0.05487977 -0.0008248538 -0.120050445 0.094672725 -0.057604
-0.04308845 -0.022808209 0.090460315 -0.01559484 0.070470855 -0.07132007 -0.10295686 0.049288884
0.09574096 -0.033590317 -0.07937463 0.009774923 0.014453679 0.03592065 0.00909476 0.09827821

hidden.2.bias f4 [64]
00000000: c8d4 bcbd 22f5 ad3d f312 5b3c b882 81bc
00000010: 2ed5 9fbd c85b c6bd 01ea 88bd 67d8 df3d
00000020: 6992 82bd 4e30 8bbd e35c 60bd 20e1 b7bd
00000030: bac5 d0bd 320c 67bc 3ceb babd 1a2b bbbd
00000040: c753 c53d 96bb 003e 04d4 c8bd edf5 f93d
00000050: e0e6 efbd e023 55bc 3dac da3d 88ad a9bc
00000060: 8356 223d cc79 b3bd f416 70bd 6d59 2f3d
00000070: c8b9 c0bc f1d1 bd3c fb38 df3d a041 c73c
00000080: d7f5 c03d b070 ccbd 1999 03bd 2f8b 503c
00000090: 6099 d93d 5d74 7dbd 1233 80bd bcec 06bd
000000a0: b0fa 0b3c 39f9 b13d 5fb5 bebc cacf eb3c
000000b0: d8c2 76bd 15ba b13d 10fc b83c 5fe1 9b3d
000000c0: d8cf d3bd a621 13bd 7204 aabd 140a f2bd
000000d0: 96a7 c13d 4ab7 ae3d fa5e 91bd 2a72 473d
000000e0: 3429 cc3a 0c56 74bd 1823 98bc 208e b2bc
000000f0: 56ef de3c 606d debb d101 993d a9a6 0c3d
-0.09220272 0.08494021 0.013371217 -0.015809402 -0.07804333 -0.09685475 -0.06685258 0.10929947
-0.06375582 -0.06796323 -0.054776084 -0.08978486 -0.10193963 -0.014102029 -0.09126899 -0.0913908
0.0963512 0.12571558 -0.09806064 0.1220511 -0.11713958 -0.013009042 0.10677383 -0.020712629
0.039633285 -0.08763465 -0.05861564 0.042809892 -0.023526087 0.023171397 0.1089954 0.024323285
0.0942189 -0.09982431 -0.032128427 0.012728496 0.10624957 -0.06187855 -0.06259741 -0.03294061
0.008543655 0.086901136 -0.023279844 0.028785605 -0.06024441 0.086780705 0.02258113 0.076113455
-0.103423774 -0.03592076 -0.08301629 -0.118183285 0.094557926 0.08531053 -0.070981935 0.04869286
0.0015576244 -0.059652373 -0.018571422 -0.021796286 0.027213734 -0.006787941 0.074710496 0.034338627

out_layer.weight f4 [1, 64]
00000000: 041f cdbd f18f 8a3d 0e65 b53d e4b7 b9bd
00000010: d2b6 aabd eaba f9bd fd6c 79bd ceb3 05be
00000020: 1fe1 8a3d 1d12 ad3c 7add 93bd 5096 c83c
00000030: cca8 ff3d bf44 d4bd 1418 4ebd a04d 5fbd
00000040: 337f 4b3d f29d c63d 788a 8b3c b5fd a83d
00000050: e088 25bd ac35 3bbd 42f4 8e3d 50b8 99bc
00000060: b495 ebbc f045 273d 666e 84bd 9128 7e3c
00000070: 609f 2ebd 785c 9cbd 017f f9bd c06f 15bb
00000080: 3fdd f7bd 208b 673d cb01 5f3d dac8 75bb
00000090: 1146 b5bd fc87 7abc c8d9 f3bd a12d 6bbd
000000a0: ba5d ba3d db8e 4e3c c87c ed3d c84b 69bd
000000b0: 9ef0 843d 238c 833d 0068 d5b9 8dc6 5c3d
000000c0: 8015 40bd eff8 7d3b 96de dc3d fee3 e73d
000000d0: e428 e0bc a54d e23c e23e 45bc bbcf a5bd
000000e0: 87e7 d43c 8685 8ebd 6425 3ebd c8fc 423d
000000f0: 8449 df3d 7c04 b8bd 2e5c adbb 840e 1b3d
-0.100156814 0.06765736 0.08857165 -0.090682775 -0.083356515 -0.12193854 -0.060894955 -0.13056871
0.0678122 0.021126801 -0.07219978 0.024485737 0.12483367 -0.10364675 -0.05031593 -0.05451739
0.049681854 0.096980944 0.0170338 0.08251516 -0.040413737 -0.045705482 0.06980182 -0.018764645
-0.028757907 0.040838182 -0.06466369 0.0155126015 -0.04263246 -0.076348245 -0.12182427 -0.0022802204
-0.12102746 0.056529164 0.05444507 -0.003750375 -0.08851255 -0.01529121 -0.11906773 -0.057416562
0.09099908 0.012607302 0.11596066 -0.056957036 0.064912066 0.06423213 -0.00040704012 0.05390029
-0.046895504 0.0038753112 0.107846424 0.11322783 -0.027363248 0.027624914 -0.012038918 -0.08096262
0.025989307 -0.06959061 -0.046422377 0.047604352 0.10902694 -0.0898523 -0.0052905297 0.03785564
