models/moreImprove.pt (torch_old, 110431 bytes, 13 tensors)

in_layer.weight f4 [64, 96]
00000000: f105 adbd 265f b33d 7a78 9dbd ec63 943d
00000010: 4bba 983d 30a4 ffbc 019c 0bbd 2892 ad3d
00000020: 00ab b63b a10b 6b3d 11fb 82bd 5012 fbbb
00000030: ba47 a1bd d054 30bd 14f3 603d d7f7 16bd
00000040: 4df3 83bd 60b0 5d3d af0b a93d 1c5c 1c3d
00000050: 3d29 67bd 806d f13c ddc7 d1bc 6279 9f3d
00000060: 8943 bcbd 9ab0 263c acb6 8b3d 561f 42bd
00000070: 80b0 653c 7b12 c93b 5476 29bd f476 ad3c
00000080: 9eb9 c2bc 7f4c 7abd d996 c43c 8c12 083d
00000090: 221b 943d 04da 6c3d 384a 2dbd d8c1 efbc
000000a0: 9c50 86bc c0e9 a63d 64a3 523d 0248 3abd
000000b0: fb1f a3bd a032 ecbc 7ea8 a6bd 3ab3 8d3d
000000c0: b55b 303d 3452 82bc 5c3f 1f3d 096e cebd
000000d0: b5b6 b23d 08fb a8bd 5a13 99bd 5e7b c0bd
000000e0: 6063 013c fc4b 043c 8450 733d 4ef8 91bd
000000f0: c01d e2bc 863b 42bd 92ec 1bbd 041c 713d
00000100: 62d8 583d 73e8 123d 9483 323d 9eae b0bd
00000110: 5ead 0dbd 7720 5e3d da50 2cbc c088 aebb
00000120: a499 233d a5af 73bd 41be 8ebd b22e b13c
00000130: 423f af3c 478f 40bd 854e 82bd cf50 92bd
00000140: f058 1c3d bced 683d 23e9 a7bd acdb 69bd
00000150: 8368 6dbc ca50 593c 69f7 11bc 0ed4 b73b
00000160: 4b84 a73c ed7a c33d e1e1 cf3c b8f1 553d
00000170: fc16 97bc 5bc7 823d 7935 9d3d fde9 c6bc
00000180: cdd2 73bd b75f c2bd b573 c3bd 188b 26bc
00000190: eec7 e93c a9f4 47bd 268f 49bd 5ce4 8c3d
000001a0: fa22 a0bd 3426 c93d f8fb 363d 82fb 593d
000001b0: cbb9 8fbd 356f e83c b46a 4c3d e771 923d
000001c0: e9ff 30bd faeb b33d cfe1 4cbd cc7e 86bd
000001d0: f5db c33d 762b 9abd 2d7e a03d 70e2 263d
000001e0: 8eaf 26bd db75 723c 389e 6ebd 1fa7 4cbd
000001f0: 3829 4c3d 6ccc 813b bc0f 4e3d c3a2 1c3d
00000200: f53a 72bd c1ed c9bd c7f0 8ebd 1344 b0bd
00000210: 5830 4dbc fabe 8a3d bc81 473b 00a0 df39
00000220: f055 afbd 454e 3d3d 4043 81bd 7a2e 903d
00000230: 00aa a3bd 206e dc3d 1868 3c3d edb8 983d
00000240: ab91 d4bc 68c4 b23c 4d5e a3bd 644c efbc
00000250: f2d8 0d3d 6483 813d 6cac bb3b 6075 2c3b
00000260: f6f2 b8bd acfe b63d 287e e1bc 9e16 c03d
00000270: e007 a53b 3061 8fbd 6f1d c8bd ce7a d23d
00000280: 06a8 4f3d b9af 1b3d 7ab5 223d 2d19 5cbd
00000290: 005b 9f3d 88fa 12bd 8d81 9bbd 509e c93b
000002a0: bd03 7f3d 2bfb 6ebd 0b2a dbbc b5c4 c53d
000002b0: 09f9 4d3d ad7f 053c daab 683d 6da2 b63d
000002c0: 90c9 d43b 0b0c 26bd 9236 96bd ce65 c3bc
000002d0: 73f1 363d 434e ac3d de2e 88bd 430c 763d
000002e0: f681 923d 8044 9f3c cf1c 743d 054b 1f3d
000002f0: 36d8 9bbd 9c2d a5bd 834f 83bd 667c 72bd
00000300: 38b7 803c 5ebe 6fbd 4dd7 453d a893 793d
00000310: 5b93 bebd c0f4 333d 592a f8bc 04f4 4b3d
00000320: 0056 07bb e016 a03c 948d adbd a948 8dbb
00000330: 6432 c8bc d0f0 d1bc 100f ed3c a4e4 40bd
00000340: 0830 79bd 68a6 a93d b020 dbbc 9cf1 8b3d
00000350: f693 3abd 728b 9a3d 8385 80bd f134 bfbd
00000360: f076 be3b 398a 033d 0860 e83c 28c9 87bb
00000370: 346f bdbc d3f2 c83d c880 7a3c 12c8 5a3c
00000380: 0411 ba3d c87c 153c 5920 c53d da9f 58bd
00000390: d68b 963d 18ce 213d 1257 7e3d 602b 20bd
000003a0: 00bf 95bc ae31 cdbc e018 c43c afed fe3c
000003b0: e09d 193d 6692 7f3d 095d 50bd 237a ad3d
000003c0: 0484 f4bc c84f 8a3d 87f5 25bd 108e 9e3c
000003d0: 01a3 83bc ce67 94bd 316e da3d fb19 35bd
000003e0: d0e6 f03c b1c8 17bd 2ca5 423d cc50 bf3d
000003f0: 36b6 a7bd 3b9c b23d f805 623d 7aa1 aa3d
-0.08448399 0.087583825 -0.07688995 0.07245621 0.074574076 -0.03120622 -0.034084324 0.08475143
0.005574584 0.057384137 -0.06395543 -0.007662095 -0.07875009 -0.043049634 0.054919317 -0.036857452
-0.0644289 0.054123282 0.082541816 0.03817378 -0.056435812 0.029471159 -0.025607998 0.07786824
-0.09192569 0.010173941 0.06821951 -0.047393166 0.014019132 0.0061362362 -0.041372612 0.021174885
-0.02377015 -0.06110811 0.023997711 0.033220813 0.07231738 0.057825103 -0.04230711 -0.029267237
-0.01639586 0.08150053 0.051425353 -0.04547883 -0.07965084 -0.028832734 -0.08137606 0.069189504
0.04305621 -0.015908338 0.038878784 -0.10079581 0.08726255 -0.082510054 -0.07474394 -0.093985304
0.007897228 0.008074757 0.059402958 -0.071274385 -0.027602077 -0.047420047 -0.038067408 0.05886461
0.052940734 0.035866212 0.043582514 -0.086270556 -0.034589164 0.05423018 -0.010517323 -0.0053263605
0.039941445 -0.05949368 -0.06969882 0.021628711 0.021392468 -0.04701164 -0.06362633 -0.07144319
0.038170755 0.056867346 -0.08198764 -0.05709426 -0.01449025 0.0132638905 -0.008909085 0.0056099957
0.020448824 0.095449306 0.025376262 0.052232474 -0.018443577 0.0638568 0.07676215 -0.024281496
-0.059527207 -0.094909124 -0.09543554 -0.0101649985 0.028537717 -0.04881731 -0.049208783 0.068794936
-0.07819171 0.0982174 0.04467389 0.053218372 -0.07017859 0.02837334 0.049906448 0.071506314
-0.043212805 0.08785243 -0.050020035 -0.06567153 0.09563438 -0.07527821 0.07836566 0.04074329
-0.040694766 0.014798607 -0.058256358 -0.049964067 0.049843997 0.0039611366 0.050307974 0.03824116
-0.059138257 -0.09859801 -0.069795184 -0.08606734 -0.012523733 0.06774707 0.0030442318 0.00042653084
-0.08561313 0.04621722 -0.06311655 0.07040115 -0.07991409 0.10763192 0.04599771 0.07457147
-0.025948366 0.02182217 -0.07976971 -0.02921123 0.034630723 0.06323889 0.0057273414 0.0026315078
-0.09030716 0.089352936 -0.027525976 0.09379314 0.005036339 -0.07000959 -0.09771239 0.102773294
0.05069735 0.03800938 0.03972385 -0.053734947 0.07781029 -0.035883456 -0.07593069 0.0061529055
0.062259424 -0.058345 -0.026753446 0.096566595 0.050286327 0.008148116 0.056804515 0.08917699
0.0064937547 -0.04053883 -0.07334627 -0.023852255 0.044663858 0.08413365 -0.06649564 0.060070287
0.07153694 0.019441843 0.059597787 0.038889904 -0.07609598 -0.0806534 -0.0641165 -0.059200667
0.015712366 -0.058531158 0.04830103 0.06093183 -0.093054496 0.043934584 -0.03029363 0.04979326
-0.0020650625 0.019542158 -0.084742695 -0.0043116403 -0.02443809 -0.025627524 0.028937846 -0.04709305
-0.06083682 0.082836926 -0.026748985 0.06833193 -0.045551263 0.07546128 -0.06275465 -0.0933627
0.0058125183 0.03211424 0.028366104 -0.0041438527 -0.023124315 0.0981194 0.015289493 0.013353365
0.09085277 0.009123988 0.096253105 -0.05288682 0.0735089 0.039503187 0.062094755 -0.039103866
-0.018279552 -0.025048103 0.023937643 0.031119196 0.037504077 0.062395476 -0.050869975 0.08470561
-0.029848106 0.06753498 -0.040517356 0.01935485 -0.016068937 -0.07246362 0.106655486 -0.04421423
0.029406935 -0.03705663 0.0475208 0.09341583 -0.08189051 0.08721205 0.055181473 0.083315805

in_layer.bias f4 [64]
00000000: 5fb0 00bd 2a1d 553d 0c3a e3bc f4be 86bd
00000010: 8125 c1bd e5a7 b13d 2529 933d e5b2 85bd
00000020: 11fc 10bd 499f a5bd 5524 d73c 2fa2 d5ba
00000030: a699 5d3d 9bdc c33b d966 01bd 93b6 bdbd
00000040: 624e 583d cd75 e43d c7be 9dbd a379 b6bd
00000050: b4ff a03d 79b2 01bc c4d3 263d d910 bf3d
00000060: b4de 9ebc 904a cfbc 7fe5 613c 7513 463d
00000070: 0d7c b1bc e634 93bd da48 d1bb b3c9 a3bc
00000080: 25b1 443c 2f17 66bd eaaa 1dbd 8867 b13d
00000090: d6ef 24bd 0762 d7bd b197 00bb 4177 b7bb
000000a0: 5175 51bd c7a7 2cbd 7756 993d 2615 ea3c
000000b0: e5b8 71bd 45b6 07bd 56ce 863d fbb0 ac3d
000000c0: 388f 473d f5f1 513d fcb5 963d 0ee0 75bc
000000d0: 7e3e 39bd 0baf 943d e87c e7bc bd7e d93d
000000e0: 6084 203d e559 85bd e8fb 2abd f382 703d
000000f0: 9f4e 673c 4c57 05bb 218f bc3d b8aa 983d
-0.0314182 0.052029766 -0.02773764 -0.0657939 -0.094309814 0.086746015 0.07185582 -0.06528262
-0.03539664 -0.08087022 0.026262442 -0.0016298945 0.05410161 0.005977226 -0.031592224 -0.09263339
0.052809127 0.11155281 -0.077024035 -0.08909919 0.078612715 -0.007916086 0.0407293 0.09329385
-0.019393303 -0.025304109 0.013787626 0.0483584 -0.021665597 -0.07187824 -0.0063868584 -0.019993639
0.012005125 -0.056174453 -0.038493074 0.08662325 -0.040267788 -0.10516744 -0.0019621665 -0.005598933
-0.051137272 -0.042152192 0.07487195 0.028574537 -0.05901422 -0.03313281 0.06582324 0.08432194
0.04872057 0.05125614 0.073589295 -0.015007032 -0.045225613 0.07259949 -0.028257802 0.106198765
0.039188743 -0.06511287 -0.041744143 0.058718633 0.014117866 -0.0020346222 0.09206987 0.07454437

hidden.0.weight f4 [64, 64]
00000000: c728 9d3d 7ffa 8f3d ae58 a63c f6e3 edbb
00000010: d6f9 873d ea76 f2bd fe47 bdbc e564 d5bd
00000020: 7cd6 683d 71ec efbd 1cb1 49bb b2ff c93d
00000030: cc85 e6bd 8d87 d6bd 16eb 1bbd 84b0 d7bd
00000040: 91f2 bcbd c5e1 26bd a2ff 8fbd 9775 003d
00000050: c5f4 82bd 9c9f 58bd 53dc d63d 30ff c0bd
00000060: f6f8 b63d 2e3a e3bb 6cf8 8abd 2c1e f8bc
00000070: 35b9 25bd f9ad dfbc 4305 f3bc 7b45 8f3d
00000080: b3ab c33d 9aa8 91bd e886 2c3d c837 2dbd
00000090: a863 db3d f62a b33d 5e7e 5cbc 5d0a 87bd
000000a0: 3733 01bd 4a20 e63d 7625 1e3d 6c73 2b3d
000000b0: 8b29 e5bd 1727 2cbd 811e beb8 00fc 03bc
000000c0: 778c af3d 122b e9bb 320f 533d 39d0 fdbc
000000d0: b114 5d3d 0567 423d 4267 a2bd 03ca bdba
000000e0: d793 e23d 50d9 84bd 81d1 d8bc 64ca e8bd
000000f0: 23c8 d4bd 8eff b33d 6ea3 68bd 9d5f cabd
00000100: 8d4b 96bd 6d00 e63d 29c3 e03d aa4e 42bd
00000110: 2c16 8fbd aa52 e0bd d09b a6bd 3843 af3b
00000120: 1e96 d83d d0aa 29bd b786 c7bc 7c57 2fbd
00000130: ba9e b7bd ecda 53bd a425 533d 9dd6 453d
00000140: a343 e53d a43f 0f3d 498c 8ebd 6d8a b03d
00000150: f65c a33d bb87 f0bc 47e9 a43d 7ba7 a2bc
00000160: b06e c63d 640c 99bd 5f3f b9bc 8f1b a6bc
00000170: 3b07 c13d 0715 fabc 6ac6 22bd d4ca 5e3c
00000180: 1322 37bd 7844 fb3d 7a42 d2bd 0c8f 8ebc
00000190: e490 aebc 8fcb e5bc fbab 823d 932c ce3d
000001a0: 30f1 febd 3ba2 edbc ac77 ef3c 1d9d 223b
000001b0: 5000 003e 484a ed3b dadd fb3d d7b9 9cbd
000001c0: c278 c7bd 0aa5 4ebd 9df0 91bd 6146 913b
000001d0: 9bf1 cd3d 9d54 2e3c 1b09 973c d016 043e
000001e0: 0b19 82bc aee2 d93d f0c8 57bd 91f5 b53c
000001f0: 73b3 b4bc c75e ce3b bf28 0a3d de51 e1bd
00000200: 325b e43d ba51 3cbd c946 603d 45a8 a03d
00000210: 8108 383c c58a d03d 65aa 8fbc 5348 84bc
00000220: 37a9 71bd 7ab8 123d 92ed 903c b638 653b
00000230: a6f7 e13d 6527 2dbd 2f93 8fbc a7f9 d3bd
00000240: e972 ecbc 21b5 1a3d 164b 0abd 109b 393d
00000250: 3daa bbbd 950f b2bd ff5c 34bc 5214 c5bd
00000260: 9556 c53d 5191 693d 520c 7d3b 4ff3 77bc
00000270: a818 833d 02fe 993d 1c50 6bbd 09be f1bd
00000280: cb32 01be 8966 3d3d f2f3 a43d 3196 ac3d
00000290: 25ac 12bd 4756 fbbc 73a4 443d 0f7c cdbd
000002a0: f301 95bd 6123 acbd 589a 44bd 67ba ee3d
000002b0: fc5f 153e d306 a2bd 504c 173d 3f3a 8739
000002c0: 462d 3b3d e25b a2bd ab9c 93bd 25b7 f33c
000002d0: 49ea 86bd c5f4 48bd 30d8 553c b9de 3f3d
000002e0: a3b4 a2bd 7729 573c 4ee9 e6bd 2696 81bc
000002f0: d5a6 e33b 1ea1 4cbd cdf2 86bd 3b1c 5fbd
00000300: 3774 a3bd 428e f23d 3ccc 58bd 6cad f83c
00000310: 2e32 563d efb8 0fbd acc6 123d f860 593c
00000320: dee2 623d 5ff7 da3d 0546 99bd 9480 40bc
00000330: 80e5 debd 3b90 dabd 0a0b c4bd e0d8 3c3c
00000340: 0f9f ef3d 459b a53c bd7e ccbd fffc cbbc
00000350: 5672 043d 53ac 12bd e02d a83d 2fed 29bd
00000360: 4763 e7bd 42cb cd3b b49e 49bd a257 36bd
00000370: 318d 4cbc fa43 e73d cf25 95bd 24ec 103d
00000380: 08f9 e3bc 6188 72bc 1602 023d f076 aaba
00000390: bce0 2d3d 08be 4abd 4521 b53d fc61 003e
000003a0: 9858 fdbd 7a05 d5bd 054f 67bc bea9 5dbd
000003b0: 5968 2f3d be47 c5bc 22ef 953d 6e2d 353d
000003c0: 6268 063e f456 b73c 9998 af3d c6f1 2dbd
000003d0: db9c d8bd a802 8ebd 38e2 b5bd 164e 993d
000003e0: d783 f33b 31b3 213d 7f56 a63d 81e1 b1bd
000003f0: 7854 313d 69d9 753a f668 843d 23d8 09bd
0.07673793 0.070302 0.020305958 -0.007259841 0.06639449 -0.11839087 -0.023105618 -0.10419635
0.056845173 -0.117150195 -0.0030775731 0.09863223 -0.112559885 -0.10475073 -0.038065992 -0.105317146
-0.09225953 -0.040742654 -0.0703118 0.031362142 -0.06394342 -0.05288659 0.10491242 -0.09423673
0.08934204 -0.006934426 -0.06785664 -0.030287825 -0.04045983 -0.027304636 -0.029665595 0.06995674
0.095542334 -0.07112236 0.042120844 -0.042289525 0.10712367 0.087484285 -0.013457863 -0.065937735
-0.031542983 0.112366274 0.038609944 0.04185812 -0.11189564 -0.042029466 -9.065588e-05 -0.008055687
0.085717134 -0.00711573 0.051528163 -0.030983077 0.05397481 0.04746153 -0.07929851 -0.001447976
0.110633545 -0.064867616 -0.026467087 -0.11366728 -0.103897355 0.087889776 -0.056796484 -0.09881518
-0.07338629 0.1123055 0.10974724 -0.0474383 -0.06986651 -0.10953267 -0.081351876 0.0053485893
0.105755076 -0.041422665 -0.02435623 -0.04280804 -0.089658216 -0.051722452 0.05154957 0.048300374
0.11194541 0.0349728 -0.06960351 0.086201526 0.07976715 -0.029361596 0.080523066 -0.019855252
0.09689081 -0.074730664 -0.022613226 -0.020276813 0.09425207 -0.030527605 -0.039740004 0.013598163
-0.04471023 0.12268919 -0.10266586 -0.017402194 -0.021309324 -0.028051166 0.06380459 0.100670956
-0.124483466 -0.029008022 0.029231869 0.0024812885 0.12500119 0.007241521 0.12298174 -0.07652634
-0.097398296 -0.050450362 -0.071259715 0.0044334386 0.10055848 0.010640291 0.018436959 0.12899327
-0.015881082 0.10638939 -0.052681863 0.022211822 -0.022058224 0.0062979194 0.033730265 -0.11001943
0.111502066 -0.045976378 0.054755006 0.07844595 0.011232496 0.10182718 -0.017537305 -0.016147768
-0.058999266 0.03582046 0.017691407 0.003497643 0.11033563 -0.042273898 -0.017526237 -0.10350352
-0.028863387 0.037770394 -0.033763014 0.045313895 -0.0916333 -0.08694378 -0.0110085 -0.096230164
0.09635655 0.05702335 0.003861208 -0.015133693 0.06401187 0.07519151 -0.057449445 -0.118038245
-0.12617032 0.046240363 0.080543414 0.08427084 -0.0358087 -0.030680789 0.048008393 -0.10033428
-0.072757624 -0.084051855 -0.047998756 0.11656647 0.14587396 -0.07911458 0.03693801 0.00025792603
0.045697473 -0.079276815 -0.072076164 0.029750416 -0.06587655 -0.049061555 0.013052031 0.046843264
-0.0794461 0.013132445 -0.11274968 -0.015818667 0.006947378 -0.04995834 -0.06589279 -0.054470282
-0.079811506 0.1184354 -0.052929148 0.030356131 0.05229395 -0.035088476 0.035834 0.013267748
0.05539214 0.106917135 -0.07484058 -0.011749405 -0.108836174 -0.10672041 -0.09572418 0.011526316
0.1170026 0.02021564 -0.09985111 -0.024900911 0.0323356 -0.035808872 0.08211875 -0.04148596
-0.112982325 0.0062803337 -0.049223617 -0.044517167 -0.0124848345 0.112922624 -0.07282602 0.03538145
-0.027828708 -0.014803023 0.03174027 -0.0013005417 0.04245065 -0.049497634 0.08844236 0.12537378
-0.123704135 -0.10401435 -0.014117961 -0.054116957 0.042824123 -0.02408206 0.073210016 0.04423278
0.13125756 0.02238033 0.085740276 -0.0424669 -0.10576793 -0.069341004 -0.088810384 0.07485597
0.007431488 0.03947753 0.081219666 -0.086855896 0.043293446 0.0009378405 0.06465332 -0.03365339

hidden.0.bias f4 [64]
00000000: d5b5 9c3b b72e 4a3d e26e e03d c6b2 c0bd
00000010: f24d f9bd e26a db3d fdab ec3c 424f c1bd
00000020: bb4d 20bd a06e 0fbd 4c91 f23d 409f 0abb
00000030: 5409 24bd e743 2ebc 55e5 cc3d 7e6c 163c
00000040: 7112 b1bd 4c51 71bd 016c 4e3c 2ad9 c3bd
00000050: 15c8 733d 750f a2bd 8af8 b0bd 000c a8bc
00000060: 6d44 d5bd b4d1 8b3d eb28 f9bc b9e2 893d
00000070: caa3 c73d 44e0 04bd 9e8f 073d 84a7 3b3d
00000080: f148 e5bb 6aff cb3b f445 b33d d77d 663d
00000090: e30a 7bbd de11 cbbd 0916 693d 9ad9 ea3d
000000a0: ecc5 73bc d1f8 b1bd 6766 8ebc a428 443d
000000b0: 54e9 b2bd bc11 b03d 35d6 c1bd 615b 763d
000000c0: 907a ecbd 3f8f 963d e5df cf3c 61fc d5bd
000000d0: f59e 893b 1bc2 47bd 10df 5939 047c f43b
000000e0: 0884 ee3d 5d01 743d 7157 e8bd 5b76 a1bd
000000f0: 079a 6b3d 0241 b0bd fe79 c93d 147b d73d
0.0047824183 0.049360957 0.10958649 -0.09409098 -0.1217307 0.10713746 0.028890604 -0.09438945
-0.03913663 -0.03501761 0.118441194 -0.002115205 -0.04004796 -0.010636306 0.10004679 0.00918114
-0.086460955 -0.05891542 0.012598992 -0.09562905 0.059516985 -0.079131044 -0.08641155 -0.020513535
-0.10413442 0.06827107 -0.030415019 0.06732697 0.09748037 -0.03244044 0.03309595 0.045814052
-0.0069972207 0.006225516 0.08753577 0.056272354 -0.06128968 -0.09915517 0.05690578 0.114672855
-0.014878731 -0.08690036 -0.017382814 0.04789032 -0.0873591 0.085971326 -0.09464685 0.06014574
-0.115468144 0.07351541 0.025375316 -0.10448528 0.0041998574 -0.048769098 0.0002077783 0.007461073
0.11646277 0.059571613 -0.11344803 -0.07883903 0.05751994 -0.08606149 0.09837721 0.10521522

hidden.1.weight f4 [64, 64]
00000000: 7c44 b53d de5f b5bd 52d9 c7bd ec3f e1bd
00000010: 2a74 8f3d 45c5 8dbc d54f bb3c 0841 ae3d
00000020: 748e c33d 8bf1 bebd 53df 3cbd 6f10 613c
00000030: cb23 ce3d 647e ec3c fe43 833c a844 a8bd
00000040: 205b 963c d7d8 aa3d b65b c3bd 3e84 bf3d
00000050: a2a1 25bc 79a2 4b3d 2841 793d e8e6 ad3c
00000060: 6053 30bd dbfd e53d ae70 0c3e 1eb0 ad3d
00000070: 72ec ec3c 4d89 abbd bfe0 e0bd 71c0 ab3c
00000080: f100 ac3d 571c b03d d4fb c9bd b64f 6f3d
00000090: 11b7 e4bd 602c 6abd 3ea6 863d 7f75 15bd
000000a0: 5a78 74bd 9adb 4d3b 2512 aebd d9ea 5abc
000000b0: 231b 6d3d 33d6 dfbd 3b16 89bd 2001 c93d
000000c0: 899e fbbd 884d 22bd 0602 6abd 18ec f63d
000000d0: 12a7 8c3d eec4 febc f645 73bd b05e 0f3e
000000e0: 8d89 183d 7ebb e43d 61b2 a23d cf83 f6bc
000000f0: 8c16 ee3c 00c2 d9bd 4b53 483d 2bb0 8f3d
00000100: 7bc7 f3bb 036e aebd 8746 8d3c dfc5 1cbd
00000110: fe79 a33d bfc7 973d cff8 f0bc a9e1 f83d
00000120: ef86 6dbd 8313 693d a9ad c83d 2b72 edbd
00000130: 44fb 933d fbb8 933c 9011 e8bd 74ab 85bd
00000140: 51a5 5c3d 15fd 93bc 775c a5bd d305 f43d
00000150: e572 91bd 6316 c33d 0014 863d 8cba 9d3c
00000160: 28ab ffbd 842f 24bd 945e f13d fa60 983d
00000170: e85d 833d 0fe7 debd 3f3d c43d 76b8 06be
00000180: f413 ec3d be22 c43c 89ed d7bd cc16 dcbd
00000190: d6b5 a5bd 851b 36bd a094 33bc 7495 cfbc
000001a0: 0d88 fb3c 9d9f 1b3d e240 d6bd 071a 2ebd
000001b0: f147 da3b 94ef b63c a627 a63c 73c9 41bd
000001c0: 1723 fd3c 873a 6e3d 4963 edbd 3775 473d
000001d0: ee3a 12bc e1e1 b1bd 9141 8bbc ff6a 71bd
000001e0: a962 b8bd 357a e0bd 0ceb f53d 8d45 b2bd
000001f0: 42f2 e83d 7589 7bbd d17b 91bc 4598 e13d
00000200: d689 5d3a 62d2 66bc 9999 d23d 20d0 e43d
00000210: 1c61 913c 11a5 f13d 7ec3 b93b 95e6 953d
00000220: 8098 023d bb5e d6bd cf8f 6dbd 80cc a9bc
00000230: f015 0ebd 4515 d9bc dd1f 89bc a089 af3d
00000240: 1589 513d 40eb 8c3d d949 28bc b9a6 773d
00000250: 7651 a63d c4a7 c4bd 0bc1 63bd e4de cdbd
00000260: f657 6d3d 87a0 e8bd 58dc 7f38 f1f4 5fbd
00000270: 656a 90bd b164 43bd fd68 b93d c9fe b93c
00000280: 4804 25bd 079e d0bd 3389 db3d 3fe0 183d
00000290: 3959 3a3d 69ab 3cbc db46 973d c1dd 733d
000002a0: 324c 33bd 8f11 b7bd 0df9 0dbe e0a6 80bd
000002b0: e06c 6dbd e1fb 503d db20 21bd 1e70 13bd
000002c0: 6a34 23bc 6fb9 823d 3dd5 833d a9ac bcbd
000002d0: 3d27 b93d 61ac adbc cbad a73d 9669 6b3d
000002e0: c6f7 3abc 10c6 a2bd 23e7 ad3d 894e babd
000002f0: 7d94 d93d 2b8b 83bc 7a72 c43d f99b 8ebd
00000300: 6210 f83d 6f5f 763c e04f a5bd 39d0 d63d
00000310: 6b5b 69bd e9c1 9a3b bd63 9a3b 548f e3bd
00000320: 0ea0 d2bd 4c71 4fbc a672 c53d 3172 803d
00000330: 3c31 5dbd 43fe e83c 4306 b53c 5a17 5dbd
00000340: 3a62 c13d c9cc 9d3d 7718 703d dde1 91ba
00000350: 17dc 0d3d 7bb4 eabd 34c9 ac3d 338c a6bd
00000360: 6d30 1bbd da76 24bd b4be d63d adba 64bd
00000370: 7731 973d 5321 b1bd 80e3 ebbc a62b a2bc
00000380: 9063 da3d feec d83d 5fc5 a5bc 6871 e93d
00000390: a56a a53c 676a 38bd 85f8 a03c 22e8 06be
000003a0: 76ba 073c c50a 7cbd 585c 04bc dc24 24bc
000003b0: 2454 633b 4a8b 8bbd 7466 c73d 9acf 703d
000003c0: 5f2d 2cbd 257d 00bd 8c1a 1bbd 99f6 f0bd
000003d0: ba14 eabd f3ee bebb 9ade ad3d dfbd 033e
000003e0: fd9e e33c 7a08 983d c0db e93d 64a7 043d
000003f0: ed8c b2bd 2805 a63d af92 f8bc 3af2 c03c
0.08850953 -0.08856176 -0.097582474 -0.1099852 0.070045784 -0.01730598 0.022865215 0.085084975
0.09548655 -0.093234144 -0.046111416 0.013736828 0.10065421 0.028868861 0.016023632 -0.0821622
0.018353999 0.0834214 -0.09538977 0.09351395 -0.010109337 0.049715493 0.060853153 0.021228269
-0.043048263 0.1123006 0.13714859 0.08480857 0.02892134 -0.083757974 -0.10980367 0.020965787
0.08398617 0.085991554 -0.098624855 0.058425628 -0.1116773 -0.057171226 0.06574677 -0.036489006
-0.05968509 0.003141141 -0.084995545 -0.013361656 0.057887208 -0.10929527 -0.06693693 0.09814668
-0.122860976 -0.03962472 -0.057130836 0.1205675 0.06867804 -0.031099763 -0.05939289 0.14000964
0.037240554 0.11168574 0.07944179 -0.030092148 0.029063486 -0.10632706 0.04890756 0.07016023
-0.0074395514 -0.08517077 0.017245544 -0.038274642 0.079822525 0.074111454 -0.029415516 0.12152416
-0.05799001 0.056903373 0.09798748 -0.115940414 0.072256595 0.018032541 -0.11331475 -0.06526843
0.053868596 -0.018065015 -0.08074277 0.119151734 -0.071019925 0.09525754 0.065467834 0.019253992
-0.12483817 -0.040084377 0.117856175 0.07440372 0.064143956 -0.10883915 0.09581994 -0.13156304
0.11527243 0.023942348 -0.10543353 -0.10746536 -0.08091323 -0.04445984 -0.010960728 -0.02533982
0.030704523 0.037994016 -0.10461594 -0.04250529 0.006661408 0.022331037 0.020282578 -0.047311258
0.030900521 0.058161285 -0.11591203 0.04869577 -0.008925183 -0.08685661 -0.016999038 -0.05893993
-0.09003193 -0.10960809 0.12007722 -0.08704672 0.11374332 -0.061410386 -0.017759236 0.11015371
0.000845102 -0.014088245 0.10283203 0.11172509 0.0177465 0.11799062 0.0056690564 0.07319371
0.031883717 -0.10467287 -0.057998475 -0.020727396 -0.03468889 -0.0264994 -0.016738826 0.08571172
0.051156122 0.06880808 -0.010271513 0.060461733 0.08121006 -0.09602311 -0.055604022 -0.10052279
0.057945214 -0.11358743 6.100195e-05 -0.054676954 -0.07051543 -0.04770345 0.09053228 0.022704499
-0.040287286 -0.10186391 0.10719528 0.037323233 0.045495246 -0.011515477 0.073865615 0.059537653
-0.043773837 -0.08938896 -0.13864537 -0.06281829 -0.05796516 0.05102146 -0.039337974 -0.035995595
-0.009961227 0.06383025 0.06437156 -0.0921262 0.09040687 -0.02120036 0.08187445 0.05747374
-0.011411613 -0.07947934 0.084913515 -0.09097011 0.10624025 -0.016057571 0.09592147 -0.06963343
0.121125 0.015037402 -0.080718756 0.10488934 -0.05697195 0.004722823 0.0047115968 -0.11111322
-0.10284434 -0.012661289 0.09641008 0.0627178 -0.05400203 0.028441554 0.022097712 -0.053977348
0.09442563 0.07705075 0.05861708 -0.0011129935 0.034633722 -0.11460205 0.08436814 -0.0813221
-0.03788798 -0.04015241 0.104855925 -0.05584209 0.073824815 -0.08648934 -0.028795004 -0.019796204
0.10663521 0.10592078 -0.020235715 0.11398584 0.020192454 -0.04502335 0.019649753 -0.13174489
0.008284202 -0.061533708 -0.008078657 -0.010018554 0.0034687603 -0.06813677 0.09736338 0.058791734
-0.042035457 -0.031369347 -0.037867114 -0.11765785 -0.114297345 -0.005826825 0.084897235 0.12865399
0.027785772 0.07423492 0.11418867 0.0323862 -0.08718286 0.08106452 -0.030343382 0.023553003

hidden.1.bias f4 [64]
00000000: dbe1 b03d 9382 683d c98b 853d a3b4 73bc
00000010: e971 85bc 5a77 c83d f9cc d1bc 74fe 82bd
00000020: e7a1 95bd b805 1ebd fab4 ba3d 001c 943b
00000030: da5f aabd 1fac f23d bbcf 973d 1977 bf3d
00000040: 0bad f63d 754b e13c 78a3 ec3d 6935 8fbd
00000050: acc0 ebbd b251 453b 46ff a5bd 5771 113d
00000060: 56c6 733d 92ef aebd 7d60 9d3c 4410 ddbd
00000070: cfd2 823c c9ff 11bc 2a93 91bd 9eef d03d
00000080: 4e3f c93d bc79 b9bd 3b47 583d 431c b5bd
00000090: c049 063c b585 10bd 4173 e63d 7c24 12bd
000000a0: 00f9 f2bd 8a66 4f3c 09b2 333d c987 ffbd
000000b0: 3903 0fbd d53e c5bd c3e5 bbbd f044 5ebd
000000c0: 757c 2e3b c03a 2e3d ee10 083e 5874 75bc
000000d0: a680 cfbd abb9 d73d 2359 88bd 64cd 08be
000000e0: a155 e13d 8151 f9bc 5fb8 813d f1bf 803c
000000f0: a42d b93d d3d1 e03d 211a c4bd 729a 91ba
0.086368285 0.05676515 0.065208025 -0.01487461 -0.016289668 0.097883895 -0.025610434 -0.06396189
-0.07306271 -0.038579673 0.0911655 0.0045199394 -0.083190635 0.11849236 0.07412668 0.09348888
0.12044724 0.027501801 0.11554617 -0.06992609 -0.115113586 0.0030108509 -0.0810533 0.03550848
0.05951532 -0.08541788 0.019211048 -0.10794118 0.015969662 -0.008911082 -0.071081474 0.10201953
0.098265275 -0.09056422 0.052802306 -0.08843281 0.008196294 -0.035283763 0.11252452 -0.035679325
-0.11863899 0.012658725 0.04387096 -0.12477071 -0.034915183 -0.09631125 -0.09174683 -0.054264963
0.0026624475 0.042536497 0.13287708 -0.014981352 -0.101319596 0.1053346 -0.066576265 -0.133596
0.110026605 -0.030434372 0.06333994 0.015716525 0.090419084 0.10977521 -0.09575296 -0.001110865

hidden.2.weight f4 [64, 64]
00000000: 7abc 2abd e8aa 633c 0dd2 ec3c 0148 cfbd
00000010: bf37 c5bd 99da fbbd 0935 c93d 15ea cabd
00000020: 89f1 e83d 6a78 cbbd 40ae 893c 4416 b6bd
00000030: 17ce 053e 0f16 a03d 9b6e d1bd 1477 063e
00000040: 620d d43d 4d7d 9f3d 763d a93d dbff bcbd
00000050: 2895 823d d50d a63d ed38 0fbe b1d9 48bc
00000060: 6309 c63c e49e 9bbd a909 b6bd 1934 0cbd
00000070: 6dbe 41bd 7c83 b23a 801f f5bb 6543 4a3d
00000080: 6405 ebbd c3e4 3ebc dab1 b43d 0a08 b3bd
00000090: d0fc 663c edec 8dbd 249f 3fbd 50f0 113d
000000a0: 1e69 dcbd 36fd fd3c 8460 0fbe 2232 77bd
000000b0: 5a97 673c 359e 793d 30cf f0bd bb36 ecbd
000000c0: 446e 103e 1379 ae3d 930d c1bd 43ab f03d
000000d0: 4e0c e6bd 3e51 813d 4fc6 4abd 22f8 ed3d
000000e0: 9d02 19bc 15ec 883d 021b f9bd c1e9 00bd
000000f0: d0f9 d6bd 8da5 a93b 7d0e ac3d 8786 97bc
00000100: 7c0f c63a ccee ddbd d4b4 00be 6d8f 9dbd
00000110: 8241 aebd 97c3 153e 9799 52bd df84 5ebd
00000120: 634f 233d 1273 44bd ae86 a7bd f5d0 2ebd
00000130: fa6c 83bd 5c68 c83c 2f4a 9a3d 96b7 bebd
00000140: ffbb be3d 4051 b73d 6292 593c 3588 acbd
00000150: 00d9 bfbb 6672 b13c 3462 113e fbcb a53d
00000160: 9580 9fbd 40cb 98bd cef7 b6bd 0d7e f1bc
00000170: d3d2 1abd 2a50 173d 88a6 cabd 85e6 1e3e
00000180: a616 9d3d 0a16 f5bd 07d4 14bd b5b3 073e
00000190: 60fc 3fbd 8985 e83d 2010 6fbd 74c2 803d
000001a0: e64c e7bd f53f 6a3d 6401 9c3c 92cb 953c
000001b0: 1f63 8ebc 1a0c b43d 76a9 33bd 1d95 f7bc
000001c0: fa54 073c df65 b5bd c742 ff3d 4deb 26bc
000001d0: f009 e3bc 277a d03d 52b8 9fbd 69ec 0f3d
000001e0: 33a5 e03c f9e1 20bd 9510 123e 39d3 343d
000001f0: fe7b a8bc 08b9 863c dad3 393d 4dab f7bc
00000200: 0d30 d5bc ce58 b73d 76f5 42bd de31 073e
00000210: bd1a 61bd ccef 32bd eaca cbbd 8000 283d
00000220: 566b 92bd ff8c b53b 9cd4 9d3d 14d7 ca3d
00000230: 9040 a4bd 6f95 c8bc 8e66 063d 16df f23d
00000240: 7ea0 f83d e852 c23b 8e23 a6bb 9550 16bd
00000250: 1067 10bd 50bc 433c 9e81 dcbc 51fa c33c
00000260: 0df0 9b3d e246 eabc e90b cb3d e5f1 ca3c
00000270: 59d6 a03d 42c5 febd 78af 73bd 17cb 49bc
00000280: 233f d2bd 9f6b 2e3d 5a6a 26bd c05c cb3d
00000290: 7003 023c e86b 843d 3bfb 53bc fe5c 3bbd
000002a0: 2858 c33c 6cc3 a03d 7b68 9fbd f0b6 ea3c
000002b0: b33f 7a3d ea32 cf3d f031 603d 9f7d c33d
000002c0: a19c 58bc 6b19 933d d869 9a3d 304f dabd
000002d0: 3833 55bd f598 54bd 830b bbbd c7de 4dbd
000002e0: 7e07 923d 2bf3 ddbd 6185 7c3d 4952 7b3c
000002f0: 485c 3abc 3ad0 eb3d 4c29 213d 423e 103d
00000300: 0b9e 9dbd 6c03 e73d 6f1c d3bd 042c eebd
00000310: 7696 f2bd d86b 363d 8209 ddbd 4d44 283d
00000320: 0cd3 1ebd 5200 9fbd 17ef 0bbd 41c0 cd3d
00000330: 0645 a2bd bf63 743d 4b63 013c bd89 06bd
00000340: 6e0c 4fbd cbc2 55bc 8e6b a0bc 6f12 813b
00000350: 2004 4dbd 3f60 bc3d 8c25 eb3d de3e 203c
00000360: 53ce 93bc 602d 12bd 0621 1e3d d04e cdbc
00000370: 9bde 003d a705 0a3c c0cd 41bc 1c97 9cbd
00000380: 3eb0 ab3c 6c5b 91bd 116c a43b 577b c23d
00000390: 049b 0abd e7cd c53c c8d9 1ebd 276f f23d
000003a0: 3a57 abbd bb8b 483d f803 01be b895 cd3d
000003b0: f277 8cbd 1782 9c3c eb79 eb3d 6583 42bd
000003c0: a2ad b83d 37ba bebd dc1b 98bd be3d e33d
000003d0: 94fd d7bd bb39 f63d 5871 82bd 0116 24bd
000003e0: 59cb b63d 7c52 be3b 29f0 ffbb 4fc7 acbd
000003f0: 0079 a93d 786d 98bd 6aea f13d 6c4b d6bc
-0.04168365 0.013895728 0.028908754 -0.101211555 -0.09629773 -0.122975536 0.09824569 -0.09907929
0.11374194 -0.099350765 0.016806722 -0.088909656 0.13066898 0.07816707 -0.102261744 0.13131362
0.10354115 0.07787571 0.08263676 -0.09228488 0.063761055 0.08108107 -0.13986559 -0.012258933
0.024174398 -0.07598665 -0.08888561 -0.03422937 -0.047300745 0.0013619508 -0.0074805617 0.04938068
-0.114756376 -0.011651221 0.08822985 -0.08741768 0.014098361 -0.06929956 -0.046782628 0.03562957
-0.10762237 0.03100453 -0.14001662 -0.060350545 0.014135206 0.060941894 -0.11758268 -0.115338765
0.14104563 0.08519187 -0.09426417 0.117514156 -0.11232816 0.06314324 -0.049505528 0.11619593
-0.009339002 0.06685654 -0.121633545 -0.031472925 -0.10496867 0.005177206 0.08401201 -0.018496765
0.0015110816 -0.108365625 -0.1256898 -0.07693372 -0.085085884 0.14625393 -0.051416006 -0.054325934
0.03987063 -0.047961302 -0.08179985 -0.042679746 -0.0641727 0.024463825 0.07533681 -0.0931236
0.09313201 0.08951044 0.013279529 -0.08424417 -0.005854726 0.021660995 0.14197618 0.08095547
-0.07788197 -0.07460642 -0.08933984 -0.029479051 -0.037798714 0.036941685 -0.098950446 0.15517624
0.076703355 -0.11967094 -0.036335018 0.13252147 -0.046871543 0.11353595 -0.058364987 0.06287089
-0.11293964 0.0571899 0.019043632 0.018285546 -0.017381249 0.08791371 -0.043862782 -0.03022247
0.008260006 -0.08857321 0.12463909 -0.010187936 -0.0277147 0.10179549 -0.07798828 0.035137568
0.027422523 -0.039278004 0.14264138 0.04414675 -0.020566937 0.016445652 0.045368053 -0.03023305
-0.026023889 0.08952485 -0.04759737 0.13202617 -0.05495714 -0.04368572 -0.09950812 0.0410161
-0.07149379 0.0055404897 0.07706568 0.09904304 -0.08020127 -0.024485318 0.032812648 0.118589565
0.121399865 0.0059302934 -0.0050701564 -0.036697943 -0.035254538 0.011946753 -0.026917275 0.023923071
0.076141454 -0.028598253 0.09914381 0.024773547 0.078533836 -0.12439968 -0.059493512 -0.012316487
-0.102659486 0.042583104 -0.04062877 0.099298 0.00793539 0.06465894 -0.012938316 -0.04574298
0.023845747 0.07849774 -0.077836 0.028651685 0.061095905 0.10117133 0.054735124 0.09545445
-0.013220937 0.071825825 0.07539719 -0.10659635 -0.0520508 -0.051903684 -0.09133055 -0.050261285
0.07130335 -0.10837396 0.061650638 0.0153394425 -0.011374541 0.115143254 0.039346024 0.035215624
-0.0769616 0.112799495 -0.10308158 -0.11629489 -0.118451044 0.04453644 -0.10792829 0.04108076
-0.03877549 -0.07763733 -0.03416356 0.10046435 -0.079233214 0.059665438 0.007897208 -0.0328462
-0.050548963 -0.013046931 -0.019582536 0.003938965 -0.050052762 0.09198045 0.11481771 0.009780614
-0.018042719 -0.035687804 0.038605712 -0.025061995 0.031462293 0.008424199 -0.01182884 -0.07646009
0.020958062 -0.070975155 0.0050177653 0.094961815 -0.03383924 0.024146033 -0.03878191 0.11837607
-0.083662465 0.048961382 -0.1259917 0.10038322 -0.06858815 0.019105 0.114978634 -0.04748859
0.09017493 -0.093128614 -0.07427189 0.11095761 -0.10546413 0.1202273 -0.06369275 -0.040060047
0.08925504 0.0058081727 -0.0078106117 -0.084364526 0.08275032 -0.074427545 0.11812289 -0.02615901

hidden.2.bias f4 [64]
00000000: c931 a73d fbf4 623d 3860 a0bd ad25 1abd
00000010: 5772 bbbd 74e1 8ebd 1234 043c 0ad7 8abd
00000020: ccb9 b23d 3419 bc3d d24a 97bc fe4e d4bd
00000030: c402 053e 38bc aa3d 39c6 84bd c09f b4bd
00000040: e5de 1dbb e5eb 81bd d91a bc3d a59c bc3d
00000050: cbf5 8f3d 6059 ad3d f294 eb3b 00da d83d
00000060: 4ac9 013d bbba 94bd a767 963c 2cde d4bd
00000070: 4afb d7bd d32d 693d 46e6 e33d 7672 9a3c
00000080: feb3 84bd aa73 143e 4bd3 9a3c 92fd fd3c
00000090: 0681 e1bd 1cd6 b9bd 7df2 3bbd 8610 a3bc
000000a0: 94ac c9bd 4530 0f3e 961b 94bd bfc9 8a3d
000000b0: 5632 02bd 99aa 653d c7ac 39bd 4595 683d
000000c0: e72d 18bd 5942 133e f564 863d 208e 31bd
000000d0: 3b14 22bd 5f0d 163d 324c 9c3d 547a a93d
000000e0: 12a3 ffbd 7a29 873d c879 063e 424e 73bd
000000f0: cd7d 7cbd d57f 953d 25c4 b23d f79c 653d
0.08163793 0.055409413 -0.07830852 -0.037633587 -0.09152668 -0.069765955 0.008069055 -0.06779297
0.08726844 0.091844946 -0.018468294 -0.10366629 0.12989336 0.08336681 -0.064831205 -0.088195324
-0.0024089154 -0.063438214 0.09184808 0.09209565 0.07029303 0.084643126 0.0071893865 0.10588455
0.031686105 -0.072621785 0.018359972 -0.103939384 -0.105459765 0.056928467 0.111279055 0.018853407
-0.06479643 0.14497247 0.01889958 0.0310047 -0.110109374 -0.09074041 -0.04588555 -0.01990534
-0.0984737 0.13983257 -0.07231824 0.06776761 -0.031786285 0.056070898 -0.04533079 0.05678298
-0.03715315 0.14380778 0.06562225 -0.04334843 -0.039570075 0.036633845 0.076317206 0.08275285
-0.12482275 0.06599708 0.13132393 -0.059400804 -0.06164341 0.07299773 0.08728818 0.056057896

hidden.3.weight f4 [64, 64]
00000000: 4a5e c83d 65a5 663c ea67 033d 169a 03bd
00000010: 36bb 1d3c deee a2bd 603a 733c 04b6 da3d
00000020: d275 50bd 2903 e13c b897 ea3c 3431 f2bd
00000030: 2915 a13d b320 123b 6ef5 95bd 60d3 3b3d
00000040: 8a32 e23d 0edf 9dbd 1f33 433d d725 d03d
00000050: de63 ab3c a4c5 8d3d 7e02 f53d 6707 033d
00000060: 5f35 ec3d 24ef 7c3d b7ed d0bd b00a 61bc
00000070: 2871 49bd 2fe8 543e cfff f23d c954 dbbd
00000080: 85c0 fa3d d175 a03d b11e d53d 9140 863d
00000090: cfba 223d 9c6b d43d edc3 eabd 29cb a13d
000000a0: 13c4 25bd 5c2d 67bd cf56 cabb 430a df3d
000000b0: 6854 0e3d 83d4 f03d 98fe dabd 373c 043e
000000c0: 424f a53d cb01 b8bd 909c 56bd e25b c43d
000000d0: b48c dd3d 7e11 633c b7f7 80bd d698 e6bc
000000e0: 7605 91bc 9d80 96bc b89b d33d 843d 34bd
000000f0: 40cc 073b 80ab d03c 2b63 46bd eb60 1c3d
00000100: dcc1 c63c 6b91 fd3c 382a e9bd 38bd 99bd
00000110: 8b99 853c 8068 deba 0c44 243d fcbf e2bd
00000120: a4c7 b63d 5273 d0bd 29e2 0e3d a43e bb3d
00000130: 2474 023d e248 023e ed7e 0b3d 2486 f0bd
00000140: 81ba d6bd 93d2 c23d d743 2c3e 73e3 94bd
00000150: dc66 1e3d b2fa 38bd df14 f5bd 0dc2 be3d
00000160: 9138 0dbe c168 7abd 2374 e0bd b873 0d3d
00000170: 120e e4bd 603b 08be f866 f1bc 9049 afbd
00000180: a1d1 9dbd b17b c93c 2652 95bc 3104 0b3d
00000190: 0122 8c3d 18f0 e3bc 5ace 84bd abb2 b33d
000001a0: 7f02 5d3d 2a55 cabd 256a fe3d ac29 9c3d
000001b0: 1f17 97bb 7810 e03d 3492 b03d 1694 083b
000001c0: 99ed cebd aced 913d d8ba 153e 9c64 3f3d
000001d0: abd4 f4bd fefd fdbd 71b8 d13d 989c 25bd
000001e0: 054c afbd 51b0 edbd cea5 1c3c 37cc 97bd
000001f0: bcbb c93c 24fe be3d a2e9 1a3e 21b0 62bd
00000200: 5772 3dbd 952e cc3d 0a74 0a3e 63ca e53d
00000210: e351 7d3d 808f 143c 5440 2b3c e8e3 c23c
00000220: 4410 1fbd 1a19 073e 2814 3c3d 04ca cabd
00000230: 7922 193d 874a 63bd f2a7 b3bd 0094 38bb
00000240: 6774 66bd 324c 153d c801 a13c 6a5a 183d
00000250: a0b9 c03b d08c 52bc 0aed f1bd 45ca c7bb
00000260: 622a 133e d318 253d 21b4 adbd 0060 58bb
00000270: 3677 acbd ac4a be3d 408e 14bd 348f 16bd
00000280: 5828 0e3b 7ed2 fd3b b1cd 233c 460a 7dbc
00000290: 0754 903d a894 953c 4fdb a7bd 2d0b c3bd
000002a0: bc8c 673c b040 30bd d328 81bd 409a 9abd
000002b0: e18c f7bd a7dd e7bc 60c8 96bd 9adc 813c
000002c0: c6df 80bd 33be fb3c 5ba3 d5bd fe7d b4bd
000002d0: 7f94 84bc f841 b63d 873b b43d c73f e43c
000002e0: bc94 a8bd 0b6a ac3d 4525 2abc 2bee 84ba
000002f0: 9f80 abbd 8f1e 823c bb9b fbbd e3c1 0b3d
00000300: 50a4 e8bc 90cc fabd 2023 ed3b 30a2 6a3d
00000310: 7e20 fa3d 9ab2 8fbd ecde f7bd 3e43 c43d
00000320: d06b dd3c 38a1 bd3c 1a76 abbd 9860 e73d
00000330: 0092 303b 4052 543c f0d5 723d 50b9 0cbc
00000340: e67c 80bd d897 593d 8076 123d aea2 803d
00000350: 0873 9dbc c0c0 cd3d 7c42 00bd 44e4 073d
00000360: b4f1 a4bd bcdd d4bd 7cf6 93bd e248 c4bd
00000370: 4cba da3d 2427 3dbd 94a4 b2bd 7841 fb3c
00000380: e8cb da3c 0411 f43d bc24 ac3d 7cd5 6ebd
00000390: fa0b c63d f06c f03d aee8 f0bd 00d8 cfba
000003a0: 982a 8abd 60b9 d3bd c0d7 8b3d 2038 4fbd
000003b0: 0e1f e9bd 00d0 98ba 6037 09bd 54ca 3bbd
000003c0: 70c8 4fbd 10a0 6dbd d856 9ebd 0cf8 aa3d
000003d0: 86f7 b7bd c483 283d 2c8c eebd c0fe d13b
000003e0: 6636 febd 268e 8dbd 3a03 97bd e6d8 ac3d
000003f0: 583c f3bd b261 e0bd f4a9 82bd f002 c33d
0.09783609 0.014077519 0.032081522 -0.03212937 0.009627154 -0.079557166 0.014845461 0.10679248
-0.050893612 0.027467327 0.028636798 -0.11825791 0.07865364 0.0022297322 -0.073222026 0.04585588
0.11044796 -0.0770856 0.047656175 0.101634674 0.020921644 0.069224626 0.11963366 0.03198948
0.11533617 0.0617515 -0.102015905 -0.013735458 -0.04918018 0.20791696 0.11865198 -0.10709531
0.122437514 0.07834972 0.104062445 0.06555284 0.039728936 0.10372087 -0.11463151 0.07900078
-0.040470194 -0.056439742 -0.006174899 0.10890629 0.034748465 0.117592834 -0.10693091 0.12913595
0.08071758 -0.08984717 -0.052395403 0.09587838 0.108178526 0.013859151 -0.06297248 -0.02814905
-0.0177028 -0.018371874 0.10332435 -0.04400398 0.0020721108 0.025472403 -0.048434418 0.038178366
0.024262361 0.03095313 -0.11385006 -0.07506794 0.016308567 -0.0016968399 0.040103957 -0.11071774
0.08924797 -0.101782456 0.034883652 0.09142807 0.03184904 0.12723115 0.034056593 -0.11744335
-0.104847915 0.0951282 0.16822754 -0.07269945 0.038672313 -0.045160957 -0.119668715 0.09314356
-0.1379111 -0.061135057 -0.10959651 0.034534186 -0.11135496 -0.133039 -0.029468045 -0.08558953
-0.07705999 0.024595113 -0.018227648 0.033939544 0.06842423 -0.027824447 -0.06484671 0.087743126
0.05395746 -0.09879525 0.12422589 0.07625136 -0.0046109105 0.10940641 0.08621636 0.002084022
-0.10103912 0.071254104 0.14622056 0.046726808 -0.11954626 -0.12401961 0.102402575 -0.040432543
-0.085594214 -0.11605895 0.009561015 -0.07411998 0.024625652 0.09325817 0.15128186 -0.05534375
-0.04625162 0.09969822 0.13520828 0.11220243 0.06184567 0.009067416 0.010452349 0.023790315
-0.03883387 0.13193169 0.04591766 -0.09901813 0.03738639 -0.055490997 -0.087722674 -0.0028164387
-0.056263354 0.03644962 0.01965417 0.0371956 0.005881503 -0.012850955 -0.1181279 -0.0060971105
0.14371637 0.040306877 -0.084816225 -0.0033016205 -0.08421175 0.09291586 -0.036268473 -0.036757663
0.0021691527 0.00774604 0.009997771 -0.015444344 0.07047277 0.018259361 -0.08196127 -0.09523616
0.014132675 -0.04303044 -0.06306615 -0.07548952 -0.120874174 -0.028303934 -0.07362437 0.015852261
-0.062926814 0.030730342 -0.10431548 -0.088130936 -0.01618409 0.08899301 0.088004164 0.027862443
-0.08231494 0.084186636 -0.010384862 -0.001014178 -0.08374142 0.015883712 -0.122855626 0.03412045
-0.028398663 -0.122460485 0.0072368532 0.05728358 0.12213229 -0.070164874 -0.12103066 0.09583138
0.027028948 0.023148164 -0.083721355 0.11297721 0.0026942492 0.012959063 0.059286058 -0.008589104
-0.062738225 0.053123325 0.03575754 0.06281029 -0.01921989 0.1004653 -0.031313404 0.033176675
-0.08053914 -0.10393855 -0.072247475 -0.09584214 0.106800646 -0.046179906 -0.08722797 0.030670866
0.026708558 0.11917308 0.08405444 -0.058309063 0.09670253 0.11739528 -0.1176313 -0.001585722
-0.06746405 -0.10338092 0.068282604 -0.050590634 -0.11382876 -0.0011658669 -0.033500075 -0.045847252
-0.05072826 -0.058013976 -0.07731408 0.083480924 -0.08982758 0.041141286 -0.116478294 0.0064085424
-0.124127194 -0.06911878 -0.07373662 0.084398076 -0.11876744 -0.10956134 -0.06380072 0.09522045

hidden.3.bias f4 [64]
00000000: 79eb 61bd e4a0 b53d dfcd f83c 48f2 85bd
00000010: 5749 0e3e 6ecd 153d e3b0 a6bc 1127 263c
00000020: e95c 9dbd a067 58bd 8bf5 133d e9f7 973d
00000030: 8f89 d2bd 6e80 81bd 28ea c13d 802c 53bd
00000040: b4c5 033e 43f7 d6bd 529c febd c03d 073d
00000050: 0bf8 313d 0c0c 43bd c2d0 cb3c ac4a b13d
00000060: 961e 81bd 80c1 91bc 78b8 d1bd 47f5 ca3a
00000070: 6c12 6b3d a175 b13d 8aa2 9fbd 57ea c5ba
00000080: a945 7e3d b3a3 153e 2ae1 113e 6ce8 33bd
00000090: ca7f d83a 6ce0 bc3d 8d0c df3d 088d 573d
000000a0: a0da 70bd 65a0 113e 2b41 223e 6077 c6bb
000000b0: 3763 51bd bc8a ca3d e2df ed3d 313e 703d
000000c0: 66cc 9c3c 722b 8cbd 9f63 9cbd cb3b f0bc
000000d0: 3a64 133e f8e2 013e 4107 e73c b013 0b3e
000000e0: 940f 943d 4afc 14bb 7ba8 d43d 882b 8fbc
000000f0: ba63 d93d f0a4 b9bd 423b e6bd 39eb 873d
-0.055156205 0.08868578 0.030371604 -0.06540352 0.13895164 0.036572866 -0.020348018 0.01014115
-0.07683737 -0.0528332 0.03612284 0.07420332 -0.102801435 -0.06323324 0.0946849 -0.05155611
0.12868387 -0.1049638 -0.124321595 0.033017874 0.043449443 -0.04761891 0.024879817 0.08656821
-0.06304662 -0.017792463 -0.10240263 0.0015484475 0.057390615 0.08665014 -0.07794674 -0.0015099746
0.06207815 0.14613228 0.1424605 -0.043922827 0.0016517576 0.092224926 0.10891066 0.052624732
-0.058802247 0.14221342 0.15845172 -0.006056711 -0.05112001 0.09889743 0.11614968 0.05865306
0.019140434 -0.06844224 -0.07636189 -0.029325387 0.14393702 0.12684238 0.028201701 0.13581729
0.07229534 -0.0022733384 0.103836976 -0.017476812 0.106147245 -0.090646625 -0.11241771 0.06636662

hidden.4.weight f4 [64, 64]
00000000: 649b f63d 04f8 333a 0c98 0abd f831 a1bd
00000010: 4603 a43c 1fb9 bc3d a7d4 56bc 5029 eebd
00000020: 5a49 49ba fe0d a33d bca2 9dbc 7c0d 9dbc
00000030: f499 4b3d 7490 6fbd 153d d4bd b8be ee3d
00000040: c4e5 c93a 8650 403d 18f7 22bd 924c 763d
00000050: 8e53 44bd 65b5 44bd 3bd6 493d bc7c f83d
00000060: 66de a53d 8a5b a1bd d089 12bc 1460 c83d
00000070: 7d58 ddbd 657c c33d c0bc eabd ced1 abbd
00000080: e24c 323c 3ce0 3abc c570 853d 4a31 f0bd
00000090: f576 debd 6008 a0bd f62c d6b9 751a 97bd
000000a0: 847c 10bd 04fc a7bd f447 d7bc 7e42 89bd
000000b0: 8e32 9e3c 1ccd fa3d e954 f63d 801d 4b3b
000000c0: 114b b7bc f88f 843d f0bd 403d 97b0 11bd
000000d0: 7690 f63d 9525 9bbb 68c3 dd3d 7ba6 c13d
000000e0: 2746 ba3c 5e96 d33d d678 993d 0b38 0abd
000000f0: 2fe3 a4bd e0a6 7c3c 7420 85bd c30f f0bd
00000100: 76ff 74bd fc87 223e 300c 0abe d8cc ff3d
00000110: 8959 c1bc efd0 4dbc f8a3 8abd b345 743d
00000120: 01ea cc3d c04f 663b 6dc5 63bd df48 d43d
00000130: ed91 b73d 8c75 1bbc c893 94bd 2a1c a9bd
00000140: 0012 0fbd 720e 81bd 124e 9fbd a4a0 a9bc
00000150: 716e cd3b 6138 dfbd 59e2 bebc b822 e6bd
00000160: e330 7b3d 8023 e8ba 08eb dc3d 99b5 c6bd
00000170: f428 06be da8b f13c e026 18bd df28 23bd
00000180: 0448 4f3d 1bb9 16be dace 43bd 5a82 87bd
00000190: 000c 0b3d 4198 b23c 6049 b83d 2c95 073e
000001a0: 40fb eabc 8dc3 f63c f59a 993d a8bb ce3c
000001b0: fd65 4f3d 2fe9 993d 07f3 5cbd c989 903d
000001c0: b923 b03d f662 b5bd dc1f dabd bab7 543b
000001d0: d88f 3fbd 7dcc 9fbd 41bc d53d 351c 753d
000001e0: e0ee 06be b1f3 e5bc 53aa 9ebd 2ce6 993d
000001f0: 414f 0b3e cf14 fbbd 180f b13d aa20 9d3d
00000200: 69b5 0c3d 397f 6fbd 5984 f4bc 8046 383b
00000210: 81fd a93d 89ad d9bc cbc8 9fbd 6bb3 143e
00000220: 2a22 f93d 3831 e73c dd7a 203e c1b3 193d
00000230: d76b 32bd ecb0 1abd ec03 823d c07a 2c3b
00000240: deea afbd 1959 b6bd d828 a9bd 15ca 393e
00000250: 81b2 833c 8bc4 b3bd 7030 933d 9046 0b3e
00000260: 9aeb d53d a2ac dbbd 901f 8dbc 76a4 f0bd
00000270: e768 243d 39ae ddbd d02e 63bd 01f9 14bc
00000280: 0c94 e43d a6ef 753d 16be 123e 407b 143d
00000290: a4d2 6b3d f1fa a3bd 2f62 013e 98c7 9c3d
000002a0: 901f 463d 40c0 b6bd 693d 383e 90d6 7c3d
000002b0: a769 c5bd e266 80bd afea a03c abd4 84bd
000002c0: cb0c e93d 7871 2c3d 0000 1c37 3752 f53d
000002d0: c622 5ebc c3a8 8ebd 8265 193d f600 d3bc
000002e0: f1f4 bc3d 70c8 383d b7e6 183d 7668 36bd
000002f0: b4b6 bcbd 176d 9abd 68fe 883d 5460 cc3d
00000300: dc48 94bd 8676 ccbd 0cf0 e8bd 609a a0bd
00000310: 2033 f1bc 9481 1f3d 3ea5 a6bd 0a58 a8bd
00000320: 00d0 1439 9677 f83d fca8 35bd c07e 2cbb
00000330: 883c 85bd d467 733d 245a 0cbd 1898 ca3c
00000340: 70b2 b13d d070 bd3c 2869 f03d dedd bcbd
00000350: 6065 103c 0ca7 523d 5e0d ad3d f200 f1bd
00000360: 0088 9cbb 2a14 a13d f46f d0bd c0d8 da3b
00000370: c6b8 ea3d bc2b 663d 948e 6a3d c6e5 febd
00000380: ce60 e7bd 8cd6 afbd f880 be3d 34bc a43d
00000390: 38bb d13d 8e8f f8bd c00c f5bd 80be 463b
000003a0: 964b f43d 4821 ecbc 96fa c83d 7805 afbd
000003b0: 007d ab3a 807f 513b 609b 4f3c a890 d2bc
000003c0: 0012 92bd b0fc 46bc 22e9 8d3d 3c0e be3d
000003d0: 400e e3bb 50ff 883d 0c8a c1bd a4b7 3abd
000003e0: e802 a73c d232 eabd 0641 a13d 40fc 91bc
000003f0: ac27 0e3d 6a18 d43d 60ce f33b 387c a2bc
0.12041357 0.00068652653 -0.03383641 -0.07870859 0.020021092 0.092149965 -0.013112224 -0.116289735
-0.0007678472 0.07961653 -0.019242637 -0.019171469 0.049707368 -0.05848737 -0.10363213 0.116574705
0.0015403559 0.046951793 -0.03978643 0.060131617 -0.047931246 -0.048024554 0.04927657 0.12133166
0.0809906 -0.07878788 -0.00894399 0.097839504 -0.108078934 0.09545211 -0.114617825 -0.083896264
0.010882588 -0.011406001 0.0651565 -0.11728151 -0.10862533 -0.078140974 -0.0004085076 -0.07378093
-0.035274997 -0.08202365 -0.026279427 -0.067021355 0.019311216 0.12246153 0.12027914 0.0030992925
-0.022374662 0.06472772 0.04705614 -0.0355688 0.120392725 -0.0047347047 0.108282864 0.09455582
0.02273853 0.10331415 0.07493751 -0.033744853 -0.08051144 0.0154206455 -0.065003306 -0.11721756
-0.05981394 0.15872186 -0.13481212 0.12490243 -0.023602264 -0.012562021 -0.06769556 0.059636783
0.1000557 0.003514275 -0.0556082 0.103654616 0.0896338 -0.009488475 -0.072547495 -0.08257325
-0.034929276 -0.06301583 -0.077785626 -0.020706482 0.006269269 -0.10899425 -0.02330129 -0.11237091
0.06132592 -0.0017710775 0.10787016 -0.09702606 -0.1310156 0.029485632 -0.03714645 -0.0398339
0.05060579 -0.1471905 -0.04780469 -0.066166595 0.03394699 0.021801116 0.0899837 0.13240498
-0.028684258 0.030122543 0.07500259 0.025235966 0.050634373 0.07515179 -0.053942706 0.070575304
0.086005636 -0.08856766 -0.10650608 0.0032458142 -0.04676804 -0.07802675 0.10436297 0.059841353
-0.13177061 -0.028070303 -0.077473305 0.07514605 0.13604452 -0.12259828 0.08645457 0.07672246
0.034352694 -0.05847094 -0.029848265 0.0028118193 0.08300305 -0.026572006 -0.0780197 0.14521568
0.121647194 0.028221712 0.15671869 0.037524942 -0.043559875 -0.037766382 0.06348404 0.0026318282
-0.08589719 -0.08903713 -0.082597435 0.18143494 0.016076328 -0.08777722 0.07186973 0.13601136
0.10445328 -0.107262865 -0.017226964 -0.117501184 0.040139105 -0.10824246 -0.055464566 -0.00909257
0.1116105 0.060043 0.14330325 0.036250353 0.05757393 -0.08006848 0.1263511 0.07655257
0.048369944 -0.089233875 0.17992176 0.06172806 -0.09639292 -0.06269623 0.019643156 -0.06485876
0.11379393 0.0421004 9.298325e-06 0.11978572 -0.013558095 -0.069657825 0.03745032 -0.025757294
0.09226406 0.045113027 0.0373294 -0.044533215 -0.09214535 -0.075403385 0.06689149 0.09979311
-0.07240459 -0.09983544 -0.1137391 -0.07841945 -0.029443324 0.038941935 -0.08136986 -0.08219917
0.00014191866 0.12132184 -0.04435061 -0.0026320666 -0.06505686 0.05942519 -0.034265652 0.024730727
0.086766124 0.023125082 0.11738807 -0.09222005 0.008813232 0.05142884 0.08449815 -0.117677584
-0.0047769547 0.07865174 -0.10177603 0.0066786706 0.11461024 0.056194052 0.05726488 -0.124461696
-0.11297761 -0.085858434 0.093019426 0.080437094 0.10240787 -0.12136756 -0.119653225 0.003032595
0.119284794 -0.028824463 0.098134205 -0.08545965 0.0013083518 0.0031966865 0.012671322 -0.025703743
-0.071323395 -0.012145206 0.06929232 0.09280059 -0.006929189 0.06689322 -0.094501585 -0.04558529
0.020387128 -0.114354745 0.0787373 -0.017820477 0.034705803 0.10356219 0.0074403733 -0.019834623

hidden.4.bias f4 [64]
00000000: fd18 90bd 50a6 0c3e 11a4 02bd 6ecc a1bd
00000010: 0295 7abd 9eba d3bd 56a8 df3d 8ec6 d43d
00000020: 7c79 f03b 25e1 293d 33c6 a0bc f2b7 c9bd
00000030: 1cb3 fdbd 6452 bf3b 3d31 0a3e 80c4 023e
00000040: f098 e3bd dc7c 0a3e 47c9 01be 61af be3d
00000050: dc73 223d 8675 b13d e87e 713d ca20 923d
00000060: c7db 71bd 94d1 debd 9bc1 753d 6c06 123e
00000070: dcdb 183c 3bef de3d a85d e03d f135 f13c
00000080: ab03 3e3e 543b 3ebd 22f1 c0bb a3cd f53d
00000090: 9e7b c2bd 2831 ee3c 12ea b5bd f591 ef3d
000000a0: ca0d a43d 9630 be3d 64b7 ff3d c6ad debd
000000b0: 70f1 af3d bc32 e6bd 5d2f c73d 3121 c33d
000000c0: 355c 76bd 2c8e b43d 15a9 84bc b198 cebd
000000d0: 1a17 803d 6492 c9bd 7988 7b3d 3017 a4bd
000000e0: 5f70 b03d b1aa 173e 7c39 d03d 40d4 763d
000000f0: 3341 cebd f4bb a23d 3397 a0bb 0328 333d
-0.07036016 0.13735318 -0.031894747 -0.0790032 -0.06117726 -0.10338329 0.109207794 0.10389434
0.007338701 0.04147448 -0.019625759 -0.09849538 -0.12387678 0.005838679 0.13495345 0.12770271
-0.11113155 0.13524193 -0.12674437 0.093107946 0.039661273 0.08664994 0.058958918 0.0713516
-0.059047487 -0.108798176 0.05999909 0.14260262 0.009329762 0.10885473 0.109553635 0.029444667
0.18556087 -0.0464433 -0.0058881203 0.12002113 -0.09496234 0.029076174 -0.08882536 0.11697761
0.080104426 0.09286611 0.12486151 -0.108729884 0.085909724 -0.112401456 0.09725831 0.09527815
-0.06014653 0.0881618 -0.016193906 -0.10087717 0.06254406 -0.09842375 0.061409447 -0.08012235
0.08615183 0.14811207 0.10167214 0.06026101 -0.100710295 0.079460055 -0.004900837 0.04373933

out_layer.weight f4 [1, 64]
00000000: 908d c9bd e96c 16be c02d 8f3d d63d 953d
00000010: 02fa 403d 3c7c 153d 3bfc 673d 5293 703d
00000020: eb3d d53d ed5d a83c a6e4 b23d 5a9d 10bc
00000030: 5c23 63bd 952e ad3d 9040 b53d f57c d13d
00000040: 9b98 ae3c 0a3d ac3d 92fa 82bd 9a90 193e
00000050: 6701 853d d109 d43c a725 2b3d 974a 1cbd
00000060: 3d50 8c3c f4ec 9ebb feb3 acbd fec0 71bd
00000070: 38cc 093e de1a 1dbd 69bb eebd 5fd1 ef3d
00000080: 4940 21be de8c 98bd 560a 23be 3afe e3bd
00000090: f4d8 23bd 100f 5cbc 5ee3 2dbc 8d37 77bd
000000a0: 6c1c 163d 705e 293e b54b 1ebe f986 80bc
000000b0: 55bc 66bd a02c ec3b 7635 13be 2e25 19be
000000c0: 0b21 bdbb 62b1 993d d882 d5bd 2930 1d3b
000000d0: 6a1d 6c3d 9874 a4bd 4b2b 7abe 23f5 e73d
000000e0: 9930 22be aa9e 2b3d 8196 d5bd c82b ecbd
000000f0: 7e02 d8bd b913 173e 4604 2e3e 6e8d 70bd
-0.09841454 -0.14689983 0.06991148 0.07287185 0.047113426 0.036495432 0.05663703 0.058734246
0.104122005 0.0205526 0.087350175 -0.008826578 -0.055453643 0.084561504 0.08850205 0.10228912
0.021313002 0.0841008 -0.06395449 0.14996567 0.06494408 0.025883587 0.041783955 -0.038157072
0.017128104 -0.0048500244 -0.08432768 -0.059021942 0.1345681 -0.0383557 -0.116568394 0.11709856
-0.15747179 -0.07448743 -0.15921912 -0.11132474 -0.040001824 -0.013431326 -0.010613291 -0.06035571
0.0366482 0.16539931 -0.15458567 -0.01568936 -0.05633195 0.007207468 -0.14375862 -0.14955589
-0.0057717613 0.07504536 -0.10425347 0.0023985005 0.05764524 -0.08030051 -0.24430577 0.11326053
-0.15838851 0.04189936 -0.10429097 -0.11531788 -0.1054735 0.14753617 0.16993818 -0.058728628
