models/slightImprove.pt (torch_old, 110431 bytes, 13 tensors)

in_layer.weight f4 [64, 96]
0.05801837 0.06921168 -0.04372803 0.0302971 0.01974112 0.070143 -0.08350878 0.059408307
0.09729883 -0.04716002 0.05869183 0.005175129 -0.019890964 0.031482793 0.09039827 0.079472885
-0.03896171 0.10161829 -0.06135231 0.10177018 -0.081357904 0.07871467 0.045581147 0.027423441
0.07691099 -0.09655632 0.022186987 -0.04171803 -0.08274761 -0.020664943 -0.09756612 0.04523882
-0.0077948472 0.06907131 0.012939062 0.06016408 0.0447297 0.10097337 0.012794753 0.049543336
-0.0522992 -0.057993393 0.06403807 0.09501586 -0.04862735 -0.045134805 0.0050816014 0.0748892
0.09416573 -0.03715624 -0.097927205 -0.045242865 0.05840758 -0.001683332 -0.08411498 -0.09856678
-0.07593414 0.05116042 0.0024008006 0.00011547545 -0.043824833 -0.055246755 -0.041737992 -0.017796645
-0.07215823 0.097100645 -0.026198339 -0.077883326 -0.03753052 -0.023385793 -0.06603725 0.019644529
-0.09080146 0.028959481 0.009745498 0.10133423 -0.042713206 -0.0695918 -0.09734882 0.09964775
0.063770115 0.07607497 -0.05364385 0.06441346 0.041002527 0.032634933 0.067155935 0.0025743858
-0.0120635135 0.06516879 -0.086829856 0.02401471 0.021907067 -0.08424383 -0.0043774517 -0.061198454
0.08736817 -0.0053289384 -0.0623942 0.07739879 -0.0040994226 0.068133175 0.054472435 0.09228453
0.01222375 0.090424016 -0.0024243966 -0.07035589 0.07031828 -0.07500126 -0.06964064 0.03628837
-0.058104195 0.061009035 -0.087793715 0.033010826 -0.08065338 0.07892899 -0.04059139 0.06311117
-0.06340636 0.028910961 -0.038247302 -0.064286366 -0.06362541 0.030476931 -0.07469736 -0.08071254
0.0038431955 -0.030065387 -0.025843892 0.01436013 -0.019983195 -0.072416514 -0.0729939 -0.06400576
-0.023175098 0.07743426 0.05165969 -0.06669338 -0.025004067 0.066370375 0.011959486 0.056703553
-0.008810748 0.032789633 0.050176762 -0.029269554 -0.012156693 -0.030948676 -0.03105601 0.005295992
0.015414208 -0.071393125 -0.061112966 0.095380135 0.04618199 -0.0030963488 0.07981026 0.09171753
-0.04860131 0.0002946472 -0.07944787 0.047021464 -0.035982557 0.058026444 0.031179216 -0.089885294
0.06678056 -0.08312058 0.03872517 0.019602539 -0.043710105 0.033733167 0.043813013 -0.05019826
0.09242858 -0.035188705 -0.07186954 0.022229867 0.0619445 0.014701348 -0.048373353 0.06489453
-0.04205259 0.003357933 -0.071883366 0.0094947945 -0.04632586 0.086472176 -0.022688946 0.070596434
-0.07699578 -0.05937008 -0.008562143 -0.06581603 -0.0101615535 0.009120218 0.06808488 -0.055410396
-0.03818451 -0.059524987 0.04956551 0.08625488 -0.06529778 0.03425259 0.0493647 -0.020311937
0.022755014 0.004404232 0.098640725 0.042836398 0.04713316 -0.07535001 -0.009763711 0.08584666
0.07585095 -0.04524483 0.072783425 -0.09142065 -0.0012790561 -0.021516236 0.083613545 0.09340053
-0.010878969 -0.012810625 0.058931787 -0.00141716 -0.09581221 -0.056454755 -0.06797515 -0.04128899
0.060349107 0.078833595 0.037565976 0.07274899 0.09510307 0.07911175 -0.08999315 0.07299343
-0.02348236 -0.015762262 -0.028385557 -0.024178892 0.08431608 -0.033236355 -0.018728739 -0.023854658
0.08975144 -0.0416198 0.059247658 0.006485206 0.003749095 -0.04021983 0.04789968 0.0072336574
00000000: aca4 6d3d dabe 8d3d 2a1c 33bd a031 f83c
00000010: 21b8 a13c 22a7 8f3d a706 abbd 2056 733d
00000020: 9c44 c73d dd2a 41bd d866 703d 2194 a93b
00000030: 60f2 a2bc 1af4 003d ba22 b93d aec2 a23d
00000040: 5096 1fbd 401d d03d 8f4c 7bbd e26c d03d
00000050: f99e a6bd 2835 a13d 4cb3 3a3d 20a7 e03c
00000060: 8283 9d3d 52bf c5bd 7cc1 b53c 86e0 2abd
00000070: 9477 a9bd 8749 a9bc bfd0 c7bd 574c 393d
00000080: eb6b ffbb 4275 8d3d 5cfe 533c 9c6e 763d
00000090: 7d36 373d 20cb ce3d 15a1 513c f4ed 4a3d
000000a0: b037 56bd 7b8a 6dbd 6426 833d ad97 c23d
000000b0: 792d 47bd 46df 38bd 9083 a63b 825f 993d
000000c0: f6d9 c03d 2431 18bd 0f8e c8bd 9550 39bd
000000d0: c93c 6f3d 40a3 dcba 7a44 acbd 61dd c9bd
000000e0: 5c83 9bbd 978d 513d c056 1d3b 692b f238
000000f0: ab81 33bd 6c4a 62bd 75f5 2abd 45ca 91bc
00000100: b2c7 93bd b4dc c63d e69d d6bc 4b81 9fbd
00000110: 9ab9 19bd 9093 bfbc 8a3e 87bd 90ed a03c
00000120: 1ef6 b9bd 6f3c ed3c 95ab 1f3c 5288 cf3d
00000130: 0bf4 2ebd 2586 8ebd d15e c7bd 1f14 cc3d
00000140: e899 823d 32cd 9b3d a7b9 5bbd 34eb 833d
00000150: 44f2 273d 35ac 053d 0d89 893d 07b7 283b
00000160: 0ba6 45bc 3777 853d dad3 b1bd 7fba c43c
00000170: 7376 b33c 0788 acbd ba70 8fbb 3bab 7abd
00000180: 15ee b23d 609e aebb 1091 7fbd 4283 9e3d
00000190: 7354 86bb 6889 8b3d 7d1e 5f3d acff bc3d
000001a0: 2046 483c 3a30 b93d a0e2 1ebb c016 90bd
000001b0: 0803 903d 439a 99bd c09f 8ebd 1da3 143d
000001c0: aafe 6dbd 9ce4 793d 31cd b3bd 5c36 073d
000001d0: 992d a5bd 86a5 a13d 2843 26bd 6e40 813d
000001e0: 32db 81bd aed6 ec3c 34a9 1cbd 92a8 83bd
000001f0: 0a4e 82bd c2aa f93c eefa 98bd 9e4c a5bd
00000200: 1fde 7b3b b04b f6bc 92b6 d3bc c046 6b3c
00000210: ccb3 a3bc 1c4f 94bd d37d 95bd 7415 83bd
00000220: b4d9 bdbc da95 9e3d 1c99 533d 8a96 88bd
00000230: 54d5 ccbc 31ed 873d b8f1 433c fc41 683d
00000240: f55a 10bc 6c4e 063d 2686 4d3d b4c6 efbc
00000250: de2c 47bc 1488 fdbc 2c69 febc 008a ad3b
00000260: e08b 7c3c 8f36 92bd 9751 7abd a956 c33d
00000270: 5429 3d3d 1dec 4abb 9073 a33d 66d6 bb3d
00000280: 2b12 47bd e17a 9a39 91b5 a2bd 9499 403d
00000290: 7262 13bd 23ad 6d3d 8e6b ff3c c815 b8bd
000002a0: 3fc4 883d 1f3b aabd 499e 1e3d 8195 a03c
000002b0: 5e09 33bd ca2b 0a3d 4675 333d b19c 4dbd
000002c0: 324b bd3d 0822 10bd 5630 93bd 691b b63c
000002d0: 84b9 7d3d ecdd 703c 2323 46bd 6ce7 843d
000002e0: 563f 2cbd c410 5c3b 9637 93bd 0e90 1b3c
000002f0: 2fc0 3dbd 5318 b13d 2bde b9bc dd94 903d
00000300: f7af 9dbd 0a2e 73bd 3b48 0cbc 8eca 86bd
00000310: a57c 26bc f86c 153c 1670 8b3d 03f6 62bd
00000320: 5c67 1cbd 79d0 73bd 3405 4b3d 66a6 b03d
00000330: d8ba 85bd 724c 0c3d a432 4a3d 3865 a6bc
00000340: b968 ba3c 6051 903b 2604 ca3d 3875 2f3d
00000350: b30e 413d 1b51 9abd f9f7 1fbc 60d0 af3d
00000360: be57 9b3d a552 39bd 7a0f 953d c03a bbbd
00000370: 00a6 a7ba d142 b0bc 943d ab3d c748 bf3d
00000380: b43d 32bc a8e3 51bc 7562 713d 00c0 b9ba
00000390: 3139 c4bd 1a3d 67bd 8e36 8bbd a51e 29bd
000003a0: a030 773d 8273 a13d c8de 193d 6cfd 943d
000003b0: 66c5 c23d 5705 a23d 544e b8bd 947d 953d
000003c0: 145e c0bc dc1f 81bc d488 e8bc d012 c6bc
000003d0: e9ad ac3d d822 08bd 036d 99bc d86a c3bc
000003e0: 9acf b73d 8679 2abd acad 723d da81 d43b
000003f0: 60b3 753b 8cbd 24bd 7432 443d 5108 ed3b

in_layer.bias f4 [64]
-0.008687361 0.07205871 -0.10129226 -0.018770173 -0.0020055883 0.0123017905 -0.043816883 -0.022022218
0.08716663 0.027308907 -0.018650899 -0.030550234 0.080430835 -0.029928522 -0.0671303 -0.055796303
-0.08611308 -0.066120565 0.06045396 -0.041561726 0.060977 0.010457457 0.02316059 -0.05620616
0.049541447 0.03696262 0.07433716 -0.09750757 0.03428213 -0.094878994 -0.056171916 -0.08390443
0.064959444 0.042116724 0.013332599 -0.029987272 -0.019986076 -0.037330266 -0.0076520713 0.018979901
-0.041233778 -0.097394206 0.05718679 -0.08713864 0.055351507 -0.07920839 0.05471858 0.053339683
0.05296845 0.074836396 0.092627026 -0.06989743 -0.08115725 -0.059043784 -0.029228028 -0.099957086
-0.07700187 0.01160328 0.06341572 0.08038482 -0.073156394 0.031195391 -0.0011771546 0.036434688
00000000: 6f55 0ebc 8493 933d 5172 cfbd e8c3 99bc
00000010: 3070 03bb 738d 493c 5579 33bd f067 b4bc
00000020: 6b84 b23d eeb6 df3c c5c9 98bc 7c44 fabc
00000030: ecb8 a43d a92c f5bc 9c7b 89bd aa8a 64bd
00000040: 0e5c b0bd 386a 87bd 929e 773d a13c 2abd
00000050: 05c3 793d c155 2b3c 47bb bd3c 6e38 66bd
00000060: f9eb 4a3d 1e66 173d 153e 983d 0db2 c7bd
00000070: 6b6b 0c3d eb4f c2bd 8614 66bd 16d6 abbd
00000080: 7509 853d 9682 2c3d f970 5a3c dea7 f5bc
00000090: d7b9 a3bc 9fe7 18bd 3abe fabb bd7b 9b3c
000000a0: c0e4 28bd 9d76 c7bd b23c 6a3d be75 b2bd
000000b0: 43b8 623d 0238 a2bd 9720 603d b67a 5a3d
000000c0: 72f5 583d d343 993d 3db3 bd3d 6226 8fbd
000000d0: c635 a6bd e5d7 71bd 9e6f efbc 4db6 ccbd
000000e0: 28b3 9dbd af1b 3e3c 1ae0 813d cca0 a43d
000000f0: 05d3 95bd 7a8d ff3c c14a 9aba 8a3c 153d

hidden.0.weight f4 [64, 64]
-0.010940864 -0.0827907 0.09410277 -0.06991166 0.096444294 0.10452478 0.036344912 -0.0638971
-0.02248173 -0.03497138 0.11250715 -0.041801635 -0.08475671 0.11846613 -0.0030461166 -0.08626104
0.023722127 0.06925681 -0.02863751 0.04587073 0.064385705 0.034427926 -0.07623088 -0.09633465
-0.056901347 0.08906568 0.02865754 -0.11617365 0.026020622 0.091400824 0.075007804 0.005883962
0.017069124 0.09685865 -0.008244803 -0.08555393 0.114899606 -0.11088365 -0.03345014 -0.094461635
0.03695471 -0.08599549 -0.026991345 -0.049628828 0.051172927 0.08188676 0.11297924 -0.08148087
-0.112229876 -0.07783232 -0.108258136 0.048221044 0.09019344 0.07742143 -0.088199146 0.030762643
-0.080339 0.051842626 0.06694625 -0.0006495394 0.06897189 -0.017111193 -0.05143916 -0.111568995
-0.057050224 -0.0049673524 -0.07335247 0.05726762 -0.04304953 0.008102564 0.11574961 0.11877003
-0.046144035 0.045839455 -0.12264992 0.07682652 -0.10182009 0.07971659 0.046234164 -0.11785683
-0.009948018 -0.09454993 0.04937636 -0.092051975 0.034683 0.041541945 0.028861964 0.02968252
0.044328943 0.116967484 0.054395936 -0.013708581 -0.08071246 0.12324207 0.032668076 0.014942688
0.07207802 -0.07166779 -0.025510317 0.0653247 -0.07404132 -0.063192174 -0.022863887 -0.11267894
0.02164108 0.05541384 -0.08662282 -0.08280332 -0.0304752 -0.025864234 -0.09917507 0.038121194
-0.051062133 0.004759241 -0.038344476 -0.102779284 -0.018624563 -0.12171623 0.05658225 0.06956607
-0.029272238 -0.07996747 -0.072814725 0.101182625 -0.0063863946 0.12128077 0.068021305 0.004427757
0.10322267 0.07908865 0.116907656 0.029317183 0.048854772 -0.08285611 -0.08030996 0.0041199354
0.0479901 0.10504602 -0.090477854 0.03920852 0.023084184 0.09781181 0.08854083 0.101178184
0.003031987 0.082761824 0.07781503 0.0517894 -0.07655617 -0.06594116 -0.04563281 -0.11283621
0.11464487 0.06031733 -0.026918862 0.121426925 0.067252696 -0.08973591 0.00895343 0.070613064
0.062235735 -0.10949841 0.04488064 0.045289915 -0.07237677 -0.009577833 -0.043800797 -0.058078803
0.06860408 0.03621997 0.022100931 -0.09083752 0.103459656 0.09210275 0.08567806 -0.04080383
0.061149377 -0.041438054 0.06690861 -0.05475276 0.05817531 0.116370305 -0.019770373 -0.021092672
0.069878966 -0.079134345 0.11389636 -0.0434125 0.08090281 -0.033250403 -0.0408238 0.024288086
-0.050032303 -0.08661259 0.045873433 -0.061390907 0.057461366 -0.091427 0.09463208 -0.06709128
-0.10293928 -0.07220084 -0.0013833407 -0.119912274 0.08358899 0.038069215 0.02373964 0.042592704
-0.025926823 -0.103425995 -0.11264223 0.032442305 -0.008176992 0.049596373 -0.045189206 -0.011677161
0.077162035 -0.04062452 -0.10055653 -0.06826615 0.024353405 0.07869761 -0.110685274 0.02740376
-0.09762735 -0.015048542 0.09821877 -0.028870763 -0.062114254 -0.007974937 -0.078151025 0.11851515
0.101171635 -0.10759693 -0.05289894 -0.018408386 0.09212754 0.061713748 -0.12427663 -0.032840695
0.08200016 -0.0712033 -0.09031473 -0.001483003 0.07098919 -0.050369203 0.07475381 0.09716119
-0.0974089 -0.024422064 -0.090296805 0.09941571 0.03079865 0.015965248 0.122932136 0.09726246
00000000: 4f41 33bc 2c8e a9bd f4b8 c03d d82d 8fbd
00000010: 9684 c53d 1611 d63d 67de 143d 7cdc 82bd
00000020: 9b2b b8bc 263e 0fbd 266a e63d 3138 2bbd
00000030: ed94 adbd 5f9e f23d 5ba1 47bb a1a9 b0bd
00000040: e854 c23c 84d6 8d3d 3699 eabc f2e2 3b3d
00000050: a7dc 833d 4c04 0d3d f01e 9cbd 1a4b c5bd
00000060: 6311 69bd 1168 b63d 38c3 ea3c 73ec edbd
00000070: 3329 d53c 5b30 bb3d b19d 993d 40ce c03b
00000080: 8cd4 8b3c d45d c63d 3615 07bc e636 afbd
00000090: 7c50 eb3d f816 e3bd 0403 09bd 1a75 c1bd
000000a0: d25d 173d 671e b0bd f41c ddbc 9947 4bbd
000000b0: b49a 513d 3fb4 a73d a961 e73d 71df a6bd
000000c0: c7d8 e5bd 8d66 9fbd 71b6 ddbd 6e83 453d
000000d0: 57b7 b83d 208f 9e3d c1a1 b4bd f001 fc3c
000000e0: c688 a4bd ef58 543d 1e1b 893d da45 2aba
000000f0: 2241 8d3d c62c 8cbc deb1 52bd 497e e4bd
00000100: 7fad 69bd 2cc5 a2bb d239 96bd 7491 6a3d
00000110: b454 30bd 9ec0 043c 220e ed3d b43d f33d
00000120: 8701 3dbd 27c2 3b3d e22f fbbd 3957 9d3d
00000130: 0d87 d0bd 7442 a33d 0960 3d3d ec5e f1bd
00000140: 03fd 22bc 65a3 c1bd de3e 4a3d bf85 bcbd
00000150: c30f 0e3d e327 2a3d ed6f ec3c c228 f33c
00000160: 4492 353d a68c ef3d 46ce 5e3d f599 60bc
00000170: 934c a5bd 5766 fc3d f6ce 053d 2dd2 743c
00000180: a49d 933d 90c6 92bd 03fb d0bc f5c8 853d
00000190: faa2 97bd e66a 81bd 0c4d bbbc 37c4 e6bd
000001a0: a248 b13c 9ff9 623d 4e67 b1bd c994 a9bd
000001b0: 20a7 f9bc 3be1 d3bc 4d1c cbbd f824 1c3d
000001c0: 8726 51bd 68f3 9b3b 190f 1dbd f27d d2bd
000001d0: 8a92 98bc 5c46 f9bd cac2 673d a878 8e3d
000001e0: 55cc efbc fcc5 a3bd e31f 95bd d638 cf3d
000001f0: f644 d1bb 0d62 f83d c14e 8b3d b816 913b
00000200: 6866 d33d 3bf9 a13d 486d ef3d 972a f03c
00000210: f11b 483d 77b0 a9bd 8c79 a4bd 8600 873b
00000220: 4491 443d 5e22 d73d 744c b9bd 1d99 203d
00000230: 0b1b bd3c 8f51 c83d e554 b53d 8236 cf3d
00000240: 4db4 463b 087f a93d 7d5d 9f3d 1f21 543d
00000250: 7bc9 9cbd 290c 87bd 78e9 3abd ac16 e7bd
00000260: eeca ea3d 4e0f 773d f284 dcbc aeae f83d
00000270: c8bb 893d 76c7 b7bd 68b1 123c 959d 903d
00000280: e6ea 7e3d b440 e0bd c3d4 373d eb81 393d
00000290: 463a 94bd 58ec 1cbc 7768 33bd 0ae4 6dbd
000002a0: 4c80 8c3d 645b 143d 030d b53c 0609 babd
000002b0: a8e2 d33d 5ea0 bc3d fb77 af3d eb21 27bd
000002c0: c577 7a3d f3ba 29bd 6207 893d 6e44 60bd
000002d0: 3c49 6e3d 8e53 ee3d 7af5 a1bc 8aca acbc
000002e0: b41c 8f3d 3011 a2bd 7f42 e93d 4ed1 31bd
000002f0: 5fb0 a53d 9331 08bd db36 27bd cff7 c63c
00000300: acee 4cbd f161 b1bd c8e5 3b3d 0875 7bbd
00000310: 9c5c 6b3d 143e bbbd 77ce c13d 2767 89bd
00000320: d4d1 d2bd 09de 93bd 3651 b5ba 9194 f5bd
00000330: b430 ab3d 77ee 1b3d a279 c23c b075 2e3d
00000340: 7d64 d4bc 02d1 d3bd f8b0 e6bd 39e2 043d
00000350: caf8 05bc 9125 4b3d 5118 39bd 9051 3fbc
00000360: 2107 9e3d e665 26bd 95f0 cdbd 20cf 8bbd
00000370: cb80 c73c 362c a13d f6ae e2bd da7d e03c
00000380: d9f0 c7bd 298e 76bc ec26 c93d 6182 ecbc
00000390: 846b 7ebd 4fa9 02bc a50d a0bd 12b8 f23d
000003a0: 1333 cf3d c75b dcbd 8fac 58bd 2fcd 96bc
000003b0: 5dad bc3d 8ec7 7c3d bf84 febd f783 06bd
000003c0: b3ef a73d 09d3 91bd eef6 b8bd 5361 c2ba
000003d0: c862 913d f04f 4ebd 8718 993d 72fc c63d
000003e0: 517e c7bd c810 c8bc 88ed b8bd 779a cb3d
000003f0: 734d fc3c 8dc9 823c d8c3 fb3d 8a31 c73d

hidden.0.bias f4 [64]
-0.066195905 -0.007621204 -0.09697029 0.0842244 -0.035518836 -0.05389676 -0.05785112 -0.070216656
-0.07465609 0.013015362 -0.024661338 -0.10645248 0.046003222 -0.01944618 -0.027151592 -0.074874
-0.07252661 0.044088725 -0.0743553 0.02930029 -0.060387902 -0.014717159 -0.015845383 -0.089950874
0.0103110615 -0.08336439 0.04741595 0.015133585 0.058836654 -0.06465926 0.026272511 -0.019306906
-0.10247749 0.07992527 0.027942594 -0.036913525 -0.07547787 -0.1006059 0.02439815 0.024898244
-0.08632058 0.082117714 0.100556426 0.11682952 0.07256252 -0.019994043 0.0006521933 -0.032489505
0.111421384 0.059115507 0.10015626 -0.06604932 0.083065405 -0.02901286 -0.0038787173 -0.032961737
0.044870984 0.03488322 -0.101647146 0.11875714 -0.08758688 0.035405982 0.08224975 -0.10002454
00000000: b891 87bd 4bbb f9bb 5c98 c6bd d87d ac3d
00000010: 337c 11bd d9c2 5cbd 4cf5 6cbd c0cd 8fbd
00000020: 4be5 98bd 633e 553c 9306 cabc c203 dabd
00000030: e06d 3c3d 984d 9fbc 046d debc 8a57 99bd
00000040: d588 94bd 6196 343d 9747 98bd 2907 f03c
00000050: 4e59 77bd 3d20 71bc 2dce 81bc 2a38 b8bd
00000060: baef 283c f3ba aabd 3a37 423d dbf2 773c
00000070: b4fe 703d 136c 84bd 7339 d73c 8429 9ebc
00000080: b8df d1bd dcaf a33d dee7 e43c a332 17bd
00000090: 2494 9abd 770a cebd a1de c73c 67f7 cb3c
000000a0: d8c8 b0bd 552d a83d 87f0 cd3d 5144 ef3d
000000b0: a99b 943d 8cca a3bc f4f7 2a3a b713 05bd
000000c0: e530 e43d 1a23 723d ba1e cd3d de44 87bd
000000d0: 321e aa3d 61ac edbc 1432 7ebb e302 07bd
000000e0: a3ca 373d b5e1 0e3d 612c d0bd f236 f33d
000000f0: c060 b3bd dd05 113d 8f72 a83d abd9 ccbd

hidden.1.weight f4 [64, 64]
-0.06558566 0.054760274 0.036562044 0.058062162 0.14938655 0.044131145 -0.12086233 0.081512675
0.050706353 -0.07233142 0.07290508 0.0522045 0.031340934 0.010793157 -0.049450297 0.055986956
0.0003673431 0.09296191 -0.10658459 0.012577562 -0.10446177 -0.06700182 0.05203236 -0.1224139
-0.080946125 0.062048435 -0.018280968 0.11657523 0.070385866 0.00025806628 -0.04444716 -0.013268872
0.03685238 0.07762083 -0.122597285 -0.0350028 0.07591439 0.057251383 0.07777948 0.08040312
0.042417705 0.0435737 0.030450922 -0.063123904 0.0153456 0.0012614572 -0.089999504 -0.07150657
-0.06346877 -0.021716092 -0.10947042 0.03409312 -0.11736559 0.03288345 0.06520942 -0.08339092
-0.05975463 -0.035065062 -0.054188102 -0.079940915 -0.05217026 -0.049441088 0.11099674 0.090868294
-0.041825596 0.03600271 -0.104886614 0.08166499 -0.011657122 -0.023979923 -0.0065079033 0.05052813
-0.07661799 -0.03991668 -0.02975838 -0.041841693 0.035162233 -0.11752479 0.022791874 0.07643115
-0.07596998 0.11171912 0.039389096 -0.084633045 0.048334043 -0.056514237 -0.056056093 -0.1040511
-0.08041506 -0.09973982 -0.10266233 0.002622939 -0.06574126 0.0891449 0.060233034 -0.079486474
-0.048055217 -0.074150816 0.116993494 0.046218008 0.10796541 -0.027815219 0.051574714 -0.020289628
-0.10619226 -0.08299395 0.011673422 -0.067406476 0.05326465 0.08096657 -0.028232623 -0.11088218
-0.12398263 -0.020891061 -0.11192264 -0.050938323 0.09294087 -0.044941694 0.11332115 0.03904833
0.09651851 -0.06343474 -0.11814992 0.108396515 -0.09500092 0.029470129 -0.110477164 -0.18648934
0.06080024 0.070534766 -0.10703224 -0.050997928 0.0059809936 -0.05384492 0.063948825 0.05336465
0.098086506 0.030195786 0.11111909 0.12470019 -0.017968139 -0.0031439348 0.099767745 -0.0446392
-0.09130712 0.08798855 0.077524215 0.031696353 0.022449374 -0.10023685 0.029771738 0.12007058
0.026780432 0.11646814 -0.10368025 -0.11363952 -0.013666957 -0.008345604 -0.031329624 0.051019136
0.04792127 -0.009087058 0.025573293 0.08014533 -0.089124486 -0.040086802 0.11699973 0.017673083
0.04229938 0.090498805 0.037201907 0.1124927 -0.07431877 -0.03801527 0.0075869355 -0.12411191
-0.091800526 0.073474795 0.043578383 -0.06137885 -0.059977166 0.038848482 0.03435488 -0.04932562
0.04949131 -0.08074981 -0.010650607 0.013430915 0.02879306 -0.06744167 0.01579101 0.069097586
0.048077624 -0.074172035 0.11607528 -0.055770826 -0.10991019 -0.0035720672 -0.11288589 0.048980247
-0.10616587 -0.070948556 -0.08011588 -0.053182825 -0.019342972 0.06807529 -0.09886404 0.05734719
0.058157716 -0.11274944 -0.0024515826 0.031659793 0.11630003 -0.02982361 0.09368949 -0.10844323
-0.005525884 0.12184511 -0.07190252 0.06294621 -0.08342573 -0.099960476 0.017583225 -0.045328863
0.012685079 -0.00013089439 0.024476642 0.017754475 -0.0005078236 -0.12116878 -0.052100997 0.119943276
0.03301418 -0.030026693 0.059592217 -0.10200685 -0.1088969 0.08325009 0.07850372 0.0089175785
0.12211671 -0.02307354 -0.11890876 -0.12216595 -0.07075161 -0.08221703 0.025000717 -0.096807875
-0.058877293 0.09601619 -0.014306398 0.0661496 0.008544439 0.06386647 -0.1028444 0.003716826
00000000: c651 86bd 4f4c 603d 15c2 153d 97d2 6d3d
00000010: caf8 183e dcc2 343d ab86 f7bd 1ef0 a63d
00000020: 77b1 4f3d 7f22 94bd 424f 953d 63d4 553d
00000030: 5a5f 003d c8d5 303c 658c 4abd 9452 653d
00000040: f597 c039 d062 be3d 0649 dabd 1e12 4e3c
00000050: 0df0 d5bd 4038 89bd e21f 553d 24b4 fabd
00000060: 15c7 a5bd 8026 7e3d f8c1 95bc ffbe ee3d
00000070: 7726 903d 124d 8739 3a0e 36bd af65 59bc
00000080: 85f2 163d abf7 9e3d 4914 fbbd 195f 0fbd
00000090: 0179 9b3d 6d80 6a3d d94a 9f3d 64aa a43d
000000a0: 30be 2d3d 567a 323d 3674 f93c 1b47 81bd
000000b0: 1d6c 7b3c 7b57 a53a a951 b8bd 0972 92bd
000000c0: eafb 81bd f2e5 b1bc 0732 e0bd 3aa5 0b3d
000000d0: 5f5d f0bd ccb0 063d 848c 853d dcc8 aabd
000000e0: 45c1 74bd 62a0 0fbd 58f4 5dbd 10b8 a3bd
000000f0: 7cb0 55bd bd82 4abd 4252 e33d 2819 ba3d
00000100: 5151 2bbd 9477 133d cbce d6bd f93f a73d
00000110: 83fd 3ebc 8b71 c4bc 4040 d5bb 96f6 4e3d
00000120: e5e9 9cbd ac7f 23bd d9c7 f3bc 3262 2bbd
00000130: 4606 103d d6b0 f0bd 06b6 ba3c ef87 9c3d
00000140: 2696 9bbd fecc e43d 7656 213d 1754 adbd
00000150: ebf9 453d 797b 67bd 139b 65bd be18 d5bd
00000160: a7b0 a4bd 6444 ccbd a140 d2bd 9de5 2b3b
00000170: 5ba3 86bd 9a91 b63d eab6 763d cec9 a2bd
00000180: 8cd5 44bd 62dc 97bd 499a ef3d 184f 3d3d
00000190: f81c dd3d bedc e3bc 0240 533d 6f36 a6bc
000001a0: 547b d9bd bbf8 a9bd e141 3f3c 680c 8abd
000001b0: 092c 5a3d cdd1 a53d 1a48 e7bc 3216 e3bd
000001c0: 9bea fdbd bb23 abbc b237 e5bd b4a4 50bd
000001d0: c857 be3d c814 38bd eb14 e83d 24f1 1f3d
000001e0: 7fab c53d 13ea 81bd 96f8 f1bd fefe dd3d
000001f0: d88f c2bd 576b f13c da41 e2bd 10f7 3ebe
00000200: ac09 793d 8874 903d b833 dbbd 34e3 50bd
00000210: 36fc c33b 7e8c 5cbd 9af7 823d e494 5a3d
00000220: 94e1 c83d 275d f73c 6892 e33d d062 ff3d
00000230: eb31 93bc 790a 4ebb 0853 cc3d 98d7 36bd
00000240: 3aff babd 5733 b43d 04c5 9e3d 09d4 013d
00000250: c0e7 b73c fa48 cdbd dce3 f33c 90e7 f53d
00000260: a362 db3c d986 ee3d 5056 d4bd d6bb e8bd
00000270: 5feb 5fbc 00bc 08bc 7e53 00bd 71f9 503d
00000280: 1849 443d e2e1 14bc 157f d13c 3c23 a43d
00000290: e686 b6bd 0f32 24bd 8e9d ef3d 24c7 903c
000002a0: 1d42 2d3d 7057 b93d 0761 183d 9362 e63d
000002b0: 7034 98bd e6b5 1bbd d49b f83b 632e febd
000002c0: ea01 bcbd f479 963d 3f7f 323d 6468 7bbd
000002d0: 9eaa 75bd 961f 1f3d b4b7 0c3d a909 4abd
000002e0: 66b7 4a3d 2860 a5bd e27f 2ebc 570d 5c3c
000002f0: 6cdf eb3c dc1e 8abd 265c 813c 0983 8d3d
00000300: 0bed 443d 82e7 97bd e0b8 ed3d f36f 64bd
00000310: 9818 e1bd 5819 6abb b830 e7bd 839f 483d
00000320: 7e6d d9bd 7a4d 91bd cb13 a4bd 3cd6 59bd
00000330: 2775 9ebc 0f6b 8b3d 3b79 cabd e3e4 6a3d
00000340: c936 6e3d 2ee9 e6bd bbaa 20bb b3ad 013d
00000350: b62e ee3d a550 f4bc 46e0 bf3d 7c17 debd
00000360: 7a12 b5bb ee89 f93d a141 93bd f1e9 803d
00000370: 1cdb aabd 14b8 ccbd b20a 903c c2aa 39bd
00000380: 14d5 4f3c b240 09b9 3d83 c83c d571 913c
00000390: 771f 05ba 5627 f8bd db67 55bd d2a4 f53d
000003a0: e039 073d 8afa f5bc f816 743d f8e8 d0bd
000003b0: 5705 dfbd 067f aa3d 8fc6 a03d 091b 123c
000003c0: 5318 fa3d b804 bdbc 7086 f3bd 2432 fabd
000003d0: 38e6 90bd 6761 a8bd 4ece cc3c 3543 c6bd
000003e0: 5129 71bd 23a4 c43d 6265 6abc 7179 873d
000003f0: fafd 0b3c 6ccc 823d 16a0 d2bd fe95 733b

hidden.1.bias f4 [64]
0.07762796 0.11902283 -0.06763503 0.015118128 0.0033058063 0.042516578 0.08206946 0.06554315
0.030167602 0.07468047 0.058790665 -0.047400907 0.11067158 -0.10668555 0.114412345 0.06477282
0.104682684 -0.058740992 0.10123459 -0.01656614 0.11254336 0.08825734 0.05307867 0.020634335
0.0661246 0.03637475 0.083243094 0.11713933 0.0058076237 -0.082757294 -0.0526034 0.017245315
-0.037496973 0.039359443 0.08497138 0.117037475 -0.046653498 -0.07896998 -0.009692407 -0.09024651
-0.0135592865 -0.07254235 -0.03445895 0.025257979 -0.016275385 0.04413288 0.022244385 0.009766911
-0.044452306 0.078250274 0.09428226 -0.03597526 0.03552843 0.09751618 -0.10358331 -0.02770959
0.011291106 0.0673032 -0.08411498 -0.10882875 0.11683282 -0.07642268 -0.12444355 -0.08232425
00000000: 68fb 9e3d 3ec2 f33d 3c84 8abd 06b2 773c
00000010: 3aa6 583b dd25 2e3d 0814 a83d 7d3b 863d
00000020: 0c22 f73c 13f2 983d 7bce 703d 7427 42bd
00000030: c8a7 e23d f47d dabd 0551 ea3d 9da7 843d
00000040: e063 d63d 659a 70bd 1554 cf3d b7b5 87bc
00000050: 227d e63d 44c0 b43d 0569 593d 5609 a93c
00000060: 566c 873d b1fd 143d 5b7b aa3d bfe6 ef3d
00000070: e14d be3b a87c a9bd aa76 57bd 0c46 8d3c
00000080: 6d96 19bd 5e37 213d 7a05 ae3d 58b1 ef3d
00000090: bd17 3fbd 03bb a1bd e7cc 1ebc 2ad3 b8bd
000000a0: c527 5ebc 1591 94bd d424 0dbd d2e9 ce3c
000000b0: f553 85bc aec4 343d db39 b63c 6505 203c
000000c0: 9f13 36bd ae41 a03d 0f17 c13d cb5a 13bd
000000d0: 4286 113d 90b6 c73d 7d23 d4bd 39ff e2bc
000000e0: 55fe 383c 43d6 893d 7a44 acbd 9ce1 debd
000000f0: 0c46 ef3d 7e83 9cbd 43dc febd 9e99 a8bd

hidden.2.weight f4 [64, 64]
-0.06996636 -0.11203794 0.059568405 0.06883286 0.0069675148 0.079463646 -0.1244521 0.097573906
0.09154186 -0.024693593 -0.06621018 0.083546385 -0.01130937 0.06432514 -0.039414525 0.078124404
-0.10687424 0.019836187 -0.061221674 -0.0014211386 -0.0614841 -0.11566989 0.028115287 -0.043392763
-0.04177153 0.07496859 -0.074806586 0.02277337 0.02050355 -0.019008145 -0.026779428 -0.060366884
0.03159845 -0.051021636 -0.07365672 0.1035285 -0.09036861 0.05506718 -0.047633454 -0.1024071
-0.09292887 -0.08575174 -0.023644313 0.10809174 0.11158201 -0.044243068 0.011515588 -0.028432906
0.053424567 -0.01149936 -0.10412787 0.047648817 0.10842112 -0.061005056 -0.101187974 -0.082311645
0.042228565 -0.11260596 0.044168457 0.03139557 0.047980696 -0.013752177 -0.11249873 -0.032795012
-0.09629297 -0.056661367 0.026346222 0.04921031 -0.056256935 -0.10294081 -0.060689747 0.019139409
-0.014327079 -0.07630502 -0.058470637 0.079046175 0.093542814 -0.005080998 -0.059552565 0.10809691
-0.0698092 0.12276091 0.06609601 -0.059477538 0.10290226 0.019106835 -0.106508195 0.10635756
-0.005308017 0.028667837 0.098447934 0.10080655 -0.12309052 0.06871286 -0.058202818 -0.05297473
-0.0917276 0.122730285 -0.0067591816 -0.06931952 0.086615086 -0.045989066 0.0030800402 0.032483324
-0.11436303 -0.05201401 0.04240276 0.046024263 -0.08590029 0.01029411 -0.08430292 -0.012837425
-0.01613599 -0.08193666 0.009518936 -0.09119251 0.0024109632 0.018598273 -0.056645036 -0.099223435
0.097185194 0.037640855 -0.030277759 -0.062962204 -0.023367703 -0.1185267 -0.001679048 -0.0016790926
0.026927263 0.005471319 0.06340833 -0.09543984 -0.0037724525 0.013498977 -0.0038864762 0.07670286
0.10230313 0.025581107 0.00758259 -0.093861386 0.07362896 -0.108861536 0.049016118 -0.032736614
0.04706472 0.025636911 -0.115263134 -0.042242125 -0.052109152 -0.08283265 -0.04879369 -0.019246534
0.011653751 0.013710275 0.02649732 0.06323862 -0.012380987 -0.115772426 0.05375071 -0.12407914
0.032191098 0.03821948 0.061081976 0.092123896 -0.07055417 -0.013626799 -0.0034096092 0.10115647
-0.07279873 0.05981216 -0.03644751 0.072508395 -0.0836194 0.08810973 -0.100274295 -0.050749466
0.0055292547 -0.075884044 -0.026046276 -0.10308042 -0.038346022 0.10241233 -0.107954234 0.08390628
-0.031426445 -0.0965444 -0.08377203 -0.04743567 -0.012940496 -0.12404303 -0.10078126 -0.0066845864
0.029844176 0.10515121 0.05130732 -0.0003045139 0.06703353 -0.0009612871 0.05547026 0.057935476
-0.117022604 -0.120543666 -0.02371661 0.09247202 -0.11120841 0.06709223 0.11470241 0.03591309
-0.047779616 0.10572696 -0.09884994 0.014798933 0.06795365 -0.00818193 -0.0663774 -0.12318037
-0.06815879 0.047616627 0.04649543 -0.08367885 -0.0721808 -0.09049695 0.10883261 -0.05934774
-0.119783044 0.02206825 0.05538386 0.045891404 0.017808141 -0.120398074 0.019263282 -0.08025369
0.09147811 -0.024210885 0.08923842 -0.0558463 0.003047704 0.017925505 -0.009928993 0.023317922
0.07846018 -0.04243816 0.11341735 0.1109491 0.02822861 0.076817796 -0.024425473 0.012986511
-0.093322344 0.06987305 0.047319908 0.05347404 -0.11806313 -0.11133282 0.0070028156 -0.049397454
00000000: 864a 8fbd 2674 e5bd 00fe 733d 3ef8 8c3d
00000010: c04f e43b d6bd a23d bee0 febd d4d4 c73d
00000020: 4c7a bb3d 384a cabc 3499 87bd 5e1a ab3d
00000030: f04a 39bc e6bc 833d 2071 21bd b0ff 9f3d
00000040: e2e0 dabd 807f a23c 94c3 7abd 8045 baba
00000050: c0d6 7bbd 56e4 ecbd 0852 e63c 9cbc 31bd
00000060: a018 2bbd 2289 993d 3234 99bd 388f ba3c
00000070: 10f7 a73c f8b6 9bbc 8860 dbbc 4443 77bd
00000080: 606d 013d 10fc 50bd 56d9 96bd c006 d43d
00000090: 2e13 b9bd 208e 613d 4c1b 43bd d0ba d1bd
000000a0: 7e51 bebd 9c9e afbd b8b1 c1bc 345f dd3d
000000b0: 1c85 e43d 3838 35bd e0ab 3c3c 20ec e8bc
000000c0: b8d3 5a3d d067 3cbc fe40 d5bd 682b 433d
000000d0: e40b de3d 70e0 79bd a43b cfbd 0293 a8bd
000000e0: dcf7 2c3d f49d e6bd fce9 343d a498 003d
000000f0: 6887 443d d050 61bc bc65 e6bd 1054 06bd
00000100: 4035 c5bd c015 68bd 08d4 d73c c090 493d
00000110: ac6d 66bd a2d2 d2bd d095 78bd 40ca 9c3c
00000120: 20bc 6abc ce45 9cbd e87e 6fbd f6e2 a13d
00000130: 6093 bf3d 807e a6bb 64ed 73bd ea61 dd3d
00000140: 20f8 8ebd 126a fb3d 585d 873d b89e 73bd
00000150: 6cbe d23d f085 9c3c f820 dabd fed1 d93d
00000160: e0ee adbb d0d8 ea3c 129f c93d aa73 ce3d
00000170: e216 fcbd 54b9 8c3d 1466 6ebd 08fc 58bd
00000180: aedb bbbd 045a fb3d 207c ddbb 64f7 8dbd
00000190: 4063 b13d 085f 3cbd 80da 493b 3c0d 053d
000001a0: 2a37 eabd a40c 55bd 84ae 2d3d f083 3c3d
000001b0: 7eec afbd a0a8 283c 02a7 acbd 1054 52bc
000001c0: a02f 84bc 68ce a7bd 50f5 1b3c 24c3 babd
000001d0: 4001 1e3b 685b 983c a004 68bd a835 cbbd
000001e0: 0809 c73d 4c2d 1a3d 1009 f8bc 54f2 80bd
000001f0: a06d bfbc 20be f2bd 8013 dcba 0015 dcba
00000200: 9096 dc3c c048 b33b 3adc 813d f675 c3bd
00000210: 403b 77bb d02a 5d3c 40b4 7ebb 6416 9d3d
00000220: 4e84 d13d 788f d13c 6077 f83b 663a c0bd
00000230: c8ca 963d ccf2 debd 20c5 483d d416 06bd
00000240: f0c6 403d 8004 d23c 140f ecbd 1406 2dbd
00000250: 6870 55bd 2aa4 a9bd e4db 47bd e8aa 9dbc
00000260: 60ef 3e3c 10a1 603c e810 d93c 4083 813d
00000270: a0d9 4abc 181a edbd b429 5c3d 341d febd
00000280: d0da 033d 088c 1c3d 1831 7a3d 74ab bc3d
00000290: b47e 90bd f042 5fbc c073 5fbb 202b cf3d
000002a0: 8017 95bd 98fd 743d fc49 15bd 487f 943d
000002b0: a640 abbd e072 b43d 9c5c cdbd acde 4fbd
000002c0: c02e b53b 1869 9bbd 005f d5bc d41b d3bd
000002d0: b810 1dbd 8ebd d13d 1c17 ddbd 0ed7 ab3d
000002e0: 04b9 00bd 12b9 c5bd ac90 abbd e84b 42bd
000002f0: 6004 54bc 460a febd 6866 cebd 600a dbbb
00000300: c67b f43c 8559 d73d a027 523d 2aa7 9fb9
00000310: e048 893d e3fe 7bba c934 633d c04d 6d3d
00000320: 8ca9 efbd 99df f6bd 5649 c2bc f861 bd3d
00000330: 3cc1 e3bd a767 893d 19e9 ea3d 9b19 133d
00000340: 8fb4 43bd 6087 d83d d671 cabd 3977 723c
00000350: 492b 8b3d 800d 06bc e0f0 87bd fd45 fcbd
00000360: d696 8bbd a709 433d fe71 3e3d d15f abbd
00000370: 87d3 93bd 7756 b9bd a2e3 de3d 9e16 73bd
00000380: d050 f5bd 7ac8 b43c 30da 623d a0f8 3b3d
00000390: 61e2 913c 4493 f6bd 08ce 9d3c 0c5c a4bd
000003a0: e058 bb3d e855 c6bc a2c2 b63d 17bf 64bd
000003b0: fdbb 473b 82d8 923c 37ad 22bc 3a05 bf3c
000003c0: bbaf a03d a3d3 2dbd 5b47 e83d 4839 e33d
000003d0: b03f e73c a652 9d3d ee17 c8bc 60c5 543c
000003e0: c91f bfbd 9a19 8f3d 85d2 413d 9807 5b3d
000003f0: 15cb f1bd 7602 e4bd e077 e53b fc54 4abd

hidden.2.bias f4 [64]
-0.056834236 -0.114338696 -0.09631589 -0.08222635 0.056814663 -0.091604695 0.103352584 0.11738819
0.12943953 -0.114027604 0.13150257 -0.04320216 -0.017495738 -0.054391414 0.13064933 -0.09797697
-0.012666279 -0.042366885 0.042909816 0.09535584 0.047397263 0.13266902 0.022693673 -0.10813907
-0.09872663 0.1262221 -0.09481181 0.0761122 0.09561637 0.0972612 -0.030852804 0.13027269
0.019050281 0.06358088 -0.039229065 -0.024635553 0.01700106 0.053209025 0.08981602 0.06647884
0.056339584 0.11197148 -0.017166605 -0.0124809155 0.031817853 -0.083962604 -0.012617461 -0.0009685882
0.082876034 0.069023274 0.049506713 0.02776563 -0.035098907 -0.10592678 -0.1161208 0.13916396
-0.028010078 -0.08960467 -0.043826863 0.012601616 -0.12218112 -0.102764875 0.06897046 -0.11774854
00000000: 04cb 68bd 682a eabd 4441 c5bd 4a66 a8bd
00000010: 7eb6 683d 3e9b bbbd 85aa d33d 3869 f03d
00000020: cc8b 043e 4e87 e9bd 9ca8 063e c0f4 30bd
00000030: 3953 8fbc 88c9 5ebd f0c8 053e 26a8 c8bd
00000040: 3a86 4fbc e688 2dbd 34c2 2f3d ec49 c33d
00000050: a223 423d 63da 073e 15e8 b93c 0478 ddbd
00000060: 3031 cabd 5e40 013e b22c c2bd b7e0 9b3d
00000070: 84d2 c33d e130 c73d 05bf fcbc 3466 053e
00000080: 560f 9c3c b136 823d a8ae 20bd 80d0 c9bc
00000090: cf45 8b3c b5f1 593d 76f1 b73d 0f26 883d
000000a0: 56c4 663d 4e51 e53d fba0 8cbc c17c 4cbc
000000b0: 7053 023d 96f4 abbd 78b9 4ebc dbe8 7dba
000000c0: e9ba a93d 135c 8d3d 8dc7 4a3d bf74 e33c
000000d0: dfc3 0fbd 24f0 d8bd bed0 edbd ff80 0e3e
000000e0: 6475 e5bc a782 b7bd cc83 33bd 0277 4e3c
000000f0: 183a fabd 6476 d2bd 6240 8d3d 2626 f1bd

hidden.3.weight f4 [64, 64]
0.023733333 0.10257101 -0.037915543 0.087879896 -0.076162085 0.07482983 0.11081061 0.123178124
-0.007207411 0.118677914 0.1219564 -0.045215175 0.06005494 0.07329121 -0.0354091 0.12129314
-0.033257943 0.09263786 -0.10328551 0.050201435 0.06395084 0.12208408 0.09435596 0.07805717
0.00072717667 0.12102865 -0.121704146 0.05521997 -0.014635218 0.060841218 0.12297833 0.04402014
-0.10957982 -0.10698728 -8.584559e-05 -0.0730206 -0.058992215 0.020800449 -0.092945725 -0.016783152
-0.080697626 0.022037994 -0.059273954 -0.043639082 -0.0032692254 0.08328208 0.09841133 0.04816709
-0.07672464 -0.020663645 -0.11485768 -0.09026413 -0.09611399 0.079373255 0.106451645 0.11493512
-0.10649417 -0.09780122 -0.044359475 -0.050257318 -0.063402206 0.058927596 -0.047702383 0.052988604
-0.00834693 -0.09888165 -0.10128631 0.06735373 -0.11949187 -0.103414804 0.10690073 0.021235328
0.0834306 0.062666774 0.011624641 -0.009909123 0.08507092 -0.013160378 -0.11827617 -0.10058004
-0.04812118 -0.09564997 -0.046953984 -0.038725458 -0.055985916 0.04265308 0.061209895 0.10681866
0.04252161 -0.07246535 0.004865542 -0.09490524 0.06227137 0.11341698 -0.0006170123 0.050904844
0.078871936 0.0849284 0.11602786 0.050473712 -0.041233588 0.12303524 -0.031415418 0.033905674
-0.08867234 0.060063355 0.07739336 0.019702554 -0.052485347 0.051940143 -0.2518985 0.0032814709
-0.029922219 -0.063773476 -0.09720884 -0.016190462 -0.11235017 0.099618524 -0.033352196 0.11727468
0.053301867 0.010602423 0.12380901 0.11170192 0.015922397 0.10257208 -0.065352246 0.078969374
0.10609436 -0.011052489 0.021788731 0.06137026 0.04502751 -0.05808893 -0.05706691 0.08655145
0.0058643227 -0.113908514 0.1213938 0.013969645 0.038694818 -0.09243521 -0.06438949 -0.12369673
0.01335883 -0.05962395 0.09266191 0.060469676 -0.05317889 0.08826137 -0.014687214 0.06585398
0.008368863 0.094988 0.031827837 0.041926708 -0.054315012 0.091316074 -0.046529353 0.012737982
0.038577303 0.09441248 -0.012950331 -0.04331759 0.032550074 0.11520428 0.05632137 -0.11715139
-0.11160959 0.040562894 0.023462756 0.07925395 0.093120396 0.056101814 0.27926567 0.094886
-0.09827899 -0.061889254 0.04870949 -0.069942296 -0.08249491 -0.07269031 0.10809398 0.018216593
0.019736866 -0.09789385 0.02157101 -0.10129949 -0.00978668 -0.103858784 -0.054048795 -0.11616297
-0.03312552 0.0527841 0.041924953 -0.054059565 -0.11986886 0.02965045 0.02233395 0.10857558
-0.082841486 -0.12441896 -0.019722149 0.070232466 -0.09738529 0.049957126 0.11951053 0.05943504
0.0011643767 -0.04647164 -0.09473316 -0.10128619 0.04511699 0.023108661 -0.039640352 -0.015606925
0.09161082 -0.026720077 -0.115591004 -0.08295855 -0.039227515 0.06640339 -0.002839908 -0.020576894
0.030665651 0.12387951 0.11001776 0.054929256 0.057857722 -0.021348223 -0.051907927 0.124371395
-0.03083244 0.063968316 -0.10220121 -0.06706463 -0.073534355 -0.069010675 0.044433445 -0.0068340003
-0.08297479 0.03605354 0.10939878 0.0014464259 0.09886894 -0.026059806 0.048856884 -0.036167502
-0.043005586 -0.012682751 -0.0038214177 -0.051778436 0.043247506 -0.087874666 -0.08916251 0.047563657
00000000: 686c c23c c010 d23d 544d 1bbd 60fa b33d
00000010: defa 9bbd 6240 993d acf0 e23d d044 fc3d
00000020: 252c ecbb 680d f33d 47c4 f93d 8c33 39bd
00000030: 2bfc 753d b419 963d 2209 11bd 8a68 f83d
00000040: 7b39 08bd ebb8 bd3d 5a87 d3bd 05a0 4d3d
00000050: a8f8 823d 3807 fa3d b33d c13d 70dc 9f3d
00000060: 00a0 3e3a dedd f73d 0640 f9bd 562e 623d
00000070: 8ec8 6fbc a434 793d 10dc fb3d 764e 343d
00000080: 626b e0bd 261c dbbd 0008 b4b8 d38b 95bd
00000090: d2a1 71bd b465 aa3c 545a bebd d27c 89bc
000000a0: cc44 a5bd 0689 b43c 3fc9 72bd e5be 32bd
000000b0: 8040 56bb cc8f aa3d e18b c93d db4a 453d
000000c0: cf21 9dbd ce46 a9bc 813a ebbd 66dc b8bd
000000d0: 69d7 c4bd 728e a23d 5203 da3d 1b63 eb3d
000000e0: 9e19 dabd 024c c8bd 48b2 35bd 9eda 4dbd
000000f0: 04d9 81bd 105e 713d 9363 43bd 940a 593d
00000100: 90c1 08bc 7682 cabd 326f cfbd c1f0 893d
00000110: 27b8 f4bd 24cb d3bd c5ee da3d b6f5 ad3c
00000120: aadd aa3d 7057 803d 4775 3e3c e059 22bc
00000130: aa39 ae3d a09e 57bc c73a f2bd e8fc cdbd
00000140: b71a 45bd 22e4 c3bd d252 40bd 969e 1ebd
00000150: 7d51 65bd ffb4 2e3d 3ab7 7a3d bec3 da3d
00000160: 242b 2e3d b768 94bd 206f 9f3b ae5d c2bd
00000170: 4410 7f3d 2947 e83d ffbe 21ba 9981 503d
00000180: 9c87 a13d f1ee ad3d 04a0 ed3d 86bd 4e3d
00000190: 8de4 28bd e6f9 fb3d 74ad 00bd ade0 0a3d
000001a0: d899 b5bd fe04 763d 6980 9e3d 4067 a13c
000001b0: e0fa 56bd 30bf 543d d7f8 80be f20d 573b
000001c0: 711f f5bc ab9b 82bd 6e15 c7bd dca1 84bc
000001d0: d917 e6bd cc04 cc3d 509c 08bd b52d f03d
000001e0: 0f53 5a3d c9b5 2d3c 948f fd3d fac3 e43d
000001f0: b06f 823c 5011 d23d 66d7 85bd b2ba a13d
00000200: 0048 d93d 8015 35bc 487e b23c 625f 7b3d
00000210: c46e 383d a8ee 6dbd febe 69bd e341 b13d
00000220: 8129 c03b de48 e9bd 509d f83d f0e0 643c
00000230: 757e 1e3d ac4e bdbd a3de 83bd b654 fdbd
00000240: fede 5a3c 3e38 74bd 87c5 bd3d 0daf 773d
00000250: 1cd2 59bd 61c2 b43d a4a2 70bc 74de 863d
00000260: 8e1d 093c 1289 c23d e85d 023d 57bb 2b3d
00000270: 6b79 5ebd ec03 bb3d 9095 3ebd f8b2 503c
00000280: 3c03 1e3d 555b c13d a02d 54bc c96d 31bd
00000290: 3a53 053d 39f0 eb3d 3db1 663d 11ed efbd
000002a0: 9293 e4bd 4725 263d f734 c03c e54f a23d
000002b0: e8b5 be3d 04cb 653d e9fb 8e3e 9753 c23d
000002c0: 7f46 c9bd 967f 7dbd 9a83 473d e83d 8fbd
000002d0: 17f3 a8bd a8de 94bd 6060 dd3d f73a 953c
000002e0: 35af a13c 927c c8bd b0b5 b03c 1b76 cfbd
000002f0: 5058 20bc eab3 d4bd 4562 5dbd dae6 edbd
00000300: a0ae 07bd 2434 583d 80b9 2b3d 906d 5dbd
00000310: ce7d f5bd 80e5 f23c b0f5 b63c e05c de3d
00000320: cca8 a9bd 5ecf febd 5890 a1bc 0ad6 8f3d
00000330: f071 c7bd d89f 4c3d f0c1 f43d 2872 733d
00000340: 009e 983a 0c59 3ebd 7603 c2bd 226f cfbd
00000350: 98cc 383d 604e bd3c ec5d 22bd 30b4 7fbc
00000360: 749e bb3d 10e4 dabc faba ecbd 2ce6 a9bd
00000370: 08ad 20bd 80fe 873d c01d 3abb e090 a8bc
00000380: 8836 fb3c 8ab4 fd3d fe50 e13d 80fd 603d
00000390: 38fc 6c3d 78e2 aebc 689d 54bd 6eb6 fe3d
000003a0: 5094 fcbc d201 833d de4e d1bd 2e59 89bd
000003b0: 2e99 96bd 7855 8dbd d8ff 353d c0ef dfbb
000003c0: b0ee a9bd e0ac 133d 780c e03d 0096 bd3a
000003d0: cc7b ca3d 607b d5bc 281e 483d 6024 14bd
000003e0: a026 30bd 50cb 4fbc c070 7abb a015 54bd
000003f0: 4c24 313d a2f7 b3bd d69a b6bd 1cd2 423d

hidden.3.bias f4 [64]
-0.031540208 0.018651126 0.0034483941 -0.020898655 -0.028873507 0.11878378 0.08498757 0.0392038
-0.032083325 0.05161437 -0.011079836 -0.062320873 0.061380837 0.033045758 0.079189695 -0.089056954
0.019085888 0.016650774 0.044640012 -0.11829227 -0.04515639 -0.08766851 -0.11155576 -0.035823673
0.07705226 -0.07048792 -0.041256525 -0.06822449 -0.03781946 -0.058981344 0.036564615 0.06929647
0.12882328 0.036621645 0.04277287 -0.106132284 -0.11930962 -0.03140077 -0.041783113 -0.11558728
-0.045364752 0.009059926 0.05379803 0.068238266 -0.10034453 0.06348915 0.07958968 0.038416468
0.10497484 0.023332713 0.09657275 -0.11231914 -0.07905051 -0.1094192 0.052328117 0.11156502
-0.065862715 -0.044080257 -0.05759495 0.04505665 -0.09895301 -0.12344211 -0.03822504 -0.046070218
00000000: 4e30 01bd 3fca 983c 74fe 613b a833 abbc
00000010: 2288 ecbc e944 f33d f70d ae3d 2a94 203d
00000020: ce69 03bd 9769 533d 3388 35bc 2c44 7fbd
00000030: 796a 7b3d fd5a 073d 352e a23d 7e63 b6bd
00000040: 025a 9c3c 3467 883c 72d8 363d 3843 f2bd
00000050: e8f5 38bd 8c8b b3bd 5977 e4bd d8bb 12bd
00000060: 93cd 9d3d f85b 90bd 9afc 28bd 48b9 8bbd
00000070: 94e8 1abd 6c96 71bd c7c4 153d 4feb 8d3d
00000080: 40ea 033e 9400 163d 9b32 2f3d e25b d9bd
00000090: 9a58 f4bd 189e 00bd c524 2bbd 06b9 ecbd
000000a0: 64d0 39bd 1570 143c 535b 5c3d 81c0 8b3d
000000b0: 6f81 cdbd 9906 823d eaff a23d 965a 1d3d
000000c0: 0dfd d63d 3f24 bf3c efc7 c53d 9407 e6bd
000000d0: 3ce5 a1bd 2c17 e0bd 0256 563d 347c e43d
000000e0: 08e3 86bd 808d 34bd afe8 6bbd 528d 383d
000000f0: e0a7 cabd 38cf fcbd dc91 1cbd 20b4 3cbd

hidden.4.weight f4 [64, 64]
-0.017919688 0.03824799 0.09660861 -0.09684107 0.10507056 0.08846487 0.10869389 0.04462809
0.0014983111 -0.10819317 0.00061936176 -0.0046758354 -0.08428522 -0.087760136 -0.041379698 0.112837955
-0.10807292 -0.0060069216 0.07348934 0.06480484 0.07297318 -0.029108614 -0.11947312 -0.11896233
0.04327519 -0.04844807 0.095985726 0.019129055 0.07251622 0.124147266 0.015723959 0.006721168
-0.011538273 0.008873435 -0.02034441 0.06521174 0.010001138 0.0949294 0.09450866 0.09749331
-0.05986719 -0.051842086 0.094344184 -0.0063666156 0.069310546 0.10091405 -0.066432714 0.10591749
0.014255034 -0.0014990664 -0.124738134 0.022560313 -0.036190443 -0.002334218 0.064189956 -0.025511833
0.023957834 -0.09077211 -0.0030255662 0.072522834 0.033524588 0.0032526553 -0.0013977289 -0.09318087
0.060756885 0.04529551 0.008222787 0.07183863 0.08428959 -0.03568584 0.060576305 0.055408344
0.017378526 -0.036777657 0.06497934 0.10434851 -0.014229468 -0.034824584 0.055241212 0.029063195
0.08628721 -0.07905954 0.11375204 -0.020088032 -0.105365515 -0.070470765 0.005194396 0.037025437
0.095410265 0.09070341 0.011042541 0.10406777 -0.12497479 0.019114792 -0.115995966 -0.028775455
0.045459893 -0.0740602 -0.113195755 0.06823929 0.017111138 0.0012543052 0.03372559 0.111591816
-0.08150461 0.0970367 -0.04208858 -0.022555841 -0.052328214 -0.0981531 0.09818715 -0.028072927
-0.108179584 -0.064819194 0.06816969 -0.007604137 -0.02466691 -0.09942027 0.119597584 0.02527226
-0.006684944 0.07268223 0.09386919 0.12300613 -0.11735335 -0.107675076 -0.037459016 -0.05418414
-0.122120366 -0.03239484 0.09946425 -0.02215974 -0.07384054 -0.06004815 -0.020774122 -0.053790078
-0.018773282 0.08135591 0.05332582 0.047119036 0.041686956 0.033377767 -0.11109565 0.10677895
0.09841341 0.0035799704 0.043142725 -0.06219928 0.07802886 0.097663835 -0.026514806 0.046890333
-0.1046557 0.10983212 -0.022849122 -0.06156502 -0.11412151 -0.004105687 -0.11373985 0.056224905
0.08189212 -0.017359849 -0.05045738 0.11849213 -0.07400343 0.09830804 -0.056064695 -0.0069061285
0.09194711 0.08031675 -0.11800439 -0.03748977 -0.09985135 -0.09522456 -0.041794874 -0.03198389
0.018536568 0.1032465 -0.1835886 0.10480735 0.04984567 0.06125882 0.10047743 -0.05180404
-0.086888105 0.06729333 -0.064203374 -0.0732755 0.036265284 -0.0007849932 0.08669263 -0.035207715
0.07570599 -0.09988925 -0.046530083 -0.05276437 0.032539964 0.07070576 -0.042029753 -0.10132244
-0.061050877 0.026297927 -0.008274972 -0.025729775 0.03220132 -0.10333456 -0.0052414984 0.060358375
-0.10415584 0.106323004 0.015902787 -0.08467238 0.10789521 -0.031104878 0.046437785 -0.06984566
-0.031036496 0.09075551 -0.018652678 -0.123159766 -0.07633221 0.04729937 -0.11872807 0.017928183
0.10476017 0.009722024 0.023171797 -0.080103874 0.0824268 -0.062074438 -0.09983447 0.027836666
-0.123815 -0.027159378 -0.12482931 -0.008758098 0.00078476965 0.03098923 -0.11434741 -0.046613976
-0.044996932 0.014698848 -0.020224035 0.09184833 0.048778668 -0.0432356 -0.082044244 0.05905664
0.06212674 0.10217768 -0.077787206 0.044039413 -0.045425147 -0.022408307 0.11573613 -0.109739855
00000000: 4fcc 92bc eda9 1c3d bcda c53d 9c54 c6bd
00000010: 3c2f d73d 122d b53d e79a de3d f2cb 363d
00000020: fa62 c43a 6194 ddbd aa5c 223a c037 99bb
00000030: bb9d acbd 96bb b3bd c27d 29bd 9617 e73d
00000040: 5655 ddbd b6d5 c4bb 9481 963d 66b8 843d
00000050: f672 953d 3075 eebc 53ae f4bd 86a2 f3bd
00000060: 5341 313d 7c71 46bd 2a94 c43d 89b4 9c3c
00000070: 6283 943d ec40 fe3d 88cf 803c 3e3d dc3b
00000080: 060b 3dbc e261 113c 52a9 a6bc bc8d 853d
00000090: d0db 233c 586a c23d c28d c13d 93aa c73d
000000a0: 4c37 75bd 5e58 54bd 8637 c13d 0b9f d0bb
000000b0: b0f2 8d3d 07ac ce3d e00d 88bd 45eb d83d
000000c0: f28d 693c 527c c4ba b576 ffbd 68d0 b83c
000000d0: 6e3c 14bd aef9 18bb 0676 833d 31fe d0bc
000000e0: 3843 c43c bae6 b9bd 9448 46bb da86 943d
000000f0: 1451 093d 802a 553b 0034 b7ba 9dd5 bebd
00000100: 36dc 783d c987 393d deb8 063c 2220 933d
00000110: 05a0 ac3d 512b 12bd dc1e 783d dcf3 623d
00000120: 695d 8e3c 2ba4 16bd e313 853d acb4 d53d
00000130: b722 69bc 39a4 0ebd 9c44 623d f015 ee3c
00000140: 59b7 b03d f8e9 a1bd d4f6 e83d a88f a4bc
00000150: e0c9 d7bd fa52 90bd c035 aa3b fca7 173d
00000160: 7566 c33d b6c2 b93d c6eb 343c 7c21 d53d
00000170: c8f2 ffbd a096 9c3c 4b8f edbd 81ba ebbc
00000180: 2734 3a3d e0ac 97bd 2dd3 e7bd 0ac1 8b3d
00000190: a82c 8c3c 8067 a43a d823 0a3d 408a e43d
000001a0: e4eb a6bd 2dbb c63d 1365 2cbd 07c7 b8bc
000001b0: 1c56 56bd 7e04 c9bd 5816 c93d 32f9 e5bc
000001c0: 428d ddbd edbf 84bd 8d9c 8b3d 202c f9bb
000001d0: 4212 cabc db9c cbbd 94ef f43d c507 cf3c
000001e0: 600d dbbb 6cda 943d 7d3e c03d a3ea fb3d
000001f0: f456 f0bd c084 dcbd a06e 19bd 30f0 5dbd
00000200: 3e1a fabd 74b0 04bd eab3 cb3d 5888 b5bc
00000210: b639 97bd 0df5 75bd 7e2e aabc fc52 5cbd
00000220: 6dca 99bc ed9d a63d 2d6c 5a3d e4ff 403d
00000230: f1bf 2a3d 20b7 083d 1e86 e3bd ecae da3d
00000240: f88c c93d f09d 6a3b 6db6 303d acc4 7ebd
00000250: 98cd 9f3d fa03 c83d 9435 d9bc 1410 403d
00000260: ba55 d6bd aaef e03d 152e bbbc 9a2b 7cbd
00000270: 8ab8 e9bd 0089 86bb 70f0 e8bd 164c 663d
00000280: 0eb7 a73d 3e36 8ebc 66ac 4ebd 00ac f23d
00000290: 1c8f 97bd ba55 c93d 18a4 65bd ce4c e2bb
000002a0: c44e bc3d 1c7d a43d 49ac f1bd e08e 19bd
000002b0: dd7e ccbd 1805 c3bd 1a31 2bbd 8a01 03bd
000002c0: 00da 973c e772 d33d a6fe 3bbe 3ca5 d63d
000002d0: f92a 4c3d 87ea 7a3d 1cc7 cd3d 7930 54bd
000002e0: 64f2 b1bd 16d1 893d 0f7d 83bd 7711 96bd
000002f0: e88a 143d 00c8 4dba e88b b13d f735 10bd
00000300: be0b 9b3d bc92 ccbd 5496 3ebd 741f 58bd
00000310: a048 053d 2ece 903d 6427 2cbd 2482 cfbd
00000320: 7c10 7abd c06e d73c c093 07bc 40c7 d2bc
00000330: 88e5 033d 12a1 d3bd e0c0 abbb 583a 773d
00000340: a84f d5bd e0bf d93d 9046 823c b668 adbd
00000350: 2af8 dc3d a8cf febc 8c35 3e3d 3e0b 8fbd
00000360: 4040 febc 06de b93d 80cd 98bc 303b fcbd
00000370: 1054 9cbd fcbc 413d b427 f3bd 20de 923c
00000380: 808c d63d 2049 1f3c c8d2 bd3c 800d a4bd
00000390: 62cf a83d c441 7ebd 0476 ccbd b809 e43c
000003a0: b892 fdbd 587d debc 82a6 ffbd 207e 0fbc
000003b0: 00b9 4d3a 20dd fd3c fa2e eabd 4cee 3ebd
000003c0: b44e 38bd 70d3 703c e0ac a5bc fa1a bc3d
000003d0: 24cc 473d d017 31bd d006 a8bd 60e5 713d
000003e0: 9c78 7e3d 8842 d13d e64e 9fbd ac62 343d
000003f0: b80f 3abd a091 b7bc 1007 ed3d 4abf e0bd

hidden.4.bias f4 [64]
0.053044625 -0.06332056 0.112455264 0.024682954 -0.040650897 -0.10627576 -0.107235566 0.17963842
-0.050255835 0.096587926 0.045638736 0.106210545 0.026508415 -0.1210784 0.15575652 0.22003694
-0.0044927057 0.12741749 -0.081732206 -0.10872696 0.101787776 0.108102255 -0.04649072 -0.085230656
-0.108469814 0.10545827 0.04609709 0.07130755 0.11996805 0.10397514 0.09948046 0.07635398
0.05547451 -0.13270381 0.05726473 0.034833614 0.06765953 0.047152884 0.17769414 0.12186333
-0.044456586 -0.115485795 -0.006124913 0.06800373 -0.048461005 0.15161194 0.095206834 0.118985064
-0.014248403 -0.040291682 0.09507579 -0.023668453 -0.028287577 -0.11054994 0.08092599 0.07878863
0.07215303 0.08899712 -0.013366007 -0.1129266 0.12357339 -0.10249166 -0.09911067 0.123900935
00000000: 5245 593d 36ae 81bd f24e e63d e833 ca3c
00000010: 8e81 26bd 1ba7 d9bd 529e dbbd 22f3 373e
00000020: 10d9 4dbd e4cf c53d afef 3a3d ea84 d93d
00000030: 2d28 d93c f4f7 f7bd a37e 1f3e 5d51 613e
00000040: 8c37 93bb bb79 023e 3763 a7bd 3eac debd
00000050: 1c76 d03d b764 dd3d 0e6d 3ebd 698d aebd
00000060: 6c25 debd 81fa d73d 4dd0 3c3d b109 923d
00000070: cfb1 f53d ebf0 d43d 69bc cb3d 7a5f 9c3d
00000080: 3d39 633d 82e3 07be 6c8e 6a3d b1ad 0e3d
00000090: 1491 8a3d 6223 413d 74f5 353e 7b93 f93d
000000a0: 1c18 36bd d183 ecbd 7fb3 c8bb 8a45 8b3d
000000b0: 0c7f 46bd 2940 1b3e cdfb c23d 71ae f33d
000000c0: 2272 69bc e408 25bd 19b7 c23d 58e4 c1bc
000000d0: 59bb e7bc 0268 e2bd 87bc a53d ef5b a13d
000000e0: f8c4 933d 1f44 b63d 19fd 5abc 1046 e7bd
000000f0: 0c14 fd3d 26e7 d1bd 89fa cabd c6bf fd3d

out_layer.weight f4 [1, 64]
0.030499663 0.020592434 0.1217279 -0.054860994 -0.08435792 -0.12356489 -0.067893565 0.033237904
0.07966888 -0.054183405 -0.039382685 0.10268858 -0.06116024 0.013090923 0.07779219 0.09309029
-0.021909079 -0.10672575 0.007813477 0.007754162 0.06940927 -0.11429332 0.044680726 0.056421984
0.006452143 0.10333102 0.071319096 -0.03125555 0.004289407 -0.070800565 -0.08926812 0.08455174
-0.042680915 -0.01678606 -0.12167112 -0.03812259 0.012478148 -0.120832734 0.115199335 0.05820121
0.010486141 0.008606572 -0.04765275 -0.031228775 -0.008021519 0.07909735 0.06908684 -0.117908314
-0.056190938 0.101586774 -0.05849478 -0.012731597 0.10726242 -0.028337523 -0.008700367 0.008675729
0.07602186 0.040008806 -0.11456978 -0.032279506 0.019303147 -0.05059783 0.07896495 0.08722011
00000000: 6eda f93c 77b1 a83c 7a4c f93d ecb5 60bd
00000010: d8c3 acbd 970f fdbd c80b 8bbd 7824 083d
00000020: 7029 a33d 6bef 5dbd bd4f 21bd 644e d23d
00000030: 2983 7abd 507b 563c 8351 9f3d 1fa6 be3d
00000040: ab7a b3bc 0893 dabd 1904 003c a016 fe3b
00000050: 7326 8e3d 9e12 eabd 2303 373d bd1a 673d
00000060: 806c d33b 379f d33d bf0f 923d d205 00bd
00000070: 278e 8c3b e3ff 90bd 34d2 b6bd 7629 ad3d
00000080: 2fd2 2ebd eb82 89bc b52e f9bd 6f26 1cbd
00000090: 2571 4c3c 2777 f7bd a1ed eb3d 6464 6e3d
000000a0: 10ce 2b3c 9402 0d3c 882f 43bd 7dd3 ffbc
000000b0: b06c 03bc cbfd a13d 677d 8d3d ea79 f1bd
000000c0: 7828 66bd ba0c d03d 3998 6fbd 3098 50bc
000000d0: 66ac db3d 1824 e8bc fc8b 0ebc a524 0e3c
000000e0: 59b1 9b3d 46e0 233d 90a3 eabd 8437 04bd
000000f0: a221 9e3c ac3f 4fbd 60b8 a13d 75a0 b23d
