models/test.pt (torch_old, 54537 bytes, 23 tensors)

in_layer.weight f4 [32, 68]
00000000: d783 db3d c63f 953d 668e b1bd d79a 8abd
00000010: 5f5f 0abd 3616 a73d 834e 003e 5063 993c
00000020: cc64 703d 4ffa 9ebc 2ab3 1cbd 8e4e da3d
00000030: fb58 bfbd a7de 49bd 2894 a63c 6b94 49bd
00000040: 757f dbbd ba1a 803d bb3a 86bc a0bc cd3c
00000050: 3260 44bc beca 59bd 344e 98bd 605e b0bc
00000060: bb69 efbd 908b 513d 006d e7bc c537 883a
00000070: 06cb 5abd 3f9e e63d b4fc 1bbd 4de6 2c3d
00000080: 5b03 bfbd b4b3 9a3d eea0 c93c 9554 7abd
00000090: 7531 28bd c667 843d 6b0f 8f3d 0939 acbd
000000a0: ce03 f7bd d144 2cbd 14ee 95bd 685d 60bb
000000b0: a0f4 ae3d 41ba 9abd e0eb 38bd 50d8 8ebd
000000c0: a2e2 d73d 10be 67bd 61f8 dbbd 812a c7bd
000000d0: 0acb 2d3d 4268 b83d 7de1 c0bd e4d5 1c3d
000000e0: 0cb2 693d 4347 9bbd 5d4e c3bd be51 983c
000000f0: 243f 793d f0a8 68bd 1c6c be3d 94f3 e03d
00000100: f1db a2bd 1661 b6bd ea8e 8e3d 9420 72bc
00000110: fd87 c6bb ea73 c0bd 8279 2a3d 9e35 aabd
00000120: 355a 9cbd 18e8 c3bd 9ffb 3e3d 58f4 8fbc
00000130: 1820 d2bc 8c0e 02bd 4053 9dbb 44a6 603d
00000140: 98a6 763d 228a e5bc e675 7ebd 745a f83d
00000150: 497e a73d c3f4 b9bd e51c f33d 308c 19bc
00000160: dcfb 40bd 0c27 b6bc 3079 a73d 2048 3ebd
00000170: b0de 4b3d 1579 f23d 58a7 393d 098a 3c3d
00000180: 7417 c3bc 66cb b2bd 309b f33d 955e 7ebd
00000190: 1a57 97bd 00dc 003d 352d b8bd aab1 18bd
000001a0: 4f4e 043e 5c27 1c3d a9db 75bb 069b dfbd
000001b0: 98c2 093d 7cd3 d8bd 8818 95bc 2169 4d3d
000001c0: 0643 cdbd dc0d 2fbd 82b6 57bd 80b8 2f3d
000001d0: 1940 ddbb a4e0 0bbd ba4d c53d 52fb 8c3d
000001e0: f0a8 c63d d088 1dbc 8ecb ea3d e6cf 3bbd
000001f0: 4c95 703d 8c58 70bc e6f3 8f3d 79e2 f23d
00000200: aa26 8cbd 2671 dd3d 94b0 2bbd 2fd6 793d
00000210: 730c e93d 4501 e63d edb9 f43b 19f1 353d
00000220: c631 32bc 28b6 9abc 9783 b93d faa4 6fbd
00000230: 9fef ec3d 7803 fb3c 22a8 d03d ea02 c43d
00000240: e69f dcbd 8243 a1bd f019 903c 9a4b 733c
00000250: 4870 b9bc d6a0 bbbc 4082 593d 93f9 37bb
00000260: 33fd 1ebd ac6e 763d 60d9 dbbc b597 75bd
00000270: d411 ed3d 271d e4bd 98ea 74bd b8b5 7a3d
00000280: 8842 9abd a342 213d 10fb ea3c 09ca 423d
00000290: 7cea d4bc 3af4 81bd f0bb 703c 17f3 17bd
000002a0: 698a 923d 44c0 503d 7d09 dabd d20e ee3d
000002b0: d429 d93d 0d2d f7bd 5407 233d 6cf2 3f3d
000002c0: e1f2 e6bd 4bcf 973c 7cc1 a4bd 1bae 21bc
000002d0: 46dc a0bd ec91 783d efa2 cdbd e0a4 093d
000002e0: d435 583d 342e fbbc 4bdf c7bd a06f 633d
000002f0: 7ba1 80bb 1a71 9c3d 0271 4dba 329a c43d
00000300: 4055 98ba 2add dfbd a4db b63d 4965 fb3d
00000310: 004f 05bc 421c 8bbd 589d 89bd 138d e93d
00000320: d897 913d 4000 67bd 2127 a53c 2172 edbd
00000330: bd81 d93d 781d 4d3d f785 d2bd 5ab6 bb3d
00000340: e7df abba 8447 98bc ba44 c7bd 88eb 953d
00000350: 8a8f e63d 701f fdbd 5e84 d7bd 6e71 443d
00000360: 50b1 fdbb afd8 943d 649d ccbc 5185 7c3d
00000370: d787 39bd b8a4 633d ed1b 9e3d 0a66 34bd
00000380: 0186 c83d cc81 0c3d e105 75bd e2d5 0abd
00000390: a454 c8bc 58e0 ee3c 0092 623c c400 e2bb
000003a0: 48ba 143d 127d a83c b450 0c3d 4db1 76bc
000003b0: 33cd 943d acbf 603d 28ee 7fbb c437 e9bd
000003c0: 41ad 4fbd 143e f53d 0248 7e3d e04f 5b3b
000003d0: a0b9 bfbd f950 9eba 9914 b1bd 4029 24bc
000003e0: 8d73 edbd b489 5a3d cea3 9b3d 556b 8f3c
000003f0: 199c aeba 9432 883d 6a06 af3d eccc 333d
0.10718506 0.072875544 -0.086697385 -0.067678146 -0.03378236 0.08158533 0.1252995 0.018724114
0.058689877 -0.019406466 -0.0382568 0.10659514 -0.093431436 -0.049284603 0.020334318 -0.049213808
-0.1071767 0.06255098 -0.016385427 0.025114357 -0.011985825 -0.053171866 -0.07436791 -0.021529377
-0.11690088 0.051158488 -0.028250217 0.0010392597 -0.053416274 0.11260652 -0.038082793 0.04221182
-0.09326812 0.07553807 0.02461287 -0.06111582 -0.04106279 0.06465106 0.069853626 -0.08409316
-0.120612726 -0.042057816 -0.073208004 -0.0034235362 0.08542752 -0.07555056 -0.045146823 -0.06974852
0.10541274 -0.056577742 -0.10740734 -0.09724904 0.04242996 0.090042606 -0.094180085 0.03828992
0.057054564 -0.075819515 -0.09536431 0.018593665 0.06085123 -0.056801736 0.09297964 0.10983959
-0.07952107 -0.089052364 0.069608524 -0.014778275 -0.0060586915 -0.09397109 0.041619785 -0.08311008
-0.07634393 -0.09565753 0.046626683 -0.017572567 -0.02565007 -0.031752154 -0.004801184 0.054846063
0.06021747 -0.028019968 -0.062124155 0.121266276 0.08178384 -0.09079888 0.118707456 -0.009371802
-0.04711519 -0.022235416 0.081774116 -0.046455503 0.04977292 0.11839501 0.045325607 0.046030078
-0.023814894 -0.087302014 0.11894834 -0.06210192 -0.0738966 0.03145981 -0.089929976 -0.03727881
0.12920497 0.038123474 -0.003751496 -0.1091824 0.033632845 -0.105872124 -0.018200174 0.050149087
-0.10022549 -0.042737827 -0.052664287 0.042900562 -0.006752026 -0.03414978 0.09633966 0.06883873
0.09700191 -0.009615138 0.11464606 -0.045852564 0.05873613 -0.014669549 0.07028942 0.118596025
-0.06843312 0.10812597 -0.041916445 0.060995277 0.113793276 0.11230711 0.007468453 0.04441938
-0.010876125 -0.018885687 0.09058302 -0.058506943 0.115691416 0.030641302 0.10188319 0.09570868
-0.10772686 -0.07874204 0.017590493 0.014849568 -0.022636548 -0.022903841 0.05310273 -0.0028072342
-0.03881569 0.06016414 -0.02683705 -0.059959132 0.11575666 -0.11138373 -0.05979404 0.061208457
-0.07532221 0.03937019 0.028684169 0.047555957 -0.025990717 -0.06345411 0.014693245 -0.037097063
0.07155306 0.05096461 -0.10646341 0.116239205 0.10603681 -0.1206914 0.03980191 0.04686205
-0.11276794 0.018531462 -0.08044717 -0.00986817 -0.07854514 0.060686037 -0.10040843 0.033604503
0.05278571 -0.03066168 -0.09759387 0.055526376 -0.0039255 0.0763876 -0.0007836969 0.09599723
-0.0011622086 -0.109308556 0.08928612 0.12275178 -0.008136511 -0.06792499 -0.06719464 0.11403861
0.0710904 -0.056396723 0.02016026 -0.11594034 0.10620449 0.05007693 -0.10279458 0.0916564
-0.0013112993 -0.018588789 -0.097299054 0.07320315 0.11257847 -0.12359512 -0.10523294 0.047959737
-0.0077420846 0.072678916 -0.024977393 0.061650578 -0.045295563 0.05557701 0.0772017 -0.044042625
0.09791184 0.03430347 -0.05982006 -0.03389538 -0.024454422 0.02915971 0.013828754 -0.006897064
0.036310464 0.02056745 0.034256652 -0.01505692 0.07265701 0.054870293 -0.0039051864 -0.113875896
-0.050702337 0.11974731 0.06208039 0.0033464357 -0.09361577 -0.0012078575 -0.08646507 -0.0100196
-0.11594305 0.05335398 0.07599603 0.017507235 -0.0013321667 0.06650272 0.08546145 0.0438966

in_layer.bias f4 [32]
00000000: 36de e33d 70cb a93d 9019 ea3d 7e58 adbd
00000010: 840c 293d 9d29 a33d f2aa 70bc 9702 ad3d
00000020: 0ab2 56bd 4a9e f13c 5fbc a9bd 1805 3c3d
00000030: 28da 3fbd 31ca cf3d fb4b 103d 9d82 b2bd
00000040: 06fa 0e3d 154c 763d 5b8a ad3d 3d03 23bd
00000050: adc8 0fbc 3e13 db3d b715 dcbd e0bf 19bd
00000060: d29c c73d a403 503d eed1 363b 36e2 e73b
00000070: 7e79 67bd b3b9 0c3d c32d cc3d f94c 6d3d
0.11126368 0.08290756 0.11430657 -0.08464144 0.0412717 0.079669215 -0.014689194 0.084477596
-0.052415885 0.029494423 -0.08287882 0.045903295 -0.04683891 0.10145987 0.03522871 -0.08716319
0.03490641 0.06013115 0.08473655 -0.03979801 -0.008775872 0.106970295 -0.10746329 -0.037536502
0.09746708 0.050784722 0.0027896124 0.007076527 -0.05651235 0.034356784 0.09969666 0.057934735

hidden.0.weight f4 [32, 32]
00000000: 2025 a7bd 5a87 e73c d0aa bbbc ede2 063e
00000010: b148 2bbe 14eb 46bd b882 b73a 8567 b1bd
00000020: 0b11 ee3d 3398 12be d3cc ca3d 664a 8bbd
00000030: 9d5b 1fbe 92aa 923b 9847 8bbd faf5 023e
00000040: 1193 2f3e 281f b2bd e453 2cbe 7d14 96bd
00000050: 4de8 35bd 3c23 80bd 6cca cbbd 3503 edbc
00000060: d2f2 a6bd 9837 073e 36c1 33be 2829 1abe
00000070: b2d6 a3bc 0db1 243e 4f04 243e afee 08bc
00000080: ef8b 113e ed38 0fbe b0b5 f1bd 5a01 513c
00000090: ba41 e4bd 6987 113e 3a9d 01bd 9165 a6bd
000000a0: f429 7bbd f768 f7bd 2a04 ea3d 86c3 2bbe
000000b0: 6ed0 703d f0bc b73d 9498 0dbe 4780 acbd
000000c0: 8a12 203d b81d bebc 07c7 c6bd f178 213b
000000d0: 5ba3 0a3e bfbd 953d 5591 7d3d 705c ccbc
000000e0: 5ef5 f9bd a6e4 1bbe 7db7 993d 17be 0ebe
000000f0: b28f 26be e5a8 5bbd 4de6 afbc 5535 e83d
00000100: c76a 013c 2b3c e5bd 0b2a e03d e2e5 193d
00000110: 48c2 573d ffe0 a33d 36bd 643d eea9 233e
00000120: ee29 e53c 8e5c 9e3d 5ed0 ad3d bf78 18be
00000130: 91df 78bd aa69 16be b6e4 fd3d c8ad 98bd
00000140: 8dbe 28be 35b0 19be b1b6 323e 25e7 27be
00000150: 1848 cc3d c3ce b13d 9b93 bcbd 1324 98bd
00000160: 4dfc c2bc 197c 003e 0ede 19be e9a8 b43d
00000170: 6179 07be 4dad 27be fc98 fd3d cd73 053d
00000180: 2d76 d43d a3e8 0ebd 37e1 e3bd cb8d 583d
00000190: b922 1fbe 038d 2e3e c8aa f3bd 055a 2d3e
000001a0: 8b02 233e 0309 223d f725 573d f426 d53b
000001b0: 403b 803c 2ff9 2f3e e0c4 c4bd f541 ffbd
000001c0: a515 f43d d07e 3a3d 9fd7 8fbd d1ec 0dbe
000001d0: 119d 68bd c62f 053e 5e4a b5bd 84d7 03bd
000001e0: 067a 243e 0d01 2ebe c229 993d acf3 bc3d
000001f0: 677b 063e 9b1d 08be c7dc 073e 02f7 263e
00000200: 74e7 05be 4265 5abd ae65 0f3e 99c2 d3bd
00000210: 71fe 053d 13a4 643d 650f 2a3d 358e 2d3e
00000220: 827d 8d3c 34c6 af3d ed30 dfbc bb9d 50bc
00000230: cefc d1bd 3361 26be 3b65 343e ef7b 803d
00000240: 937d d93d 2cf9 043e 9278 ebbd dd19 13be
00000250: 2196 34be 0142 103e 529b 25be 84fd dc3d
00000260: 6bbb 093e d515 cabc ebd7 083e 9258 58bd
00000270: d220 abbd 010f 233d 6e47 203e bc9d b53d
00000280: 7b44 a8bd f019 823d 78a5 7bbd b555 483c
00000290: 8174 903d 01c3 9cbd c833 aebd bb96 e53d
000002a0: a6b4 8a3c e54b ccbd 699f 953b 380f 6fbd
000002b0: e0a3 29be 7290 cb3c bc20 c6bd a66b 18be
000002c0: d72c f8bd 8bf2 613c 2e36 d63d 5c67 9ebd
000002d0: ec94 cc3c 94e1 d03d 6f11 84bd 406a 33be
000002e0: bdae 2dbd 55e0 2c3e c8ca 95bd cd75 1a3e
000002f0: e671 21bc cafa 203e 084a 053d 62a9 45bd
00000300: d9b2 793d c4d2 2a3e cba6 adbd b40d 09be
00000310: 1389 18be 4b51 1b3c 6be4 8abd 0875 423c
00000320: 56b3 0b3e 4b31 7abd 9df3 1b3d 3389 b13d
00000330: 31c7 223d ce1c b43d a339 b03d 3301 323e
00000340: 6b9c c1bd 25fb 1e3d 033d 113e 2628 bcbd
00000350: 9b94 a8bd 75a0 093e b0b9 c2bd 03de 11bd
00000360: 3e3d 0e3e 9fe7 9abc fb2f ac38 0ab9 9b3b
00000370: 08e6 2fbe b5d3 363e 16b2 c6bd bf66 1e3d
00000380: e421 96bd f086 cbbd 4c31 55bd ae89 13be
00000390: 9f38 11be ea15 24bd a876 d63d 3e4f edbd
000003a0: f391 803d 211b 0d3d 1c24 eebd b8f5 90bd
000003b0: 4ecf 33be 12e2 d3bd 75ad c13b 16c3 ffbd
000003c0: 9f2e 9c3d e4bd e33d 8173 733d f64e 29be
000003d0: 7f12 2c3e 5163 34be 96c4 c8bb dbfc 2f3e
000003e0: 4196 9cbd 513b 173e 1c0c 1ebe ed93 e23d
000003f0: 29a8 dc3d 0200 bd3d 9b45 053d ca8f 073e
-0.08161378 0.028262783 -0.022908598 0.13172503 -0.16726948 -0.04856403 0.0014000749 -0.08662323
0.116243444 -0.14315872 0.09902348 -0.068013 -0.15562291 0.0044759 -0.06800765 0.12789145
0.17145945 -0.08697349 -0.16828877 -0.073281266 -0.044410992 -0.062567204 -0.09950718 -0.028932193
-0.08151783 0.13204801 -0.17554173 -0.15054762 -0.019999836 0.16083165 0.16017269 -0.008357688
0.14213537 -0.13986559 -0.11802232 0.01275667 -0.11145349 0.14211811 -0.031644084 -0.08124841
-0.061319306 -0.12080567 0.114265755 -0.16773805 0.058792524 0.08971584 -0.13827735 -0.084229045
0.03908018 -0.02320753 -0.0970593 0.0024638737 0.13538878 0.07311582 0.061906178 -0.024946421
-0.12205003 -0.15223941 0.07505701 -0.13939701 -0.16265753 -0.053627867 -0.02147212 0.11338297
0.007898993 -0.11193117 0.10945519 0.03757275 0.052675515 0.08001899 0.055844508 0.15982792
0.027974095 0.07732497 0.084870085 -0.14889811 -0.060760085 -0.14688745 0.12397139 -0.07455021
-0.1647894 -0.15008624 0.17452504 -0.16396768 0.09974688 0.08682015 -0.09207841 -0.074287556
-0.023801947 0.1254734 -0.15026113 0.088212796 -0.13229896 -0.16374703 0.12382695 0.03258114
0.10374103 -0.03488983 -0.11126941 0.0528696 -0.1554059 0.17045979 -0.11897808 0.16928871
0.15918939 0.039559375 0.05252644 0.0065048877 0.015653253 0.171849 -0.096078634 -0.12463752
0.11918191 0.045531094 -0.07023548 -0.1385987 -0.056790415 0.13006505 -0.08852075 -0.032187954
0.16062173 -0.16992588 0.07478668 0.09226164 0.13133012 -0.13292544 0.13267814 0.16305164
-0.13076574 -0.053319223 0.14003631 -0.10339851 0.032713357 0.055820536 0.041518588 0.16948779
0.01727176 0.08582726 -0.02724501 -0.012732918 -0.10253297 -0.16248016 0.17616741 0.062736385
0.106196545 0.12985677 -0.11497606 -0.14365335 -0.17635395 0.14087678 -0.16172531 0.10790542
0.134504 -0.024668613 0.13363616 -0.052818842 -0.08355869 0.03980923 0.15652248 0.08867976
-0.082161866 0.063526034 -0.0614371 0.012227465 0.07053471 -0.076543815 -0.0850597 0.1121039
0.016931843 -0.09975413 0.0045661223 -0.058364123 -0.1656642 0.02484915 -0.09674212 -0.14884815
-0.121179275 0.013790737 0.10459553 -0.07734558 0.024973355 0.101992756 -0.06448638 -0.17521
-0.04240297 0.16882451 -0.07314068 0.15084 -0.009853816 0.15720668 0.032541305 -0.04825724
0.060961578 0.16681963 -0.08479079 -0.13384134 -0.1489604 0.009479831 -0.067818485 0.011868723
0.1364263 -0.061082166 0.038074125 0.08668747 0.039740745 0.087945566 0.08604743 0.1738327
-0.094536625 0.03881373 0.1418343 -0.09187345 -0.08231469 0.13440116 -0.09508073 -0.035612117
0.1389055 -0.018909274 8.210536e-05 0.004752283 -0.17177594 0.17854197 -0.09701936 0.038672205
-0.07330683 -0.09937847 -0.052048966 -0.1440799 -0.14181755 -0.04005996 0.10471851 -0.1158738
0.062778376 0.0344497 -0.11627981 -0.07078117 -0.17559549 -0.10345854 0.0059105703 -0.124883816
0.0762608 0.11120203 0.059436325 -0.16534027 0.1680393 -0.17616011 -0.0061269505 0.171863
-0.07645846 0.14768721 -0.15434307 0.11063371 0.107742615 0.09228517 0.032537084 0.13238445

hidden.0.bias f4 [32]
00000000: 9ad1 a13d 32cf c23d a9c3 0c3d d60e ee3d
00000010: cc2f 7e3d aba1 25bd f3bf a8bd 695f 0b3e
00000020: cc9d aa3d ea0d 08be 968b 87bc d219 14be
00000030: e202 183c debb f7bc 4eab 92bd b723 613c
00000040: 084a 4f3d f149 04be 9405 18be fa09 533d
00000050: cc71 2c3e c4b7 83bd adce 003e ca82 2fbe
00000060: c654 203d 61a5 a0bd 1d35 3bb9 74d2 debd
00000070: fef4 a23b 4572 a13c d32d b6bd a997 94bb
0.079013065 0.095121756 0.034366284 0.116239235 0.0620573 -0.04043738 -0.082397364 0.13610615
0.083308786 -0.13286558 -0.016546052 -0.14462975 0.009278031 -0.03024095 -0.0716158 0.013741425
0.05060771 -0.12918831 -0.14845878 0.051523186 0.16840285 -0.06431535 0.1257884 -0.17139736
0.039143346 -0.078440435 -0.00017853496 -0.108799845 0.004973053 0.019707808 -0.08895459 -0.004534681

hidden.1.weight f4 [32, 32]
00000000: 44a0 edbd 04fd 053e 3d19 003e 42a7 d03d
00000010: 1d35 08bd b33d 29bc cb00 d9bd a2a8 d73d
00000020: 6ad4 2d3e 9fcf 9ebd 66f9 a6bd 74a1 433d
00000030: a930 32bd 10cb 6aba 1c55 30be 0435 103e
00000040: 449f e83d 096d a5bd 9737 06be f61f b3bd
00000050: 2049 b93d 7725 c83c 3636 c13d b421 2ebd
00000060: 0547 88bc 7e0f 8fbd dc8e d5bd 05ab 34be
00000070: 54b4 013e 7133 bf3c f030 913d 1dc8 6ebd
00000080: 045f 1bbe 2487 253d 033d d4bd 3add ee3d
00000090: aa2f 09be d8de 37bd 2e09 a93d 50a1 babc
000000a0: caf5 a8bd fda9 1b3e 9637 cebd a0c0 c43c
000000b0: 98d5 403d 7296 f63d a0d1 a13b 50f3 0c3c
000000c0: b462 0dbe c0a1 233d e8ac f2bd 9280 76bd
000000d0: c5ef 063e f01e 0e3d b2a6 d3bd d86b 1d3d
000000e0: ec7c 40bd 8a27 e2bd 00f0 e13c 10d5 32be
000000f0: f67f cd3d a874 e0bd 402e 453b e89c 173d
00000100: 3b5f 1abe 1f28 dbbd 19b2 ad3d 9d94 063e
00000110: 1a72 a13c bdfc c93d 0bdf e2bc 0662 09be
00000120: f629 24bb 8945 b0bd 35dd 833d e611 9f3d
00000130: 9fd7 9d3c 6244 36bc 129c b03d 4e49 93bd
00000140: bd3a 213e 2128 0f3d 9ba3 df3d 69ae 24be
00000150: 0c43 a73d 6b78 a03d 3be7 b93d 2b85 243d
00000160: ca05 023e 4b31 c1bc b67f 9f3c acb8 6ebb
00000170: 6eb2 073e c14e 093d 4f20 1c3e 8d58 273e
00000180: e413 84bd efbf 35be 6b3f 053e 22a7 243e
00000190: dd17 023e ff72 913d 0a18 a93d 4d35 0fbe
000001a0: 13eb 1b3e 7be3 83bd b19d 10be eaaa 933d
000001b0: b3fa 36be 6115 603d 4256 afbd c2cb 053e
000001c0: cd0b 233e 0142 543d c3ba 533d 4736 04be
000001d0: cbba be3d 1b25 8ebd 97c1 27be b612 713d
000001e0: 15bf 91bc 1ffa 0a3d 8969 f23d 7fa4 8bbc
000001f0: cac3 0f3b 5377 713d 88c9 58bc ab42 3b3e
00000200: 1c0e 353c 1b90 cc3d 00db dd3d e077 ec3d
00000210: 25fd 23bd a659 053e c538 e33c 83db 2f3d
00000220: 58fd 36bc efaf b1bd cfdb b1bd 0846 02be
00000230: 4c16 1b3e 5085 2cbe 1400 5abd 316f 903c
00000240: 134d c63d cff5 a7bd fdbf e93c 7f5d 8ebd
00000250: 4f7a 223d 689c 97bd a456 16be 5602 0bbd
00000260: 5dbf 573c 9097 9d3c c8a4 b23d 9294 003e
00000270: 9418 67bd d825 09be 44cf df3d 3f4d 3c3d
00000280: ff92 9ebd 9edd 23be d6c4 f43d a5a7 953d
00000290: e970 eb3d 283a b3bd 91a8 d4bc f938 21bd
000002a0: 723f 23bd 6851 dfbc be41 373e 3782 093e
000002b0: ff13 fabd ab41 db3d a141 023e 4b52 e33d
000002c0: 9475 bcbd e9bd 8e3b 7faf e23d 45f4 1d3e
000002d0: d452 18be 5689 35be 3cec 7cbd 8e8b 313e
000002e0: 367b 233e d542 d3bd 9a8e 843d 4608 4d3c
000002f0: d6db 3a3d d872 28be 556c 883c 5ae9 3b3d
00000300: 5ecb a6bd a920 13be 1b95 463d fbcd db3d
00000310: e139 143e 9007 eabd 00f3 eabd b71c eabd
00000320: 9360 b73c 1906 a2bc f6f7 4dbd 9e38 20be
00000330: f09b fabd 6078 b13d fce4 3bbd a6f1 19be
00000340: d65a ecbd fc5f 32be 6f35 04be 0288 b1bd
00000350: e2c3 1ebd 5802 203e 69c7 11be 9b60 15bd
00000360: d1f6 01be 7098 a1bd d667 c23c 3fc1 e6bd
00000370: e9e1 dc3b e74e a1bb 621f 1b3e bb2b 7dbd
00000380: e9f0 8dbd a86a 0bbe 2dc9 fe3d f3de 1c3e
00000390: cc4a eb3d a175 2e3e a90b 17be 7b71 8a3c
000003a0: 3893 18bd 3a1e edbd 6181 8e3c 00ab 513c
000003b0: e2e2 02bd c75e f9bd c545 48bd 808d 173e
000003c0: 5950 02be b832 073e 5d99 1e3e d075 493d
000003d0: cec3 b6bc a493 bc3d c2f1 0e3e 272a 8dbd
000003e0: e59e 883d a758 223e 500b 033e 7aa5 2ebe
000003f0: 109d acbd 975f 053e eb68 183e 0774 b63c
-0.11602834 0.13084799 0.12509628 0.10188152 -0.033253778 -0.010329652 -0.10595854 0.10530211
0.16975561 -0.07754444 -0.08153038 0.047761396 -0.043503437 -0.000895665 -0.17219967 0.14082724
0.113585025 -0.080774374 -0.13107143 -0.087463304 0.090471506 0.024431927 0.09434168 -0.04251261
-0.016635427 -0.06985377 -0.10427639 -0.17643364 0.12666446 0.023339959 0.07089412 -0.05829631
-0.15172964 0.040412083 -0.103631996 0.11663289 -0.13397089 -0.044890255 0.08253704 -0.022781998
-0.082500055 0.15201564 -0.10069196 0.024017632 0.0470787 0.12040414 0.0049383193 0.008602932
-0.13807184 0.03994918 -0.118493855 -0.060181208 0.13177402 0.034697473 -0.10334529 0.038432926
-0.046994135 -0.11042698 0.027580261 -0.1746409 0.10034172 -0.109597504 0.0030087382 0.03701487
-0.1507539 -0.10701012 0.08481235 0.13142629 0.019707728 0.09862659 -0.027694246 -0.13416299
-0.0025049425 -0.08607013 0.06438676 0.07767086 0.019267855 -0.011124702 0.08623518 -0.07191716
0.15745063 0.03495038 0.10919877 -0.16082157 0.08167085 0.07835468 0.09077307 0.04016606
0.12697521 -0.023583075 0.019470077 -0.003642599 0.1325166 0.03352237 0.152467 0.16342373
-0.06449106 -0.17748998 0.13012473 0.16079381 0.12704416 0.07102012 0.08256538 -0.13985176
0.15226392 -0.06439873 -0.14122654 0.07210334 -0.17869072 0.05470789 -0.08561374 0.13066009
0.1592247 0.05182076 0.05169178 -0.1291133 0.09312972 -0.06940671 -0.16382442 0.058855735
-0.01779131 0.03392994 0.118365355 -0.017046211 0.0021936768 0.058951687 -0.013231643 0.1828715
0.011050727 0.099884234 0.108327866 0.11546302 -0.04003634 0.1302248 0.02773703 0.042933952
-0.0111688 -0.08676135 -0.08684503 -0.12722027 0.15145224 -0.1684773 -0.05322273 0.017631145
0.096826695 -0.08201181 0.02853393 -0.06951427 0.039667424 -0.07402879 -0.14681488 -0.033937775
0.013168183 0.01923731 0.08722836 0.12556675 -0.056419924 -0.13393342 0.10928205 0.045972105
-0.07742881 -0.16002509 0.11951606 0.07307366 0.11496145 -0.08751327 -0.025959285 -0.039360974
-0.039855428 -0.027260497 0.17896172 0.1342858 -0.12210845 0.107058845 0.12720348 0.110996805
-0.09202114 0.004356135 0.110686295 0.15425213 -0.14875346 -0.17728171 -0.06174873 0.17338392
0.1596497 -0.103154816 0.064725116 0.01251418 0.04561981 -0.1645006 0.01665322 0.04587684
-0.08144258 -0.14367928 0.04848204 0.10732647 0.14475204 -0.11427224 -0.1147213 -0.11431258
0.022384917 -0.019778298 -0.050285302 -0.15646598 -0.12236774 0.08665538 -0.045872673 -0.15033588
-0.11540763 -0.17419428 -0.12911008 -0.086685196 -0.038761027 0.15625894 -0.14236225 -0.036469083
-0.12691809 -0.07890403 0.023731153 -0.112673275 0.006740798 -0.004922736 0.1514869 -0.061809283
-0.069307156 -0.13614905 0.12440715 0.15319423 0.11488876 0.1703706 -0.14750542 0.016899815
-0.037249774 -0.11578031 0.017395677 0.012797117 -0.031954654 -0.121762805 -0.048894662 0.14800072
-0.12725963 0.13202941 0.15488191 0.04918462 -0.022310164 0.09207848 0.13959411 -0.068928055
0.06670932 0.1585413 0.12797284 -0.17055312 -0.08428395 0.13024746 0.14883773 0.022272123

hidden.1.bias f4 [32]
00000000: 25ea 253e 9029 1cbe 63a2 11ba 1d93 2f3e
00000010: cced 963d a4e2 193d 182c db3d 0348 0dbe
00000020: cf84 96bd 9611 0d3e 3ee5 203e b6dd 9bbd
00000030: 1168 62bd 97fd e83d 60e2 32be ca5d 1fbe
00000040: b719 f23c 7158 fa3d f71e c13d 9aa9 003e
00000050: 6aa9 223e 84d5 9d3d be7a 0b3e c055 46bd
00000060: 4329 c43d 3905 29be 5aa6 143d ded1 1b3e
00000070: 76e2 b53c 24f2 e9bd 68af dabd 0928 063e
0.162026 -0.1525023 -0.00055555085 0.17145963 0.07369575 0.037569657 0.107017696 -0.13797002
-0.0734955 0.1377624 0.15712449 -0.076106474 -0.055275027 0.113764934 -0.17469168 -0.15563121
0.029553277 0.122239 0.09429734 0.12564698 0.15884939 0.077067405 0.13621041 -0.04842162
0.095781825 -0.16505899 0.036291458 0.15216777 0.022202712 -0.11423138 -0.10677987 0.1310121

hidden.2.weight f4 [32, 32]
00000000: 980c 95bd 9b31 18be 0ee3 3d3e 6470 053e
00000010: 9f9f 80bd 8794 403e a158 c8bd 209e 453d
00000020: 6cc6 12be 49d9 3b3d cf39 fd3b a509 703d
00000030: 0b83 6a3b c9c5 683d e712 9d3d 05ed 153e
00000040: 6516 773d 001b 0fbe 2b52 093e 19e6 b5bd
00000050: 10be 30be 8121 a0bd 7aff bbbc 9b2f 9abd
00000060: e79f 953d 9e79 a5bd 5810 163d e8c3 003e
00000070: f638 34be 5753 c1bd 3687 0e3e 2156 153e
00000080: 4677 dd3d 7223 f13d 832a aebd 5dd1 023e
00000090: 8c08 013e b380 b1bb ffc8 b5bd e505 a6bd
000000a0: d0e6 fbbd 7876 3e3e 9b56 7e3d 3fbf 6dbd
000000b0: c47c 89bd 1791 29be cd23 8ebd b5c8 143e
000000c0: 3a20 273e a2e3 39be aace 1f3e 7fac 2c3e
000000d0: 308b cdbd 2a6e edbd 7e32 17be 361e 6bbd
000000e0: c760 ba3d 8278 bd3d 28ec 01be 7a9f 14be
000000f0: f135 f1bd 52bd 7e3c b6ef bebd 9d40 20bc
00000100: 5e0c c5bd 342e 1ebe 4062 c6bc d0ea 133c
00000110: befb c93d 040e a5bd 5220 c53d b2c9 af3d
00000120: fc3d 78bd 0a9a ecbd 54b9 28bd 2ef5 f23d
00000130: a0e3 af3b c064 f63b 842a 02bd c088 23bd
00000140: 9821 37bd 001f 6b3d 0b5a 1abe 5dad e7bd
00000150: efbe e7bd c704 313e 61fb 30be d27e 0fbe
00000160: 2802 01be f033 d7bd d3d0 273e 783a b2bc
00000170: 802f 82ba 0070 ee39 fd81 17be f064 dabc
00000180: 8db6 25bc 491d 2a3e 7d51 a0bd 29cd 763d
00000190: 36e2 083e 8dac 10be 59d9 293d cdb9 dbbc
000001a0: a23c ea3b e56c b73d 9b39 a43d 21fc f23c
000001b0: 7ac8 be3d 2435 123e 1d61 7fbd 40c1 883d
000001c0: 4dda e3bd b9ab ac3d 4134 c33d 38a3 b93b
000001d0: eed0 0ebe eb1a 8abd 4550 19be 97d5 b3bd
000001e0: bd42 273d a08b 8fbb 155f 89bd 2890 053e
000001f0: 12c8 9e3d 77f4 79bd 6d95 babd 35f8 55bb
00000200: c1a4 28bd 58fe 23be 2e65 a23c 2be3 f73d
00000210: 5674 b53d 7ac9 1b3e 5d16 303d e4d5 b33d
00000220: b88d 433d 7597 153e ee84 edbd 24a5 2dbe
00000230: 90ca c5bc bde5 34bd 8e5c e9bd c01c 0e3b
00000240: 1544 1cbe 8ffd 213e e490 223e 6a9f 1fbe
00000250: 35e2 c8bd 77fd 8d3d 021c 8abd f885 463d
00000260: 742d 643d 50b0 9fbc 74aa 38bd 09b5 d13d
00000270: aee9 36bd c900 22be fc72 c43d b2e8 193d
00000280: 03e5 6dbd 578f e4bd 0444 a33d e88e 1f3d
00000290: 7570 f5bd c342 873d 6d84 0d3e 4308 d83d
000002a0: 883f 713d 8082 ccbd a6a0 003e 7d2b c33d
000002b0: c1ed 5b3d 02ca 033d af19 083e 70b6 883d
000002c0: 2a78 d13d be6a f33c 3017 e3bd 4529 edbd
000002d0: 3c80 01bd 5be5 c2bc 43e9 89bc eea0 1cbe
000002e0: 93b0 aa3b 7824 b93c ec58 adbd 602e 393d
000002f0: 161f 92bd c775 ea3d 34cf 323e e91f 1a3e
00000300: 8993 263e b789 b6bd 8cc0 b1bd d76c 19be
00000310: ac38 df3d d815 883c 2855 0c3e 5159 f3bc
00000320: abbc 02be d2d5 65bd 4ef7 383c 63f5 afbd
00000330: 8828 f83d f688 21be 954e df3d 9029 fdbc
00000340: 4171 7dbd 4a7f 3a3e 391a b9bd 53f4 933d
00000350: 3595 093e fec2 ff3d b948 393e 9458 1cbe
00000360: d928 95bd bd79 183e 21a9 323e 37e7 23bd
00000370: dad9 b83d 662a 8b3d 3449 c9bd 9dd8 56bc
00000380: aeba d83d f0e9 b93c ef54 00be 5eec 153e
00000390: a047 96bd 755f 253d 6689 08be 3005 9dbd
000003a0: 7c12 b3bd ad78 3c3d 2257 3e3d dba9 213e
000003b0: 4ce9 1d3e 2542 3c3d 6a04 e63d 6f18 013e
000003c0: 5c35 4a3d c3d2 783d a6c7 243d 2935 9db9
000003d0: 92bb 723d e3de 7e3d 1b52 cb3d 847b 183d
000003e0: cf1f 19be 20d8 76bd 6b4b 653d e67d 423e
000003f0: c83e 243e fc2c 253e 9608 173e 35c9 1cbe
-0.07277793 -0.14862673 0.18543646 0.13031155 -0.06280445 0.18806659 -0.097825296 0.048246503
-0.14333504 0.045861516 0.0077278386 0.058602948 0.0035783674 0.056829248 0.07669621 0.14641197
0.06032409 -0.13975143 0.13410251 -0.08881778 -0.17260003 -0.0781889 -0.02294897 -0.07528611
0.073058896 -0.08079837 0.03663668 0.12574732 -0.17599854 -0.09439724 0.13918766 0.14583637
0.10813765 0.11774339 -0.08504202 0.12775178 0.12600917 -0.0054169535 -0.088762276 -0.08106593
-0.12299883 0.1859988 0.062094312 -0.058043715 -0.0671325 -0.16559254 -0.06940422 0.14529689
0.16320887 -0.18153241 0.1560618 0.16862677 -0.100363135 -0.11593278 -0.14765355 -0.05740186
0.0910049 0.09251501 -0.12687743 -0.1451396 -0.11777867 0.015548067 -0.09323065 -0.00978103
-0.096214995 -0.15447313 -0.024216771 0.009028152 0.09862469 -0.08059314 0.09625305 0.08583392
-0.060605988 -0.11552818 -0.041192368 0.118631706 0.005367711 0.0075193346 -0.031778827 -0.039925337
-0.044709772 0.05740261 -0.15073411 -0.11312363 -0.113157146 0.17286979 -0.17283393 -0.14013222
-0.12598479 -0.10507953 0.16388254 -0.021756396 -0.0009932369 0.00045478344 -0.1479568 -0.026659459
-0.010114324 0.16612734 -0.07828043 0.06025425 0.13367543 -0.14128323 0.041467045 -0.026821995
0.0071483413 0.08956317 0.080188 0.02966124 0.093155816 0.14278084 -0.062348474 0.066774845
-0.11125622 0.08431191 0.09531451 0.005665209 -0.13946888 -0.067434154 -0.14972027 -0.087809734
0.04083513 -0.0043806583 -0.067075886 0.13043272 0.07753004 -0.061024155 -0.09110532 -0.0032649164
-0.041172747 -0.16014993 0.019823637 0.12103876 0.0886008 0.15213576 0.042990077 0.08781031
0.047742575 0.14608558 -0.1159762 -0.16957527 -0.02414444 -0.044164408 -0.113946065 0.0021684617
-0.15260346 0.15819381 0.15875584 -0.15588155 -0.098087706 0.0693311 -0.06743623 0.048467606
0.05570741 -0.019493252 -0.04508443 0.10239608 -0.044656448 -0.15820612 0.09592244 0.03757543
-0.05807973 -0.111601524 0.07971957 0.038954645 -0.1198434 0.06604531 0.13820048 0.10548451
0.05889848 -0.099858284 0.12561283 0.09529779 0.053693537 0.03217507 0.13291048 0.06675422
0.102279976 0.029713985 -0.11088407 -0.11580137 -0.031616434 -0.023791006 -0.01683486 -0.15295765
0.0052090376 0.022600397 -0.08464226 0.045210242 -0.071348354 0.114482455 0.17461854 0.15051235
0.16267218 -0.08912986 -0.086793035 -0.14982925 0.10899481 0.016611978 0.1370436 -0.029705675
-0.12767284 -0.056112118 0.011289431 -0.08591726 0.12117106 -0.15774903 0.1090366 -0.030903608
-0.061875585 0.1821262 -0.09038205 0.072243355 0.13435824 0.12488364 0.18094148 -0.15268165
-0.07283182 0.1489019 0.1744733 -0.040015426 0.09025927 0.06795196 -0.098284155 -0.013113168
0.10582481 0.022694558 -0.125324 0.14640948 -0.0733788 0.040374238 -0.13333663 -0.07667005
-0.0874376 0.046013523 0.046469815 0.15787451 0.15421027 0.045961518 0.11231311 0.12606977
0.049367294 0.060747873 0.040229462 -0.0002998498 0.059260912 0.06222428 0.0992777 0.03722717
-0.1495354 -0.060264707 0.055980127 0.18993339 0.16039574 0.16130441 0.14749369 -0.1531113

hidden.2.bias f4 [32]
00000000: fd99 053d b495 2b3e 0615 2fbe ec61 163d
00000010: 77fa c9bd 7468 fabb 3c00 bebc f418 083e
00000020: 37fb e83d 4d35 adbd d625 85bc 097d a2bc
00000030: a232 dbbd 0e17 f6bc 0ad4 15be 2a63 c13c
00000040: dd0b 31bd d348 bc3d 038e c13d 072e 353c
00000050: 7efb 10be 783c 643d 1221 5f3d aabd afbd
00000060: dbaa 033e 1983 2abc 7519 1d3d 2e8b 8a3d
00000070: ac61 4b3c e6e9 23bc 80d0 87bd 807e c53d
0.032617558 0.16756326 -0.17097864 0.03671448 -0.098622255 -0.0076418463 -0.023193471 0.13290769
0.113760404 -0.08457432 -0.016253393 -0.019835012 -0.10703017 -0.03004029 -0.14631668 0.023606855
-0.043224204 0.091935776 0.09450915 0.011058337 -0.14158437 0.05572173 0.054474898 -0.085810974
0.12858145 -0.010407233 0.038354356 0.06764828 0.0124134235 -0.010004496 -0.06631565 0.096432686

hidden.3.weight f4 [32, 32]
00000000: ed95 a5bd 10be 37bc 0ca4 8b3d c3d5 253e
00000010: 5a89 c93d 896d f0bd 31a1 1dbe 505e 84bd
00000020: 97e8 1b3e 90ae 173d d83b 1bbd 90d3 81bc
00000030: 3ec0 d13d 2496 e3bd 9c1c 4f3d c4e9 0e3d
00000040: a9b1 0ebe bfc1 143e 6074 5abc 5835 8bbc
00000050: 411d 203e 5828 3a3d 8087 99bb 726d b63d
00000060: 366c 963d 8852 b63c 3caa 18be 68f5 903d
00000070: 8cd6 28bd 91d1 083e c0fd 36bd 6cfc 1f3d
00000080: 10e2 843d 4937 043e 900d 55bc 3ef0 0abe
00000090: ed81 18bd 1419 8438 5f1f f63d a9e1 163e
000000a0: 44fa d13b 63ac 27be fc74 313e 91b8 e83c
000000b0: b2df e73d cb70 c7bb 0d69 dfbd 2d38 f03d
000000c0: 78a8 2b3e 1987 d73d 2bd4 54bc bc09 02be
000000d0: 9a5d fb3d 9e5e 07be e763 223e 1224 733d
000000e0: 8bb3 bb3a b4ce 1abe 636b ba3d 82ac b9bc
000000f0: 4cd6 513d 8971 5abd 51ac 04be fbc8 093e
00000100: 9ae0 873d 005d 07bc 74a4 7a3d 60fe 15bc
00000110: 227c 1bbe efc6 a5bd c6ac 9cbd e0f5 d63b
00000120: fcfa 623d 32ab ee3d 4fcb 2cbe 0b43 f4bd
00000130: bd0a 07be ba13 db3d 2a91 a33d 89f7 8ebd
00000140: 3f81 183e 21ee 0dbe 2b68 183e 2bca 033e
00000150: ca89 a03d e069 afbd bc67 613d 5e6a 61bd
00000160: bd8d abbd a14d e3bd 4014 9cbd 3e41 b63d
00000170: dcbd 14bd 5268 a73d 2a38 ebbd f0ba c1bc
00000180: f6d8 babd e74e f03c da97 a73d 64e5 51bd
00000190: ef38 c0bd da29 e0bd 0f23 9a3c c2d4 153e
000001a0: 4ef6 1a3e 077b eebd 27e9 943d 07ad 02bd
000001b0: 5872 fa3c c2cc ffbd f842 e3bc 44a9 8ebc
000001c0: 4f23 0c3e 5c7c 96bd cb47 243e 8f1e 92bd
000001d0: ec84 2bbd bc29 493d e901 243e 4dfe a43d
000001e0: 130d 04be a8ef 633d 1098 2fbd 0e41 03be
000001f0: 907a 17be a783 623d 8af2 cb3d b451 603c
00000200: b809 093e 748e fb3d 18f6 fe3c 0d85 923b
00000210: de4a 15bd 2b7b ce3d 560f df3d 50bc 833d
00000220: 71b7 8a3d b8bc e23c 18d2 33be 445f 1f3e
00000230: 6e63 b63d a8be 41bd 62b2 c73d c5ad 0dbc
00000240: 24fe c1bd 1076 043e 5047 e03d 8c09 e53d
00000250: 8c51 44bd 56e0 1f3e c380 2f3e fa9d 003e
00000260: 7e58 a5bd 22fc 123d 4e60 053e 93a4 a9bd
00000270: b80d 0b3e 7707 18be 31f6 74bc 7c75 79bd
00000280: f7cc 163e 9703 78bd dae0 16be 526d 51bc
00000290: 7fda a43d dcea e13d 40be 58bd b8ef e03d
000002a0: e59c f83d 7257 333d d7cd e33c 756a 94bc
000002b0: 1db1 063e 0a41 903d 69dc 103e 5508 153e
000002c0: 7290 563d d228 2abe 8d19 f3bd ff3a b23d
000002d0: b093 49bc 7599 e93d ea54 13be 2568 9bbd
000002e0: b940 c93c 00fc e63d 8f38 2cbe 4613 0cbd
000002f0: f4ef e3bb d36a 72bc 02ef 26be 3e1f cabd
00000300: 00d5 643a 3be5 0f3e 7082 f8bd d068 27bd
00000310: c160 26be 8059 003b 9e70 1cbe 4e12 32be
00000320: f031 df3c a8fd 09bd 25c7 163e 4056 fdbb
00000330: e82f 34bd 6836 6fbd 0f9f 283e 4055 20be
00000340: b48f 0b3d 102c 2fbc d00c c43c ef12 2d3e
00000350: 91a3 34be 9e79 09be 1a99 17be 6e56 cb3d
00000360: 6055 01bd 98b1 203d 1d48 89bd fc8b f0bd
00000370: 438d 293e 38b8 18bd a866 fc3c 4039 21bd
00000380: f98c b3bd bb67 e23d 49f3 23be 6c1f d83d
00000390: 7b8c 213b 9e3c e8bd db98 c93d 9109 1fbe
000003a0: 41ac 83bd 2095 1fbe 70af 973d 0b40 313d
000003b0: 8ac9 e63d d44c 7c3d 4829 aebd 4a05 c63d
000003c0: 97d8 0d3e 9f72 f13d 5ad2 383e a27d e13d
000003d0: d10e 1a3e 1f20 eabd fd7d 35be af44 ed3d
000003e0: 0848 323e e59e efbc c78b 13be eebc a3bd
000003f0: ece2 38bd f86a 073e 406c 743c 0c0d 373e
-0.08085237 -0.011214748 0.06818399 0.16194825 0.09840651 -0.11739642 -0.15393521 -0.06463301
0.15225445 0.03703171 -0.03789887 -0.015847951 0.102417454 -0.111126214 0.050564393 0.034890905
-0.1393496 0.14527033 -0.01333341 -0.01699321 0.1563616 0.04544863 -0.0046853423 0.08907594
0.07344858 0.02225615 -0.1490869 0.070780575 -0.041220233 0.13361193 -0.04467559 0.039059088
0.064884305 0.12911715 -0.013003722 -0.13568208 -0.037233282 6.298922e-05 0.12017702 0.1473452
0.006408008 -0.16374354 0.17329782 0.02840832 0.11321963 -0.006086444 -0.10908709 0.11729465
0.16763484 0.10523815 -0.012990038 -0.12699026 0.122737125 -0.13219687 0.15858422 0.05936057
0.0014320476 -0.15117913 0.09102514 -0.022665266 0.05122976 -0.05333093 -0.12956358 0.13455574
0.06634636 -0.008261919 0.06119199 -0.009154886 -0.15184072 -0.08094584 -0.076501414 0.0065600723
0.05541514 0.11653747 -0.16874431 -0.1192685 -0.1318769 0.10697122 0.07986672 -0.06980807
0.14893053 -0.1386037 0.14883487 0.1287009 0.07838781 -0.08565116 0.05503057 -0.05503308
-0.08376644 -0.11098791 -0.0762105 0.08899163 -0.036313877 0.081741944 -0.11485322 -0.023648709
-0.09123413 0.029334499 0.0818326 -0.051244155 -0.09385859 -0.109454826 0.018815545 0.14631942
0.1513302 -0.11644559 0.07271033 -0.031903293 0.030572101 -0.12490226 -0.027741894 -0.017414697
0.13685344 -0.073479384 0.16043012 -0.07134735 -0.04187481 0.049112067 0.16016354 0.080563165
-0.12895612 0.055648476 -0.042869627 -0.12817785 -0.14792848 0.055301335 0.0995837 0.013691355
0.13382614 0.1228303 0.031123206 0.0044714273 -0.036448352 0.10082086 0.10891597 0.06432402
0.0677327 0.027677879 -0.17560613 0.15563685 0.089056835 -0.047300965 0.09750821 -0.008647387
-0.094723016 0.12935662 0.10951102 0.111834615 -0.04792933 0.15612921 0.17138962 0.12560263
-0.08073519 0.035884984 0.13025019 -0.08283343 0.13579452 -0.14846598 -0.014951275 -0.060903057
0.14726625 -0.0605503 -0.14734212 -0.012782412 0.08049487 0.11031124 -0.05291581 0.10983223
0.121393 0.043784566 0.027808113 -0.018117169 0.13153501 0.07043655 0.1414658 0.1455396
0.052383848 -0.16617134 -0.11870108 0.08702659 -0.012303278 0.11406223 -0.14387861 -0.07588223
0.024566995 0.11278534 -0.1681845 -0.034198068 -0.006956095 -0.014795977 -0.16302112 -0.0986924
0.0008729249 0.14052288 -0.12134254 -0.04087144 -0.16247846 0.0019584596 -0.15277335 -0.17389795
0.027245492 -0.03368917 0.14724405 -0.007731229 -0.043991 -0.058401495 0.16466926 -0.1565752
0.034072593 -0.010691658 0.02393189 0.16901754 -0.1764052 -0.134253 -0.14804497 0.099285945
-0.03157556 0.039231867 -0.06703208 -0.1174545 0.16557793 -0.03728506 0.030810669 -0.03936124
-0.08767123 0.11054941 -0.16010775 0.10552868 0.0024650383 -0.11339687 0.09843608 -0.15530993
-0.06429339 -0.1558423 0.07406509 0.043273967 0.11268909 0.061596707 -0.085039675 0.096689776
0.13852154 0.1178944 0.18048993 0.11010291 0.15044715 -0.11431908 -0.17723842 0.11585366
0.1741029 -0.029250572 -0.1440879 -0.0799502 -0.045138285 0.13224399 0.014918387 0.1787607

hidden.3.bias f4 [32]
00000000: a7ea 1dbe 52ee 983d cc6c 47bd f3b2 e9bc
00000010: 9295 edbd e94f 083e 24a7 30bd a232 1f3e
00000020: ae22 433d 4aac 7d3d 6fde 1f3e 708b 24bd
00000030: 423b 1a3e e4e1 14bd 3306 bdbd 5a14 5abd
00000040: fa41 bd3d 74ca 9cbd 3058 1d3e 623c 8abd
00000050: 7331 143e 46cd 71bd a0a0 5abd b68f f43d
00000060: 75c2 813c d804 823d ca7c b6bd 095e ce3d
00000070: 4746 ac3c 90e1 173c bc72 003e dbf6 16be
-0.15421544 0.07467331 -0.04868774 -0.028527712 -0.11600794 0.13311733 -0.043128148 0.15546659
0.047640495 0.061931886 0.15612195 -0.04017204 0.15061668 -0.03634824 -0.09229698 -0.053242065
0.092411 -0.07655802 0.15365672 -0.06749798 0.14471988 -0.059033655 -0.05337584 0.11941473
0.015839795 0.0634858 -0.089105204 0.100765295 0.021029605 0.009270087 0.12543768 -0.14742605

hidden.4.weight f4 [32, 32]
00000000: c03a 15bd 39ff 8a3d 404f 2d3c c33c 36be
00000010: a0bc 34be 8b60 253e 58b5 c0bc 8fca 243e
00000020: b159 1c3e c8b2 b53d 317f 07be c428 96bd
00000030: 69bb d8bc 9262 2cbe a062 233d ae6a ec3d
00000040: 0c23 853d a2bc 823d c3b7 0b3e 257c b0bd
00000050: 39d2 19be e611 963d b38a 0fbe f02c 0fbe
00000060: 87ed 073e a672 053e 8775 dcbd d4f5 11be
00000070: 5f51 4f3d 6899 ad3c 2f76 a23d 73a9 05be
00000080: 18f9 b3bc d0fb 9d3d e0d7 12be 89b4 143e
00000090: 2875 18be 4c50 28be 6913 d7bd b01b 5dbd
000000a0: 20e7 af3c b90e c53d 77ff 39bd d55b 25be
000000b0: a18f 17be 3310 e9bd 59c0 2b3e 4436 5d3d
000000c0: 8ea6 97bc 3b1c 263e 9384 933d da55 7cbd
000000d0: 8038 ed3d 5065 52bc 01e8 fbbd 92bb 173e
000000e0: 301d 993d 9e6b 84bd d815 963c d404 a93d
000000f0: f04d 103e 7fea 02be 2307 003e ddc9 0dbe
00000100: c6e7 75bd d3e4 b5bd 68b3 c3bc 5cce c53d
00000110: 1322 86bd 3846 1b3d e500 f0bd be36 ac3b
00000120: f781 4c3d f04d dabd 4e62 03be 1407 893d
00000130: 1ddf 433d 36df 01be d5be e9bd f09a 78bc
00000140: 678b 63bd 384c 52bd 292a 11be 20fe 783c
00000150: fd52 9e3d b829 563d fccd a7bd ecba 293e
00000160: f61d 913d e065 30be d2cb ba3d af0d f73d
00000170: db78 4e3d 9622 ea3d ce2a c93d dee9 d33d
00000180: 40ea 0abe 08d5 11be 6006 833b 7a0f afbd
00000190: d69e 9a3d 1460 513d fafe a63d 35db 103e
000001a0: 523f 95bd 96ef ffbd 90d5 103d 968e ee3d
000001b0: ef8b dabd 1dcc 323e a0e5 ad3b 52fd 06be
000001c0: abe6 333e 1c56 923d 4e61 91bd e564 a2bd
000001d0: 2674 f43d 210d 023e d306 273e 80a9 1ebd
000001e0: ee39 b43d 70b6 69bc 26b0 0bbe 9645 9b3d
000001f0: 679a 2ebe e8ed ae3c f630 b2bd 4073 bc3c
00000200: 0d7b 0e3e 6090 ecbd 0dda bcbd 07e6 42bd
00000210: 5d2f bdbd 3286 dc3d 3dc5 003e d770 36bd
00000220: 0d12 06bc adbe 383c ea42 a63d 064e f8bd
00000230: 291d 00bc 30e1 3b3d 80f0 ee3b 3961 a5bd
00000240: 9ae7 84bd 4039 4fbc 5a65 683d 7464 1f3d
00000250: 2cff e5bc f052 263d 0038 df3c 42d9 9c3d
00000260: 5bec d13d 68ce 8fbd 6120 323e 4208 07be
00000270: f8ad 19bd 07d4 0a3e fa80 14be 0844 aebc
00000280: 7cc5 07be 17e5 123e 8c9e 0b3d 8d5d 15be
00000290: 2c49 f4bd db35 133e b681 e43d 2576 e9bd
000002a0: f3ca b7bd fcaa a9bd f846 8c3d 5ff2 89bd
000002b0: 5c52 38bd 4246 f6bd b591 d7bd a8ce 9d3c
000002c0: c976 243e dd27 91bd 782b 05bd 0ff7 2fbe
000002d0: 843b 5a3d 0023 873a cbbd 13be 290d 17be
000002e0: afa8 a9bd 401b 23bc 2cc0 8e3d 096c febd
000002f0: 502c d33c e9ad 143e c28d b73d dd27 a2bd
00000300: 80a2 493d a95c 15be d2f1 cd3d b82d 323d
00000310: 409a 8c3b 1e03 bdbd 9e21 a13d 70e4 313d
00000320: 3ed4 d73d 6e41 ff3d 8a60 ea3d 0527 11be
00000330: e2eb 8e3d 6b7d babd 68a4 0e3d f038 883d
00000340: 005b 743a 51e0 0d3e f033 31be 91d9 2a3e
00000350: 1c77 02bd 0062 d1bc 8f1e 22be de61 9e3d
00000360: 4598 c4bd 07e5 a4bd a8c6 51bd 4d17 a2bd
00000370: b8e0 533d b055 31bd f547 253e d8d1 ecbc
00000380: 0f7b 253e dcdf 28bd f9c5 f5bd 4cb6 e0bd
00000390: c5e3 8abd b950 febd 3e4c f93d 004c 7c39
000003a0: a3b1 253e 1443 72bd ef09 173e f845 0ebe
000003b0: 4ac5 edbd 263b babd 0b06 2fbe 7cbd 36bd
000003c0: d0d8 11bc 735a 2f3e c802 2cbd 355c a7bd
000003d0: 5277 fd3d 4961 2b3e 003d 59bb 5a24 c73d
000003e0: fcb8 493d 3619 973d 00fe 9a39 ecc8 edbd
000003f0: 242a 013d 6041 4cbd 3b21 283e 137f 083e
-0.03643298 0.06786961 0.010577977 -0.17796616 -0.1765008 0.1615011 -0.023523971 0.16092895
0.1526859 0.088719904 -0.13232113 -0.07331994 -0.026456552 -0.16834477 0.039888978 0.11543785
0.06500825 0.06383635 0.13644318 -0.08617429 -0.150216 0.073276326 -0.14017753 -0.13981986
0.13274203 0.13032016 -0.10764604 -0.14253932 0.05061471 0.021191314 0.07932698 -0.13052921
-0.021969363 0.07714045 -0.14340162 0.14521994 -0.14888442 -0.16436881 -0.10501749 -0.053981483
0.021472514 0.09621949 -0.045409646 -0.16148312 -0.14800884 -0.11380043 0.16772594 0.05400683
-0.018512037 0.16221707 0.07203021 -0.061605312 0.11583042 -0.012841538 -0.123001106 0.14817646
0.0747627 -0.06465839 0.018320963 0.08252874 0.14092231 -0.12784766 0.12502722 -0.13846536
-0.06003549 -0.088815354 -0.023889259 0.096585006 -0.06549468 0.037908763 -0.117189206 0.005255549
0.04992863 -0.10659397 -0.12830469 0.06690803 0.0478202 -0.12682804 -0.114133514 -0.015173659
-0.055552866 -0.05134222 -0.14176239 0.015197307 0.077306725 0.05228588 -0.08193585 0.16575211
0.07085793 -0.17226362 0.09120907 0.12063157 0.050408226 0.11432378 0.098226175 0.10347341
-0.13565922 -0.14241421 0.0039985627 -0.08547874 0.07549827 0.051117018 0.08154102 0.14146121
-0.07287468 -0.12496869 0.03535992 0.1164829 -0.106712215 0.17460676 0.0053069144 -0.13182572
0.17568462 0.0714533 -0.070986375 -0.079294 0.11936216 0.12700321 0.16311197 -0.038735867
0.08800112 -0.014264688 -0.13641414 0.07581632 -0.17051087 0.021353677 -0.08700745 0.023004174
0.13914128 -0.11550975 -0.092212774 -0.047582652 -0.092375495 0.10767783 0.1257524 -0.044541206
-0.008183015 0.011275929 0.081182316 -0.12124257 -0.007819452 0.045869052 0.0072918534 -0.080751844
-0.06489487 -0.012647927 0.05673728 0.03891416 -0.028075777 0.04060644 0.027248383 0.07658626
0.10250159 -0.07021791 0.17395164 -0.13186744 -0.037519425 0.13557445 -0.14502326 -0.021272674
-0.13258928 0.14345203 0.03408675 -0.14586468 -0.11928019 0.14376013 0.11157553 -0.113994874
-0.08974256 -0.08284566 0.06849474 -0.06735682 -0.04500042 -0.12025119 -0.10525838 0.01926358
0.16060938 -0.070876814 -0.03251216 -0.17184089 0.053279415 0.0010310113 -0.14427869 -0.14751114
-0.08284127 -0.009955227 0.069702476 -0.1242295 0.025777966 0.14519466 0.08962585 -0.079177596
0.049227238 -0.14586128 0.10055889 0.043500632 0.004290849 -0.0922911 0.0786774 0.043430746
0.10538529 0.124636516 0.114441946 -0.14175041 0.06978585 -0.09105953 0.03482476 0.06651485
0.00093214214 0.13855101 -0.17304969 0.16684557 -0.031851873 -0.025559425 -0.1583197 0.077335104
-0.095993556 -0.08051496 -0.051214844 -0.079146005 0.05172798 -0.04329461 0.1614073 -0.028908655
0.16160224 -0.041229114 -0.12000651 -0.1097227 -0.06781725 -0.124177404 0.12172745 0.00024060905
0.16181044 -0.059146002 0.14749883 -0.13893878 -0.116098955 -0.09093313 -0.17092149 -0.0446143
-0.00890179 0.17124347 -0.04199484 -0.08171884 0.12376274 0.1673633 -0.003314793 0.097237304
0.04924868 0.073778555 0.00029562414 -0.116105884 0.03153433 -0.049867034 0.16418926 0.13329725

hidden.4.bias f4 [32]
00000000: b87b 893d d262 093e c9d9 9a3d b067 f7bc
00000010: f758 033e 8000 fcbd 547a 3ebd 2e53 00be
00000020: c878 443d d23d 07be 37e3 18bd 8662 c1bd
00000030: c1a7 4abc 4539 c5bd 262f 1fbe a917 aabc
00000040: a22f 223d 798a 4e3d b3f6 f33d f2e3 dcbd
00000050: f026 56bd 0372 103e d03e 3e3d 50dc c13d
00000060: f88a 1b3e 362c dd3c 0ba4 cd3c a290 2a3e
00000070: 6c2b ddbd b5d6 0c3e 09e8 cbbd de28 1e3e
0.067130506 0.13416603 0.075610705 -0.03020081 0.12826906 -0.12304783 -0.04650338 -0.1253173
0.04796675 -0.13207176 -0.037326064 -0.0944262 -0.012369097 -0.09630064 -0.1554533 -0.020763235
0.039596207 0.050425027 0.119122885 -0.107856646 -0.052283227 0.14105992 0.04644662 0.094658494
0.15189731 0.02699862 0.025102636 0.16656736 -0.10799298 0.13753779 -0.099563666 0.15445277

hidden.5.weight f4 [32, 32]
00000000: 0771 bdbd fc82 0b3d c069 08be 1099 13bd
00000010: 1124 1cbe 12cf 973d 2071 fc3b 8072 04bd
00000020: 9022 1ebc e07e 323d e0b6 10be b355 053e
00000030: fce0 14bd 1805 7d3d 58c4 a2bc 3019 1c3c
00000040: 1e1c 6abd c01b 2d3b a372 103e c05d 7b3c
00000050: 8182 103e 903a b8bd 0994 0fbe 182b 5d3d
00000060: 806a c73a a9eb 023e eaa5 e03d 49a5 0f3e
00000070: 02b7 d23d 6b23 2d3e d2fb fd3d 8dfc 0b3e
00000080: 5ce8 1ebd 7921 83bd 4296 7d3d fec5 e63d
00000090: 34ec 853c 6b35 2cbe b65e 26be 18b0 843c
000000a0: ff94 c9ba eabf fd3d a6b5 82bb fd6e 94bd
000000b0: d7a3 71bd 4662 ed3d d259 943d 43cc 17be
000000c0: ea8c 1e3e 951b 20bd 3314 39be f04d 97bc
000000d0: 3094 c5bc ddab 373c 04f6 9cbd 6168 253e
000000e0: 316d 8cbd 427e 313e 2ced 3abd bd41 153e
000000f0: bd44 333e d9e5 bbbc 20e0 cbbb ca5b e6bd
00000100: a279 d93d 313e 71bd fe5e 02be d24f b93d
00000110: a225 05be ec4a b9bd a072 943d 601f f7bb
00000120: 6f3e 84bd 6677 ac3d b960 81bd 368c 983d
00000130: dddc d83d e613 b83d 4982 063e 02bf dd3d
00000140: 201c 4fbd a7ae b73c 0a90 8cbd 1fbd 2a3e
00000150: f892 bcbc 21b5 90bd 88a7 8c3d 6b11 febd
00000160: c6d1 e7bd 21e3 a7bd e1ce b8bc 06d4 093d
00000170: 41ec bdbd e167 76bc 1309 d6bd e6d2 3b3d
00000180: 26ca 11be d5c4 38be 04e9 16be f8d2 283d
00000190: c145 04be 66b1 9a3d 8eb4 04be 7ae6 b2bd
000001a0: d4ca a3bd 20b8 ebbb d3cd b4bd d06d 893d
000001b0: 8236 90bd 9ad2 f83d 10b6 903d 2487 85bb
000001c0: 9e63 21bd a991 b4bd 1468 c63b b633 ee3d
000001d0: ab47 243e b128 1a3e 76e7 0cbe 2ae5 8dbd
000001e0: a0e2 49bd b8a3 353e f8bd f3bd 10a8 28bd
000001f0: 40ce e8bd dd2c 8b3d 80d1 5bbc f6a1 053e
00000200: cca6 783d e99d 893d cd67 94bb e4d7 20bd
00000210: bfb2 343d 84ea 383d 6889 933c b341 30be
00000220: 432a 003e d29f fd3d 362f a5bc 1d44 22be
00000230: 53e0 843c 70dd 70bd 9232 c43d f7d5 d9bd
00000240: 35d0 89bd b7f7 c83d b06d 903a e397 2abe
00000250: 2fcd 22be 1e73 8d3c a046 833c 21bb 34be
00000260: cfc6 393d 025e f3bd b3f1 17be deaa 583d
00000270: 98d6 6a3d d592 19bc b7b9 2b3e 5f5f 823d
00000280: 304d 2b3d 091f d9bd 4fb2 14be f32b 0f3e
00000290: a857 043d b658 db3d a969 1abe b1df 213e
000002a0: d84f 0d3d 47c6 b5bd b72a 073e 7474 cebd
000002b0: 6e5d 67bd bbcc 313e 2016 613c 76a5 d33d
000002c0: c27f d2bd 3c61 33bd 0ad2 d5bd 5228 e13d
000002d0: ca60 1dbe 1272 e23d f8e0 8f3d a0dc 98bc
000002e0: ec67 5fbd 28ef fcbd 06e7 fc3d 22d7 7dbd
000002f0: 88d4 9bbc ebcc 033e 48a6 abbc db73 153e
00000300: b421 353e 292f 4ebd 7142 41be 4da2 0abe
00000310: 59b9 12be f247 79bd cbe0 203e 5593 a4bd
00000320: 1fa2 4bbd ddf3 a4bd 0027 21be 28f5 4f3d
00000330: 9d92 3d3d 028a aa3d 350a 163e f1e5 383c
00000340: bfec 61bd c905 503d 646d 1a3e 1e60 ebbd
00000350: a3a6 27be 7c69 00be 55cc 163e f9fb 293d
00000360: fa1b 8ebd 2d88 393e 48ae 73bd c816 aebd
00000370: dc6e 4bbd 1db7 30bd 00d9 bfba 8ac1 2e3e
00000380: 9587 2f3e 1ce2 4f3d 4421 953d f7bc 1d3e
00000390: 64fd 523d e016 65bc 9696 0dbe 6002 d83b
000003a0: f0f4 66bc a0d2 a5bc 563c a73d 676f 8bbd
000003b0: 58ef 27bd 40e7 303b bf8a 313e b0bb 873d
000003c0: 5287 d83d 4af5 8dbd 43f6 1d3e 30f6 243c
000003d0: 102d bc3c 0032 843c 0059 9fbd 8021 663c
000003e0: 0809 2dbe 10d3 1c3c 6e90 923d 6dca dabd
000003f0: 38c3 1cbd a7f6 263e 10ac dd3c e05e df3b
-0.09250074 0.034060463 -0.1332159 -0.036034644 -0.15248133 0.074125424 0.0077039152 -0.03233576
-0.009651795 0.04357803 -0.14132261 0.13020973 -0.036347374 0.061772436 -0.019869015 0.00952749
-0.05715572 0.0026414245 0.1410623 0.015342176 0.14112283 -0.08995545 -0.14021315 0.053996176
0.0015214235 0.1278521 0.109691456 0.14027895 0.10288812 0.16908042 0.124015465 0.13670559
-0.038795814 -0.06402869 0.061910875 0.11268233 0.016347982 -0.16817252 -0.16247067 0.01619725
-0.0015379487 0.1239012 -0.0039889393 -0.07247732 -0.05899414 0.1159101 0.07243694 -0.14824013
0.15483442 -0.039088804 -0.18074112 -0.01846978 -0.024118513 0.011210409 -0.07664111 0.16153099
-0.06856764 0.1733332 -0.04563634 0.14575858 0.1750669 -0.022936748 -0.006221786 -0.11247976
0.10618903 -0.0588972 -0.12731549 0.09048428 -0.13002637 -0.09047493 0.072484255 -0.007541582
-0.06457221 0.08421211 -0.063172765 0.07448618 0.10589001 0.0898817 0.13135637 0.108274475
-0.05056393 0.022422148 -0.06863411 0.16673706 -0.023019299 -0.070657976 0.068678916 -0.12405666
-0.11319308 -0.08197618 -0.022559585 0.033649467 -0.092735775 -0.015039415 -0.104509495 0.045855425
-0.1423727 -0.18043835 -0.14737326 0.04121682 -0.12917234 0.07553367 -0.12959501 -0.08735366
-0.07997671 -0.0071935803 -0.0882832 0.06710398 -0.070416465 0.12149544 0.07065976 -0.004074948
-0.039401643 -0.08816845 0.0060548875 0.11630957 0.16042964 0.15054585 -0.1376017 -0.06928475
-0.049288392 0.17738235 -0.11901468 -0.041175902 -0.11367464 0.06795666 -0.013416648 0.13050064
0.060705945 0.06719572 -0.0045289756 -0.03926839 0.044115778 0.045145527 0.018009856 -0.17212562
0.12516122 0.12383999 -0.020164113 -0.15846296 0.016220247 -0.05880493 0.09579958 -0.10636514
-0.067291655 0.09812873 0.0011019018 -0.16659503 -0.15898584 0.017266806 0.016024888 -0.17649509
0.045355614 -0.11883165 -0.14838295 0.052897327 0.05733356 -0.009373386 0.16770063 0.06365847
0.04182166 -0.106016226 -0.14521144 0.13981609 0.032310158 0.1071028 -0.15079369 0.15807988
0.034499973 -0.08875709 0.13199888 -0.100808054 -0.056485586 0.17363255 0.013738185 0.103342935
-0.10278274 -0.0437939 -0.104404524 0.109940186 -0.15368953 0.110569134 0.07025331 -0.01865989
-0.054542467 -0.12350303 0.12348752 -0.061972745 -0.019022241 0.12871139 -0.020953313 0.14594977
0.17688638 -0.050337944 -0.18873002 -0.13538475 -0.14328517 -0.060859628 0.15710752 -0.08035914
-0.049715158 -0.08054326 -0.15737534 0.05077091 0.0462824 0.08327104 0.14652331 0.011285291
-0.05515742 0.050786767 0.15080792 -0.11492942 -0.1637216 -0.12540239 0.14726384 0.041500065
-0.0693893 0.18118353 -0.05949238 -0.08500439 -0.04966627 -0.04314338 -0.0014636815 0.17066017
0.17141564 0.050752744 0.072817355 0.15404116 0.051511183 -0.013982505 -0.13826975 0.00659208
-0.014096484 -0.020242035 0.08165805 -0.06808358 -0.04099974 0.0026993304 0.17338084 0.066275954
0.10572685 -0.06931551 0.15425973 0.010068461 0.022970706 0.016137123 -0.07780647 0.014046073
-0.16897976 0.009571806 0.07156454 -0.10683141 -0.038272113 0.16305028 0.027059585 0.00681673

hidden.5.bias f4 [32]
00000000: 526b dabd d337 983c e4cd 9c3d 4591 ab3d
00000010: 28eb ecbb 6a6a f3bd 6084 453c 8e11 62bd
00000020: 588f e13d 3a18 ecbd 0d4c 08bd e5a1 b3bd
00000030: 6d2d 7a3d 8d24 c1bd 8d86 99bd 0035 ecbd
00000040: 09cd cb3d 4fed 913d 1796 303e 2662 163e
00000050: 7e6f 00bd 70e2 3dbd 78c4 fcbd 392d 23be
00000060: b87b 05be dbd4 d2ba f4fa 52bd 671d 18be
00000070: ffb5 083e 0ab3 a23d ad21 493c db12 703d
-0.10665001 0.018581307 0.07656458 0.08377317 -0.0072301812 -0.11885531 0.012055486 -0.055192523
0.11013669 -0.11528058 -0.033275653 -0.08771113 0.061078478 -0.094308 -0.07496367 -0.115335464
0.09951217 0.07125341 0.17244755 0.14685878 -0.031356327 -0.046358526 -0.12342161 -0.1593522
-0.13035476 -0.0016085164 -0.05150886 -0.14854966 0.13350676 0.07944305 0.012276095 0.058611732
