models/testmodel.pt (torch_old, 110375 bytes, 13 tensors)

in_layer.weight f4 [64, 96]
00000000: 9493 6a3d fe54 17bd a070 ef3c 448d 3bbd
00000010: 208e 9e3d 99cb c5bd b349 5cbd 0e6e 62bd
00000020: c82f afbd 1032 693c 0c5d 04bd 50ed af3b
00000030: 56f1 b7bd 3bf3 30bd 0ef7 a8bd 6c19 e8bc
00000040: 745a 82bc 3e0d 00bd ffff b0bd 86ba c23d
00000050: e32c 7ebd f09d efbb 78db 25bd bcac bc3d
00000060: 90cc 333d 7668 92bd e47d 9dbd 2072 17bc
00000070: f4ee bebc af83 c5bd a069 983d d063 cc3c
00000080: 1c91 8b3d 0702 65bd 5067 683c c00b a7bd
00000090: 7489 d4bc 0a35 75bd 0014 50bb 03dc 5ebd
000000a0: 805a 6cba f085 0fbc da2f 06bd 821c 88bd
000000b0: 40e2 51bd 7822 5dbc d8aa e83c 8009 023a
000000c0: 5cc8 7e3d aa3a 31bd f79d 6ebd 80a8 563b
000000d0: 4e39 a13d 021f b33d ec36 5c3d bceb 833c
000000e0: 747f 8ebd cc2d 9bbc 109e 173c 62fa b03d
000000f0: 5aa8 b53d 6097 d5bb 5862 663d 18ad f8bc
00000100: 009b 7d3c 321c abbd ccf4 603d 08f2 683d
00000110: 6ea4 8dbd 808c 44bd 8889 8abc 0c39 10bd
00000120: 14ce dcbc 4803 24bc f80f 2bbc c038 733d
00000130: 4476 d2bc f6d4 10bd b00e 093d a89b bd3c
00000140: b063 633d 9c21 a2bc c081 fa3c c4ca c53d
00000150: 40b0 813d acc7 9d3d 74c1 c0bd b551 82bd
00000160: 50a2 c4bd 70e1 5dbd d429 023d 58fe 863c
00000170: d403 b83d 30ff c43c 567f 903d 5050 ad3b
00000180: d840 993d 7e5d 823d ad76 ccbd 8068 4e3a
00000190: 64f2 403d 7e23 9a3d 20b1 31bb f036 ebbc
000001a0: aac9 be3d 9094 a1bc e022 b53b 2ecc a63d
000001b0: 7c30 90bd 4483 9c3d 3893 c43c f3cb acbd
000001c0: 8886 3b3c d82a 893c b44e 1e3d 948d 923d
000001d0: 18fc 15bd f258 1dbd 7fcf a7bd 4494 8dbc
000001e0: 9894 003c 7470 8d3c 3084 7c3d 502d 2c3d
000001f0: b4f3 0e3d f20a 40bd 06e0 53bd c886 283d
00000200: 643b 1fbd 9823 7fbc e0a8 7e3d 2896 e13c
00000210: f0eb bcbb 3486 b83d f0fb 893c a84f 613d
00000220: dd69 92bd 4483 843d c083 f33c 9008 873d
00000230: 8038 a73b c03b f43b 10ea 483d 8cc0 c9bc
00000240: a049 ff3c a0b1 a03b 7d0d 67bd a07a 0a3d
00000250: 39e5 43bd d8e2 243d 1d06 b3bd daaa 893d
00000260: 305a b03c 00ee 3f3c b8f0 823d c6e0 6fbd
00000270: 0091 c63c b846 183c a075 81bb 100b ff3c
00000280: 4081 ba3d 34b2 0c3d 84c2 3e3d 8890 213d
00000290: 2ffe b9bd 42ef 923d aabe a6bd 5ef0 8bbd
000002a0: 74bf 8f3d 481c 763d 9c20 9d3c 88aa 063d
000002b0: 2c84 5a3d 405e 80ba e479 86bd 7899 5f3c
000002c0: a8e2 b53c c4e3 233d ac16 043d a068 463b
000002d0: 24a7 9bbd 10aa 023d 52f6 a7bd be68 84bd
000002e0: 4e37 a7bd 25f3 61bd 1e34 89bd e062 653b
000002f0: c415 793d 0088 0438 f478 5d3d 80ec 293d
00000300: a8b8 30bc 9da5 7ebd 18e2 e5bc 542e e6bc
00000310: 766c 8bbd 383b 60bc b647 813d 362a 0fbd
00000320: 709a b83c dc2d 143d 88a1 453d 60cf 1bbd
00000330: d49d bfbd 227e 0bbd 50dd 623d 6ac8 71bd
00000340: 5c81 0e3d 00fc b03d 30e0 8d3c 18c8 5a3d
00000350: 4451 5b3d e8ce cb3d 2a78 64bd 5482 8ebd
00000360: 6e2f 0bbd 2069 db3b 205e efbc da64 3abd
00000370: 7e08 84bd 2c31 643d 3abe c23d abd0 8dbd
00000380: 40a4 c33a a4d8 b8bc eef7 863d 486d 343d
00000390: b8c5 f6bc 457c 4abd d5ac aabd 80cc 183b
000003a0: 2cc8 aa3c 32b2 0cbd 48ee 913d 785b 9ebc
000003b0: d849 c53d 009f 683b b827 bc3d 1f81 cfbd
000003c0: fd80 c8bd 180f 4abc 6891 953c aca0 463d
000003d0: 310b 28bd 168a 66bd a219 9d3d 5ecd 0bbd
000003e0: a4a8 283d 682b 3cbc f43e ac3c 0c41 853d
000003f0: 3e11 c03d 24fe acbc ec55 ad3d bc90 743d
0.057269648 -0.03694629 0.029228508 -0.04578902 0.07741952 -0.09657974 -0.053781223 -0.055280738
-0.085540354 0.014233127 -0.0323153 0.005368866 -0.08981578 -0.043200713 -0.08250247 -0.028332435
-0.015912272 -0.03126263 -0.086425774 0.09508233 -0.062054526 -0.007312529 -0.040492505 0.09212634
0.043896258 -0.071488306 -0.07690027 -0.009243518 -0.023307301 -0.09644257 0.07442021 0.024949938
0.06814787 -0.055910137 0.014184788 -0.08156538 -0.025944449 -0.059865035 -0.0031750202 -0.05440904
-0.0009016171 -0.0087599605 -0.03276048 -0.066460624 -0.05124116 -0.0134969875 0.028401777 0.0004960522
0.062202796 -0.043268837 -0.058256116 0.0032754242 0.07872258 0.08746149 0.053763315 0.016103618
-0.069579035 -0.018942736 0.009253994 0.08641507 0.08870001 -0.0065182894 0.05624613 -0.030355975
0.015478849 -0.08354987 0.054920956 0.056871444 -0.06916128 -0.047985554 -0.016911283 -0.035210654
-0.026953734 -0.010010548 -0.010440819 0.059380293 -0.02569116 -0.035359345 0.033461273 0.023145512
0.05551499 -0.019791417 0.030579448 0.09657815 0.06332445 0.077041 -0.09411898 -0.06363241
-0.09601271 -0.054170072 0.03177817 0.016478702 0.08985105 0.024047464 0.070555374 0.005289115
0.07483071 0.063654885 -0.09983573 0.0007873848 0.04710616 0.07526301 -0.0027113631 -0.02871272
0.09315808 -0.01972416 0.005527839 0.08144413 -0.07040498 0.076422244 0.02399598 -0.08437338
0.011445649 0.016744062 0.038649276 0.0715591 -0.03661737 -0.038414903 -0.081938736 -0.017282613
0.0078479275 0.017265536 0.0616495 0.0420354 0.034900382 -0.04688544 -0.051727317 0.041144162
-0.038875 -0.015572451 0.06217277 0.02753742 -0.0057654306 0.09009972 0.016843766 0.055007607
-0.07149098 0.064703494 0.02972591 0.0659343 0.005103171 0.007453412 0.049051344 -0.024627946
0.031163037 0.004903987 -0.056409348 0.03380835 -0.047826026 0.040255398 -0.087414004 0.067220405
0.02152738 0.011714458 0.0639357 -0.05856397 0.024239063 0.009294204 -0.0039507896 0.031133205
0.09106684 0.034349635 0.046572223 0.039444476 -0.09081685 0.07174541 -0.08141835 -0.06832956
0.07018939 0.060085565 0.019180588 0.032877475 0.053348705 -0.0009793714 -0.065662175 0.01364743
0.022202805 0.040012136 0.032248184 0.0030274764 -0.07600239 0.031900465 -0.08201279 -0.064652905
-0.081648454 -0.05516352 -0.06699394 0.003500156 0.060811773 3.1597912e-05 0.054070428 0.04148531
-0.010786213 -0.06216966 -0.028061911 -0.028098263 -0.06807797 -0.013685994 0.06312506 -0.034952365
0.022534579 0.036176547 0.04824975 -0.038039565 -0.09356275 -0.034055836 0.05538684 -0.05902902
0.034791335 0.08641815 0.017318815 0.05341348 0.053544298 0.099515736 -0.05577866 -0.06958452
-0.03398078 0.0066958815 -0.029219687 -0.045506336 -0.06446932 0.055710956 0.09508939 -0.06924566
0.001492627 -0.02256424 0.065902576 0.04404953 -0.030123577 -0.04943492 -0.08333746 0.002331525
0.020847403 -0.034349628 0.07125527 -0.019330725 0.09633225 0.0035495162 0.09187263 -0.1013205
-0.097902276 -0.0123327 0.018257812 0.048493072 -0.041026298 -0.056284033 0.07670905 -0.0341314
0.041176453 -0.011484958 0.021026112 0.06506547 0.09378289 -0.021117277 0.08463654 0.059708342

in_layer.bias f4 [64]
00000000: 9ad5 57bd e459 cdbd 82a7 b33d e0b3 ccbb
00000010: 7d84 2ebd 5329 4cbd b827 1c3d 68d4 373d
00000020: ca7f 80bd ab43 c8bd 00f8 0bba 365c a33d
00000030: 887f 20bc 7884 abbd 2298 bd3d 6e32 88bd
00000040: c858 96bc 30f0 af3d d4f3 abbd f8fe e03c
00000050: bb24 c8bd c496 833d 1c3b 923d 356c 45bd
00000060: e294 c33d 22eb b2bd dc78 1ebd a2df acbd
00000070: ba51 a53d 009a e7bc 300b bf3c 8c3d b23d
00000080: b462 d8bc f004 423d a947 5fbd 2382 4abd
00000090: 1018 60bc e479 ca3d 01dc 78bd dc88 8d3c
000000a0: a88f 1b3d 4896 083d a7db c4bd f141 9fbd
000000b0: 6079 4cbb 3e19 87bd 38c5 a03c b014 81bc
000000c0: c211 65bd 3593 46bd d9a2 34bd a8f3 dc3c
000000d0: ad39 a5bd c097 0f3c 30fa 74bd ca00 d0bd
000000e0: ac26 573d 2236 9cbd 6cde b13d e0c2 bf3c
000000f0: fce1 723d e253 9f3d 606a 76bc 84d1 adbd
-0.05269394 -0.10026911 0.08772184 -0.0062470287 -0.04260682 -0.049844097 0.038123816 0.0448803
-0.06274374 -0.09778532 -0.0005339384 0.07976572 -0.009796031 -0.08374876 0.09257533 -0.06650244
-0.018352881 0.08590734 -0.08396116 0.027465329 -0.09772631 0.06425241 0.071401805 -0.048198897
0.095498815 -0.08736254 -0.03868948 -0.08441092 0.08072229 -0.028271675 0.023320764 0.087031454
-0.026414253 0.04736799 -0.0545117 -0.049440514 -0.013677612 0.0988653 -0.060756687 0.017277174
0.0379788 0.033346444 -0.09612208 -0.07776249 -0.0031200275 -0.065966114 0.019625291 -0.015756935
-0.05592514 -0.04848023 -0.044100616 0.026971653 -0.080676414 0.008764207 -0.05980891 -0.101564005
0.052527115 -0.076275125 0.08685002 0.023408353 0.059297547 0.07779671 -0.01504001 -0.084872276

hidden.0.weight f4 [64, 64]
00000000: 8ad3 fe3d 44df 11bd 3c24 7c3d a26a 9dbd
00000010: d8c9 cabd f416 643d 28b1 e7bd f20e ddbd
00000020: c299 883d 2cfc 56bd 9044 ddbc 7871 a6bd
00000030: a6ad c7bd 1488 9e3d 54be c6bd 403f 1dbd
00000040: 16a9 86bd b824 c9bd 24b1 edbd 8834 643d
00000050: c62e f6bd 6803 493d bca0 ec3d e067 cb3b
00000060: 3866 70bd e002 6c3c 0069 c03d 40e7 c0bb
00000070: ea53 d93d 70f3 22bc b84a ad3c ee67 bf3d
00000080: 1027 883d 182f ebbd 8262 ed3d 38fe eebc
00000090: 5285 d3bd 38f0 ebbc 0616 edbd d425 a3bd
000000a0: 104c 4ebc 54a9 4fbd 2e3e a33d 0ce3 833d
000000b0: 8063 28bc 10e0 ffbd 7ab9 f4bd 62fd cf3d
000000c0: 20b0 7f3c 304d abbd 3e03 953d c068 ddbc
000000d0: a8e7 8fbd 5a48 8ebd 7066 57bc aa3a db3d
000000e0: 227d ebbd 50ca dc3c 48a6 a73c 2c90 22bd
000000f0: decf ce3d e0b6 fa3b 40f6 a13d 94fb b93d
00000100: 54aa 2d3d 6810 e93d e8d7 02bd 2c63 b0bd
00000110: a66d e63d 4465 abbd 0a65 a4bd dcd7 483d
00000120: d848 4c3d 6ea0 803d 9069 9e3d 82c0 c6bd
00000130: ec14 393d c2a0 bbbd 94f1 013d bc90 283d
00000140: 905a ba3d 56c9 f03d 5408 8ebd 8856 80bd
00000150: 44ef 33bd 78f0 f23d fcc1 bcbd a4aa 683d
00000160: e614 c2bd 640e 083d 68f8 86bd cc4c ebbd
00000170: 764b 90bd 6e69 afbd ca90 d3bd 90e1 31bd
00000180: f0fb b1bc 1435 4c3d 3668 91bd 10fc b9bc
00000190: 4087 683b 8a5e b63d d6f5 b63d 1c7c 36bd
000001a0: d26c b83d 204d fe3b 9802 9f3d 1020 373c
000001b0: fca5 f3bd 380e f03d c026 353c 148a 4e3d
000001c0: 7c7f e53d 4879 c03d 08de b83d 206b febb
000001d0: 8ac1 803d 4641 983d 0822 b0bd 3cd0 8d3d
000001e0: 0e80 d7bd 3e9c debd 9473 a03d d07c e83c
000001f0: a030 17bc 907c a83c 00f8 b7bc 9ebd 843d
00000200: 0804 dfbd 7e0e a23d 26e9 a5bd acad 243d
00000210: 5033 3cbc e06a c73b 3021 a13d 4867 5c3d
00000220: 447c 773d a437 8cbd 048b 07bd e400 5cbd
00000230: 601a 1e3d 5453 cd3d 1ad9 9f3d ec2e 7e3d
00000240: 8063 413c 3807 ebbc 0eca e7bd 962c c9bd
00000250: 481d ce3d a82e c63c b8a0 d1bc 581c 1dbd
00000260: 004d d43d 8a71 903d 10a6 95bd 9e80 8a3d
00000270: f008 53bd 1ac3 f03d 60eb f9bc 1c20 84bd
00000280: 809c 74bb f289 c23d 40f8 ddbc 502c 16bd
00000290: 8cb4 803d 0c09 66bd 40ad 7abd 4437 2a3d
000002a0: baca cbbd e005 04bd d878 0abd 6843 c7bd
000002b0: 4074 bbbd 209c 28bd 3e88 ad3d 34f9 673d
000002c0: a8d4 ac3d 74b1 80bd da39 d73d 3ebc ad3d
000002d0: 7ae9 e3bd ea6f ffbd 08c4 5e3d 6825 9dbc
000002e0: d893 aebd 146e c3bd c856 d93c 4044 22bb
000002f0: b4dc b13d 0867 5f3d 28b7 92bd d4d3 e3bd
00000300: 9c50 27bd 5c2b b1bd 0087 a6bc 702e 9a3d
00000310: 589a ecbd 3264 d63d a8ae 223d c4ae a13d
00000320: f820 ed3c c668 a33d 6022 6a3d 50d3 a53c
00000330: b648 bdbd 4213 e73d ae67 9f3d 2cf1 623d
00000340: 587f ef3c 1c45 f7bd 709c d0bd 48f9 c63d
00000350: 20d1 f4bd 12dd 8b3d 906f ddbc 80ce 7dbb
00000360: 703d d83d 6884 a73d a6d2 8e3d 6c4a dc3d
00000370: 04d5 5d3d 5491 b43d 00dc 2f3c 3c1c 0b3d
00000380: 7093 2d3d 7474 2f3d 6090 15bc e84f 233d
00000390: f8cd 36bd 70ee 043d 9495 75bd 6c2c e6bd
000003a0: 5aff d2bd 50cc 52bc e0a0 d73c 18b3 893d
000003b0: 0836 02bd c600 933d 80b9 793d 9017 d6bc
000003c0: 1c7b 173d f03d a0bd b080 8d3d fe2c e4bd
000003d0: f0e0 8bbc c409 08bd 62f2 fbbd c061 f8bd
000003e0: 1aa6 87bd 30e5 153c f04e f5bc 60dc 35bc
000003f0: 326e e1bd 4026 ebbd 789b 43bd f015 b7bd
0.124426916 -0.035613313 0.061557993 -0.07686354 -0.0990178 0.055685952 -0.11313087 -0.10793866
0.06669952 -0.052486584 -0.027010232 -0.08127111 -0.09749918 0.077407986 -0.09704271 -0.038390398
-0.06575219 -0.09821457 -0.116060525 0.05571416 -0.1202064 0.049075514 0.11554095 0.006207451
-0.058691233 0.014404982 0.09395027 -0.005886942 0.106117085 -0.009945735 0.021153793 0.09345995
0.066480756 -0.11483592 0.115910545 -0.029173955 -0.10328163 -0.028801069 -0.11576466 -0.079661995
-0.012591377 -0.050698593 0.07970844 0.0643979 -0.010277629 -0.124939084 -0.11949439 0.10155751
0.015605956 -0.08364332 0.07276009 -0.027027488 -0.07026607 -0.06947394 -0.013146982 0.10704549
-0.114984766 0.026951939 0.020465031 -0.039688274 0.10098241 0.007651195 0.079082966 0.09081188
0.042398766 0.11380082 -0.031944185 -0.086126655 0.112513825 -0.08368924 -0.08027084 0.049033985
0.049874157 0.062805995 0.07734978 -0.09704687 0.04518597 -0.091615215 0.031724527 0.041153654
0.09099305 0.11757152 -0.06935182 -0.062665045 -0.043929353 0.11862272 -0.09216687 0.05680336
-0.09476642 0.03321685 -0.065903485 -0.11489257 -0.07045643 -0.08565031 -0.10330351 -0.043428004
-0.021726578 0.049855307 -0.07099955 -0.0227032 0.0035481006 0.08904751 0.08933608 -0.044551954
0.09005131 0.007760659 0.077641666 0.011177078 -0.118968934 0.11721462 0.011056602 0.05042465
0.11205956 0.093981326 0.09026724 -0.007764235 0.06286915 0.07434325 -0.08600241 0.06924483
-0.10522471 -0.108696446 0.07834545 0.028379828 -0.009227902 0.020567209 -0.022457123 0.06481479
-0.10889441 0.079129204 -0.0810111 0.04020469 -0.011486843 0.0060857385 0.07867658 0.053809434
0.060421243 -0.0684655 -0.03309156 -0.053711787 0.038599372 0.10025659 0.07805081 0.062056467
0.011803508 -0.028689966 -0.11317836 -0.09822957 0.10064179 0.02419217 -0.025589332 -0.03835711
0.10366249 0.07052906 -0.073070645 0.06762813 -0.051522195 0.11755963 -0.030507743 -0.06451437
-0.0037324727 0.09498967 -0.027095914 -0.036663353 0.062844366 -0.05616097 -0.06120038 0.04155661
-0.099507764 -0.032232165 -0.03380665 -0.097296536 -0.09153032 -0.041164517 0.08473252 0.056634143
0.084389985 -0.062838465 0.10509081 0.0848317 -0.111285165 -0.12472518 0.05438617 -0.019182876
-0.08524293 -0.0954248 0.026530638 -0.0024759918 0.08684674 0.054541618 -0.071638405 -0.111243874
-0.04084836 -0.08650848 -0.020328045 0.075283885 -0.11552876 0.104683295 0.039717346 0.07894662
0.028946385 0.07978968 0.05716169 0.020242363 -0.09242384 0.1128297 0.07783447 0.05540578
0.029235527 -0.120737284 -0.10186088 0.097155154 -0.1195395 0.06829275 -0.027030736 -0.003872782
0.10558593 0.08179551 0.06973772 0.10756382 0.054158226 0.08816782 0.010733604 0.033962473
0.042376935 0.042835668 -0.00912866 0.039871126 -0.04463002 0.032453954 -0.059957102 -0.112389416
-0.10302611 -0.012866095 0.026321828 0.067236125 -0.03178981 0.07177882 0.060967922 -0.026134282
0.03698264 -0.07824314 0.06909311 -0.11141394 -0.017075032 -0.03321244 -0.1230209 -0.12128019
-0.06623478 0.009148881 -0.029944867 -0.011099905 -0.11007346 -0.11481905 -0.04775569 -0.08939731

hidden.0.bias f4 [64]
00000000: 4094 bd3c 00d9 d0bc 4c60 3e3d 3ce4 763d
00000010: d077 cd3c 004b a1bd c883 bbbc b860 283d
00000020: 50b4 a6bc dcb9 253d 9c53 c93d b84e b1bc
00000030: c406 f2bd 90a6 453c 8807 313d c098 543d
00000040: 0c1b 243d 0e65 f03d 1c11 d53d 00cc dcba
00000050: 9892 b53d 02bd ecbd 0e42 c63d 349d 9e3d
00000060: 4c3e f8bd e871 3bbd d4fa 29bd b85d d8bd
00000070: a42f 203d 24e3 98bd c846 58bd dcb1 693d
00000080: a278 e5bd e82e fabd 0aaf a7bd e44e ca3d
00000090: e2a1 99bd 5405 9c3d 0a4b 97bd c4ac d93d
000000a0: c8b3 e03c 7466 bbbd 027b e9bd e87c a0bc
000000b0: e2ce 8f3d 4cba f2bd 5c72 793d 9864 af3d
000000c0: de0a 8dbd 5840 36bd 70a5 763d 76ff 833d
000000d0: 805e 55bc 3ed9 ebbd e6dc aa3d 184a 4e3d
000000e0: 504a 4a3c 70ce 1bbc 007b e1bd 7857 8bbd
000000f0: 0232 9abd 183d e33c d86a 9ebc 9830 2d3d
0.02314198 -0.025494099 0.046478555 0.060276255 0.025081545 -0.07875633 -0.022889987 0.041107863
-0.020349652 0.040460452 0.098304 -0.021643981 -0.11817697 0.012063637 0.043220073 0.051903486
0.040064856 0.11738025 0.10403654 -0.0016845465 0.08865851 -0.11559488 0.09680568 0.07744828
-0.12121257 -0.045762926 -0.041498974 -0.105647504 0.039107934 -0.07465199 -0.052801877 0.057054386
-0.112046495 -0.12215978 -0.08187683 0.098783284 -0.0750158 0.07618204 -0.073873594 0.106286556
0.027429476 -0.09150401 -0.11400415 -0.01959081 0.07021882 -0.118519396 0.060900077 0.085641086
-0.068868384 -0.044494957 0.060216367 0.0644521 -0.013023019 -0.11516045 0.08342914 0.05036363
0.012346819 -0.009509668 -0.110097885 -0.06803793 -0.075290695 0.027739093 -0.019338056 0.04228267

hidden.1.weight f4 [64, 64]
00000000: c864 e23d f405 85bd 004d 2b3a e864 ab3d
00000010: 0069 1bbb a40f 13bd b0c3 57bd 2062 b1bc
00000020: 1c54 f03d 6832 85bd 0cb4 77bd c4fc 96bd
00000030: 402a dabb 8007 a73a 2857 ecbd a8be a53d
00000040: 261e da3d 0299 b93d 90d8 6ebc 3897 7c3d
00000050: 7659 f93d fe86 e03d 8e19 c03d 0633 c13d
00000060: 04f8 02bd ac3f 403d 083f b7bc 867e f53d
00000070: d034 e43c 7ced 01bd 8401 45bd 9053 49bd
00000080: 80af e93b 0263 b93d 4838 e73c f002 4e3d
00000090: 0e12 da3d 7039 223c 50f0 633c 16ca c7bd
000000a0: a2bb fb3d 90d5 f7bd 6233 a53d 50c0 0abd
000000b0: 668c aebd 50ac 403c 0e5d dc3d d077 a5bd
000000c0: 3438 67bd ae7f bfbd aa07 eb3d 6ab0 81bd
000000d0: a2b1 de3d 6e30 d03d 6c16 de3d 3800 eb3c
000000e0: 78ef cd3c b8eb f63c a0ef 9ebc bcd4 9dbd
000000f0: 3cde e13d 189e 843c c604 acbd 98d1 f43c
00000100: e0a1 afbb 76de efbd 085b 313d c053 5c3d
00000110: 2425 da3d 1c2d b33d c03e 8fbd 8063 2f3b
00000120: 4cad fb3d d80e febc 0c24 e13d 50d5 923d
00000130: fcb8 d1bd 749f 393d c0c2 da3d 04e6 55bd
00000140: 60ed 6f3c 807a 5fbb c06d 4cbd e02b 0cbc
00000150: 1ab3 8d3d 68aa 733d 00af 27bd 84a4 3f3d
00000160: e0a6 7fbc c0b1 1e3d 406c a2bc 7c76 0c3d
00000170: e6df 823d a891 cb3c 405a 9b3b ac8b 473d
00000180: 00ef 71bc 581c d73c f01a c03c 86c9 e43d
00000190: 80fb 553b 5cec 27bd a0f1 cf3d 9699 92bd
000001a0: cc62 9c3d 208a fa3b 203c ff3d 6acf 89bd
000001b0: aa39 edbd 7cdc 10bd dc0f f2bd d894 43bd
000001c0: e06f bbbd f055 5dbd 3894 cc3d 7c8e 843d
000001d0: 784f 3b3d 2842 87bc 68ae c83d daaf 9fbd
000001e0: 1474 a73d c041 89bd 5aba f2bd c8d5 71bd
000001f0: 9c4f ad3d 50c4 8dbc f08e 5b3c c01b 35bc
00000200: fe58 b23d d8d5 6bbd 6004 c5bd 12b8 ccbd
00000210: f007 643d 1285 f73d fc5d 4e3d 786c 5c3d
00000220: f08d f43c 9476 4ebd 28dc 463d 4ee0 c53d
00000230: 005a b5b9 9035 c3bd 4214 8dbd 3ce1 1e3d
00000240: 6812 3ebd 16bc a9bd 7a2f ecbd 2091 38bc
00000250: feae f03d 6495 743d 7c4a 40bd c80e b1bd
00000260: d41a 98bd c068 92bb 64ba 503d 1870 17bd
00000270: 400a 0dbc 048c e73d 5c9b d53d 747d 563d
00000280: f642 ccbd 986f f33d a829 57bd 1088 17bc
00000290: cab2 a43d f86d 25bd 540c 0bbd 10b5 983d
000002a0: c4dd 483d 50a4 72bc 5c8b 133d 209a 293d
000002b0: 60e5 393d a012 fb3d ca51 a5bd 440c 9d3d
000002c0: 1e49 b6bd 3240 92bd 2072 513c 6e03 b0bd
000002d0: 348f 9dbd a63b c63d 60c4 913c 3276 b93d
000002e0: 40e1 eebd 74a6 7ebd a041 f93d 8604 9f3d
000002f0: 2c0f 9ebd bce7 d23d 3673 e7bd f0c3 cc3c
00000300: b2a3 d1bd 56b7 f5bd 38e2 ee3c be6e a83d
00000310: 34aa 443d 84c9 19bd 0a6d b4bd 20f5 bfbd
00000320: 42fc a63d bc2e 003d 5018 1e3c 40d8 07bc
00000330: 247f 44bd de9f ca3d 18a9 22bd cec1 933d
00000340: 6018 e33d 1c59 133d d8ff 333d 5e79 d43d
00000350: a0e1 5fbd 368a 90bd e24a 9b3d 6057 c63d
00000360: 603e 3e3c 602a f5bb 7639 903d 3869 ac3d
00000370: 08f3 813d a6d3 f23d 068d 97bd 80bf 503d
00000380: 6436 4dbd 00e1 9d3a 528a fdbd 7637 eb3d
00000390: cc97 57bd 206a 5bbd 10d9 0b3d c0c6 0e3b
000003a0: 169a f73d 6870 9b3d 0063 773b 1813 89bc
000003b0: b2fc ccbd 7c0c ae3d 20a9 983c 54ca c0bd
000003c0: ee29 c33d 9ab4 c1bd 700c 8abc f46e ccbd
000003d0: 9663 bcbd 90e0 36bd 708b 22bd 9c9e e13d
000003e0: 96b4 fabd fc5e 253d fc0e 2f3d 38f2 503d
000003f0: 90f2 d73c b49f 583d 2068 c7bd f05f edbc
0.11054379 -0.06495276 0.0006534606 0.08368856 -0.0023713708 -0.035903588 -0.052676857 -0.021653235
0.117347926 -0.06503755 -0.06047444 -0.0737243 -0.0066578686 0.0012743324 -0.11540061 0.080930054
0.106502816 0.09062387 -0.014578 0.06166765 0.121752664 0.10963248 0.09379874 0.0943356
-0.031974807 0.046935722 -0.022368923 0.11987023 0.027857214 -0.031720623 -0.04809715 -0.049151957
0.007131517 0.09052087 0.02822508 0.05029577 0.10647975 0.0099013895 0.013912275 -0.09755342
0.122916475 -0.12101281 0.08066441 -0.03387481 -0.085228726 0.0117598325 0.10759936 -0.08079493
-0.056450084 -0.09350525 0.11476071 -0.063324764 0.108737245 0.10165487 0.108441204 0.028686628
0.025138602 0.030141696 -0.019401371 -0.077065915 0.11028716 0.016188666 -0.08399348 0.029885098
-0.005359873 -0.11712353 0.043299705 0.053790808 0.10651615 0.08748838 -0.069943905 0.0026762187
0.12288913 -0.031012937 0.109932035 0.071695924 -0.10240361 0.045318082 0.10681677 -0.052221313
0.014643997 -0.0034100115 -0.049909353 -0.0085553825 0.069189265 0.059488684 -0.040938377 0.046787754
-0.015603751 0.038743734 -0.019827008 0.034292683 0.063903615 0.024849728 0.0047409832 0.048717186
-0.014766455 0.026258633 0.023450345 0.1117125 0.0032651126 -0.040996894 0.10153508 -0.071582004
0.076360315 0.0076458603 0.1246264 -0.06729014 -0.11583264 -0.03536652 -0.11819431 -0.04774937
-0.09152198 -0.054037035 0.09989208 0.06472489 0.045730084 -0.016511038 0.0979889 -0.07797213
0.08176437 -0.06701994 -0.1185195 -0.05904177 0.0846245 -0.017305523 0.013400778 -0.011053979
0.0870838 -0.057576984 -0.09619975 -0.09996046 0.055671632 0.12085928 0.0503826 0.05381438
0.029852837 -0.050406054 0.0485498 0.09661923 -0.00034590065 -0.095317006 -0.068886295 0.03878902
-0.046404272 -0.08287828 -0.11532493 -0.011265069 0.11752127 0.059712783 -0.046946034 -0.086453974
-0.07426992 -0.0044680536 0.050959006 -0.036972135 -0.008608401 0.11306003 0.10430023 0.052365735
-0.09973709 0.11886519 -0.05252996 -0.009248748 0.08041914 -0.040388077 -0.033947304 0.0745641
0.049039617 -0.014809683 0.036021575 0.04140675 0.045384765 0.12259412 -0.08072241 0.07668355
-0.08900665 -0.071411505 0.012783557 -0.08594404 -0.076933295 0.09679346 0.017793834 0.09055747
-0.11664057 -0.06217046 0.1217072 0.07764535 -0.077177376 0.10298106 -0.113012716 0.024995774
-0.102363005 -0.11997859 0.029160604 0.082242474 0.04801388 -0.037545696 -0.0880986 -0.09372926
0.08153583 0.03129457 0.009649351 -0.008291304 -0.047972813 0.098937735 -0.03971204 0.072147
0.110886335 0.035973653 0.043945163 0.103747115 -0.054658532 -0.07057612 0.07582642 0.09684634
0.011611551 -0.007481858 0.0704221 0.084185064 0.06345183 0.11856775 -0.07399945 0.05096388
-0.0501007 0.0012045205 -0.12379898 0.11485188 -0.052635 -0.053568006 0.034142554 0.0021785945
0.120899364 0.07589799 0.0037748218 -0.016732737 -0.10009135 0.08498475 0.018635333 -0.09413591
0.09529482 -0.09458275 -0.016851634 -0.099821 -0.09198682 -0.044647753 -0.03968376 0.110165805
-0.12241475 0.040373787 0.0427389 0.051012248 0.02636078 0.05288668 -0.09736657 -0.02897641

hidden.1.bias f4 [64]
00000000: b2fc cf3d b408 793d f87b eb3c d0ae dabc
00000010: 9cce de3d 3051 6ebd f005 eebc 20f2 b8bd
00000020: 14c9 45bd 384e 8bbd e07f 473c aa5c 8fbd
00000030: 4014 f3bb 2e1b e0bd 1c47 d4bd 7c7e e7bd
00000040: 9098 6dbd ac09 283d 681e 44bd 301b f73d
00000050: ea79 e73d 7053 07bd 5092 05bc 5603 a83d
00000060: 6820 dbbd 029e be3d c4f1 62bd f0a9 963d
00000070: c023 3d3c 6c5d 62bd 6021 c7bb 123b cf3d
00000080: c886 053d 0491 403d 88f0 cbbd 789d e33c
00000090: fe8e b3bd e0e6 46bd d87a e13d d8d5 b73d
000000a0: c446 61bd 38f2 cdbd a0a4 dbbb 80fd fa3b
000000b0: 8ca1 83bd ba27 bbbd 70c4 c83d 98f2 84bd
000000c0: e8a8 b0bd 94a7 6dbd 828e 98bd 3249 c5bd
000000d0: 60d6 54bc 289e 9c3d cc2b a93d ac37 53bd
000000e0: 404f f8bb 68d5 ce3c ba17 8f3d f8dd fbbc
000000f0: c849 bf3d 5839 423d e4ff 3cbd 701a b0bd
0.1015562 0.060799316 0.028745636 -0.026694685 0.10879251 -0.058182895 -0.029055566 -0.09030557
-0.048287466 -0.068020284 0.012176484 -0.07000096 -0.0074181855 -0.10942684 -0.103651255 -0.11303422
-0.058006823 0.04102485 -0.04788056 0.120657325 0.1130255 -0.033038557 -0.008152559 0.08203761
-0.106995404 0.09307481 -0.055406347 0.07356632 0.011544168 -0.055264875 -0.0060769767 0.10118689
0.03259924 0.047013298 -0.09957987 0.027785048 -0.08767508 -0.048560023 0.11009759 0.08976334
-0.054999128 -0.10055965 -0.0067029744 0.007659614 -0.06427297 -0.091384366 0.098030925 -0.064915836
-0.08625966 -0.058021143 -0.07449056 -0.096331015 -0.012990564 0.076473534 0.08260307 -0.051566765
-0.0075778067 0.025248244 0.06986947 -0.030745491 0.093402445 0.04741797 -0.046142474 -0.085987926

hidden.2.weight f4 [64, 64]
00000000: 6cb3 1c3d 6a04 f4bd 527c a9bd e0ea cebc
00000010: 80c6 773b 981c e03d cc87 b3bd 2cb6 3bbd
00000020: f0f1 3bbd aaa4 db3d 602a 0ebc 40fe 783c
00000030: 203c 323c 6e49 b9bd 6018 52bc b8f8 333d
00000040: b023 0f3c 80fb 32bd 2e6d c4bd b8b2 373d
00000050: 062d e23d 7c0e d9bd 944f da3d 7634 c8bd
00000060: e06b ecbb ecc5 e0bd 0010 b43a 4895 b4bd
00000070: 729a fbbd c42e c93d 1442 4d3d 5272 f73d
00000080: 88eb 66bd 0404 233d 2aab 8f3d e0c6 90bc
00000090: 9c96 31bd 0023 283b a47b debd bc7c 1abd
000000a0: a0a5 ca3d 8ce6 64bd a471 65bd 4488 c33d
000000b0: 3c00 2a3d 8a92 fc3d c8b4 f43d 8025 d2bc
000000c0: 9493 903d b02e 1a3c d62a 98bd 6c1f c3bd
000000d0: be5a c6bd 1249 babd baf1 febd 6cd6 5a3d
000000e0: 207f 893d d64c f73d 721f c1bd 2a80 c8bd
000000f0: 68c6 e13d 2c5c 6fbd e835 6d3d 28c1 323d
00000100: 22c0 d93d 8ed7 a53d b85c c23d 68c5 a2bd
00000110: 4e09 8d3d fc98 16bd e06e a63d 4078 ef3d
00000120: a8d2 54bd 3406 b1bd 78a0 d6bd ca4f bb3d
00000130: 80b7 88bc 4081 343b 9a2e cebd b0c7 6e3d
00000140: fa53 9a3d 9844 82bd c8fe 563d 3010 be3c
00000150: a4ca cebd d41b e73d 687b de3c 5635 a83d
00000160: 24ae d2bd a00f 8f3b 6620 d83d 8094 d7bd
00000170: 1024 24bc dcbc a9bd f03a c73d 82b1 afbd
00000180: 3088 a5bc b041 0a3d d073 00bd 003a 7bbc
00000190: 685f 32bd 70ea 8fbc e898 933d 56a3 a4bd
000001a0: 90e7 f8bd 0014 48bb c078 fb3d 8e45 e63d
000001b0: 0051 ef3a 0037 23bb 2477 7a3d d261 c2bd
000001c0: e281 d23d aa99 bf3d 987e 523d 7e51 b4bd
000001d0: 586e 37bd 3ad5 a2bd 842c a7bd 50d2 23bd
000001e0: 562b cebd 6cbe 273d 6ac0 c3bd c632 f23d
000001f0: 9496 e8bd 4a32 aa3d 0000 09ba 9e83 b73d
00000200: ee01 dd3d d2be ec3d c06a 4b3b b038 86bc
00000210: 8c16 c03d 046a 7e3d 1c63 0e3d 9c22 ca3d
00000220: 9820 743d c8be 963d be13 9abd 4828 ae3c
00000230: 94b5 57bd d47b a63d 4a8d b43d 36ff cabd
00000240: 7c02 773d 8066 77bc e42d 9f3d cc1c 2fbd
00000250: f824 9a3d 3236 d93d f025 b93c d80e 44bd
00000260: d8b1 8ebd 0043 543c b200 8e3d 2806 ae3d
00000270: 2863 9fbd 0c6f 09bd 1226 adbd 5a7f d7bd
00000280: e0e9 a4bc cc6f 903d 7031 813c b01c 1c3d
00000290: fe63 c63d bc04 0f3d 7869 1dbd e8c0 d8bd
000002a0: 16b4 e93d 98c8 62bd b44b f93d 0eb3 93bd
000002b0: 1055 1f3c 709d 91bc c003 9b3b 3058 17bd
000002c0: e081 253c 26e0 9bbd bebc bbbd 98f9 b9bd
000002d0: 1c7e a2bd 543b 4b3d 0059 c3ba 2406 eabd
000002e0: e82e 26bd e0e8 66bc 3a5f acbd 0039 723c
000002f0: 0017 0cba 6cc8 5ebd ca58 d0bd 7e38 80bd
00000300: 7064 78bc f0e4 ccbc a093 09bd 107b bb3d
00000310: 749a c83d 281e ba3d 30a3 d03c 7857 c53c
00000320: dc72 c6bd 58d4 01bd 06bb d3bd b016 b0bc
00000330: cc7f 0f3d a827 cabd 6c27 8f3d 6603 b5bd
00000340: 7819 b63d 84a1 fbbd 8aeb d23d 527f ae3d
00000350: 88a1 febd 70ba cb3d de4c 98bd 8888 1dbd
00000360: 1418 07bd 8249 cabd 0031 2e3d 80cc b53a
00000370: a0eb e3bc b815 113d 3c58 33bd c842 acbc
00000380: 9ccc e9bd 56c6 9fbd 80c8 a7ba 00ea c8bd
00000390: 6e91 c23d b0ea d4bd acb6 ce3d 6edb a2bd
000003a0: b2ec d33d e886 f83d f203 90bd 8661 c03d
000003b0: 38a0 8e3c 783d cc3c 4efd c2bd d0b1 74bd
000003c0: 005c 66bc 2048 8e3b 1660 993d 30a6 3d3c
000003d0: 8e3e 85bd 30c7 1abd 9c74 cc3d 1cc3 933d
000003e0: 8a50 943d 92db 9d3d f0f5 2cbd de97 b13d
000003f0: c051 24bb c0ef 383d 6a0e d3bd 4a9a e5bd
0.038257048 -0.119149044 -0.08275665 -0.025258482 0.0037807524 0.10942954 -0.087661356 -0.04582803
-0.045885026 0.107247666 -0.008677095 0.015197337 0.010878593 -0.09047209 -0.012823194 0.04393837
0.008736536 -0.04369688 -0.09591137 0.044848174 0.11043744 -0.10598466 0.106597096 -0.09775631
-0.007215008 -0.109752506 0.0013737679 -0.08817536 -0.122853175 0.09823373 0.050111845 0.12082352
-0.056376964 0.03979875 0.07015069 -0.017672956 -0.043356523 0.0025655627 -0.10863426 -0.037716612
0.09894872 -0.05588393 -0.05601658 0.09547475 0.04150413 0.123326376 0.11948544 -0.025652647
0.07059398 0.009410545 -0.07430045 -0.095274776 -0.096852764 -0.09095968 -0.124484494 0.053427145
0.067137 0.12075202 -0.09429826 -0.0979007 0.11024171 -0.05843751 0.057912737 0.04364124
0.106323496 0.080977544 0.09490341 -0.079478085 0.0688654 -0.03676699 0.081266165 0.11692858
-0.05195871 -0.08643761 -0.10479826 0.09146078 -0.016689062 0.002754286 -0.10067482 0.058295906
0.075355485 -0.063607395 0.052489072 0.023201078 -0.100972444 0.11284605 0.027158454 0.08213298
-0.10287121 0.0043658763 0.105530545 -0.10526371 -0.010018364 -0.08287975 0.09728038 -0.08578779
-0.02020654 0.03375405 -0.031360447 -0.0153336525 -0.043548018 -0.017567843 0.07206899 -0.08038966
-0.12153542 -0.00305295 0.122788906 0.11243735 0.0018258393 -0.0024904609 0.061148778 -0.09491314
0.102786794 0.09355481 0.05139026 -0.08804606 -0.044782966 -0.07950826 -0.081627876 -0.03999549
-0.100668594 0.040953085 -0.095581844 0.118260905 -0.113568455 0.08310373 -0.0005226135 0.08960651
0.10791384 0.115598336 0.003103897 -0.016384453 0.093793005 0.062112823 0.034762487 0.098698825
0.059601396 0.073606074 -0.07523297 0.021259442 -0.0526634 0.08129087 0.08816011 -0.09911959
0.060305104 -0.0151001215 0.07772425 -0.042752072 0.075265825 0.1060604 0.022601098 -0.04786572
-0.06967515 0.012955427 0.06933726 0.08497268 -0.077825844 -0.03355317 -0.08454527 -0.10522337
-0.020131052 0.070525736 0.015770644 0.038113296 0.09687041 0.034916624 -0.03843066 -0.10583669
0.11411302 -0.055367082 0.12172642 -0.07211886 0.00972487 -0.017775267 0.0047306716 -0.036949337
0.010101765 -0.07611112 -0.09166859 -0.09080809 -0.0793421 0.049617127 -0.0014903843 -0.114269525
-0.040572077 -0.014093608 -0.084166005 0.014784098 -0.00053440034 -0.054390356 -0.10173185 -0.06260775
-0.015160665 -0.02501151 -0.03358805 0.09154332 0.097950846 0.09087783 0.025468439 0.02408956
-0.096898764 -0.031696647 -0.10338406 -0.021495193 0.035033986 -0.09870845 0.06989941 -0.08838539
0.088915765 -0.12286666 0.10298832 0.08520378 -0.124331534 0.099476695 -0.07436536 -0.038460284
-0.032981947 -0.09877302 0.0425272 0.001387015 -0.027822316 0.035421103 -0.04378532 -0.021027938
-0.11415979 -0.078015015 -0.0012800843 -0.09810257 0.09500395 -0.103963256 0.10093436 -0.07952009
0.103478804 0.12135106 -0.070320025 0.09393601 0.017410383 0.024931654 -0.0952097 -0.059739888
-0.01406002 0.004342094 0.0748903 0.011575267 -0.06506072 -0.037787616 0.09983179 0.072149485
0.07241924 0.07707895 -0.04222673 0.086715445 -0.002507314 0.04515052 -0.10305484 -0.11211069

hidden.2.bias f4 [64]
00000000: 5cff ac3d 7432 503d b8f4 df3d bc2f 5ebd
00000010: 3894 d23c 406e 123b 20a2 843d 3023 d83d
00000020: e45c d0bd 706a a33d 382a cc3c 046a a43d
00000030: 208f 4cbc ec38 b6bd d01e b23d 727c 8abd
00000040: b0ca 8abc 60ba 29bd 1080 b13c 5cdd ae3d
00000050: dcb6 f6bd 205d 7fbd 3834 e43d 56c9 bd3d
00000060: d846 80bc 18ae 9b3d 46d7 b83d 84d6 e73d
00000070: 2c57 033d e258 ef3d 6469 eebd 7881 8dbc
00000080: 00b7 c53a 7280 e83d f26e e8bd 507d 21bd
00000090: d816 953c e009 073c ecd3 2cbd 14c3 ba3d
000000a0: 4488 1f3d 1c40 e43d e0d2 94bc b06e c43c
000000b0: c6f0 b43d 667d e7bd a4c5 523d 6ab5 f63d
000000c0: ced0 ebbd 7003 e33c 46dc 98bd 2e95 983d
000000d0: 164a ef3d c83c b53c 5e49 fabd 884f d7bd
000000e0: 3837 f03c 3cb2 fc3d 7a77 c23d 58d3 4e3d
000000f0: aab7 d3bd 2011 abbc 5c6b 913d 7c6a 913d
0.084471434 0.050829366 0.10935348 -0.05424474 0.025705442 0.0022343546 0.064762354 0.105535865
-0.101739675 0.07979286 0.024922475 0.080280334 -0.0124852955 -0.08897576 0.08697283 -0.06762017
-0.016942352 -0.041437507 0.02166751 0.08538315 -0.120465964 -0.06234467 0.111427724 0.092669174
-0.015658781 0.07601565 0.09025435 0.113202125 0.032065555 0.11686875 -0.116411954 -0.01727365
0.0015084445 0.11352624 -0.11349286 -0.039426148 0.01819937 0.0082421005 -0.042194292 0.091192394
0.038948312 0.111450404 -0.01816696 0.023978561 0.088349864 -0.11303215 0.051458016 0.12046321
-0.11514436 0.0277116 -0.07463889 0.07450329 0.11684053 0.02212371 -0.12221025 -0.10513216
0.029323205 0.12338683 0.094954446 0.05049452 -0.103377655 -0.02088219 0.07100555 0.071003884

hidden.3.weight f4 [64, 64]
00000000: b813 1cbd 7ca2 c5bd 2081 00bc 4820 c63d
00000010: b6f0 b83d 8c33 98bd 1251 f4bd f8c4 4c3d
00000020: 9838 efbd ac67 373d 80b9 8dba 8876 29bd
00000030: 1cfe be3d f6d0 fdbd 6a73 bd3d f872 53bd
00000040: 90a8 bd3d 9681 f9bd 2c4b 2c3d 9879 29bd
00000050: d838 d53c 5c82 c6bd a052 993d d2a0 efbd
00000060: 78de 4b3d 0066 08bd a6c1 b13d a85b a53c
00000070: c0da dc3d 00c9 a3bc 4cb3 3b3d a052 bfbd
00000080: 98de 54bd e680 e13d f8fa 11bd c0c0 8d3d
00000090: 5270 90bd a886 c7bd fc41 203d b453 8d3d
000000a0: 9820 fdbc e2b2 bdbd 2438 e5bd 08c9 e4bd
000000b0: 602e 873d 6417 e23d b80f 21bd 10b2 98bc
000000c0: 08c4 b6bc 987c b4bc 62cd ce3d fe8f fdbd
000000d0: f8ef f6bc 2803 0a3d 905a 35bc 5e2e 803d
000000e0: 58b8 113d c07f eabc 9034 87bd 8ad4 b2bd
000000f0: 5ae1 cfbd 2c28 eabd 2ed4 e63d 0c1b 45bd
00000100: a277 b43d c8e9 fa3c 40c6 98bc 28b7 dabd
00000110: e0b9 1fbd d8d8 7bbd 1818 70bd 80c7 1fbb
00000120: 64af 3a3d 9480 0c3d 40d6 a83d 0011 5abd
00000130: 6c56 bcbd 8a01 8bbd fa3c bd3d ba1d ad3d
00000140: be5b cbbd 18d5 e23d a8c6 8b3c bcac 63bd
00000150: 56e0 f9bd ac51 283d dca7 bebd 2e75 ac3d
00000160: 18c3 8e3c 8c91 7b3d 34f6 ba3d 581a cfbd
00000170: 04d7 0dbd 2033 28bc 4038 1b3b a21b f8bd
00000180: e61f 99bd 7a37 ff3d 8262 de3d 38e2 7a3d
00000190: 302b 4cbd b0fb 5a3c 2c2a f5bd c87b 80bd
000001a0: 7894 9d3c 66cf fabd 806a c03d 2c3a 683d
000001b0: 2095 e9bd 80e0 5e3c f024 343d 101a 3bbd
000001c0: 0057 7a3b 223b 8d3d 2049 c73b 80b9 a93c
000001d0: 365a 893d 3671 f33d 3ed6 c9bd f8e0 9d3d
000001e0: 7616 e33d 3045 de3d 7816 cfbc c092 573b
000001f0: 647c 413d 1807 9a3c 08d3 113d 04bb cbbd
00000200: 8e89 d73d ac29 abbd 3a99 863d a8ef 643d
00000210: 3487 98bd 10e1 2cbd ec3b f3bd 4c65 f23d
00000220: 6497 a5bd a876 893c a8a6 81bc dc88 a6bd
00000230: 2896 aebc 0889 ce3c 749e c63d c0f7 033c
00000240: 8a37 f1bd 2e25 dd3d a0e3 9e3b 92da ebbd
00000250: c0d7 943c 14bc 973d a4b1 353d 607a 253d
00000260: 6099 f6bc b466 bd3d 6044 713d 10c3 dbbd
00000270: e25a fbbd 800e ceba 94cf 05bd 1e37 8dbd
00000280: 40a4 5cbb 02fa ea3d d68d c73d 207b 21bd
00000290: 4458 cabd c6a7 90bd 98dc a9bc d4c5 163d
000002a0: 7cb3 883d bcfc 5d3d 90b7 97bd 00a4 373a
000002b0: c47c e3bd 6023 20bd 6c4c 97bd dcb9 29bd
000002c0: e8ba f5bc 7ced 70bd 249d 843d 2426 a8bd
000002d0: a68b 83bd b0de b53c a062 14bc f0de 8c3d
000002e0: 0cc1 3e3d a408 c2bd 82d8 e1bd f0a6 d73c
000002f0: 687a cf3d 68a2 83bc 7490 b63d fc46 88bd
00000300: 404a ad3b 10c1 8bbd 002e 4fba 5067 f5bc
00000310: 3880 8d3d a846 d1bd e24c 8cbd 3887 c5bd
00000320: 229d 823d 523f 9abd 7caa f23d f231 d23d
00000330: aabf edbd e222 a13d e00f 85bd 5cc6 313d
00000340: 5a26 f4bd b230 c63d f0c0 eabd fc07 3fbd
00000350: 1606 aa3d d654 e5bd 003c d63d cc77 c4bd
00000360: 48e2 e7bd 6065 07bc f4c2 8bbd 56c2 df3d
00000370: 0e98 d8bd e070 1a3c be25 8f3d 50eb 32bc
00000380: 1e61 973d 3095 2c3d 40c4 403c 902b 3e3c
00000390: 5a87 ef3d b066 563c 3a67 f8bd 0008 e63d
000003a0: e09e 63bd 5818 ccbc 020d aebd e4cd e13d
000003b0: c0b0 4abb bc0e 1cbd a446 a6bd 783d d43c
000003c0: 10a8 66bd a8cb 4ebd fc43 763d 6c3b 5ebd
000003d0: da80 aabd 8660 abbd 4a35 8b3d 9c7f 043d
000003e0: d8ab 043d 0094 7f3d b41f f43d 58fa b33d
000003f0: fa5e 9b3d 2094 ed3b 4063 323b c003 253c
-0.038104743 -0.09650132 -0.007843286 0.09674126 0.09030287 -0.07431707 -0.119295254 0.04999253
-0.11680716 0.044776604 -0.001081273 -0.041372806 0.09325811 -0.12393372 0.09250529 -0.051623315
0.09260666 -0.1218292 0.042063877 -0.041375726 0.026028082 -0.09692833 0.074864626 -0.11700596
0.04977271 -0.0333004 0.08679514 0.020185307 0.10783911 -0.019993305 0.045825288 -0.09341931
-0.051970094 0.110109136 -0.035639733 0.0692153 -0.070526734 -0.097424805 0.039125428 0.06900731
-0.030899331 -0.09262635 -0.111923486 -0.11171156 0.06600642 0.11039618 -0.03932163 -0.018639594
-0.022310272 -0.022032067 0.100977674 -0.1238098 -0.030143723 0.033694416 -0.011068955 0.06258844
0.035576195 -0.02862537 -0.066018224 -0.08731945 -0.10150404 -0.114334434 0.11270939 -0.048121497
0.08811881 0.030629054 -0.01864922 -0.106794655 -0.038995624 -0.061486095 -0.058616728 -0.0024380386
0.04557742 0.03430231 0.0824399 -0.05323887 -0.09196171 -0.06787403 0.09240146 0.084529355
-0.09929608 0.11075801 0.0170625 -0.055584654 -0.12200992 0.041093513 -0.093093604 0.08420788
0.017427012 0.0614181 0.09128991 -0.101124465 -0.034628883 -0.010266095 0.002368465 -0.121146455
-0.07476787 0.12461753 0.108586326 0.061250895 -0.049845874 0.013365671 -0.11970934 -0.062736094
0.019235834 -0.12246589 0.09395313 0.056696102 -0.114053965 0.01360333 0.04398054 -0.045679152
0.0038198829 0.06896044 0.006081715 0.020718336 0.067066595 0.11886828 -0.098553166 0.07708925
0.110882685 0.1085304 -0.025279269 0.0032893866 0.04723777 0.01880221 0.035601646 -0.0994778
0.10524283 -0.08357558 0.065721944 0.055892617 -0.07447663 -0.042206824 -0.118766636 0.11835727
-0.08085516 0.016780213 -0.015826538 -0.081315726 -0.021311834 0.025211826 0.09698191 0.008054674
-0.11778171 0.10798107 0.0048489124 -0.11516298 0.018169284 0.0740892 0.044358864 0.04039991
-0.030102432 0.09248105 0.058903098 -0.107305646 -0.12273194 -0.0015720874 -0.032668665 -0.068952784
-0.0033667237 0.114734665 0.0974385 -0.03942406 -0.098801166 -0.0706325 -0.02073507 0.036809757
0.06674859 0.054196104 -0.07408059 0.0007005334 -0.111077815 -0.039096236 -0.07387623 -0.041437015
-0.02999635 -0.058820233 0.06475285 -0.082104 -0.0642312 0.022200912 -0.009056717 0.068784595
0.046570823 -0.09474304 -0.11027624 0.02632472 0.10130769 -0.016068652 0.08914271 -0.06654164
0.0052883923 -0.06823933 -0.0007903278 -0.02995649 0.069092214 -0.10218555 -0.06850602 -0.096449316
0.06377627 -0.07531609 0.118489236 0.102634326 -0.11608823 0.078679815 -0.064971685 0.04340206
-0.119213775 0.09677257 -0.11462581 -0.046638474 0.08301942 -0.11197822 0.10460663 -0.09593162
-0.113224566 -0.008263916 -0.06824294 0.109257385 -0.10575877 0.009426326 0.069896206 -0.010920361
0.073915705 0.042134464 0.01176554 0.011607066 0.11695738 0.013086006 -0.12129064 0.11231995
-0.055571437 -0.024913952 -0.08498575 0.11025599 -0.0030928105 -0.03809999 -0.081189424 0.025908217
-0.05631262 -0.05048719 0.06012343 -0.054255888 -0.08325358 -0.0836802 0.067972735 0.03234826
0.032390445 0.062397003 0.119201094 0.08787984 0.07586475 0.007250324 0.0027219802 0.010071695

hidden.3.bias f4 [64]
00000000: 008c dc39 aca9 383d 385b 1ebd 0cb6 16bd
00000010: 40ae fcbb 3c3e 56bd 1080 9ebd 0007 1abd
00000020: 9af1 b1bd dcef febd 8cda 01bd 70ef af3c
00000030: 86e1 ff3d 64c6 debd a458 d43d 1897 ae3c
00000040: 2a1c 83bd a078 d03b 1ca2 753d ec07 fb3d
00000050: ecc9 9f3d 1e86 a8bd d4e2 533d ac9c b9bd
00000060: 1e9c 9e3d 2857 5a3d e825 883d 667a abbd
00000070: 308f ea3d 4c53 e13d 60f0 11bd 00fa e23a
00000080: f8fa b83d 0e01 e53d f81c ed3d 764b e3bd
00000090: 40a8 383c 821c bebd 40fc 4a3b 1088 343d
000000a0: 14ae 4d3d ac7c c23d 0823 76bd ac11 05bd
000000b0: 140a dcbd d454 0dbd ae65 b63d 5830 5f3d
000000c0: d81b c8bc 48e3 ccbd 8092 3fbc 78e2 b33c
000000d0: 40ec 163c 6485 e03d 36e1 cf3d 54a9 1b3d
000000e0: 9c5b fe3d 8032 14bb 68e1 efbd 26e3 b0bd
000000f0: b8fa 813d f017 4cbc 8083 7bbd f819 99bc
0.00042065978 0.045083687 -0.03866121 -0.036794707 -0.007711202 -0.052305445 -0.0773927 -0.037604332
-0.0868866 -0.12448093 -0.031702563 0.021476477 0.12494187 -0.10877684 0.10368469 0.021312281
-0.06401856 0.006362036 0.059969053 0.1225737 0.078021854 -0.08228706 0.051729992 -0.09063086
0.07744621 0.053305775 0.06647855 -0.08372955 0.11453092 0.11002216 -0.03562963 0.0017316937
0.090322435 0.11181842 0.11577791 -0.110983774 0.011270583 -0.09282781 0.0030973107 0.04407507
0.050214842 0.094964355 -0.060092002 -0.032487556 -0.1074411 -0.034504727 0.089061126 0.054489464
-0.02442734 -0.10004288 -0.011692643 0.021958575 0.0092116 0.10962942 0.101503775 0.03800328
0.12419817 -0.0022613108 -0.11712915 -0.08637075 0.06346649 -0.012456879 -0.061404705 -0.01868914

hidden.4.weight f4 [64, 64]
00000000: 94fe f0bd 0000 09bc 5add ce3d 0c95 443d
00000010: 5ef1 ea3d 04ee 2e3d 60fa 7cbc 6a77 b7bd
00000020: d65b d63d 3a87 f53d 5489 e6bd b4ab 733d
00000030: 60f7 60bd 78a1 e83d 56ea e6bd 8e20 9dbd
00000040: 9ca9 493d 20ce dbbb 70b4 7d3d e4c2 92bd
00000050: 5017 713d d0cb 41bd a04b 033c bc13 14bd
00000060: 30bf 7abc b0c9 c7bd 9011 28bd b295 d3bd
00000070: 704f 943c ac50 983d cc61 333d 401f f2bd
00000080: 2423 d03d 9623 86bd 9ade 873d 18d6 c13d
00000090: 089c d7bd f857 d83c 70df 25bc b8a3 c0bc
000000a0: c894 b23d c4f4 e73d bc48 bf3d 9064 f23d
000000b0: 7eec c43d c000 a7bc b691 8e3d 0092 f7ba
000000c0: 80f1 bdbb e43b cabd b2cc e8bd a8db f3bd
000000d0: b023 1b3c b07d 94bc e071 4dbc 260c cc3d
000000e0: 52b5 c0bd 5c31 6dbd 5469 2dbd f0cb 57bd
000000f0: 7c41 68bd 4e75 f9bd eca7 553d 6a0a f1bd
00000100: 1067 21bd ecc4 f33d e813 4b3d 8c63 9e3d
00000110: bcf7 f0bd 0098 7d39 9095 e43d 08fe 99bd
00000120: ca2f db3d e477 783d 0808 9dbd 548a b63d
00000130: 001f 7dbd 0c7e 58bd f4b0 00bd c8ff 06bd
00000140: dcbd ffbd d8df ce3c c017 10bd 70ba 3bbc
00000150: 60ce 4d3c a8f4 f73c 0849 ad3c 8e6c 86bd
00000160: 0c2a 4e3d b01b 61bc fad0 ec3d 0e7a dabd
00000170: 880d 833d 7ec2 febd 3c97 513d b44d 26bd
00000180: 14aa c5bd a4fa 2f3d 7097 4abd 4e5a e1bd
00000190: c8c7 4c3d 9e54 8ebd 7edc 84bd 7e86 f3bd
000001a0: 9005 3dbd 3a91 dc3d 2e49 89bd 52f9 cfbd
000001b0: ec54 0c3d b63d 98bd 78bd a2bc 2cce 753d
000001c0: 9021 00bd 122e ea3d 3869 b8bc 78b1 86bd
000001d0: 9e6c a13d 1a2b cebd e889 5d3d 7490 953d
000001e0: a4a3 e2bd 1ef5 87bd c081 2c3c 8a64 8ebd
000001f0: 6093 4f3d 80a6 e03b 9aa0 9ebd 54ac abbd
00000200: 80fc 83bb 40b1 7cbd 4c4c db3d 329b c73d
00000210: 40de b73b 180f 473d d861 cabd f0df f83c
00000220: c660 c33d 5243 f23d b6de da3d 92a5 c7bd
00000230: f01b 1d3c eca9 413d 3eb9 803d 10ed e8bd
00000240: b45d a23d 80db d73b f8ae 2bbd 70f3 873c
00000250: 785a e33d 80c9 563d f04a 46bd a479 603d
00000260: 12cd 8c3d cca2 3a3d 06fa 953d 94ed 9c3d
00000270: 94b3 1a3d 2076 c93c 7021 14bd d4fb ff3d
00000280: 5a1a 8e3d 3048 b9bd 60cb e6bc d452 513d
00000290: f06e e4bc 6293 b53d 9215 f8bd 9c7a c5bd
000002a0: c0f2 e2bb 32fc f83d 4abb b33d 7079 1d3d
000002b0: 60bb a33d 386f e03c c0d2 3d3b 60eb 13bc
000002c0: 104a 3f3d ccb6 7bbd 308f 813c 88f5 56bd
000002d0: 0051 5e3b bccb 02bd 4830 dc3d 4003 013c
000002e0: 3080 48bc 609c 90bd f8f2 bebd 729b 8b3d
000002f0: 303a 9b3d 7231 b73d fc27 63bd 40e2 d53c
00000300: 647f ad3d 60d4 313c f0ca f9bc d071 b53d
00000310: 7a6d 84bd b081 eb3d 020a ce3d 803d 5b3c
00000320: 4e20 a63d b068 d83d 48d0 7dbd 0012 a03a
00000330: 10e1 9abc 60db 9ebc ce4f b8bd 988c ff3c
00000340: 006c 5dbc 0010 4cbb 143c 0d3d 98a4 a63d
00000350: 24da 1fbd 26aa ad3d e699 ca3d d857 193d
00000360: 58d0 fbbc 983f fb3c cca5 3cbd 1468 4a3d
00000370: c800 23bd 28c7 a13d e896 7cbd 70b6 ec3d
00000380: 5851 b8bd 101e 6d3d c880 10bd a0a6 323c
00000390: 40b8 eabb c246 c4bd c051 193b 3c87 8fbd
000003a0: ac35 b9bd a459 983d 40ab 57bb 5c0d c3bd
000003b0: 2c15 7dbd a02f 173c 5873 153d 68ec 4dbd
000003c0: 08b7 e8bd 7ce8 8bbd a060 20bd c02b 74bd
000003d0: 509b 59bc 2c84 573d 0463 f1bd 6044 ba3b
000003e0: c82e 8fbd 106f 2fbd 7814 353d 0090 88b9
000003f0: b015 80bd 32f8 dbbd 3009 c13c 68ca bbbc
-0.11767307 -0.008361816 0.10100813 0.047993705 0.114718184 0.04270746 -0.015440553 -0.08958323
0.10466735 0.11988683 -0.11256662 0.05948992 -0.054923415 0.11358923 -0.11275165 -0.07672225
0.049234018 -0.0067079216 0.061939657 -0.07166079 0.058860123 -0.04731351 0.008013636 -0.036151633
-0.015304372 -0.09755266 -0.041032374 -0.103312865 0.018104285 0.07437262 0.04379444 -0.11822367
0.101629525 -0.06549756 0.06634255 0.09464663 -0.105278075 0.026409134 -0.010124072 -0.023515567
0.08719784 0.11325982 0.09340045 0.11835587 0.0961542 -0.0203861 0.06961386 -0.0018888116
-0.0057966113 -0.098747045 -0.113671675 -0.119071305 0.009468958 -0.018126339 -0.012539357 0.09963255
-0.09409584 -0.0579084 -0.042336777 -0.052684724 -0.056703076 -0.12180577 0.052162096 -0.117695644
-0.03940493 0.11902794 0.04957953 0.07733831 -0.117660016 0.00024184585 0.11161339 -0.07519156
0.107024744 0.06066121 -0.076675475 0.08913103 -0.061797142 -0.052854583 -0.031418756 -0.032958776
-0.12487385 0.025253221 -0.0351789 -0.011458024 0.012561411 0.030268028 0.021152988 -0.06563674
0.050333068 -0.013739511 0.115632966 -0.10667811 0.06399065 -0.1243944 0.05116962 -0.040601447
-0.096515805 0.04296364 -0.04946083 -0.110035524 0.049995214 -0.06949733 -0.06487368 -0.11890887
-0.046147883 0.10769887 -0.06703411 -0.10154976 0.034260675 -0.074336454 -0.019865736 0.060011074
-0.031282008 0.114345685 -0.02251111 -0.06576818 0.07882045 -0.10066815 0.054086596 0.07302943
-0.11066368 -0.06638549 0.010528982 -0.0695277 0.050677657 0.006855786 -0.07745476 -0.08382478
-0.004027903 -0.061692476 0.10707912 0.09746398 0.005611211 0.04859838 -0.098819435 0.03038022
0.095399424 0.118292466 0.1068701 -0.09748377 0.00958918 0.04728119 0.06285332 -0.11373341
0.07928029 0.0065874457 -0.04191491 0.016595572 0.1110124 0.05243826 -0.04841131 0.054803506
0.068750516 0.04556541 0.07323079 0.07662502 0.037768915 0.02459246 -0.0361647 0.12499204
0.0693862 -0.09046972 -0.028173149 0.05110438 -0.02788493 0.08866002 -0.12113489 -0.096425265
-0.0069259107 0.121574774 0.08775957 0.03844589 0.07994723 0.027396783 0.0028964728 -0.009028286
0.04670149 -0.061453626 0.015815347 -0.05248025 0.0033922791 -0.031932577 0.107513964 0.00787431
-0.0122375935 -0.07061076 -0.09323686 0.06816758 0.07579458 0.08944978 -0.055458054 0.026108861
0.084715635 0.010853857 -0.030492276 0.08859599 -0.064661935 0.11499345 0.100605026 0.013381362
0.081116304 0.105668426 -0.06196621 0.0012212396 -0.018906146 -0.019391716 -0.089995965 0.03119497
-0.013514519 -0.0031137466 0.034481123 0.081368625 -0.039026394 0.08479719 0.09892635 0.03743729
-0.030738994 0.030669972 -0.046056554 0.049415663 -0.039795667 0.07899314 -0.061667353 0.11558235
-0.0899989 0.057889998 -0.035279065 0.010903984 -0.0071630776 -0.095838085 0.0023394674 -0.07008216
-0.0904344 0.074389726 -0.003290847 -0.095240325 -0.06178777 0.009227663 0.036486953 -0.050274283
-0.113630354 -0.06831452 -0.03915465 -0.059612036 -0.013281658 0.052616283 -0.11786464 0.0056844205
-0.06991345 -0.042830527 0.044208974 -0.0002604723 -0.062541366 -0.10740699 0.023563951 -0.022923663

hidden.4.bias f4 [64]
00000000: 5021 f53c 304b 95bd c2e4 833d 20b7 e63d
00000010: da4d df3d e277 af3d 0e7d efbd c832 9cbd
00000020: a4b8 b13d a062 83bd 1417 4a3d 10bf ccbc
00000030: a893 e83d 7ccf ddbd 38fa fd3c 866e ce3d
00000040: 84d9 9dbd 9c25 3dbd fc80 723d 8059 793b
00000050: 2091 8fbc 0030 5cbc 0212 f23d eacb eebd
00000060: 4adc 8a3d d49e 383d a0c9 3d3c 7617 d73d
00000070: 86c7 933d a29f 943d 7880 fbbc 34b1 2cbd
00000080: e418 1ebd 7878 cdbc 205a 50bc 726b 80bd
00000090: 642c 6dbd a048 36bd c014 dabc ba36 cb3d
000000a0: 8081 fe3b 009f 61bd 9c79 2c3d 88ac dd3c
000000b0: 580d f1bd acb7 c9bd 1613 90bd f8c9 7abd
000000c0: e887 cebd 4053 d03b a0fe fc3b 32f6 dbbd
000000d0: 6821 d6bc e2c0 c9bd 6039 053c 8eec b7bd
000000e0: 888c a1bd 3292 8f3d d2a0 db3d feff d03d
000000f0: 40cd fc3d f0d8 58bc 701f 43bd e0bc abbc
0.029923111 -0.072897315 0.064401165 0.11265397 0.10903521 0.08567788 -0.11693774 -0.07626873
0.086777955 -0.064152956 0.049338415 -0.02499345 0.11356288 -0.1083059 0.031003103 0.100796744
-0.077075034 -0.046178445 0.05920504 0.003804773 -0.017525256 -0.0134391785 0.11819841 -0.11659987
0.06780298 0.045073345 0.011583716 0.10502522 0.072157905 0.0725701 -0.030700907 -0.04216118
-0.038597956 -0.025081858 -0.0127168 -0.062704936 -0.057903662 -0.044502854 -0.026621222 0.09922548
0.0077669024 -0.055083275 0.042108163 0.027059808 -0.11770123 -0.09849486 -0.0703489 -0.06122777
-0.10084516 0.0063575804 0.0077207834 -0.107403174 -0.026138976 -0.098512426 0.008131355 -0.08980666
-0.07888132 0.070103064 0.107240334 0.10205077 0.12343836 -0.013235316 -0.047637403 -0.020964086

out_layer.weight f4 [1, 64]
00000000: 0833 d5bc 4c05 263d b839 a43c 4ce4 80bd
00000010: 2ab4 9dbd 726e 8b3d a036 813d 8007 f9bb
00000020: 788a 673d 08df c9bc 4402 45bd ac51 813d
00000030: b0bf 783c 02df cebd 26d6 8cbd 80e0 caba
00000040: 600f 7bbd b868 333d ccef bebd 5a14 f4bd
00000050: 588f 083d 9824 edbd e83f 483d d0c7 c2bc
00000060: ccb6 3abd 0c20 f73d 30b4 52bc c0c8 13bb
00000070: 6ab9 f1bd d8f7 f13c d4a9 debd b87e 88bd
00000080: b031 8b3c 44ac a8bd 6826 e53c 90c1 813d
00000090: f0c3 b5bc 68eb 8dbc d460 aa3d 38a0 e7bc
000000a0: 9cc2 1dbd a010 b03b 50a2 be3d 94af 193d
000000b0: b8d0 96bc 2a96 ddbd 982f 1c3d a09b 18bd
000000c0: 500e 1f3c ca3a a93d c20a cdbd 4442 d4bd
000000d0: a091 f7bd 60f8 febd 0297 e5bd 204c c53d
000000e0: 3475 e23d 0091 c43d a014 fbbc 7c9b bd3d
000000f0: beb0 acbd 7215 923d 804f 2f3b 20b3 b83d
-0.02602531 0.040532395 0.020047054 -0.06293544 -0.07700379 0.06808175 0.06309247 -0.007599771
0.05652854 -0.024642482 -0.048097864 0.06314406 0.015182421 -0.10101129 -0.06876783 -0.0015478283
-0.06129396 0.04380104 -0.093230814 -0.11917944 0.03333983 -0.11579245 0.04888907 -0.023776919
-0.045584485 0.12066659 -0.012860343 -0.0022550076 -0.11802943 0.029537126 -0.10872236 -0.06664795
0.016991466 -0.08235982 0.027972415 0.06335747 -0.022188157 -0.017324165 0.0831925 -0.02827464
-0.038515672 0.0053730756 0.093083024 0.03752096 -0.018410072 -0.10819657 0.038131326 -0.03725779
0.009708002 0.08263166 -0.100118175 -0.10364202 -0.12088323 -0.124497175 -0.11210443 0.0963366
0.11057511 0.09597969 -0.030649483 0.09258172 -0.084321484 0.071329966 0.0026750267 0.090185404
