models/test.pt (torch_old, 110431 bytes, 13 tensors)

in_layer.weight f4 [64, 96]
-0.035123624 -0.010000847 -0.07538192 0.063702345 0.050379917 -0.0798592 0.05257155 0.026193574
-0.084214576 -0.013947956 -0.023715355 -0.077177376 0.09155375 0.04361099 -0.08453297 -0.021860838
-0.063100144 0.07215163 0.07900694 -0.07045455 0.030757949 0.07892528 -0.016591005 -0.07705037
-0.033996582 0.040121973 0.06265631 0.0110057 0.030706644 0.03455718 0.03519456 0.036254823
0.024386466 -0.100667514 0.094125226 0.09340806 0.08181989 0.013523027 -0.08357932 -0.038999997
-0.03951946 -0.0073497742 0.038750857 -0.005465962 -0.024287224 0.03040491 -0.013588101 0.0522089
-0.022680424 -0.055140138 -0.060655374 0.060795322 0.07040812 0.084758 -0.07787691 0.10124658
0.021350816 -0.019800834 -0.09053593 0.02216059 -0.04873421 0.099015236 0.04095678 0.085800976
0.02511409 -0.02214285 -0.08411303 0.037313744 0.05009477 -0.015679084 0.06255226 0.07919292
-0.070224606 0.06563981 -0.080530144 0.029285565 0.10140723 0.0793837 -0.10011361 -0.035400882
-0.04706485 -0.019866422 0.06019357 0.039783508 0.04809791 0.031030864 0.09843238 -0.089715794
-0.03911794 -0.07164746 -0.012086339 0.015267879 -0.05938464 -0.0500024 0.08840424 0.09162463
-0.09797709 -0.045960754 -0.06627868 -0.049679775 0.060298294 0.045115814 -0.07811354 -0.086624295
0.052635342 -0.056022387 -0.058085963 0.06469457 -0.030317575 -0.055882674 0.032898694 -0.015564822
0.05876474 0.048491597 -0.097535975 0.013455063 0.08499357 0.05719219 -0.08953663 0.097781435
0.0305323 -0.015789725 -0.013932034 0.079255015 0.013221897 -0.0050674006 0.024230823 -0.05064669
0.019582078 0.04324855 -0.076209515 -0.051571157 -0.029256783 -0.063122876 0.004327178 -0.011142321
0.051780492 0.030972302 0.09759238 0.099926904 0.02058246 -0.034767896 0.046726078 0.0026657134
-0.071670845 -0.04084034 -0.08894239 0.09899354 0.028777376 0.07450032 0.032480434 0.06731419
-0.06226102 -0.02370014 -0.084343225 -0.083819196 0.029918924 0.08638851 0.068914995 0.059691906
-0.0058374107 -0.047177806 0.08953743 0.07533869 -0.07032261 -0.020742089 -0.094289616 -0.008021317
0.04904224 0.041288093 -0.07849054 0.017089933 -0.1005495 0.07970004 0.076061234 -0.05662913
-0.05905496 0.037420943 -0.0634042 0.08740859 -0.0030967072 -0.061390527 0.07118885 0.045605674
-0.051826354 -0.10060199 0.040106922 -0.041262273 -0.05474035 0.08105402 -0.045084223 0.0581152
0.07497904 0.07435003 -0.10042926 0.090432644 -0.0032316223 -0.01575353 -0.101046845 -0.0420772
0.09943856 -0.07898627 0.030633017 0.0579402 0.09848839 0.09161244 0.03041561 -0.054954913
0.05019854 -0.008170553 0.024820447 0.09199306 -0.06524007 -0.017609082 0.049926564 -0.011552155
-0.039426476 -0.0070759133 -0.101211436 0.0032938793 0.056722745 -0.030170247 0.02342014 -0.054234773
-0.019147977 0.07767774 0.06827676 -0.06307465 -0.056829102 -0.065729976 -0.046032 0.10130243
0.012747817 0.07279925 -0.0033958256 -0.09522255 -0.028271273 0.025792778 0.052193016 0.07568647
0.08399764 0.06698361 0.07047458 0.028638095 -0.06066866 0.07553139 0.027803421 0.07761665
0.06367335 -0.06980117 -0.09911367 -0.06824542 -0.07925656 -0.01803989 -0.032584496 -0.02131059
00000000: cadd 0fbd 98da 23bc d661 9abd 6076 823d
00000010: 2c5b 4e3d 388d a3bd 4455 573d e893 d63c
00000020: b178 acbd f885 64bc b446 c2bc 2c0f 9ebd
00000030: 8880 bb3d 70a1 323d 9f1f adbd 8015 b3bc
00000040: a63a 81bd 3cc4 933d 64ce a13d 7a4a 90bd
00000050: 18f8 fb3c 94a3 a13d dce9 87bc 96cc 9dbd
00000060: 0040 0bbd f056 243d f451 803d 4051 343c
00000070: 808c fb3c d48b 0d3d 2c28 103d f07f 143d
00000080: 20c6 c73c c52a cebd bac4 c03d ba4c bf3d
00000090: 3091 a73d b08f 5d3c a22b abbd 76be 1fbd
000000a0: 28df 21bd 60d6 f0bb 38b9 1e3d d01b b3bb
000000b0: 00f6 c6bc b813 f93c a0a0 5ebc 00d9 553d
000000c0: 4ccc b9bc a0da 61bd c571 78bd 8404 793d
000000d0: 2232 903d 9a95 ad3d ee7d 9fbd 5e5a cf3d
000000e0: e8e7 ae3c 5c35 a2bc e76a b9bd 208a b53c
000000f0: 869d 47bd 80c8 ca3d 4cc2 273d 6cb8 af3d
00000100: 10bc cd3c ec64 b5bc 7443 acbd 4cd6 183d
00000110: 2c30 4d3d 6c71 80bc 661b 803d e62f a23d
00000120: ebd1 8fbd 2a6e 863d fdec a4bd 48e8 ef3c
00000130: 98ae cf3d ec93 a23d 5d08 cdbd 8400 11bd
00000140: 12c7 40bd e8be a2bc 888d 763d 08f4 223d
00000150: 5002 453d 7034 fe3c ea96 c93d eabc b7bd
00000160: 223a 20bd e7bb 92bd c805 46bc 2026 7a3c
00000170: 4f3d 73bd 51cf 4cbd 480d b53d b2a5 bb3d
00000180: 36a8 c8bd 5841 3cbd 1ebd 87bd 057d 4bbd
00000190: 58fb 763d 5ccb 383d fef9 9fbd 1468 b1bd
000001a0: 2898 573d bb77 65bd 8ceb 6dbd 967e 843d
000001b0: 905c f8bc 3be5 64bd c8c0 063d 9803 7fbc
000001c0: 4cb3 703d 209f 463d f1c0 c7bd a072 5c3c
000001d0: 1c11 ae3d 5c42 6a3d fb5e b7bd a241 c83d
000001e0: e01e fa3c 7459 81bc 3043 64bc 7450 a23d
000001f0: a8a0 583c 700c a6bb b87f c63c e772 4fbd
00000200: 986a a03c 6425 313d bc13 9cbd 473c 53bd
00000210: ecab efbc 9146 81bd 00cb 8d3b 488e 36bc
00000220: c817 543d a0b9 fd3c 84de c73d 7aa6 cc3d
00000230: 8c9c a83c c868 0ebd d863 3f3d 40b3 2e3b
00000240: 2ac8 92bd 3348 27bd 6e27 b6bd 20bd ca3d
00000250: 88be eb3c a093 983d 340a 053d 06dc 893d
00000260: 6905 7fbd cc26 c2bc 24bc acbd 66a9 abbd
00000270: 8818 f53c 76ec b03d 4e23 8d3d 807f 743d
00000280: c047 bfbb 843d 41bd 665f b73d 2c4b 9a3d
00000290: 4d05 90bd 50eb a9bc ea1a c1bd d86b 03bc
000002a0: 84e0 483d b41d 293d a6bf a0bd 3000 8c3c
000002b0: e5ec cdbd c639 a33d fec5 9b3d f2f3 67bd
000002c0: 9de3 71bd b446 193d 10da 81bd 4603 b33d
000002d0: 20f2 4abb a274 7bbd 76cb 913d 04cd 3a3d
000002e0: df47 54bd 6b08 cebd 2847 243d a102 29bd
000002f0: 6b37 60bd a6ff a53d 3caa 38bd 340a 6e3d
00000300: 9c8e 993d d444 983d dbad cdbd c034 b93d
00000310: a0c9 53bb 8c0d 81bc a6f1 cebd 2459 2cbd
00000320: 72a6 cb3d 8ec3 a1bd 18f2 fa3c b452 6d3d
00000330: 48b4 c93d 4e9f bb3d 282a f93c 6718 61bd
00000340: fc9c 4d3d c8dd 05bc 4054 cb3c dc66 bc3d
00000350: 969c 85bd ec40 90bc cc7f 4c3d 4045 3dbc
00000360: a87d 21bd 10dd e7bb f147 cfbd 20de 573b
00000370: 1c56 683d 9827 f7bc 98db bf3c 4825 5ebd
00000380: 38dc 9cbc 8215 9f3d b0d4 8b3d 482d 81bd
00000390: a2c5 68bd 709d 86bd 0d8c 3cbd a677 cf3d
000003a0: 38dc 503c c617 953d 808c 5ebb 0a04 c3bd
000003b0: 2899 e7bc 604b d33c 58c8 553d 8201 9b3d
000003c0: f406 ac3d b42e 893d fa54 903d 709a ea3c
000003d0: b37f 78bd 34b0 9a3d 00c4 e33c 7af5 9e3d
000003e0: 2c67 823d eaf3 8ebd 1cfc cabd 41c4 8bbd
000003f0: 4351 a2bd 64c8 93bc 5277 05bd 8c93 aebc

in_layer.bias f4 [64]
-0.10149331 0.0067357197 0.011301659 0.046688437 -0.029725067 0.060575575 -0.019166902 -0.0868993
0.07458611 0.020302676 -0.01541432 -0.08090574 0.029181391 0.01177112 0.06352639 -0.1006857
0.06006998 0.07707299 0.033869088 -0.044102184 0.0960446 -0.07199501 0.025623798 0.063667476
-0.04087082 -0.019363351 -0.07029326 -0.038836524 -0.05644299 0.02836755 0.07656774 0.05032651
-0.024427108 -0.060395904 -0.003962755 0.041728124 -0.027447537 0.07425667 0.012928873 -0.02848664
0.040834352 -0.077077344 -0.097858526 0.06032744 0.04792373 0.026317984 -0.09885348 -0.09373376
-0.014336094 -0.03771469 0.05240944 -0.025016584 -0.05284747 0.015523635 -0.07428019 -0.066022746
-0.043092832 -0.01838778 0.057171717 0.06948866 0.08812748 -0.01209119 -0.006939739 -0.0424605
00000000: b9db cfbd 50b7 dc3b 982a 393c 603c 3f3d
00000010: fc81 f3bc 181e 783d e803 9dbc 43f8 b1bd
00000020: 9ac0 983d cc51 a63c 588c 7cbc e9b1 a5bd
00000030: d00d ef3c a8db 403c 201a 823d 4e34 cebd
00000040: f00b 763d 72d8 9d3d 50ba 0a3d 7ea4 34bd
00000050: 08b3 c43d 1f72 93bd 00e9 d13c 1864 823d
00000060: 2968 27bd e49f 9ebc eaf5 8fbd 0c13 1fbd
00000070: c430 67bd 1063 e83c 8ccf 9c3d 2c23 4e3d
00000080: 5c1b c8bc b261 77bd 00da 81bb 1ceb 2a3d
00000090: a8d9 e0bc e213 983d a0d3 533c d05c e9bc
000000a0: ec41 273d bada 9dbd 0d6a c8bd e819 773d
000000b0: ac4b 443d d098 d73c b173 cabd 7cf7 bfbd
000000c0: f0e1 6abc b87a 1abd 48ab 563d 94ef ccbc
000000d0: 9776 58bd d856 7e3c 3620 98bd ef36 87bd
000000e0: 1c82 30bd f8a1 96bc e42c 6a3d 1250 8e3d
000000f0: 2e7c b43d 201a 46bc c066 e3bb 10eb 2dbd

hidden.0.weight f4 [64, 64]
0.09705414 0.028966412 -0.08240071 -0.07687189 -0.06590702 0.12022236 -0.054555073 -0.051032737
0.02486761 -0.10383761 0.10331048 0.0063713044 0.06860004 0.04282123 -0.10624358 -0.012135237
0.07572995 0.027316272 0.12451565 -0.061189517 0.090081185 0.07818088 -0.11100632 0.05812636
-0.02732712 -0.0114117265 0.08993167 -0.10717346 -0.02031815 -0.004445508 -0.09901501 -0.015496552
-0.035461858 0.049576595 -0.075956956 -0.06682801 0.04302807 -0.104598194 -0.09052935 -0.030469388
-0.038999975 0.09256542 -0.038939595 0.122707725 0.012268141 -0.09327167 0.0184353 -0.057927817
0.0026654303 0.022154182 0.02437365 0.04417233 -0.045521438 -0.00782077 0.0003825575 0.107225
0.041655466 -0.0614634 0.0695509 -0.05194612 -0.06081958 -0.0394886 0.119403034 -0.12364349
0.060948014 -0.048132062 0.009930834 3.8564205e-05 0.023845166 0.030989185 0.10421613 0.041943133
-0.03157565 0.039653435 0.07443568 0.12013902 -0.052008674 -0.086172745 0.01417765 -0.07868798
0.041307732 0.018159151 0.066303894 -0.0024519116 -0.09556325 -0.036694363 0.057863653 0.10702516
-0.008387223 -0.06617963 -0.002127558 0.12204184 0.077562764 -0.014591709 0.0011834204 -0.03017348
-0.077817306 0.094031245 0.066385 -0.04147838 -0.03509642 0.0003605038 -0.0062585324 0.08267388
0.059892297 -0.08679891 -0.017652199 0.07142414 -0.060988218 0.07183416 -0.012381405 -0.06634192
-0.09154914 0.09950873 0.07865928 0.021338165 -0.0025877059 -0.058557138 0.007471904 -0.121605396
-0.05454725 0.06577191 -0.009167209 -0.020972088 0.11761716 -0.052797318 -0.10229793 -0.04741256
0.11026901 -0.10054213 -0.007558018 -0.07985908 0.03963615 -0.042935103 -0.0667111 -0.091199294
0.047163755 -0.014507696 0.0073164254 0.076744914 -0.07558903 0.090447694 -0.04412429 -0.0077577084
0.11382741 0.0694384 0.04883614 -0.097417474 0.11697152 0.0796954 -0.08358702 -0.0537048
0.09056258 -0.08265932 -0.06549533 0.05253458 0.030772567 0.08075531 0.096225604 0.063224375
-0.09820962 0.064320505 0.0027866215 -0.06676623 0.0306831 -0.040343523 0.07733126 -0.023863688
0.0714404 -0.099268004 -0.09812723 0.030295402 0.07699451 0.07584001 -0.0035541654 0.041620508
-0.105504274 0.036742672 -0.07674202 -0.022475705 -0.11489996 -0.09721166 0.074009046 -0.024194181
0.08791381 -0.032549083 -0.01518558 0.010987222 0.014504343 0.09710549 -0.014726192 -0.048196197
0.008035243 0.042528853 -0.021420687 0.037678093 -0.08990738 -0.07821284 0.012657523 -0.025249168
-0.010903209 -0.061917007 0.003093645 0.10518727 -0.059898123 -0.06033188 0.021139383 -0.016541421
-0.055437684 0.0009444803 0.11240682 -0.105607554 -0.05747868 0.07137279 -5.6028366e-05 0.011193678
0.004482746 -0.095163465 -0.08400467 -0.015374437 -0.049998567 -0.11703166 0.08577432 -0.0073494315
-0.051758677 -0.0154728 -0.009330183 0.12486383 -0.09583084 -0.05582781 -0.039479688 -0.016502753
0.051463336 -0.037150577 -0.05772364 -0.087045625 0.028097853 0.013474435 0.04240693 -0.027707472
-0.02886334 -0.01620549 -0.08160472 -0.06315653 -0.045723453 -0.048105285 -0.07192525 0.123427555
0.07266232 -0.09727301 -0.118634835 -0.046854824 -0.03023842 -0.04153785 0.1123015 0.022524953
00000000: 52c4 c63d f84a ed3c b4c1 a8bd 026f 9dbd
00000010: 42fa 86bd 2437 f63d 2475 5fbd b407 51bd
00000020: 28b7 cb3c d0a8 d4bd 7294 d33d 60c6 d03b
00000030: 2e7e 8c3d 5065 2f3d 3c96 d9bd e0d2 46bc
00000040: 4e18 9b3d 60c6 df3c 1002 ff3d dca1 7abd
00000050: 7c7c b83d 4c1d a03d 4857 e3bd e815 6e3d
00000060: 20dd dfbc 40f8 3abc 182e b83d c27d dbbd
00000070: 4072 a6bc a0ab 91bb 62c8 cabd 40e5 7dbc
00000080: 7440 11bd d410 4b3d 528f 9bbd 20dd 88bd
00000090: 343e 303d 9437 d6bd 7467 b9bd f09a f9bc
000000a0: 70be 1fbd f092 bd3d 207f 1fbd 304e fb3d
000000b0: 5000 493c 3805 bfbd a005 973c b845 6dbd
000000c0: 80ae 2e3b b07c b53c 40ab c73c 0cee 343d
000000d0: b074 3abd b022 00bc 0092 c839 c898 db3d
000000e0: ec9e 2a3d 0cc1 7bbd b470 8e3d 74c5 54bd
000000f0: f41d 79bd ccbe 21bd 9489 f43d cc38 fdbd
00000100: a0a4 793d 2026 45bd f0b4 223c 00c0 2138
00000110: f056 c33c 08dd fd3c 446f d53d 90cc 2b3d
00000120: 7855 01bd a46b 223d bc71 983d 720b f63d
00000130: 0c07 55bd 567b b0bd 6049 683c 2a27 a1bd
00000140: 4c32 293d 80c2 943c 56ca 873d 40b0 20bb
00000150: aab6 c3bd d44c 16bd 7002 6d3d 0230 db3d
00000160: 906a 09bc 3089 87bd 806e 0bbb 12f1 f93d
00000170: 3ad9 9e3d 1012 6fbc 001d 9b3a 602e f7bc
00000180: ae5e 9fbd 7493 c03d dcf4 873d 3ce5 29bd
00000190: 44c1 0fbd 0002 bd39 6014 cdbb ec50 a93d
000001a0: a051 753d a0c3 b1bd 589b 90bc d246 923d
000001b0: c8ce 79bd ca1d 933d 60db 4abc 46de 87bd
000001c0: 1e7e bbbd 3ccb cb3d 1e18 a13d 60cd ae3c
000001d0: 8096 29bb 9cd9 6fbd e0d6 f43b 400c f9bd
000001e0: f06c 5fbd 6cb3 863d 1032 16bc a8cd abbc
000001f0: 44e1 f03d 0042 58bd 9481 d1bd ac33 42bd
00000200: b8d4 e13d 08e9 cdbd 40a9 f7bb 288d a3bd
00000210: 8459 223d b8dc 2fbd d49f 88bd b2c6 babd
00000220: c82e 413d b0b1 6dbc a0be ef3b 702c 9d3d
00000230: 6cce 9abd a43c b93d acbb 34bd 6034 febb
00000240: 581e e93d b835 8e3d 6808 483d d082 c7bd
00000250: c48e ef3d 5837 a33d ac2f abbd 90f9 5bbd
00000260: e078 b93d 4a49 a9bd 6a22 86bd 802e 573d
00000270: c016 fc3c 0a63 a53d ee11 c53d c87b 813d
00000280: 2022 c9bd 78ba 833d c09f 363b bcbc 88bd
00000290: 205b fb3c 403f 25bd da5f 9e3d c87d c3bc
000002a0: 584f 923d 064d cbbd eef6 c8bd 102e f83c
000002b0: 4caf 9d3d 0252 9b3d 00ed 68bb 447a 2a3d
000002c0: a012 d8bd 7c7f 163d ec2a 9dbd f81e b8bc
000002d0: ac50 ebbd e816 c7bd 0e92 973d e032 c6bc
000002e0: 280c b43d 3052 05bd f0cc 78bc c003 343c
000002f0: a0a3 6d3c 3edf c63d 2046 71bc 6069 45bd
00000300: 40a6 033c bc32 2e3d 707a afbc 5854 1a3d
00000310: 5c21 b8bd 0e2e a0bd 8061 4f3c 58d7 cebc
00000320: 60a3 32bc b09c 7dbd c0be 4a3b 6c6c d73d
00000330: bc57 75bd 901e 77bd 802c ad3c e081 87bc
00000340: a012 63bd 0097 773a 8c35 e63d c648 d8bd
00000350: c46e 6bbd e62b 923d 0000 6bb8 b065 373c
00000360: 00e4 923b 10e5 c2bd a40a acbd 10e5 7bbc
00000370: 4ccb 4cbd 4cae efbd 72aa af3d 80d3 f0bb
00000380: e800 54bd a081 7dbc a0dd 18bc 9cb8 ff3d
00000390: f642 c4bd b4ab 64bd 74b5 21bd c830 87bc
000003a0: 38cb 523d 342b 18bd a06f 6cbd fa44 b2bd
000003b0: 782d e63c e0c3 5c3c e4b2 2d3d c8fa e2bc
000003c0: d072 ecbc 60c1 84bc 6020 a7bd 3658 81bd
000003d0: 8448 3bbd 0c0a 45bd 8c4d 93bd 96c7 fc3d
000003e0: fccf 943d 1237 c7bd d2f6 f2bd d8ea 3fbd
000003f0: 90b6 f7bc 9823 2abd 54fe e53d 4086 b83c

hidden.0.bias f4 [64]
-0.082173705 -0.067259744 0.058671907 0.042248428 0.043963075 0.11622065 -0.04323663 0.10872899
0.10041195 -0.0048664957 0.022810355 -0.08695474 0.05476904 0.021961197 -0.0023960024 0.06263462
0.06243843 -0.10870205 0.010450169 0.05113855 -0.09911397 0.115961164 0.10907933 -0.024503067
-0.08659676 0.006743446 -0.008412778 0.07575923 -0.12299919 0.017225608 0.033408627 0.04391262
-0.059278265 0.004506558 -0.043799683 -0.11650096 0.039185256 -0.09060116 0.02865833 0.09814389
-0.009793028 0.117745265 -0.052078694 -0.10693845 -0.06893292 0.107617095 -0.08689566 -0.10226372
-0.109204575 0.04050544 -0.042362913 0.09984434 0.008293673 0.042088807 -0.075763375 0.05090362
0.049969226 0.11515567 0.008187592 0.034745455 -0.08484247 -0.06745833 -0.119515985 -0.015625536
00000000: b04a a8bd 7abf 89bd f451 703d b00c 2d3d
00000010: a012 343d 1805 ee3d e418 31bd 4ead de3d
00000020: c8a4 cd3d 2077 9fbb c8dc ba3c 5415 b2bd
00000030: 8055 603d f8e7 b33c 4006 1dbb 9446 803d
00000040: 70bf 7f3d 2e9f debd 3037 2b3c a876 513d
00000050: 44fc cabd 0c7d ed3d fc64 df3d a8ba c8bc
00000060: a459 b1bd 20f8 dc3b c0d5 09bc a827 9b3d
00000070: 00e7 fbbd b81c 8d3c 7cd7 083d b8dd 333d
00000080: c4cd 72bd c0ab 933b 4c67 33bd 0e98 eebd
00000090: b880 203d 1a8d b9bd e0c4 ea3c aaff c83d
000000a0: f072 20bc 6e24 f13d 7850 55bd 8c02 dbbd
000000b0: b42c 8dbd 5a66 dc3d 5af6 b1bd a46f d1bd
000000c0: a6a6 dfbd 08e9 253d bc84 2dbd 307b cc3d
000000d0: 30e2 073c 5065 2c3d d429 9bbd 5080 503d
000000e0: 88ac 4c3d bcd6 eb3d 4025 063c 4051 0e3d
000000f0: e4c1 adbd 9827 8abd ccc4 f4bd 2001 80bc

hidden.1.weight f4 [64, 64]
0.088743106 0.00555107 -0.087972015 -0.0012658685 0.04398474 0.02577819 0.04934053 0.0028680563
-0.027624428 0.11316344 0.023737684 -0.002069369 0.1129027 0.09838919 0.12437934 0.03662914
0.12404083 0.08467512 -0.06943633 0.022715047 0.10308224 0.008175045 -0.0067335963 0.021247938
0.040689066 0.015966877 0.06680599 0.09297095 0.0838995 -0.10871144 0.0610196 0.004664704
-0.06155458 -0.05678402 -0.0072172135 -0.11126582 -0.0042537004 -0.03385429 -0.04954058 -0.036377624
-0.034196287 -0.1036938 -0.07038145 -0.008122012 0.052937537 -0.035992205 0.0577534 -0.10645571
-0.05926399 0.09261994 -0.05285451 -0.05142066 -0.09766558 0.03500715 0.036169812 -0.02089177
0.052733958 -0.080977604 -0.11108583 -0.057684213 0.03386125 -0.122520864 0.0013819784 -0.043303743
-0.0395858 0.033863053 -0.0023478717 0.06628251 0.094801724 -0.028530762 0.02475205 -0.04631421
-0.07651092 -0.05710292 -0.036102816 -0.039571524 0.031785905 -0.02979067 0.0042625964 -0.076639995
0.06589164 0.03552763 0.021138847 -0.012645155 -0.121220216 0.033735707 0.02371563 -0.05236663
0.019760877 -0.053104192 0.06057854 0.11446285 0.005881831 -0.011919305 0.052151173 -0.089285195
0.014473215 -0.047426075 0.01017341 -0.059799537 -0.105610296 -0.06374498 0.020873487 -0.0768619
-0.029034048 -0.05179882 0.012203604 -0.0277901 0.020001814 -0.06789708 0.057071835 0.017397404
-0.102020174 -0.063753575 -0.08200386 0.124604106 -0.011154488 0.04321423 -0.10225262 0.019900724
0.07205132 -0.045487225 0.09616345 0.012543306 -0.10108939 -0.06262356 0.009265661 -0.04203631
0.051839367 0.067882806 -0.06546399 0.01760286 -0.026535511 -0.011434004 -0.09711899 0.065582514
-0.030332416 -0.04191971 -0.10696849 -0.037367657 -0.10530892 -0.06876452 0.0856687 -0.0644764
-0.029560372 -0.037860125 -0.050546154 0.110889226 0.074837804 0.08724308 0.01880087 0.03429784
-0.109787926 0.059048757 0.082185656 -0.08850376 -0.07913306 0.11952117 0.019682497 -0.027619839
-0.006296456 0.011410832 0.06700802 0.019964933 0.095638245 0.059098244 -0.07388292 0.084249094
0.124830306 0.020867795 -0.08794518 0.08653942 0.034848616 0.088049084 -0.04926391 -0.08038272
0.0016319752 -0.009744033 0.03877692 0.121929795 0.05002661 -0.07600187 0.004613921 0.010578409
0.09750529 0.074294955 0.055066273 -0.1137536 -0.02433464 0.009764165 -0.015582427 0.123403564
0.12108688 0.0551015 -0.033189237 -0.043092474 -0.069171906 0.052399084 0.10237944 0.080394745
0.0365815 -0.015845284 -0.06671485 0.07651004 -0.023411587 0.007854685 -0.09967953 -0.042648524
0.022637114 -0.07707395 0.11820713 0.020445868 0.08011359 0.02204527 -0.093634784 0.011308789
-0.0030855387 -0.051609084 -0.011238247 -0.06346692 -0.060264826 0.025132507 -0.07421304 0.11908901
-0.0043521523 0.041428715 -0.04275395 -0.014400199 -0.07301675 0.12204495 0.09233406 -0.07329111
0.021520317 0.08850972 0.057363153 0.08064982 0.061732903 -0.020235851 0.03498073 0.08222312
-0.110483855 -0.044516638 -0.03432302 0.0055007935 -0.06336023 -0.10096316 -0.054648295 0.0020987242
0.124859944 0.023880884 0.10722838 -0.0751113 0.11065774 -0.07656559 0.030745655 0.048143536
00000000: f2be b53d c0e5 b53b ac2a b4bd 80eb a5ba
00000010: 5829 343d c82c d33c 4c19 4a3d 00f6 3b3b
00000020: a04c e2bc 3cc2 e73d 8875 c23c 409e 07bb
00000030: 8839 e73d 4680 c93d 98ba fe3d 7008 163d
00000040: 1e09 fe3d 266a ad3d a234 8ebd e814 ba3c
00000050: c81c d33d a0f0 053c 80a5 dcbb 2810 ae3c
00000060: 94a9 263d f8cc 823c 94d1 883d 8e67 be3d
00000070: 80d3 ab3d 1aa4 debd b0ef 793d 60da 983b
00000080: a820 7cbd 5c96 68bd 607e ecbb 56df e3bd
00000090: a062 8bbb ccaa 0abd 10eb 4abd b400 15bd
000000a0: 6811 0cbd 6a5d d4bd 2624 90bd 3012 05bc
000000b0: 08d5 583d 906c 13bd d48e 6c3d 7405 dabd
000000c0: ccbe 72bd 86af bd3d f87d 58bd 789e 52bd
000000d0: e404 c8bd a863 0f3d cc26 143d 3825 abbc
000000e0: 90ff 573d 96d7 a5bd f880 e3bd 4846 6cbd
000000f0: 18b2 0a3d 38ec fabd 8023 b53a 445f 31bd
00000100: b824 22bd fcb3 0a3d c0de 19bb 20bf 873d
00000110: 6827 c23d 58b9 e9bc d0c4 ca3c f8b3 3dbd
00000120: c2b1 9cbd c0e4 69bd 8ce0 13bd c015 22bd
00000130: f031 023d 900b f4bc 40ad 8b3b 6ef5 9cbd
00000140: 32f2 863d 6c85 113d 602b ad3c a02d 4fbc
00000150: 4e42 f8bd 742e 0a3d 4847 c23c 647e 56bd
00000160: 90e1 a13c c883 59bd 3421 783d 806b ea3d
00000170: 60bc c03b 3049 43bc 789c 553d 28db b6bd
00000180: 1021 6d3c d841 42bd 60ae 263c 5cf0 74bd
00000190: 364a d8bd ba8c 82bd e0fe aa3c c669 9dbd
000001a0: d0d8 edbc 002b 54bd a0f1 473c 10a8 e3bc
000001b0: d8da a33c a00d 8bbd 28c4 693d 0085 8e3c
000001c0: f4ef d0bd 3c91 82bd a4f1 a7bd 7030 ff3d
000001d0: 50c1 36bc 6801 313d d269 d1bd d806 a33c
000001e0: a48f 933d d050 3abd 58f1 c43d 7082 4d3c
000001f0: f407 cfbd c840 80bd 00cf 173c 442e 2cbd
00000200: 8455 543d 2406 8b3d fc11 86bd e033 903c
00000210: 0061 d9bc b055 3bbc 52e6 c6bd 2050 863d
00000220: b07b f8bc 00b4 2bbd 4c12 dbbd d40e 19bd
00000230: 34ac d7bd 6ad4 8cbd 1273 af3d 340c 84bd
00000240: 9828 f2bc 3813 1bbd 7c09 4fbd e419 e33d
00000250: 9044 993d 80ac b23d 4804 9a3c e47b 0c3d
00000260: 7ed8 e0bd 1cdd 713d f450 a83d 7641 b5bd
00000270: 8410 a2bd 84c7 f43d 303d a13c 0043 e2bc
00000280: 8052 cebb 80f4 3a3c 803b 893d 808d a33c
00000290: fcdd c33d 0011 723d ee4f 97bd ca8a ac3d
000002a0: 08a7 ff3d f0f2 aa3c 9a1c b4bd 943b b13d
000002b0: 6cbd 0e3d 1453 b43d f4c8 49bd b29f a4bd
000002c0: 00e8 d53a 70a5 1fbc 8cd4 1e3d 54b6 f93d
000002d0: b4e8 4c3d dea6 9bbd 6030 973b 1051 2d3c
000002e0: dab0 c73d f427 983d 2c8d 613d a6f7 e8bd
000002f0: 7059 c7bc e0f9 1f3c 704d 7fbc 02bb fc3d
00000300: 66fc f73d 1cb2 613d 70f1 07bd bc81 30bd
00000310: 00aa 8dbd 6ca0 563d 50ac d13d 00a6 a43d
00000320: 7cd6 153d f8cd 81bc cca1 88bd 4cb1 9c3d
00000330: a8c9 bfbc f0b0 003c c824 ccbd 38b0 2ebd
00000340: 7871 b93c f2d8 9dbd 9416 f23d 187e a73c
00000350: 9812 a43d 4898 b43c 98c3 bfbd 8048 393c
00000360: c036 4abb 0c64 53bd a020 38bc f2fa 81bd
00000370: 40d8 76bd b0e2 cd3c 02fd 97bd f0e4 f33d
00000380: 809c 8ebb 28b1 293d c41e 2fbd d0ee 6bbc
00000390: ce89 95bd b4f2 f93d a419 bd3d a619 96bd
000003a0: 604b b03c 9644 b53d a0f5 6a3d bc2b a53d
000003b0: a4db 7c3d a8c5 a5bc f447 0f3d 9864 a83d
000003c0: 5c45 e2bd 1457 36bd 4c96 0cbd 0040 b43b
000003d0: 02c3 81bd c6c5 cebd e4d6 5fbd c08a 093b
000003e0: 92b6 ff3d d8a1 c33c 8e9a db3d f4d3 99bd
000003f0: 86a0 e23d 6cce 9cbd 50de fb3c 2832 453d

hidden.1.bias f4 [64]
-0.04126887 0.050030693 -0.12443346 -0.010283217 0.12071879 0.0556975 -0.056398913 -0.037432224
-0.027198717 -0.070704654 -0.08386381 -0.1012633 0.11305995 0.101804346 0.02617231 0.029244497
0.027938172 0.0041377693 -0.05475743 -0.050010726 -0.12090868 -0.122833 -0.004121065 0.0886154
-0.041238576 0.051057577 -0.0085425675 0.05120589 0.11232811 0.10866332 -0.006219521 -0.06384212
-0.06243168 -0.11187227 0.051244393 0.08512391 -0.026325032 0.06973964 -0.008349091 -0.12305525
0.12130734 -0.10767399 0.03456746 -0.046761736 -0.025169909 -0.08864647 0.10940668 0.023824647
0.06488709 -0.060377672 0.07553184 -0.0551444 0.072301745 0.12250659 -0.06954807 0.0015551597
-0.0145496875 0.0045395643 0.044257015 -0.10717332 0.09578802 -0.09893185 0.045726717 -0.015208244
00000000: 8c09 29bd fcec 4c3d f8d6 febd f07a 28bc
00000010: 6a3b f73d 1023 643d 8c02 67bd 8852 19bd
00000020: d8cf debc 9acd 90bd cac0 abbd 2263 cfbd
00000030: fa8b e73d cc7e d03d 5067 d63c 2892 ef3c
00000040: 98de e43c 2096 873b 5449 60bd 0cd8 4cbd
00000050: f89e f7bd de8f fbbd 000a 87bb fe7b b53d
00000060: c8e9 28bd c021 513d 20f6 0bbc 44bd 513d
00000070: 480c e63d e08a de3d 20cd cbbb a8bf 82bd
00000080: 5cb8 7fbd 4a1d e5bd a4e5 513d 7255 ae3d
00000090: 98a7 d7bc a8d3 8e3d a0ca 08bc 6404 fcbd
000000a0: fc6f f83d 2e84 dcbd 9c96 0d3d 3c89 3fbd
000000b0: 2031 cebc 488c b5bd 9c10 e03d e82b c33c
000000c0: 86e3 843d 944e 77bd 70b0 9a3d 18df 61bd
000000d0: f012 943d bce4 fa3d 386f 8ebd 80d6 cb3a
000000e0: d061 6ebc a0c0 943b d846 353d b07d dbbd
000000f0: 822c c43d c89c cabd f04b 3b3d 002c 79bc

hidden.2.weight f4 [64, 64]
-0.120715484 -0.053490818 -0.004875064 -0.06635785 0.023045465 0.0010787994 0.08169444 -0.079148114
0.05774443 0.02450876 -0.05977133 0.046443954 -0.075091824 0.071103975 0.09974128 0.08314383
-0.06995225 0.10260077 -0.05316052 0.023371354 -0.03086789 -0.0016944706 -0.11772853 0.02630797
0.019414023 -0.11105347 -0.04996769 0.10467008 -0.11846766 -0.03469026 0.026334718 0.07218164
0.10677211 -0.036662757 -0.09515642 -0.08509794 -0.06436898 -0.11708401 0.030054614 -0.011867434
0.098079965 0.08793272 0.040436015 0.08198449 -0.035468906 0.043769613 -0.074775815 0.07545687
0.04231818 0.09258489 -0.029599681 -0.036150157 -0.11580098 0.011917025 -0.12366691 0.008889914
-0.08567618 0.11584006 -0.08167504 0.11672412 -0.055607483 -0.053495392 0.015707672 -0.08949645
0.030240074 -0.113535285 -0.047883466 -0.027581781 0.06856483 -0.031381786 -0.014889449 -0.1096099
-0.0717663 -0.08376093 -0.032396913 -0.012997627 0.06376611 -0.10839492 0.12071663 -0.056373313
0.09681474 -0.09761374 0.03177823 0.11716384 -0.08013083 -0.06412509 -0.0854342 -0.03921798
-0.0889346 0.11014725 -0.013974771 -0.069010854 -0.015991554 -0.037571624 0.024885073 0.008128509
-0.091810584 0.0021426082 -0.08979203 0.114004105 0.056951597 0.007009968 -0.07679428 -0.00030578673
0.08214189 0.041146457 0.0057843775 -0.07701093 -0.051528916 0.014542118 -0.028949827 0.09647331
0.059222966 0.10349834 0.016079023 0.0652557 -0.050291434 -0.06076154 -0.028464511 -0.10410556
-0.013993204 0.0061255544 0.036539227 -0.08329603 -0.11964202 0.03931403 0.07324515 0.11456646
-0.041332215 0.067241475 -0.038089857 -0.0424819 0.037265554 0.08887409 -0.10050513 0.06653738
-0.09434542 -0.04332331 0.047454327 -0.06710209 0.10490942 0.106107354 0.037878335 0.05422984
-0.09705566 0.059822842 0.04598236 0.057974875 0.12073614 0.05623144 -0.07105993 -0.007914513
-0.12459211 -0.018832937 -0.052237943 0.07151365 0.038807735 -0.07570608 -0.03379844 0.048098788
-0.075151354 -0.08179757 0.0002041012 -0.0063111335 0.09153648 0.064628944 -0.072747946 -0.08327988
0.08714394 -0.103484735 0.03957914 -0.0916625 0.07316704 0.12144753 0.02626589 -0.01044178
0.021420106 -0.07481125 0.08850187 -0.003544554 0.014077291 -0.0950928 -0.05786161 0.08338347
0.051170096 -0.03346674 0.07403757 0.06831013 -0.027782544 -0.019916698 -0.07054722 -0.037752986
0.05298838 0.036339015 -0.054301962 -0.10882801 -0.06816833 -0.09625386 0.007274449 -0.087605596
0.04714255 0.07776171 -0.06901662 0.0073363185 -0.0025887191 -0.040967688 0.082316965 -0.0027732253
0.09471224 0.10765213 0.10079053 0.059775323 -0.051714823 -0.10222629 0.09752065 0.08308175
-0.048256367 -0.12086497 0.11087024 0.07743037 0.044490606 -0.020357996 -0.03728409 0.044667616
0.08177994 -0.0829258 -0.0081205815 -0.0033325255 0.06779611 -0.018891737 0.11350006 -0.0033023953
0.11960666 0.07011624 0.07163733 -0.07302432 0.031023413 -0.016045272 0.0046598315 -0.07409249
-0.085959226 -0.102559105 0.020275652 0.10990919 0.083536625 -0.026661068 -0.047495514 -0.038714528
-0.041666523 0.04383488 0.036846176 -0.022059113 -0.09627043 0.112508684 -0.05331877 -0.068307444
00000000: ae39 f7bd 3019 5bbd 00bf 9fbb a0e6 87bd
00000010: d8c9 bc3c 8066 8d3a 6a4f a73d 6818 a2bd
00000020: 6c85 6c3d 98c6 c83c c8d2 74bd 043c 3e3d
00000030: bec9 99bd f69e 913d 2845 cc3d 5047 aa3d
00000040: 2043 8fbd 5a20 d23d d8be 59bd 4875 bf3c
00000050: a8de fcbc 0019 deba a81b f1bd d083 d73c
00000060: 280a 9f3c 0070 e3bd ecaa 4cbd 445d d63d
00000070: 2c9f f2bd 6017 0ebd e8bb d73c f8d3 933d
00000080: 56ab da3d b02b 16bd 5ee1 c2bd d447 aebd
00000090: e2d3 83bd bec9 efbd 1835 f63c a06f 42bc
000000a0: 26de c83d 1216 b43d 3ca0 253d 7ce7 a73d
000000b0: d847 11bd c447 333d 1024 99bd 2289 9a3d
000000c0: d455 2d3d 269d bd3d 087b f2bc 3012 14bd
000000d0: 1029 edbd a03f 433c 1445 fdbd 00a7 113c
000000e0: fe76 afbd 8e3d ed3d 3e45 a7bd 0e0d ef3d
000000f0: acc4 63bd fc1d 5bbd 60ad 803c ea49 b7bd
00000100: 08ba f73c 3085 e8bd 7421 44bd 30f3 e1bc
00000110: b86b 8c3d 308a 00bd e0f2 73bc 287b e0bd
00000120: 36fa 92bd da8a abbd a0b2 04bd 00f4 54bc
00000130: ce97 823d 28fe ddbd 483a f73d b4e7 66bd
00000140: ce46 c63d b6e9 c7bd e429 023d 98f3 ef3d
00000150: a21b a4bd 0454 83bd 20f8 aebd 08a3 20bd
00000160: 5823 b6bd e294 e13d 70f6 64bc 9055 8dbd
00000170: b800 83bc b4e4 19bd c8db cb3c 702d 053c
00000180: 3007 bcbd 006b 0c3b e2e4 b7bd fc7a e93d
00000190: 1446 693d e0b3 e53b 5246 9dbd 0052 a0b9
000001a0: 023a a83d 3089 283d e08a bd3b e8b7 9dbd
000001b0: fc0f 53bd 1042 6e3c 3028 edbc cc93 c53d
000001c0: c893 723d f0f6 d33d 28b8 833c c8a4 853d
000001d0: 64fe 4dbd 18e1 78bd 682e e9bc 4c35 d5bd
000001e0: c043 65bc e0b8 c83b 28aa 153d 1c97 aabd
000001f0: e006 f5bd c007 213d 8e01 963d d2a1 ea3d
00000200: f84b 29bd e6b5 893d 1c04 1cbd 8001 2ebd
00000210: c4a3 183d 9e03 b63d a2d5 cdbd c044 883d
00000220: 2c38 c1bd c873 31bd 785f 423d d26c 89bd
00000230: c0da d63d d04e d93d 5026 1b3d 1c20 5e3d
00000240: 1ec5 c6bd cc08 753d 0058 3c3d 1077 6d3d
00000250: 8244 f73d f052 663d de87 91bd e0ab 01bc
00000260: 262a ffbd 8847 9abc 74f7 55bd c075 923d
00000270: dcf4 1e3d ca0b 9bbd 3c70 0abd 3c03 453d
00000280: f4e8 99bd 7c85 a7bd 0004 5639 a0cd cebb
00000290: 7a77 bb3d 2e5c 843d e0fc 94bd a48e aabd
000002a0: 8678 b23d ceef d3bd bc1d 223d 8cb9 bbbd
000002b0: 9ad8 953d 7cb9 f83d 902b d73c 0014 2bbc
000002c0: 3879 af3c a436 99bd 7840 b53d c04b 68bb
000002d0: 70a4 663c 04c0 c2bd 4c00 6dbd f4c4 aa3d
000002e0: bc97 513d 6c14 09bd 02a1 973d 2ee6 8b3d
000002f0: 3898 e3bc 5828 a3bc 107b 90bd e0a2 1abd
00000300: 580a 593d 38d8 143d bc6b 5ebd 38e1 debd
00000310: d69b 8bbd be20 c5bd 805e ee3b 906a b3bd
00000320: 8c18 413d 8841 9f3d 9658 8dbd 8065 f03b
00000330: 80a7 29bb bccd 27bd cc95 a83d 00bf 35bb
00000340: 7ef8 c13d b878 dc3d 446b ce3d f8d6 743d
00000350: ecd2 53bd 045c d1bd e8b8 c73d c426 aa3d
00000360: 78a8 45bd 0e88 f7bd f00f e33d d093 9e3d
00000370: c83b 363d d0c5 a6bc 34b7 18bd 64f5 363d
00000380: 3e7c a73d 00d5 a9bd 300c 05bc 8066 5abb
00000390: b0d8 8a3d d8c2 9abc b872 e83d 006d 58bb
000003a0: 56f4 f43d 1a99 8f3d 98b6 923d c68d 95bd
000003b0: d024 fe3c 6071 83bc 80b1 983b cebd 97bd
000003c0: 640b b0bd 820a d2bd 2019 a63c 1218 e13d
000003d0: 4015 ab3d 5068 dabc a88a 42bd 2093 1ebd
000003e0: 84aa 2abd 348c 333d 04ec 163d 50b5 b4bc
000003f0: 6e29 c5bd f46a e63d c864 5abd c6e4 8bbd

hidden.2.bias f4 [64]
-0.111981064 -0.10648216 0.04209116 0.009212598 -0.0042310953 -0.040475383 -0.105012104 -0.042148113
0.086130485 -0.09316975 -0.025612742 -0.06634624 -0.05544427 -0.08538082 0.05462134 -0.021309495
-0.042653695 -0.009695172 -0.011558071 -0.06755705 -0.08046754 0.060754433 0.005074039 0.0016888827
-0.007327661 -0.03332518 0.039759442 -0.12116988 -0.016951159 4.900992e-05 -0.10371187 0.0582276
-0.058797315 -0.061890736 -0.11573595 0.10542576 -0.042771757 -0.060107574 0.04803495 -0.11882059
0.11135353 0.048083693 0.007941216 -0.015418783 -0.037192956 -0.01986359 0.06476556 1.8700957e-05
-0.07856476 0.024168476 -0.042327315 0.010316238 -0.05956687 0.07174268 0.059290588 0.03210193
-0.08020285 0.07520002 -0.04850343 0.09467557 -0.07141107 -0.11033705 0.102457836 0.044921383
00000000: 5456 e5bd 5213 dabd c867 2c3d 70f0 163c
00000010: 00a5 8abb 84c9 25bd 9610 d7bd 80a3 2cbd
00000020: 2e65 b03d c8cf bebd d0d1 d1bc 8ae0 87bd
00000030: 8819 63bd 24dc aebd a0ba 5f3d 4091 aebc
00000040: a4b5 2ebd 80d8 1ebc 105e 3dbc 5a5b 8abd
00000050: 2acc a4bd a4d9 783d 2044 a63b 805d dd3a
00000060: e01c f0bb fc7f 08bd ccda 223d ea27 f8bd
00000070: 28dd 8abc 0090 4d38 e466 d4bd 1080 6e3d
00000080: 74d5 70bd 2481 7dbd f806 edbd 76e9 d73d
00000090: 7031 2fbd 5c33 76bd 4cc0 443d 3658 f3bd
000000a0: 520d e43d 68f3 443d e01b 023c 109f 7cbc
000000b0: a457 18bd f8b8 a2bc cea3 843d 00e0 9c37
000000c0: 90e6 a0bd f8fc c53c 685f 2dbd 7005 293c
000000d0: 64fc 73bd d4ed 923d b0da 723d 507d 033d
000000e0: 6441 a4bd 7802 9a3d 88ab 46bd 44e5 c13d
000000f0: f83f 92bd 64f8 e1bd 6ad5 d13d 7cff 373d

hidden.3.weight f4 [64, 64]
-0.04204692 -0.08811824 0.045618072 -0.070067436 -0.015058324 0.030696735 -0.103615075 -0.041174173
0.09235275 -0.05149448 -0.0456793 0.06634359 -0.07502326 -0.11620732 -0.00710243 0.11901136
-0.06113237 0.07947105 0.07206003 -0.05409716 -0.10359368 0.017340153 0.06412567 -0.11498922
0.026781872 -0.0413225 0.060915425 -0.08465563 0.011091143 0.09195058 0.07118566 -0.099269
-0.06857677 0.008494526 0.11028375 -0.07705663 -0.03766617 0.039849386 0.043567 0.0327297
-0.015549138 -0.111129254 -0.10009478 -0.1150168 0.05849585 0.07245694 0.0059785843 -0.059137568
0.10576877 -0.008768901 0.08516729 0.02460967 -0.0020215064 -0.06698704 0.06670791 0.11874375
-0.07860719 -0.016668677 -0.102235064 -0.006878853 -0.12433377 0.025796264 -0.02594456 0.022704706
0.10065502 0.07375398 -0.07612574 -0.033263817 0.0013871938 -0.0050160885 -0.08063826 0.055004075
-0.12422052 0.04300657 -0.021787316 0.015560538 -0.026324183 -0.023977563 0.03868197 -0.07789381
0.049660563 -0.07954678 0.07588501 -0.071672365 -0.09350194 -0.09379302 -0.089196175 -0.022595063
0.035462707 0.071787566 -0.09084831 0.044454977 -0.11799732 -0.07675558 0.049356237 -0.11752792
0.05560258 -0.0073913336 -0.08493522 0.060498297 -0.056687236 -0.09974237 0.12050854 0.12415543
-0.037935823 -0.02587536 -0.078520715 0.107051775 -0.036864296 -0.045952335 -0.11158739 -0.055717647
-0.060543045 0.0022773147 -0.08712049 -0.071444556 -0.009369314 0.08227421 0.06398399 -0.039326847
-0.044040844 -0.06533238 -0.11072725 0.11950351 0.0005019307 -0.11909607 -0.054027647 -0.0113309175
0.026130095 0.09494886 -0.09559387 0.07361013 -0.113282174 0.044007987 0.12366347 0.07036045
-0.120979086 0.12215921 0.055057973 -0.109312624 -0.006065443 0.0891871 -0.095737636 -0.004505977
-0.07587762 0.12407705 -0.037334085 0.11929256 0.082724616 -0.06832813 0.030813724 0.03583233
0.07286264 0.07859719 -0.08586438 -0.07091294 0.04130031 0.111259535 -0.0554021 0.024835125
-0.003703475 -0.095368534 0.054381534 -0.005018875 0.08406536 -0.1167686 0.018273517 0.1119066
-0.09274791 -0.034662366 -0.1021326 0.038952246 0.04867661 -0.04937826 0.00019751489 0.042601466
0.08414966 -0.10261513 0.11747666 0.08900964 -0.018807039 -0.10156615 -0.049599543 -0.0010513216
0.024046883 0.011312082 -0.022847489 -0.09491357 -0.025685161 -0.006155476 -0.08406533 -0.10167651
-0.0006620735 -0.10686275 0.027928516 -0.072845906 0.015954569 -0.06536068 -0.02942054 0.10890761
-0.03439282 -0.0594178 -0.118922144 -0.09578222 0.11746821 0.040399045 0.0023121685 0.12340024
0.017494753 -0.04500401 0.013644427 0.03455563 -0.049426734 0.057824373 -0.07244393 0.023315415
0.031705648 -0.10169026 -0.0052410513 -0.0077513754 0.044969425 -0.113144696 0.057966694 -0.014709443
0.123588145 0.05504431 -0.08083522 0.058459044 0.118356705 0.033432215 -0.04311724 -0.08320172
0.09145874 0.10043195 0.008312002 -0.066312954 0.093431756 0.022745267 0.063282594 0.090673864
-0.11965692 -0.0146382 -0.08420807 0.0067499727 0.0013485253 0.0026473254 0.04107268 -0.097636804
-0.05866219 0.017958567 -0.009638622 -0.020359427 -0.04831618 0.05012323 0.035601318 0.0120251775
00000000: 6439 2cbd 5677 b4bd 04da 3a3d 847f 8fbd
00000010: 30b7 76bc b877 fb3c 2434 d4bd 40a6 28bd
00000020: 7023 bd3d e0eb 52bd 381a 3bbd 26df 873d
00000030: cca5 99bd 1afe edbd 80bb e8bb 3abc f33d
00000040: f065 7abd b8c1 a23d 3694 933d fc94 5dbd
00000050: ec28 d4bd f00c 8e3c 5254 833d 787f ebbd
00000060: a865 db3c c841 29bd 7482 793d ee5f adbd
00000070: a0b7 353c 9650 bc3d cac9 913d 8c4d cbbd
00000080: fa71 8cbd a02c 0b3c 72dc e13d decf 9dbd
00000090: d847 1abd 1c39 233d 5073 323d 940f 063d
000000a0: d0c1 7ebc bc97 e3bd 7efe ccbd ee8d ebbd
000000b0: 5899 6f3d 4e64 943d 00e8 c33b 3c3a 72bd
000000c0: 4c9d d83d 70ab 0fbc 306c ae3d 389a c93c
000000d0: 407b 04bb 8030 89bd 289e 883d ec2f f33d
000000e0: cefc a0bd c08c 88bc 9e60 d1bd 0068 e1bb
000000f0: b4a2 febd b052 d33c b089 d4bc 38ff b93c
00000100: 3824 ce3d 540c 973d d0e7 9bbd a43f 08bd
00000110: 80d2 b53a 005e a4bb ac25 a5bd f44b 613d
00000120: 5467 febd a827 303d 507b b2bc a0f1 7e3c
00000130: d0a5 d7bc 986c c4bc fc70 1e3d ca86 9fbd
00000140: e068 4b3d 6ce9 a2bd 9a69 9b3d f6c8 92bd
00000150: f27d bfbd 8e16 c0bd 7cac b6bd 4819 b9bc
00000160: 5841 113d 5c05 933d ae0e babd 6c16 363d
00000170: 94a8 f1bd 0832 9dbd c429 4a3d 7ab2 f0bd
00000180: 88bf 633d 0033 f2bb 84f2 adbd 10cd 773d
00000190: e030 68bd ba45 ccbd 2ecd f63d 3445 fe3d
000001a0: 9862 1bbd 90f8 d3bc 78cf a0bd f63d db3d
000001b0: 04ff 16bd 8438 3cbd ee87 e4bd 3038 64bd
000001c0: fcfb 77bd 003f 153b 3a6c b2bd 8651 92bd
000001d0: c081 19bc 627f a83d 0a0a 833d 3015 21bd
000001e0: 2c64 34bd fccc 85bd f8c4 e2bd 42be f43d
000001f0: 0094 033a a4e8 f3bd 184c 5dbd 50a5 39bc
00000200: c80e d63c 8c74 c23d b8c6 c3bd e8c0 963d
00000210: 7c00 e8bd b841 343d 4643 fd3d 2419 903d
00000220: e2c3 f7bd 9c2e fa3d 7884 613d 4cdf dfbd
00000230: a0c0 c6bb baa7 b63d 1812 c4bd e0a6 93bb
00000240: ba65 9bbd 1c1c fe3d a0eb 18bd a84f f43d
00000250: 866b a93d 9eef 8bbd 106d fc3c ecc4 123d
00000260: 0239 953d 90f7 a03d aad9 afbd ce3a 91bd
00000270: 842a 293d 0adc e33d 50ed 62bd 0873 cb3c
00000280: 00b6 72bb 9450 c3bd 2cbf 5e3d 6075 a4bb
00000290: 762a ac3d 6024 efbd 58b2 953c 4a2f e53d
000002a0: 9ef2 bdbd 20fa 0dbd e62a d1bd 648c 1f3d
000002b0: 2061 473d dc40 4abd 001c 4f39 e07e 2e3d
000002c0: a856 ac3d e227 d2bd 9a97 f03d b04a b63d
000002d0: 3811 9abc ea01 d0bd e428 4bbd 80cc 89ba
000002e0: f8fd c43c 5056 393c a82a bbbc 0c62 c2bd
000002f0: b069 d2bc e0b3 c9bb 722a acbd c63b d0bd
00000300: 008f 2dba dcda dabd 58ca e43c 3c30 95bd
00000310: 28b3 823c d2db 85bd 5803 f1bc f40a df3d
00000320: 7cdf 0cbd 1460 73bd 748d f3bd 7829 c4bd
00000330: 2c93 f03d 7879 253d c087 173b 44b9 fc3d
00000340: 2851 8f3c 2056 38bd e08c 5f3c 348a 0d3d
00000350: b073 4abd 40d9 6c3d 7c5d 94bd f8ff be3c
00000360: c8dd 013d fc42 d0bd 20bd abbb 40ff fdbb
00000370: dc31 383d 68b8 e7bd 7c6e 6d3d e0ff 70bc
00000380: c81b fd3d 2476 613d f08c a5bd c072 6f3d
00000390: 0065 f23d 38f0 083d b49b 30bd aa65 aabd
000003a0: b84e bb3d 44af cd3d 102f 083c 16cf 87bd
000003b0: 2659 bf3d 4854 ba3c 4e9a 813d 38b3 b93d
000003c0: b00e f5bd 10d5 6fbc 4875 acbd e02e dd3b
000003d0: 00c1 b03a c07e 2d3b d43b 283d cef5 c7bd
000003e0: c447 70bd d81d 933c 50eb 1dbc d0c8 a6bc
000003f0: 30e7 45bd 044e 4d3d b0d2 113d 4005 453c

hidden.3.bias f4 [64]
0.103123665 0.07239154 0.116084814 0.121929735 0.070013985 -0.001294449 -0.10985926 -0.026632696
-0.010513395 0.115057364 -0.0027265847 0.09570621 0.10347816 -0.058860973 -0.052338287 0.06650558
-0.11174013 0.015779257 0.020923853 -0.10431799 0.057950556 0.024370715 -0.028364167 0.08249852
-0.085606396 0.059061974 0.085907295 0.10535219 0.089799166 0.105927646 0.10616054 0.009510472
-0.076495305 -0.07018353 0.048588574 0.040867344 0.05568196 0.11457974 -0.027365252 -0.08618583
0.042898998 0.11954653 0.0014843941 0.06359626 -0.014163569 0.103012964 -0.05494705 -0.1201691
0.04534465 -0.0231314 -0.05022411 -0.066951185 -0.08553088 -0.07564172 0.043596923 -0.10074204
-0.055164963 0.025329143 0.03941758 -0.1082515 -0.0786998 0.043324754 0.090592146 0.10081224
00000000: 8032 d33d 0442 943d e0bd ed3d 4cb6 f93d
00000010: 7e63 8f3d 80aa a9ba e4fd e0bd d02c dabc
00000020: 6040 2cbc 32a3 eb3d 80b0 32bb 9e01 c43d
00000030: 5cec d33d 3418 71bd ac60 56bd 1434 883d
00000040: 02d8 e4bd 8043 813c 8068 ab3c aca4 d5bd
00000050: 905d 6d3d 18a5 c73c f85b e8bc fcf4 a83d
00000060: 6852 afbd f8ea 713d 2af0 af3d e4c2 d73d
00000070: a0e8 b73d 98f0 d83d b26a d93d d0d1 1b3c
00000080: 92a9 9cbd 62bc 8fbd d004 473d 8464 273d
00000090: c412 643d c8a8 ea3d 182d e0bc 3282 b0bd
000000a0: dcb6 2f3d d0d4 f43d 0090 c23a c23e 823d
000000b0: 500e 68bc 76f8 d23d 2810 61bd 381b f6bd
000000c0: 50bb 393d 107e bdbc ccb7 4dbd b41d 89bd
000000d0: d02a afbd 0cea 9abd b092 323d d851 cebd
000000e0: a8f4 61bd 107f cf3c 5474 213d f6b2 ddbd
000000f0: 5c2d a1bd 4c75 313d 6088 b93d a676 ce3d

hidden.4.weight f4 [64, 64]
0.06251055 -0.02957797 -0.06745809 0.058121085 -0.0036476552 -0.07565263 -0.020260245 -0.11502963
0.086619034 -0.011316612 -0.11449532 0.037358686 0.079798326 -0.10975607 -0.08157106 0.077998996
0.026113346 -0.111494794 0.021229118 -0.08372383 -0.116298005 -0.10986662 -0.05905819 -0.016538516
-0.025002718 0.0059525818 0.098343134 0.11986877 0.08659172 -0.042012468 -0.124436304 0.036588177
0.10075025 -0.087076485 -0.10004684 0.124227345 -0.026941478 -0.046552554 -0.043402985 0.015114531
-0.04761477 -0.065558225 0.029760554 -0.09925987 0.0033541769 0.048978835 0.09733641 -0.03256631
-0.0034446567 -0.04459563 -0.045412645 0.07033406 -0.020073071 -0.10589257 -0.050271466 -0.022872895
-0.11409438 -0.076846406 0.10787052 0.12167713 -0.06615949 0.019608825 0.041926518 -0.10808259
-0.049779937 -0.1063534 0.06229791 -0.012422994 0.08317764 0.09839517 0.111145735 -0.12397045
-0.057173714 0.0017649829 -0.06770939 -0.008246422 0.12387298 -0.055738524 0.12086454 -0.043840557
-0.017010376 -0.11180669 -0.062378198 -0.07231744 0.044908375 0.01572004 0.1166182 -0.1123988
-0.024181664 0.11691409 -0.01985985 -0.009111032 -0.043832093 0.06591754 0.048730522 -0.07783468
0.06290437 -0.123239085 -0.081916556 0.026255533 -0.075834766 -0.07194546 0.089536294 0.029710978
0.08563554 -0.019120976 -0.047697693 0.029687747 -0.069123596 -0.046738952 0.11919981 -0.005448386
-0.06798279 -0.04340674 -0.021250531 0.078333214 -0.029446915 -0.118315995 -0.0030112714 0.0013694912
0.014924362 0.06381309 -0.11597581 -0.08284649 -0.0860253 0.05501415 -0.06214027 0.03907506
0.078006074 0.10079759 0.028156593 0.10001743 0.04263714 0.018935278 -0.04026307 -0.048044443
-0.12389311 -0.016230166 0.124111265 0.029754102 -0.042178318 -0.053893402 -0.058222964 0.0982478
-0.12339917 0.10789719 0.09915662 0.017229393 -0.029676422 -0.07970132 0.082218975 -0.005407542
-0.03319393 0.1246368 -0.043614402 0.071364135 0.12234762 0.035317525 0.11428338 0.050336614
-0.01630488 0.0023450255 -0.067534715 0.053892285 -0.017680526 0.0779839 0.019437686 -0.017142698
-0.11776078 0.04695393 -0.09373073 -0.07066633 -0.10079463 -0.044494912 0.124830514 0.008374572
-0.08507483 0.034010097 -0.101658255 0.064425096 0.016431466 0.09738284 -0.10041767 -0.049340248
-0.0835543 0.07568601 -0.056316093 -0.060409635 0.047573984 0.004036233 -0.027540758 0.08754991
0.006124094 0.10013875 -0.051594213 -0.033081383 0.04654774 -0.07147479 -0.026494384 -0.10247214
0.074206114 0.07367869 0.06882943 0.12469408 -0.007039875 -0.062449694 0.1059857 -0.09460409
0.10072161 0.016332194 -0.10133892 0.03953135 -0.11209394 0.07054265 0.10668057 0.12031251
0.056832954 -0.035359144 -0.0047656447 -0.012182161 -0.039278954 0.06559743 0.042312786 -0.06639932
0.025329962 0.06364021 0.07251911 0.093009934 -0.034293488 0.12438579 -0.096738875 -0.07725039
0.07457702 -0.085562035 -0.077186406 0.099994004 0.09180474 0.084454596 0.056600094 0.057889
-0.09962736 0.07685575 0.046426564 -0.01733686 -0.12341738 0.06785476 0.06760588 -0.058727592
0.043889657 -0.095490694 0.11267038 -0.10887487 -0.057618126 0.106245324 0.06782861 0.12177162
00000000: 8805 803d 804d f2bc 7827 8abd 6010 6e3d
00000010: 800d 6fbb c4ef 9abd d0f8 a5bc a894 ebbd
00000020: 5265 b13d 5069 39bc 867c eabd 6c05 193d
00000030: 4e6d a33d cac7 e0bd ba0e a7bd f0bd 9f3d
00000040: a8eb d53c 6257 e4bd b0e8 ad3c 6677 abbd
00000050: a62d eebd c001 e1bd 00e7 71bd c87b 87bc
00000060: 80d2 ccbc e00d c33b 2068 c93d c27d f53d
00000070: 0057 b13d 4415 2cbd 76d8 febd 7cdd 153d
00000080: 2656 ce3d 2855 b2bd 5ce5 ccbd e86a fe3d
00000090: 60b4 dcbc e4ad 3ebd 54c7 31bd f0a2 773c
000000a0: b407 43bd 6443 86bd 68cc f33c c248 cbbd
000000b0: c0d1 5b3b 089e 483d 5058 c73d 4064 05bd
000000c0: c0bf 61bb e8a9 36bd 9c02 3abd 4e0b 903d
000000d0: 4870 a4bc 34de d8bd 74e9 4dbd f05f bbbc
000000e0: 50aa e9bd a661 9dbd 38eb dc3d dc31 f93d
000000f0: a07e 87bd b0a2 a03c 24bb 2b3d 685a ddbd
00000100: 0ce6 4bbd d0cf d9bd 182c 7f3d d089 4bbc
00000110: 0a59 aa3d 6883 c93d 60a0 e33d 38e4 fdbd
00000120: fc2e 6abd 0057 e73a 38ab 8abd 001c 07bc
00000130: 1eb1 fd3d 144e 64bd d487 f73d 2892 33bd
00000140: 5859 8bbc e8fa e4bd 4880 7fbd 2a1b 94bd
00000150: d8f1 373d 50c7 803c 86d5 ee3d 5831 e6bd
00000160: a018 c6bc a870 ef3d 20b1 a2bc 7046 15bc
00000170: 4889 33bd c6ff 863d a899 473d ca67 9fbd
00000180: 02d4 803d c664 fcbd dec3 a7bd d815 d73c
00000190: 424f 9bbd 2458 93bd ce5e b73d 7064 f33c
000001a0: b061 af3d 98a3 9cbc a85e 43bd b833 f33c
000001b0: ac90 8dbd 5871 3fbd 081f f43d 6088 b2bb
000001c0: 903a 8bbd 44cb 31bd 9815 aebc 2a6d a03d
000001d0: a83a f1bc a84f f2bd c058 45bb 8080 b33a
000001e0: 5085 743c 70b0 823d ba84 edbd 6cab a9bd
000001f0: 082e b0bd 8456 613d cc86 7ebd 2c0d 203d
00000200: a6c1 9f3d f86e ce3d a8a8 e63c f0d5 cc3d
00000210: 48a4 2e3d 281e 9b3c e4ea 24bd 40ca 44bd
00000220: acbb fdbd 20f5 84bc 0c2e fe3d e0be f33c
00000230: 2cc3 2cbd 54bf 5cbd 347b 6ebd 2436 c93d
00000240: b4b8 fcbd 34f9 dc3d a012 cb3d a824 8d3c
00000250: f81b f3bc 723a a3bd 6c62 a83d c031 b1bb
00000260: 5cf6 07bd 9441 ff3d 04a5 32bd 5c27 923d
00000270: 6491 fa3d 1ca9 103d 680d ea3d c42d 4e3d
00000280: d091 85bc 00af 193b a44f 8abd 28be 5c3d
00000290: c0d6 90bc 06b6 9f3d c83b 9f3c d86e 8cbc
000002a0: 902c f1bd c452 403d e6f5 bfbd 82b9 90bd
000002b0: 6a6d cebd 4c40 36bd 24a7 ff3d 8035 093c
000002c0: b63b aebd 2c4e 0b3d 3432 d0bd 4ef1 833d
000002d0: 489b 863c a870 c73d c8a7 cdbd 0019 4abd
000002e0: 841e abbd 4401 9b3d b4ab 66bd 1870 77bd
000002f0: f0dc 423d 6042 843b 289d e1bc 5e4d b33d
00000300: a0ac c83b 8c15 cd3d 7454 53bd 5880 07bd
00000310: d8a8 3e3d 6061 92bd c00a d9bc eadc d1bd
00000320: 60f9 973d dae4 963d 72f6 8c3d 9c5f ff3d
00000330: c0ae e6bb 40cb 7fbd 080f d93d cabf c1bd
00000340: 2247 ce3d 18cb 853c c88a cfbd a0eb 213d
00000350: 8291 e5bd aa78 903d 587b da3d 6866 f63d
00000360: acc9 683d c0d4 10bd 2029 9cbb b097 47bc
00000370: f8e2 20bd f257 863d 2c50 2d3d 5efc 87bd
00000380: c880 cf3c cc55 823d e684 943d fe7b be3d
00000390: 5477 0cbd fabd fe3d 081f c6bd 7435 9ebd
000003a0: d6bb 983d 263b afbd e813 9ebd a8c9 cc3d
000003b0: 2004 bc3d 88f6 ac3d 80d5 673d 041d 6d3d
000003c0: 6e09 ccbd 8c66 9d3d c829 3e3d 0806 8ebc
000003d0: 40c2 fcbd 70f7 8a3d f474 8a3d 588c 70bd
000003e0: a4c5 333d a090 c3bd babf e63d caf9 debd
000003f0: fc00 6cbd 2697 d93d bae9 8a3d 6663 f93d

hidden.4.bias f4 [64]
0.06742403 -0.017410219 -0.00897862 0.022531092 -0.09741451 -0.05217047 -0.119702786 -0.104129836
-0.11928049 -0.11345053 -0.079785615 -0.1169803 0.010900006 -0.083851635 0.037618667 -0.05153911
0.03670384 0.034453973 0.10452336 0.07433911 -0.095488146 -0.067513555 -0.11886695 -0.04588467
0.0071795583 0.08675827 -0.023645222 -0.08019279 0.053341925 0.054134503 0.08405274 -0.0010270476
0.0054952353 0.12144658 0.026485682 0.038654566 -0.08903766 0.044974193 0.11497936 -0.073491886
0.1175838 -0.051334366 -0.094676524 -0.032229304 0.056058034 0.08043797 0.09827793 0.012723938
0.08630721 -0.054243147 -0.040445834 -0.08670215 0.04653588 0.010219067 0.11125012 0.08898099
-0.024655297 -0.06025648 0.063376844 -0.10797246 -0.11509873 0.09873815 -0.100361094 0.06673619
00000000: 9c15 8a3d e09f 8ebc 101b 13bc 2093 b83c
00000010: 4281 c7bd b4b0 55bd bc26 f5bd 0642 d5bd
00000020: 5449 f4bd c058 e8bd a466 a3bd 5e93 efbd
00000030: f095 323c 68ba abbd 0816 1a3d ac1a 53bd
00000040: c456 163d 9c1f 0d3d 5810 d63d 1a3f 983d
00000050: 4a8f c3bd 8c44 8abd 8470 f3bd 90f1 3bbd
00000060: 8042 eb3b 52ae b13d a0b3 c1bc 1e3c a4bd
00000070: 107d 5a3d 24bc 5d3d d823 ac3d 009e 86ba
00000080: 6011 b43b fcb8 f83d 80f8 d83c 4054 1e3d
00000090: 6059 b6bd dc36 383d 4c7a eb3d ea82 96bd
000000a0: c6cf f03d fc43 52bd c4e5 c1bd e002 04bd
000000b0: 1c9d 653d aabc a43d f045 c93d 1078 503c
000000c0: d6c1 b03d 102e 5ebd 88aa 25bd e690 b1bd
000000d0: 689c 3e3d e06d 273c 1ad7 e33d aa3b b63d
000000e0: e8f9 c9bc 80cf 76bd b8cb 813d aa20 ddbd
000000f0: e2b8 ebbd 3a37 ca3d 1e8a cdbd fcac 883d

out_layer.weight f4 [1, 64]
-0.013151392 0.016452566 0.030287534 0.08131416 0.10901061 0.07889679 0.109460175 -0.11170766
-0.059640616 0.11172068 -0.098878264 -0.023440972 0.10219933 0.06898919 -0.022488147 -0.047290727
-0.0696322 0.098147705 0.06354411 0.07922234 0.09451842 -0.06848307 -0.05140853 -0.058818072
0.015410826 0.10482252 -0.0866123 0.0001770109 -0.055557728 0.010377482 -0.016902462 -0.12154482
0.0015944988 -0.103117794 0.027377546 -0.08292459 0.0005207062 -0.10475382 0.0561762 -0.06664285
0.09722538 0.05811283 -0.088669464 -0.112541646 -0.09001428 -0.037493527 0.06663823 -0.028892055
-0.07268821 -0.04672785 0.10467915 -0.040659606 0.05811967 -0.10774019 -0.021621183 -0.03539294
-0.04222636 -0.06961724 -0.047244415 0.09574805 -0.010672525 -0.11040795 0.00041420758 -0.08100514
00000000: f078 57bc 88c7 863c 901d f83c 0a88 a63d
00000010: f440 df3d a494 a13d a82c e03d fcc6 e4bd
00000020: b849 74bd d0cd e43d b080 cabd 4807 c0bc
00000030: e24d d13d 344a 8d3d 1039 b8bc ecb3 41bd
00000040: 549b 8ebd aa01 c93d 6a23 823d 523f a23d
00000050: e092 c13d da40 8cbd c091 52bd 38eb 70bd
00000060: b07d 7c3c 30ad d63d ca61 b1bd 009c 3939
00000070: 8090 63bd 5006 2a3c 0877 8abc 7eec f8bd
00000080: 80fe d03a 6c2f d3bd e046 e03c 5ed4 a9bd
00000090: 0080 083a 2c89 d6bd 0419 663d 0c7c 88bd
000000a0: 1a1e c73d b807 6e3d 5698 b5bd 3c7c e6bd
000000b0: 6859 b8bd d092 19bd a079 883d 08af ecbc
000000c0: 8edd 94bd b465 3fbd 0662 d63d b08a 26bd
000000d0: e40e 6e3d e4a6 dcbd e81e b1bc 30f8 10bd
000000e0: 8cf5 2cbd 7c93 8ebd 5c83 41bd 8e17 c43d
000000f0: d0db 2ebc 901d e2bd 002a d939 06e6 a5bd
