models/testmodel.pt (torch_old, 110375 bytes, 13 tensors)

in_layer.weight f4 [64, 96]
00000000: 0875 43bd ce19 6abd d0cf ed3c e836 303d
00000010: 76a2 913d f79a 45bd a115 a5bd a438 eebc
00000020: 9435 0fbd ccc5 8c3d a479 a3bc 14ea 753d
00000030: afaa b3bd d41a cb3d 1e9d 21bd 4ad4 b9bd
00000040: 549d 7f3d f84b 9fbd 1042 64bc 06ef 91bd
00000050: 3a24 1cbd ca13 903d b0b3 c0bb 0082 e6b9
00000060: e049 ffbc e500 5abd 40dc f9bb 900e d33b
00000070: 70c3 c63b 1cbc af3d 88f6 553c 4e2c a6bd
00000080: f871 193d c898 1f3d 2037 85bc 180c f23c
00000090: f02a 073c 7829 e4bc 0034 68b9 00fb 56ba
000000a0: 37c0 bfbd a8ad 14bd 50b6 abbc 74d2 88bd
000000b0: 9007 a3bc 36e2 c43d 6493 943d 3469 90bd
000000c0: 9ae5 92bd a032 153d f057 0abd e0e1 4ebd
000000d0: 70c6 2cbd 5ef0 3cbd f4bb 42bd a4f3 643d
000000e0: c35c 2ebd 43c8 b8bd 005b 683c 9c9d f4bc
000000f0: 5ab5 a13d 0870 a9bd 10d7 8d3b 7094 f0bb
00000100: 909b 17bc dc2b 21bd e550 5cbd 4821 883c
00000110: 20f1 943d ad13 bebd 58e8 bd3c 3048 923b
00000120: 789b 21bc 0a0e bb3d 1766 9abd 28e5 603d
00000130: aa39 81bd 1a7e c73d f3f7 5abd 6576 babd
00000140: 408c c7bd e666 b2bd b0bd 9cbc 006d bd3a
00000150: 241d 053d b662 10bd 60b6 b23c f09f 90bc
00000160: 43b7 a3bd ad79 67bd 4422 b83d cac3 b4bd
00000170: af52 68bd 35a2 50bd 1a36 bb3d 18e2 303d
00000180: 20cd b23c 20d3 8e3b 9b7f acbd 50da d0bc
00000190: e20b 80bd f227 c13d f9b5 38bd 477d 3dbd
000001a0: a4a1 1bbd c006 013b d48c ccbd 2c03 cdbc
000001b0: 70c5 b73c 4092 7e3b 587b 283c a97f 3ebd
000001c0: 14ff 6b3d 3824 abbc 389e 9c3c 2441 ba3d
000001d0: 5845 6c3c 0c99 273d c10e bebd ba8d adbd
000001e0: 5873 473d 26df 9bbd f4da 8d3d 0487 b33d
000001f0: 1935 2ebd 187d 963d baeb b6bd b8ff d53c
00000200: 6019 543b 2863 e4bc 3e82 acbd 00b8 cb3c
00000210: e040 f23b a2bc b63d 240d b83d 08ea 44bc
00000220: 8482 6e3d 56a5 8b3d 0ace 2dbd ec1e 313d
00000230: 5cce b13c 7c2d 8cbd 3ade a43d 544b dbbc
00000240: 6404 493d 3250 9ebd 0053 e0b9 2010 a73d
00000250: 3092 babb ecd4 d5bc ed4e 27bd 2656 a73d
00000260: 023d bf3d f8fc 63bc 4479 85bd 0675 0fbd
00000270: 328c c9bd e030 e03c 4838 d23c fb54 84bd
00000280: 68d0 7cbc 1887 2dbc cc8a e8bc 2e82 adbd
00000290: b0aa 96bd b052 483c 5008 e73c 805a e3bc
000002a0: fa9f cf3d 1818 ebbc 9012 ddbc 04cd a1bd
000002b0: d4ec 0a3d 144a e1bc 0cef 9c3d a0ba d03b
000002c0: 342e c23d c8ef ee3c fe0a cabd 80bb eabc
000002d0: 8872 123d 8ce9 8abc fc5b 063d 883c 4dbc
000002e0: 781c 7f3d e87b 173d 4566 cfbd 3466 0b3d
000002f0: 31dc 35bd 8043 5a3a c01c 95bc d0db 08bc
00000300: d1db c0bd a0fa 203d 205a 053b de5b 9cbd
00000310: ec35 b43c 8c82 983c 5002 323c a8b8 25bc
00000320: 3f24 9bbd 3080 01bd ac51 513d b03e 2c3d
00000330: 31dc d0bd aeb6 ce3d 00fb 6f3b 7038 22bc
00000340: e0c7 593d c458 4e3d c46d 0d3d 6a22 ab3d
00000350: b966 91bd 0166 b2bd 0751 8fbd 5c92 913c
00000360: d831 fbbc 208c b93d fe7d 00bd 38c7 a9bc
00000370: d675 2cbd 985c b1bd 8048 163b 9f71 71bd
00000380: 5402 adbd 642f 393d 60d8 6cbc 2cdb 093d
00000390: c6f7 c03d 88fd acbc 0860 2c3c ea19 853d
000003a0: 607c fd3b 8cc5 b0bd 486e 9d3d 20b0 59bd
000003b0: ec86 cdbd 5cd0 0f3d 18dd 10bd 5c2a 273d
000003c0: 1516 b0bd ac9b 613d 067a ae3d 20d6 92bc
000003d0: 5cd0 a83d 1c93 063d b69a 8e3d c444 063d
000003e0: a038 233b a027 e3bc 1c14 933c 3094 433c
000003f0: 70d9 3b3d 260a 8c3d b6c8 18bd 7e9d 9a3d
-0.04771903 -0.057153516 0.029029757 0.043021113 0.07111065 -0.04824349 -0.08060766 -0.029079743
-0.034963205 0.06873664 -0.019955464 0.060037687 -0.0877279 0.099172264 -0.03945648 -0.09073694
0.0624059 -0.07778162 -0.013931766 -0.07125668 -0.038120486 0.070350245 -0.0058807954 -0.00043965876
-0.031163156 -0.05322351 -0.007625133 0.006440945 0.0060657784 0.08580801 0.013059266 -0.08113919
0.037462205 0.038964063 -0.016261637 0.029546782 0.008249983 -0.027851805 -0.00022144616 -0.0008200854
-0.09362834 -0.036298424 -0.020960957 -0.06680766 -0.019901067 0.09613459 0.07254675 -0.07051316
-0.07172699 0.036425233 -0.03377527 -0.05050838 -0.042181432 -0.04612767 -0.047542527 0.055896416
-0.042568933 -0.09022572 0.014181852 -0.02986031 0.07895918 -0.082733214 0.004328616 -0.007341914
-0.009253398 -0.03934847 -0.053788085 0.016617432 0.072725534 -0.092810966 0.02318208 0.004464172
-0.009863727 0.09133537 -0.07539003 0.05490604 -0.06309827 0.09740849 -0.05345912 -0.09104613
-0.097435474 -0.087110326 -0.019133419 0.001445204 0.032498494 -0.035250388 0.021815479 -0.01765439
-0.07993939 -0.056512523 0.08990911 -0.08826406 -0.05671948 -0.050935943 0.091411784 0.04318437
0.021826327 0.004358664 -0.08422776 -0.025494725 -0.062522665 0.09431447 -0.045095418 -0.046262052
-0.03799595 0.0019687861 -0.09987798 -0.025025927 0.022433013 0.0038844496 0.010283314 -0.046508465
0.05761631 -0.020891294 0.019118413 0.09094456 0.01442083 0.04091744 -0.09280158 -0.08474298
0.048693985 -0.076109216 0.069265276 0.087659866 -0.042531107 0.073480785 -0.0893168 0.026122913
0.0032363757 -0.027879313 -0.08423279 0.024868011 0.0073929876 0.089226976 0.089868814 -0.012018688
0.05822994 0.06818645 -0.042432822 0.04324238 0.021704845 -0.06844613 0.08050199 -0.026769318
0.049076453 -0.0773014 -0.0004278645 0.081573725 -0.0056936964 -0.026102506 -0.040846754 0.081707284
0.09337808 -0.013915293 -0.0651727 -0.03502371 -0.09841193 0.027367055 0.025661603 -0.06461521
-0.015430547 -0.010591291 -0.028386496 -0.084720954 -0.07356775 0.0122267455 0.028202206 -0.027753115
0.10137935 -0.028698012 -0.02698639 -0.07900432 0.033917263 -0.027501144 0.07662782 0.0063699037
0.09481469 0.029167071 -0.09865378 -0.02865386 0.035753757 -0.016957067 0.032802567 -0.012526639
0.06228301 0.0369834 -0.10126928 0.034033015 -0.044399444 0.00083260983 -0.018202186 -0.008353189
-0.09416927 0.039301515 0.0020347908 -0.0763471 0.021998368 0.018616937 0.010864809 -0.010114826
-0.07575273 -0.03161639 0.05110328 0.04205197 -0.10198248 0.10093437 0.0036618114 -0.009901151
0.05316913 0.050377622 0.03452851 0.08356173 -0.07099671 -0.08710862 -0.069978766 0.017769985
-0.030663416 0.0905993 -0.031370156 -0.020724878 -0.042104565 -0.08660239 0.0022931397 -0.05894625
-0.0844771 0.04521121 -0.014455885 0.033656284 0.09422259 -0.021116987 0.0105209425 0.06499083
0.007735774 -0.08631429 0.0768705 -0.05314648 -0.100355 0.035110816 -0.0353671 0.04081188
-0.08597962 0.0550801 0.08519368 -0.017924368 0.082428664 0.03285514 0.069631025 0.032780424
0.0024905577 -0.027728856 0.017953925 0.011937186 0.04586166 0.06837873 -0.037300788 0.075495705

in_layer.bias f4 [64]
00000000: 2cc7 3a3d 0890 e93c 4898 b73d c4fd b9bd
00000010: 1019 e03c f423 b73d ae83 843d 985e ac3c
00000020: 765f 94bd 7f2f cdbd 9c5b adbd 8006 a9bc
00000030: 84a3 9b3d c896 a0bd c804 82bd 44b0 79bd
00000040: 34a5 a1bc 4083 4abb eea6 923d cc9f 7b3d
00000050: b62f b0bd 1ddd b8bd 68fa 5a3c d8c9 683d
00000060: b461 ad3c a097 513b f07b 8d3c 08d4 31bc
00000070: 6817 1dbd 2816 973c b06e 1d3c 30a3 f9bc
00000080: 002e d2ba a822 71bc b8e8 813d cc52 a93d
00000090: c071 b53a b8a6 b7bd f2c5 bb3d c8c4 583d
000000a0: 66e1 803d 864a 55bd 8486 b1bd b072 a73c
000000b0: ce37 a1bd 00f8 1cb8 eee9 3ebd 7f85 cebd
000000c0: a8d6 aebc 00ef d03d fc0c cfbd 2a2f a83d
000000d0: 7030 e2bc aac8 c83d eb7b 81bd c80e 383d
000000e0: 148a a33d 77de 6fbd fb1f 98bd 0bf5 b3bd
000000f0: 8825 54bc 4059 fe3b b0e1 debb e3a7 22bd
0.0456001 0.028511062 0.08964592 -0.09081605 0.0273557 0.089424044 0.064704284 0.0210412
-0.0724477 -0.10018825 -0.08464739 -0.020632982 0.075995475 -0.07841259 -0.06348568 -0.060959116
-0.019732095 -0.0030900985 0.071607456 0.06143169 -0.0860285 -0.09026549 0.013365366 0.05683312
0.021164753 0.0031981245 0.017271012 -0.010853775 -0.0383524 0.018443182 0.0096089095 -0.030473322
-0.0016035438 -0.014717735 0.06343216 0.082677454 0.0013843104 -0.08967346 0.091686144 0.05292204
0.06292991 -0.052073024 -0.08668235 0.02044043 -0.07871972 -3.7424266e-05 -0.04660981 -0.10084056
-0.02134259 0.10201836 -0.101098984 0.08212121 -0.027610987 0.09803899 -0.063224636 0.04493597
0.07985321 -0.05856177 -0.07427975 -0.087869726 -0.012948401 0.0077621043 -0.0068018064 -0.03971089

hidden.0.weight f4 [64, 64]
00000000: 207c 593c 1014 7dbc 4077 5cbb 0ace c93d
00000010: 62cf d6bd ac9a e5bd b09e 6dbc 24d8 87bd
00000020: 6016 b53c 90bc 61bd 0056 94b9 20c2 ac3c
00000030: 240d dc3d f0b4 d93c 4c1e a93d 2011 833b
00000040: 2e58 a23d 409c 853d 6a36 b8bd 00c7 a83d
00000050: f8a0 1cbd c82b 37bd 38d0 083d e695 cabd
00000060: 4446 64bd 4c66 f83d 14d0 003d c812 33bd
00000070: 60d8 4a3c cce7 5ebd 50be c4bc ceb3 db3d
00000080: 30fd 21bd 3489 0fbd 64a6 aebd a00d d73d
00000090: 5cf5 19bd cabe 813d fa1e 9e3d 9697 aa3d
000000a0: b0e0 1e3d 9842 c33c 1a13 91bd 4432 5dbd
000000b0: d8be 04bd 8260 91bd 0615 84bd cc81 b1bd
000000c0: 60c0 b43d b694 b03d 3c7b a33d aa6a 933d
000000d0: e8e7 ccbd aa52 dabd b848 e7bc f251 cc3d
000000e0: 5831 933d 5ad0 ff3d 0a08 963d e43e 133d
000000f0: a818 b6bd 0091 433a d049 bd3c 2847 d33c
00000100: 7639 c23d 406d df3c e262 c03d 3068 46bc
00000110: 8c06 993d 62d7 d53d beed d3bd 4019 203b
00000120: 740d a5bd 10bb 4ebd 6aca ecbd 26ba 873d
00000130: 1cfd 39bd ec0d 853d 7096 90bc 9c15 b9bd
00000140: 0659 f4bd 4ed8 ab3d d255 d53d 3ecd a93d
00000150: 3e67 db3d 5c11 d13d 7a8f c2bd c829 313d
00000160: e0dd fcbb 603e ab3d 24e1 4dbd 56b0 c33d
00000170: 9021 06bc 7c9c d33d 047b ae3d b072 f53c
00000180: c66d 9bbd e4f9 93bd 3ca3 633d 5271 b63d
00000190: 5086 e93d ac7d f83d d03a 753d 5831 833d
000001a0: a045 e63c 5414 9dbd c4b2 37bd 6cf4 b5bd
000001b0: fe05 b73d 8c7e 33bd b04d b6bc 0829 61bd
000001c0: 007d 4dbc 80cc 1b3d bcda 073d f069 bcbc
000001d0: 30bd 52bc 5042 0bbd 18a7 2c3d 0010 b43c
000001e0: 4a10 89bd 1c15 13bd 58ab 903c e882 d7bd
000001f0: a4a7 f13d 1e02 843d e881 cfbd 3067 73bc
00000200: 2070 a03d 70ea c13d 6c99 38bd f4c3 c23d
00000210: 38a1 80bd c012 efbb 02cd b83d 8c4f 353d
00000220: 6821 f5bd de73 843d 200d 89bc b0ae 0c3c
00000230: 70c9 e53d da02 e23d 30d8 413c 407d b1bc
00000240: acf0 00bd d410 88bd c05f d73c 2aa1 b9bd
00000250: 5c87 cbbd b84d 1cbd c049 f53c c04c cabc
00000260: a462 b7bd 8aaa ae3d b09a 3bbd c08a c33b
00000270: 7632 f9bd 7cea babd e4c4 d2bd 92b5 df3d
00000280: 985e a8bd f0e1 523d cc99 b33d bcf2 76bd
00000290: 1ae4 f3bd e08d 6b3c 1ecc 86bd 78b4 ddbc
000002a0: 4a26 cd3d 30ae 073c b4d7 e83d 10dd 18bc
000002b0: 4872 2bbd 6472 0bbd e246 923d 8802 cd3d
000002c0: f81b 3bbd 60be ccbd 38a4 a1bc c0b1 b8bb
000002d0: c2fc 853d 1c1d e13d 2e36 f23d 045c a3bd
000002e0: 14a1 e83d 9c33 31bd 14c1 283d c019 f13b
000002f0: 36d9 cd3d 4ec2 ee3d 903c e83c ac77 9c3d
00000300: 20b7 003c 7cf8 a2bd 0094 8ab9 c4f1 523d
00000310: 6ebf c93d 3000 853d 3885 00bd a8b9 a9bc
00000320: 14b1 18bd 583b b7bc b475 96bd e868 e83d
00000330: 5ebe b83d 3491 aa3d 1077 75bc 00fa d0bb
00000340: 6049 d0bd ac39 f83d 084d 6b3d a430 0cbd
00000350: c694 bd3d a880 403d e07f 7b3c ce4a ed3d
00000360: 90ae c83c 04f8 6dbd b07e 6fbd cc42 cfbd
00000370: 30a4 16bd 1098 fc3c 3ca7 00bd b8e4 fabd
00000380: 6acd a63d 9c3d 313d a076 363d 7295 d4bd
00000390: 8009 9dbc 1015 c83d 1808 aebc f80f fcbd
000003a0: ccaa bc3d 62a1 d23d 70db babc 6803 afbd
000003b0: 0811 cf3d a087 5fbd 884e 7ebd 567d f3bd
000003c0: 38e1 133d 307e ba3d 6050 a53c 465b 8cbd
000003d0: 0eca cb3d 2468 193d 28f4 fabd d0e2 a9bd
000003e0: 5879 853d 1c8e 70bd 6804 b0bd 9028 763c
000003f0: 1090 afbd 7033 153c 881c 43bd 04ea c63d
0.013274223 -0.015446678 -0.0033640414 0.09853752 -0.10488774 -0.11211142 -0.014503166 -0.066330224
0.022105396 -0.055111468 -0.00028292835 0.02108866 0.10744694 0.026575536 0.08257732 0.003999844
0.07926975 0.06523943 -0.08994754 0.08241081 -0.03823945 -0.044719487 0.033401698 -0.09891872
-0.055731073 0.121288866 0.03144844 -0.043719083 0.012380689 -0.054420277 -0.02401653 0.107276544
-0.0395481 -0.035042956 -0.0852783 0.10500646 -0.03758751 0.06335218 0.07720752 0.08329694
0.038788497 0.023835465 -0.070837215 -0.054003015 -0.032408565 -0.070984855 -0.064493224 -0.08667335
0.08825755 0.08622114 0.079824895 0.07198079 -0.1000517 -0.10660298 -0.028232917 0.09976567
0.07187146 0.12490912 0.07325752 0.03594865 -0.088914216 0.00074602664 0.023106486 0.025790766
0.09483616 0.027273774 0.093938604 -0.012109801 0.07471952 0.10441472 -0.1034808 0.0024429113
-0.080592066 -0.050471365 -0.11562045 0.06627302 -0.0454074 0.06496796 -0.01764986 -0.09037325
-0.119310424 0.08390866 0.104167596 0.082911 0.10713051 0.10208389 -0.09500022 0.043252736
-0.0077168792 0.083615065 -0.05026354 0.09555118 -0.008186713 0.103325814 0.08519557 0.029961914
-0.07589297 -0.07225397 0.055575594 0.08908333 0.11402571 0.12133345 0.05987054 0.06405896
0.028109372 -0.07669893 -0.04484822 -0.088845104 0.0893669 -0.043821856 -0.022253841 -0.05497077
-0.012542009 0.038036823 0.033167586 -0.022999734 -0.012862489 -0.033998787 0.04215154 0.021980286
-0.0669256 -0.035908803 0.017659828 -0.10523015 0.11799553 0.06445716 -0.101321995 -0.014856145
0.07833886 0.094685435 -0.04506819 0.09510031 -0.0628075 -0.0072959363 0.09023477 0.044265315
-0.11969262 0.064674124 -0.016729891 0.008586571 0.11220062 0.110357 0.011831328 -0.02166617
-0.031479523 -0.06643835 0.026290774 -0.09063943 -0.09937927 -0.038160056 0.029942393 -0.0246948
-0.08954361 0.085286215 -0.04580182 0.005967468 -0.12167828 -0.091267556 -0.1029146 0.10923304
-0.08221167 0.051485002 0.08769569 -0.060290083 -0.11908741 0.014377087 -0.06581901 -0.027063593
0.10017069 0.008281276 0.11369267 -0.009330049 -0.041857034 -0.03404464 0.07142426 0.100102484
-0.04568097 -0.09997249 -0.019731626 -0.005636424 0.0654235 0.1099188 0.1182674 -0.07976535
0.11358848 -0.04326211 0.04119976 0.007357806 0.10051195 0.116581544 0.028349191 0.07640013
0.00785616 -0.07957551 -0.0002643168 0.051500097 0.098509654 0.064941764 -0.031377047 -0.02071841
-0.03727825 -0.022367164 -0.07346669 0.11348134 0.09020685 0.083284765 -0.014982 -0.0063774586
-0.10170245 0.12120375 0.05744651 -0.034226075 0.09256892 0.046997696 0.015350312 0.115865335
0.0244973 -0.058097854 -0.058470428 -0.10120162 -0.036777675 0.030834228 -0.031409487 -0.12250656
0.081446484 0.043271646 0.044546723 -0.10380067 -0.019169569 0.09769642 -0.021244094 -0.12307733
0.092122644 0.102846876 -0.022809714 -0.085455716 0.1011067 -0.0545727 -0.062086612 -0.1188914
0.036103457 0.091060996 0.020179927 -0.068533465 0.09950648 0.037452832 -0.122536 -0.08295214
0.06517285 -0.058729276 -0.085945904 0.015024319 -0.085723996 0.009106502 -0.04763463 0.09712604

hidden.0.bias f4 [64]
00000000: c4fe 8f3d 804f e7bb b2a3 813d 6035 2f3d
00000010: 847b ad3d 3849 c3bc ba4e 9e3d 44e5 0f3d
00000020: 0011 16bb 7813 383d e040 a53b 90e4 233d
00000030: f0af 20bc 804b 363d 1836 c13c 101b 5ebc
00000040: f0d5 7fbd a4d5 bfbd 2ad7 d83d ae44 dfbd
00000050: b2a0 803d aa51 d8bd 8e2e e93d 44cc 183d
00000060: 708b 643c 486a debc 748f 57bd 98d8 c93d
00000070: 8035 b23a 0234 d03d 0092 86bc 725b 8c3d
00000080: 8c48 4abd 20ba 93bc 4cef 3fbd 0c89 39bd
00000090: 3ec1 99bd c0b9 083d 9411 75bd 80f3 083c
000000a0: 404b 393d d460 a33d c2fe c2bd e648 8cbd
000000b0: 4081 f03b 402c 4dbd 9060 debc 4091 a13b
000000c0: 7053 613c a0c6 9f3d 643e 8bbd c640 9b3d
000000d0: 6a5e e73d fce0 653d 8004 d03c 9a82 9fbd
000000e0: 2221 c03d b6db ea3d 94db 43bd 50d8 89bc
000000f0: c439 bbbd d85f cd3c d466 01bd a080 4cbc
0.070310146 -0.0070590377 0.063300505 0.04277551 0.08470824 -0.023838624 0.0772986 0.035130754
-0.0022898316 0.04494044 0.005043134 0.040012896 -0.009807572 0.044505596 0.023585364 -0.013556257
-0.062459886 -0.093669206 0.10587914 -0.109017715 0.0628065 -0.10562451 0.11385833 0.037304178
0.01394926 -0.027150288 -0.052627042 0.09855765 0.0013596267 0.1016617 -0.01642704 0.06853379
-0.049385592 -0.018033087 -0.04685907 -0.045296714 -0.07507561 0.03338027 -0.059831217 0.008358836
0.04523778 0.07977453 -0.095212474 -0.06849842 0.0073396266 -0.05009103 -0.027145654 0.004930645
0.013752803 0.078015566 -0.067990094 0.07580714 0.11297305 0.056122765 0.02539277 -0.07788582
0.093813196 0.11467688 -0.047816828 -0.016826779 -0.09141877 0.025070116 -0.031592205 -0.012481838

hidden.1.weight f4 [64, 64]
00000000: 50ed bc3d a096 a7bb 2c03 9cbd 1887 86bc
00000010: 2489 8ebd 4ef6 f63d bea9 d9bd a41f a83d
00000020: 8a1a 8b3d 80b6 0b3d c0f4 cebb a422 343d
00000030: 10cf 103c 487a 3cbd fa43 833d b8f2 7e3d
00000040: 9042 60bc 7c6e 71bd 8ab8 f43d 9283 d23d
00000050: aef0 f63d 60f7 a23b 6868 ddbc 2092 a33c
00000060: 485b bcbc e853 953d 584a 7a3d 304f 803d
00000070: 7088 fd3c 6caa 5c3d 2886 093d 601a 96bc
00000080: 4002 80bc 9a3f f4bd b496 cdbd 40bb cd3b
00000090: 7034 dc3c c022 783d 103e 2a3c 56f3 fabd
000000a0: 3836 22bd f82a cb3d c86d f03c dcff fbbd
000000b0: 2827 af3d f856 8ebd 009c c7bd 0ce8 dfbd
000000c0: 248b 133d 084a ae3d 78f6 f83c 44dc 0fbd
000000d0: 00b9 83bb d0cc 1ebd 188d b2bc e247 8fbd
000000e0: e2cf c73d d04f 5cbd 7852 083d 8404 673d
000000f0: 28df c53d 9aa7 eabd 28d5 ed3d 0014 c9ba
00000100: e8ed cd3c a036 efbc a651 fd3d ba86 ebbd
00000110: 328e dcbd 2236 b43d 94dc 46bd 6e1b e43d
00000120: 46a1 8fbd 44ac 0dbd d048 81bd f07d ea3d
00000130: 1462 b1bd 803a c13b d084 833d 4c91 e13d
00000140: 3cf0 21bd 9823 4bbd 7a22 debd 7846 50bd
00000150: 18f2 e23d 0473 2a3d 68d9 8f3d 0451 fb3d
00000160: 107f 283c 8050 8d3c f0f4 83bd d419 f33d
00000170: b860 bc3c ba70 dd3d 7a5b dd3d c0bf babd
00000180: c882 eabd 7429 01bd 8031 cd3a 900d 363d
00000190: 8859 243d d63c bd3d a4d9 ac3d 92ee a7bd
000001a0: 00f1 6ebd 4264 eabd 68eb 8abc 1054 1fbc
000001b0: a021 f53c 4a6b d03d 7005 3c3d 9c15 e5bd
000001c0: 8075 933d 3666 d0bd 74c3 743d 8814 f13d
000001d0: 7050 f1bd d8f4 063d 5009 24bd 18ef afbc
000001e0: 2c59 293d 0885 0dbd 149a 3a3d be96 c83d
000001f0: a277 adbd 3836 c53c 58b5 0e3d fc8e c3bd
00000200: e4b8 d9bd e699 a2bd 7067 e73c 6ac6 d13d
00000210: aa48 e4bd ac22 15bd b08e 9d3d b41f b53d
00000220: 0c03 1abd e6b5 f53d c82d adbd 10d7 473d
00000230: e8c4 5fbd c07d 02bd 884f f33c 8c0e debd
00000240: 689c 00bd 7088 c93c 26b2 b23d ac4e fa3d
00000250: 80ac b3bc d211 f6bd c459 1f3d 7055 a13d
00000260: 3863 7d3d fcc7 083d 1c8e 89bd a0d1 1d3d
00000270: 00e7 79bb a012 163c d431 843d a0bf 97bd
00000280: c4b8 bf3d 54c2 99bd d6ae a0bd 8800 9a3d
00000290: c42d d73d 0015 3fba 9891 45bd c87d e43d
000002a0: 448c a03d baab babd b25c dd3d d21e df3d
000002b0: 60f8 b93c 4e2c e63d a004 d03c c248 b8bd
000002c0: dcfe 6ebd 8e15 b6bd d851 973c 5685 c8bd
000002d0: c02b d33d 10f9 b4bd 3c93 623d c067 273b
000002e0: cc5e c6bd fccb e9bd d43e c43d 805a c6bc
000002f0: fc19 fb3d 56cd 863d e01c ce3b 48e8 8ebc
00000300: bc89 8f3d 3e75 933d 74d3 af3d 2ce0 5fbd
00000310: 8063 58bc 8874 9c3c 607b 533c 68c5 303d
00000320: 923f d7bd 3a08 c43d 202c d6bb 6c0a 77bd
00000330: 78b1 9cbd f41b bfbd 2c38 6bbd b4f8 6fbd
00000340: 4488 83bd a4b3 d03d 5ad5 edbd 0ad5 b3bd
00000350: 80cc bfbc b0f6 acbc 80fb 8e3b a26f ce3d
00000360: 60d2 e0bb 0e58 94bd 603f 173d 3452 583d
00000370: 5022 6d3d 3cb7 60bd 6857 90bd aced 0bbd
00000380: 4e60 bfbd 60f6 813b b0b8 9f3d b842 55bd
00000390: c0fa b73d f097 79bc 26ea b73d 8e01 fe3d
000003a0: 24f8 a03d 9c1e f73d 8ce9 943d 70dd df3c
000003b0: 323c cabd 7093 f43c d873 debc d67e 803d
000003c0: 38d4 f03d 205b 69bd 90b7 d53d 2865 27bd
000003d0: ec71 cd3d 105d 643d 50de 25bc 5c2f 9b3d
000003e0: 70de dabc c051 703d 24d3 c9bd 20c8 263c
000003f0: 302c 69bc 0e72 cabd d04c b8bc 000f b0bc
0.09224951 -0.0051143914 -0.076177925 -0.01642184 -0.06959751 0.12058698 -0.10628079 0.0820916
0.06792171 0.034109592 -0.0063157976 0.04397835 0.00883843 -0.046015054 0.0640945 0.062243193
-0.013687745 -0.058943257 0.119492605 0.10279001 0.12057625 0.004973337 -0.027027324 0.019967139
-0.022992745 0.072913945 0.061106056 0.06265104 0.030948848 0.053873464 0.033575207 -0.018323123
-0.015626073 -0.119261935 -0.1003851 0.0062784255 0.026880473 0.060580015 0.010390773 -0.12253444
-0.03960249 0.09920305 0.029349223 -0.12304661 0.0855239 -0.06950182 -0.097465515 -0.10932931
0.036021367 0.08510214 0.030390963 -0.03512217 -0.0040198565 -0.038769543 -0.021795794 -0.069961324
0.097564474 -0.053787053 0.033281773 0.05640079 0.09661704 -0.11457749 0.11612922 -0.0015341043
0.025137857 -0.029200852 0.12369089 -0.115003064 -0.10769309 0.087993875 -0.048550203 0.11138044
-0.07013182 -0.034588113 -0.06312716 0.11449802 -0.08661285 0.0058968663 0.06421816 0.11014041
-0.039535746 -0.04959449 -0.1084642 -0.050848454 0.11081332 0.041613594 0.07023889 0.12271312
0.0102842 0.0172503 -0.064432025 0.11870161 0.022995338 0.108125165 0.108084634 -0.09118605
-0.11450726 -0.031533673 0.0015655011 0.044446528 0.040124446 0.09240119 0.08439949 -0.081998006
-0.058335304 -0.11444904 -0.016957954 -0.009724632 0.02992326 0.10176714 0.045903623 -0.11185762
0.07200146 -0.10175745 0.05975671 0.11771494 -0.1178292 0.032948345 -0.040047944 -0.021476313
0.041344807 -0.034550697 0.045557097 0.09794377 -0.08470084 0.024073705 0.03484091 -0.095487565
-0.10630968 -0.0793951 0.028247565 0.102429226 -0.11146672 -0.03641002 0.07693231 0.088439375
-0.037600562 0.11997585 -0.08455998 0.048789084 -0.054631144 -0.031858206 0.02970101 -0.10842618
-0.03139916 0.024601191 0.08725385 0.12222037 -0.02193284 -0.12015118 0.038903967 0.07877624
0.0618622 0.033393845 -0.06716558 0.038529992 -0.0038132071 0.009159714 0.064548165 -0.074095964
0.09361413 -0.07507768 -0.07845847 0.075196326 0.10506776 -0.0007289201 -0.048234552 0.11156803
0.078392535 -0.091147855 0.10808696 0.108945504 0.022701442 0.11238919 0.02539283 -0.089982525
-0.05834852 -0.0889083 0.018471643 -0.09791057 0.10311079 -0.088365674 0.055316195 0.0025544018
-0.0968605 -0.1141586 0.09582296 -0.024213076 0.122608155 0.065821335 0.0062900633 -0.017444745
0.070086926 0.072000965 0.08585253 -0.054657146 -0.013207316 0.019098535 0.012907833 0.04315701
-0.10510172 0.095718816 -0.006536022 -0.060312673 -0.07651037 -0.093315035 -0.057426617 -0.05858679
-0.06422475 0.10190514 -0.11612959 -0.08780868 -0.023412943 -0.021113724 0.004363477 0.10079886
-0.006861016 -0.072433576 0.036925673 0.05281277 0.05789405 -0.054862246 -0.070479214 -0.03416221
-0.093445405 0.0039661378 0.07798898 -0.05206558 0.08983374 -0.015233979 0.08980207 0.1240264
0.07859829 0.12066385 0.07271108 0.02732727 -0.098747626 0.02985546 -0.027154848 0.06274192
0.117592275 -0.05697167 0.104354024 -0.040867954 0.100314945 0.055752814 -0.010123804 0.075773925
-0.026717395 0.058671713 -0.09854725 0.010179549 -0.0142317265 -0.098850355 -0.022497565 -0.021491528

hidden.1.bias f4 [64]
00000000: deab d63d 104e 9a3d 3047 16bc c0f2 ebbb
00000010: 62a5 d8bd 36e1 82bd 20aa 89bc f68b a1bd
00000020: 00ba 91b9 dc6c 933d a855 403d 70f2 dcbd
00000030: 3a09 cabd 6057 fb3d 5ee3 afbd 4c3c c23d
00000040: 6800 9d3c b096 fc3d 904d 773c c27a d53d
00000050: 30b4 373c a087 953c 4823 bb3d d600 bdbd
00000060: a412 0f3d bcea ff3d 9809 913d 2ce6 423d
00000070: d8f1 db3d 0ce4 3ebd cc1e 033d 50f5 4a3d
00000080: aa3b ccbd 0006 2d3b 28b8 bebc 5cd7 9b3d
00000090: 10cc 2d3d c0f4 99bd b8de 743d c201 f03d
000000a0: c4ff fcbd 4068 13bc e8fa c53d 2805 643d
000000b0: 10a7 3c3d 9023 95bd 58a8 cebd e83e 493d
000000c0: 4694 c83d 0e70 f5bd 40c4 afbc c2f7 8ebd
000000d0: 1434 c8bd e0a9 563c 10d2 d13c 2600 c93d
000000e0: 706c 86bd 00fa 32ba f6f6 c8bd 7cc2 d2bd
000000f0: 2e77 9b3d 14ef 363d 582a 503d acae 553d
0.10482 0.075344205 -0.009172246 -0.007200569 -0.10578419 -0.06390612 -0.016804755 -0.078880236
-0.00027795136 0.07198498 0.04695669 -0.10788429 -0.09865041 0.12272525 -0.08588289 0.09484157
0.019165233 0.12333429 0.015094176 0.10423805 0.011212394 0.018253148 0.09137589 -0.09228675
0.034929886 0.12495944 0.07081908 0.04758279 0.107394874 -0.0466042 0.032011792 0.049550354
-0.099723175 0.0026401281 -0.023281172 0.07609436 0.042430937 -0.075173855 0.059782714 0.11719085
-0.12353471 -0.008997023 0.09666997 0.05566898 0.04605776 -0.07282174 -0.10090703 0.049132258
0.09793906 -0.11984263 -0.021455884 -0.0698085 -0.09775558 0.013102025 0.02561286 0.098144814
-0.065636516 -0.0006827414 -0.09812729 -0.10291001 0.07591091 0.044661596 0.050821632 0.052168533

hidden.2.weight f4 [64, 64]
00000000: e278 e93d 2216 aa3d 7af9 c8bd 3c73 39bd
00000010: b847 d5bd f420 923d 52a1 98bd 4e4b 96bd
00000020: 8884 5bbd 807d 89bd e0ac b2bc e4ef d6bd
00000030: 90cb aa3d 40a9 9e3c 2649 8f3d a8b8 d3bc
00000040: 78ed 30bd b882 20bd b857 393d c0b7 68bd
00000050: 1a51 883d fc73 743d 341f ce3d 704c 973d
00000060: 9256 86bd d058 183d 1e47 e13d 0869 b03c
00000070: e03e 373c 8878 5abd 3cfa db3d 8e19 c3bd
00000080: 4006 6a3c 885e c93c a854 8bbc 56ad a53d
00000090: f41b 893d b8eb b93d e854 c7bd 501c d73c
000000a0: 68f3 b73d 9035 00bc 98fe d33d 3819 b63d
000000b0: 2ce4 47bd 0658 b3bd 8415 af3d 2a89 a4bd
000000c0: c0fb 6f3b f871 c93c 601b 493d 9cb3 21bd
000000d0: 0cb5 893d 8c95 8e3d c0e7 853b 082b d9bc
000000e0: 120a 9b3d 64c6 0ebd fc3e 97bd 3c54 71bd
000000f0: 7acf fa3d 1efe b43d 40c3 de3d 908a 51bc
00000100: a0b8 27bc 0ca2 f93d 081a 603d 1c45 b83d
00000110: 58e4 ba3d 9c32 b33d 98cb ddbd f8ba 353d
00000120: 8aac d33d a01b ad3b 1401 90bd 54a0 3a3d
00000130: 262f c33d 9aef cf3d 581b 41bd 764f 8cbd
00000140: d658 ba3d 7a95 8e3d e07b d4bb 1068 89bd
00000150: f094 ac3d 0c90 b2bd a84f acbd 089a 143d
00000160: e052 f83d 061a c33d 18d0 b0bd 502e b8bc
00000170: 2017 cebc 306c b8bc 806d abbd a049 9cbc
00000180: aca5 593d 2218 833d fa3b e0bd 5835 e43d
00000190: 66aa ba3d 7408 15bd fc65 f3bd 3054 7bbc
000001a0: e49d 6cbd d6c5 f8bd c499 b9bd 905a 423c
000001b0: bc87 74bd 5c08 623d 3891 b73c f8b1 9e3c
000001c0: 22f5 d03d c876 333d 7a3c 8f3d 40ca a13c
000001d0: dc04 1b3d b848 0cbd 742e 043d c002 3a3b
000001e0: 9e0d c6bd 3494 22bd b687 e9bd 7cbd 853d
000001f0: 28dd e23c a0ce 413d 70ae dc3d 009a fb39
00000200: ac6d c2bd eca7 1a3d d631 bbbd 4074 4dbd
00000210: 182b 7e3d 108d 8cbd 48c8 113d b830 3d3d
00000220: 7685 993d e84b 513d 4c2a 76bd a0b7 7abd
00000230: e822 d7bc 483c e9bd c8ab c93d 448f 9e3d
00000240: 7aa9 d63d f02d c6bd 3866 eebd e417 90bd
00000250: 30dc e53c c079 5ebd d477 7a3d 227f c03d
00000260: 1a81 e0bd 10f5 09bc d8ab b0bd ae6a 993d
00000270: 64b9 69bd d05a c8bd f8c2 603d b6e6 dbbd
00000280: 4035 0c3d 5032 81bc 44c2 9b3d 180e d93d
00000290: 8285 93bd e2a2 a9bd 7ab0 893d f0ab 1a3d
000002a0: 403b b3bb 4cf1 c0bd 7a9d c23d d26b a7bd
000002b0: a09b ec3c 5cb1 c23d c817 8fbc c49e 973d
000002c0: cc8b e03d 9467 fe3d 38d2 d93c 78af b83d
000002d0: 5005 ff3c dca3 933d 8864 ac3d a01a 803b
000002e0: a8dc 00bd 46a6 853d 8025 e8ba 28c7 3ebd
000002f0: 0034 feba 20c5 e7bb 0ea8 ae3d b016 e43d
00000300: 14d5 50bd a41b 983d 0073 1f3d 40d1 7c3d
00000310: 5676 863d 6c2b 44bd a083 96bc e8a1 c53c
00000320: 305d e03c c87c 113d 745f cdbd d0f4 c6bc
00000330: 8c00 2e3d 0842 04bd 00a6 963d 1265 b9bd
00000340: 14c9 413d 48a9 f6bd 4c3d 993d e081 72bd
00000350: 3455 24bd e46c f4bd f0d2 10bc 9c1d 49bd
00000360: a84d d6bd 8c4b 073d 4aad d3bd 76e7 debd
00000370: b044 63bc 30b0 6a3c e068 c43c 6422 9dbd
00000380: d430 6c3d 50a7 f9bd 2041 ebbc d0fb e93d
00000390: 280e a53c 1e73 983d e08c 793d 0e7d a0bd
000003a0: 6ef9 b43d 905a e63c 6cfa 5f3d 2c31 bbbd
000003b0: 36a6 c1bd 5e75 db3d 98ee d93c f81d 033d
000003c0: ec2b eb3d 347f e53d a002 0e3c 30d6 f5bc
000003d0: 0c84 8cbd b606 dc3d 8419 bc3d 008b 6bba
000003e0: 0223 ff3d 8027 9e3c b2c9 ac3d d052 cc3d
000003f0: d02f f5bc c049 26bb 0022 0bbb e03d 2abc
0.1140001 0.08305003 -0.09813209 -0.04527591 -0.1041407 0.071351916 -0.074526444 -0.07338582
-0.05359319 -0.0671339 -0.021810949 -0.10494974 0.08339608 0.019367814 0.06996374 -0.025844887
-0.043195218 -0.039187163 0.04524967 -0.056815863 0.06656094 0.059680924 0.10064545 0.07387626
-0.06559481 0.037194073 0.10999893 0.021534458 0.011184424 -0.053337604 0.10741088 -0.095263585
0.014283717 0.024581209 -0.01700814 0.08089702 0.06694785 0.09078163 -0.097329915 0.026258618
0.08981973 -0.00782527 0.10351294 0.08891529 -0.048801586 -0.087570235 0.08549026 -0.080339745
0.003661856 0.024590477 0.049098372 -0.03947793 0.06723985 0.069621176 0.0040864646 -0.026509777
0.0757028 -0.03485717 -0.0738506 -0.058918223 0.12246604 0.088375315 0.10877085 -0.0127893835
-0.010236889 0.12189111 0.054712325 0.089975566 0.09125584 0.08749887 -0.10829848 0.04436776
0.103356436 0.005282834 -0.07031456 0.045563057 0.09530477 0.10153122 -0.047145218 -0.068510935
0.09098975 0.06962104 -0.0064844936 -0.067093015 0.08426845 -0.08718881 -0.08413631 0.03627971
0.12125182 0.09526448 -0.08633441 -0.022483021 -0.025157511 -0.022512525 -0.08370495 -0.019078076
0.053136513 0.06401087 -0.109489396 0.11142987 0.09114532 -0.036385015 -0.11884686 -0.015339896
-0.057767764 -0.12147109 -0.090625316 0.011862412 -0.05969976 0.055183753 0.022408113 0.019371971
0.102030054 0.04381445 0.06993957 0.01974976 0.03784643 -0.034249038 0.032270864 0.0028382987
-0.09670566 -0.03969212 -0.11402838 0.06530282 0.027693346 0.047316194 0.10775459 0.0004798919
-0.094935745 0.0377578 -0.09140365 -0.050159693 0.062052816 -0.06862843 0.035591394 0.04618904
0.07496159 0.05109778 -0.06009893 -0.061210275 -0.026261762 -0.11388451 0.09847218 0.077421695
0.10481544 -0.09676731 -0.116405904 -0.07035807 0.028059095 -0.05431533 0.061149433 0.09399249
-0.10962124 -0.008420244 -0.086265266 0.07491051 -0.057061568 -0.09782946 0.054873437 -0.10737364
0.03423047 -0.015771061 0.076054126 0.10598391 -0.07203199 -0.082830206 0.06723113 0.03776163
-0.0054697096 -0.09421024 0.095026925 -0.08174862 0.028882802 0.09506485 -0.017467394 0.07403329
0.10964164 0.124221 0.026589498 0.09017843 0.031130463 0.07208988 0.08417612 0.003909424
-0.031460434 0.06525855 -0.0017711371 -0.04657665 -0.0019394159 -0.0070730597 0.08528148 0.1113714
-0.050984457 0.07427147 0.038928032 0.061722994 0.065655395 -0.047892973 -0.01837331 0.024125054
0.027388185 0.03551939 -0.10027972 -0.024286658 0.04248099 -0.032289535 0.07355881 -0.09052481
0.047310904 -0.120440066 0.074823946 -0.05920589 -0.04012032 -0.11934832 -0.008839354 -0.049100503
-0.104640305 0.03303103 -0.10335787 -0.108839914 -0.013871357 0.014324233 0.02397579 -0.07672575
0.057663754 -0.121901155 -0.028717577 0.114249825 0.020148352 0.07443832 0.060925364 -0.07836352
0.088366374 0.028119355 0.05468218 -0.09140238 -0.0945553 0.107157454 0.026603028 0.032011002
0.11482987 0.11205903 0.008667618 -0.03000936 -0.068611234 0.107434675 0.09184554 -0.0008985251
0.12457849 0.019305944 0.08436908 0.09976733 -0.029930025 -0.0025373548 -0.0021229982 -0.010390729

hidden.2.bias f4 [64]
00000000: 08c7 533d 4690 f9bd 80c8 fb3b 1074 083d
00000010: d46b 163d 703c 4b3d 5cc7 0f3d 50f3 62bd
00000020: 40ec 58bc 5c99 de3d 5e95 fbbd e0d0 a8bb
00000030: 8e21 b93d 5086 eb3d 488f 8d3c bcc5 b0bd
00000040: b0ce 6bbc 802a ee3c 20c0 fd3b 9ad1 8abd
00000050: 8473 25bd 20d4 aabc 1c4a 5e3d 682e 893d
00000060: e084 5e3d caef b13d 60df 943c 7036 433c
00000070: b0fc 15bd b25f e23d 3060 58bd c8b1 c43c
00000080: d03e 52bc e6b2 a7bd c032 37bd b839 bd3d
00000090: e03b 243c 0073 b23d 1c27 4b3d b46d e8bd
000000a0: d09a e13c be3c d0bd ba77 95bd d088 db3c
000000b0: 28f2 a23c 04e2 babd a280 fbbd 704c 17bc
000000c0: 9e93 bcbd e6ea a73d ce01 8f3d ec4f 823d
000000d0: be0f a6bd b840 a1bc 6216 d93d 000b a4bb
000000e0: e035 32bc 9cee 853d dc56 6c3d 9081 cb3c
000000f0: 68f6 393d 1843 dd3d 0020 e4ba c47b c83d
0.051703483 -0.12185721 0.0076838136 0.03331381 0.036723927 0.049618185 0.035102233 -0.055407822
-0.01323992 0.10869095 -0.12284349 -0.005151853 0.09039603 0.115002275 0.017280236 -0.08631465
-0.01439254 0.029073 0.0077438504 -0.067782596 -0.040393367 -0.020853102 0.054269895 0.066983044
0.05432594 0.08688314 0.01817292 0.011914834 -0.036617935 0.11053409 -0.052826107 0.024010554
-0.0128323585 -0.08188419 -0.044726133 0.092395246 0.010024041 0.08713341 0.049597844 -0.11349049
0.02753964 -0.10167836 -0.07298227 0.026798636 0.01989086 -0.0912514 -0.12280394 -0.009234533
-0.09207843 0.081991 0.06982766 0.063629 -0.08108471 -0.01968418 0.10599972 -0.005006194
-0.010877103 0.06539652 0.057700023 0.024842054 0.045401007 0.10803813 -0.0017404556 0.097892314

hidden.3.weight f4 [64, 64]
00000000: 18dc d6bc a8ec 9f3c cc93 fd3d 541b 31bd
00000010: 14ed dd3d b092 f3bd 6010 433d 80cb a03b
00000020: 5ef2 b23d a0ef f2bb f8dc fe3c f472 42bd
00000030: b430 f7bd 6030 573c 80a0 c03d 520f d2bd
00000040: 38bb c63d 3cd6 30bd 0024 62b9 70af 1b3c
00000050: 0008 81bb b80e 7dbd 3058 2dbc 005a 43ba
00000060: e06c 373c e0d2 cc3c 4210 ce3d b8f9 e1bc
00000070: b859 e83d f013 a23d a864 b1bd b0a3 b5bd
00000080: 9e19 e03d 8e74 a93d fe98 c6bd 28e6 a73c
00000090: 6441 eb3d c87a 15bd e42a fd3d 78bd 163d
000000a0: 3a5a ddbd c093 323b 00b4 863d 548f 0d3d
000000b0: 0a4a cbbd be4d c13d 8052 39bd a4d7 0cbd
000000c0: 28da ed3c 080f 803d 6a86 dfbd 0024 843a
000000d0: ac7e 623d b8c4 acbd f458 d1bd 063a b6bd
000000e0: 0859 bcbd 1ca4 663d dae6 a23d 6aa4 a03d
000000f0: d030 923d fc1a 473d f07e 2cbc b078 07bd
00000100: ccec f43d f0f4 32bd ba75 dd3d 80ee a83d
00000110: baba 86bd b0b3 8fbc 2c85 0f3d a8ff 8b3c
00000120: 728c 8cbd 20ac d23d 0090 3dbc 2cd1 16bd
00000130: ae4f b93d ac8f 373d 72b0 fd3d 08c9 de3c
00000140: 14ef d63d 18f1 a9bc 825b c3bd f8db b63d
00000150: a27e bcbd 8c21 ad3d 18f5 833d 1870 11bd
00000160: da55 a7bd e89f db3c a0f9 1a3d b443 133d
00000170: d08f 6e3c d0ae 0abc 2c09 7ebd dce3 9dbd
00000180: 9865 d3bd 9836 e23c 70b8 80bd a8be 87bd
00000190: 00f9 9f3a 509c f73c 4458 7a3d e470 543d
000001a0: f8ef c7bd a00b b7bd 668c d8bd 7861 e2bd
000001b0: d030 f8bd d478 53bd 44b8 85bd 3c09 e6bd
000001c0: 70e8 ce3d 4639 e13d 20da a0bb 74a0 aebd
000001d0: 400f 55bb 84f1 4b3d ee6d f23d c8b4 efbc
000001e0: 88ba abbd 80d3 72bc ecf9 b33d fee6 81bd
000001f0: 0487 0ebd dc78 713d c06d 77bd b05c fbbd
00000200: 6c6f 1cbd b234 f43d 947e 783d a096 e5bd
00000210: c07a 8dbc e64e cbbd 4006 dc3d 049b 2dbd
00000220: 0050 1b39 d065 84bd 5063 7cbd 0c6f 91bd
00000230: 0a52 f9bd 729e de3d 40f3 11bc 0a51 83bd
00000240: 44ff 7d3d 509e 8f3d 0a8c c6bd be92 96bd
00000250: 60e8 85bc 4424 4f3d d66c a83d 7e2f e7bd
00000260: 34aa 16bd 40c7 5bbc 70ce 2e3d e8b7 14bd
00000270: 80d6 c8ba 1c05 51bd 44a4 d63d 5ce4 a0bd
00000280: 7a1c d43d 00dd 8bbc 2e0b b43d c01e 6b3d
00000290: dcd8 9bbd 1c6a 923d 6020 e6bd d239 b6bd
000002a0: 461f ff3d 80eb 88bb 006b 223a 82a1 f4bd
000002b0: 5052 373d 548d 73bd 709d b63c dcfb b53d
000002c0: f014 503c 00cf 36bb 80ec 44bc e832 adbd
000002d0: a4be f2bd 9832 d53d 20d1 8fbc 185d 7d3d
000002e0: 6089 923c 507c 12bd 5c96 fabd ae0a dabd
000002f0: 4893 a33c a4a6 fbbd 289c 7a3d ac5c 473d
00000300: 08cf 53bd 70ef c4bd 20d4 e93c c0a8 943c
00000310: d63c c83d 9cd9 60bd 1673 f3bd a02f 8f3c
00000320: be5b fb3d 8a12 993d ec34 96bd 1055 713d
00000330: 3e90 973d 8255 bebd f04d 883d b0bc b13c
00000340: e6c2 c8bd 44c8 663d 409f 15bd 204a 3d3c
00000350: f4c5 c03d 94a5 4dbd d0a5 27bc e8f9 ad3d
00000360: 801d ec3c cec5 fbbd ccd6 453d 682b 83bd
00000370: 48e6 32bd 58a5 9dbc 8a57 863d a023 9abb
00000380: 544e 4abd 382c f4bc 8aca 863d 70fa 0abc
00000390: 600e 753d f080 8cbd 601b 483c cc39 0e3d
000003a0: 506b 163c 489e e83d dc2b 363d 14e6 2e3d
000003b0: 18db 2e3d c4bd e4bd 4cda df3d ac04 1c3d
000003c0: 2612 873d 702f febd 2411 2e3d c89e dd3d
000003d0: 38ac bbbd 088e e03c 148d 82bd 1071 8a3d
000003e0: 5811 753d 1020 4dbd 50e7 ccbd fc2e 8dbd
000003f0: c06d 303d da17 d7bd 5ca4 b5bd c807 1e3d
-0.026227996 0.019522026 0.12381706 -0.043238953 0.10836235 -0.11893213 0.04762304 0.0049070716
0.08737634 -0.0074138194 0.031111225 -0.04747291 -0.12069836 0.013134092 0.09405613 -0.10256828
0.09703678 -0.04317306 -0.0002156645 0.009502277 -0.0039377213 -0.061781615 -0.010580108 -0.0007452071
0.011195391 0.025002897 0.10061695 -0.027584895 0.113452375 0.07913959 -0.08661777 -0.088691115
0.10942386 0.08274184 -0.0969715 0.02049549 0.11487082 -0.036494046 0.12361696 0.036801785
-0.10808225 0.002724871 0.06577301 0.034560516 -0.09926231 0.09438656 -0.045244694 -0.03438534
0.02903469 0.06252867 -0.10914309 0.001008153 0.055296585 -0.084359586 -0.102220446 -0.08897786
-0.09196669 0.05630885 0.07954188 0.078438595 0.071382165 0.04860972 -0.010528311 -0.03307408
0.11959228 -0.04369062 0.1081347 0.08248615 -0.06578584 -0.017541736 0.035039112 0.01708968
-0.06862725 0.102867365 -0.011569977 -0.036820576 0.09048401 0.04481475 0.1238717 0.027195469
0.10494819 -0.020744845 -0.09538938 0.089286745 -0.09203841 0.08453664 0.06443232 -0.03550729
-0.08170672 0.026809648 0.037835717 0.03595324 0.014560655 -0.00846453 -0.062020466 -0.07709476
-0.10322112 0.027613923 -0.06285179 -0.06628162 0.0012204945 0.030225903 0.061119333 0.051865473
-0.09762567 -0.08937764 -0.10573654 -0.11053747 -0.12118685 -0.051628903 -0.065292865 -0.1123223
0.10102928 0.10997252 -0.004908815 -0.08526698 -0.003251031 0.049790874 0.11837374 -0.029261008
-0.083851874 -0.014820933 0.08787903 -0.063428864 -0.03479673 0.05895315 -0.0604074 -0.12273538
-0.038192198 0.11924113 0.06066759 -0.1121037 -0.017270446 -0.09927158 0.107433796 -0.042384163
0.00014811754 -0.06464732 -0.06161815 -0.07101259 -0.12173851 0.10870065 -0.008908093 -0.06411941
0.06201102 0.070126176 -0.09694679 -0.073522076 -0.016346157 0.050571695 0.08223884 -0.11288355
-0.036783412 -0.013414204 0.042677343 -0.0363082 -0.0015322715 -0.051030263 0.1048055 -0.07856056
0.10356994 -0.017073154 0.08791195 0.057402372 -0.07609722 0.07149145 -0.11236644 -0.08897747
0.12457137 -0.0041784644 0.0006195754 -0.11944868 0.044756234 -0.059460953 0.022291869 0.08885929
0.012700304 -0.0027894378 -0.012019277 -0.08456975 -0.11852768 0.104100406 -0.017555773 0.06185636
0.017887771 -0.035763085 -0.1223571 -0.10646568 0.01996769 -0.122876436 0.06118408 0.048672363
-0.051711112 -0.096159816 0.028543532 0.018146873 0.097772285 -0.05489503 -0.11887185 0.017478764
0.12273358 0.07474239 -0.07334313 0.058919013 0.07400559 -0.09293653 0.066554904 0.021696419
-0.09802799 0.056343332 -0.036528826 0.011553317 0.094127566 -0.050206736 -0.010232404 0.084949315
0.02882266 -0.122935876 0.04830055 -0.064047635 -0.043676645 -0.019243881 0.065596655 -0.004703954
-0.049391106 -0.029806241 0.065816 -0.0084825605 0.059828162 -0.068605304 0.012213558 0.03472309
0.009180859 0.11358315 0.04447542 0.04269989 0.042689413 -0.111690074 0.10930309 0.038090393
0.065952584 -0.12411392 0.042496815 0.10821301 -0.091637075 0.027411476 -0.06374565 0.06759846
0.059830993 -0.050079405 -0.10005057 -0.06893727 0.043073416 -0.10502596 -0.0886924 0.03858164

hidden.3.bias f4 [64]
00000000: 34ac 79bd b82d 1cbd 2852 bd3d 8c6e 85bd
00000010: 9882 57bd 9a47 c4bd 9490 683d 7e81 d43d
00000020: a8c4 3bbd 145d c3bd 32e6 f43d a83b a33c
00000030: 30ee 62bc 805d 34bb 0a8a f2bd f24a bb3d
00000040: 86c1 cdbd 0c47 3abd 3e10 8bbd 00a9 5fba
00000050: d823 06bd 6091 92bd dcc6 2b3d dc32 523d
00000060: 44e2 e63d ac61 5fbd 843c 18bd c035 fe3d
00000070: 9832 853d a694 ea3d c28a c43d e0e2 70bc
00000080: 8010 c8ba 6803 b83c 80a1 deba 109a 253d
00000090: 7040 37bd 38f4 f5bd 26aa 9abd 40fa b43d
000000a0: c0b0 d73c c085 583d 2c33 eabd b8eb 17bd
000000b0: 16b9 ebbd 5cf1 903d 80d9 69bd e080 dc3c
000000c0: 0804 423d 006a 1bba def1 b73d 6015 89bd
000000d0: 5c75 32bd 6435 863d 3c39 e33d 6c0a d7bd
000000e0: 8800 573d 88cf 9bbc 38f3 563d aa63 a1bd
000000f0: 3878 e4bc 4833 513d 24fe ff3d 12ab 9c3d
-0.06095524 -0.03812954 0.09244186 -0.06515226 -0.05261478 -0.095839694 0.056778505 0.10376261
-0.045841843 -0.095392376 0.11957969 0.019925907 -0.013850734 -0.002752155 -0.11842735 0.09145154
-0.10046677 -0.04547791 -0.06790207 -0.0008531958 -0.032749027 -0.07156634 0.041937694 0.051318035
0.112736255 -0.054536507 -0.037167087 0.12412596 0.065037906 0.11454134 0.095967785 -0.014702529
-0.0015263706 0.022462562 -0.0016985387 0.04043013 -0.044739187 -0.12009472 -0.075519845 0.08836794
0.026329398 0.05286193 -0.114355415 -0.037090033 -0.11509912 0.07077286 -0.05709219 0.026916921
0.047367126 -0.0005928576 0.089816794 -0.0669353 -0.043568954 0.06553152 0.11094901 -0.10500035
0.05249074 -0.019019857 0.052478045 -0.078803375 -0.027889356 0.051074296 0.12499645 0.076498166

hidden.4.weight f4 [64, 64]
00000000: 46e1 933d 5e2f 813d 2acf 9dbd 6268 80bd
00000010: 7834 9fbd ecf1 97bd e0ac 7a3c e877 a83c
00000020: 3695 b73d ea8d f5bd 00b2 baba 1ed0 f43d
00000030: 684f f93c f804 b6bc e0f5 a1bc 781b a03c
00000040: 5889 8abd 929f 9e3d aed8 803d ac8e 73bd
00000050: 38c3 be3d 5e6d 9dbd a0cd 1a3d befb d3bd
00000060: d0ef fabd 8cc7 ea3d 5819 f33d 0c99 04bd
00000070: 103b c6bd a0a4 90bb 5616 84bd e066 8a3c
00000080: b075 41bc 4eaf bcbd 125c 98bd 0099 323b
00000090: 5c0a dabd ccaa 8dbd f228 b03d 9c54 f0bd
000000a0: 649e 82bd fa70 b73d ccff 223d c4ce 9a3d
000000b0: f00a 2ebd 2e69 e6bd ecbe c1bd b8c7 ae3d
000000c0: 70d4 6a3d 54a1 103d 94ac fcbd bea4 debd
000000d0: a08c fe3b 7a90 e6bd d414 76bd f49d 73bd
000000e0: 30b5 90bc 8a69 db3d 4251 e9bd 62f9 fdbd
000000f0: d085 f6bd 286d afbd 5a43 94bd 9838 4b3d
00000100: fc80 b2bd 464a c2bd 34e0 ed3d e085 8d3d
00000110: 0664 bc3d 8029 99bb 801f ffba c005 89bb
00000120: 3634 b5bd 24ae 543d c4d7 913d b87c a33d
00000130: bc84 663d 0ad9 f5bd e06c 5c3c 0a74 cb3d
00000140: e00f c33b f83e 2cbd ae1a c73d c6d7 aabd
00000150: 6ca9 ba3d 6e91 a5bd 7061 97bd c072 473d
00000160: c0da 5a3c 6ac2 9c3d 2015 c9bc daeb 9bbd
00000170: 2027 213c 3aaa f3bd 3c31 e23d 70bb 133c
00000180: 8ad2 a6bd b233 bd3d a88f 4fbd ac5a 9abd
00000190: 9e97 a4bd 00e1 053a 6ab8 b8bd 7897 863c
000001a0: 1a8b 89bd 60e2 283d dc4a cdbd aee1 993d
000001b0: 2051 a53b 6ebc ae3d 80a4 99bb 16ff b43d
000001c0: 48a4 753d a45e 593d ecc3 e5bd cc8b 0dbd
000001d0: 2621 d73d 7c43 753d b2e7 f0bd a823 3f3d
000001e0: 2c5f 243d a057 5cbd 58e2 d63d 40c6 93bb
000001f0: 2cf2 91bd 8c9e cd3d 66fc bc3d 7881 a6bc
00000200: c4bc 9e3d 4e7c b53d 12d5 863d 2422 a63d
00000210: a016 84bc 06d5 be3d 5c87 9cbd 4051 d23c
00000220: 00be 143a 781d 993c 2c79 3fbd c03b afbb
00000230: eea2 da3d 462f ffbd f8c0 933c 1410 f13d
00000240: c05f 2a3c 9ce8 6bbd 4e80 bf3d 8096 31bd
00000250: 8049 bb3a 80ea d0ba 74f3 54bd 7846 853c
00000260: 10c4 6d3d 9c6d 2e3d 34a8 c63d 2efc 99bd
00000270: 34d0 87bd 9cca a3bd 58c4 db3c e0bd f8bb
00000280: 5444 7f3d 20f1 7e3c 8057 023b 9401 843d
00000290: 0845 d6bd 8012 58bc 46cd a93d f4e1 25bd
000002a0: f01d b9bd da8f eb3d 70cb 393c b439 9f3d
000002b0: d4de 30bd 7218 dfbd 3698 a0bd 2e35 ef3d
000002c0: 44c8 46bd 4816 32bd c006 e6bb a871 843d
000002d0: 20d7 e5bc f4bc d23d e801 5f3d 0489 fbbd
000002e0: 78b8 fa3d 9cff ffbd c604 b0bd 2c28 20bd
000002f0: 4e05 fcbd 50f1 5abd 9064 ee3c 6a47 99bd
00000300: a07b 083c 70eb 28bc dcca e53d 8488 803d
00000310: aec9 ed3d 0414 d53d 804c 763b 5225 8b3d
00000320: c058 6abd 005d 59bb 2eb6 873d 5ada e8bd
00000330: 1431 a3bd 7e7f 9dbd 68ef c1bc a654 d6bd
00000340: 70c7 8f3c 144c 443d b87b ce3d b471 22bd
00000350: 821a dcbd 40be d7bc 0043 febb ccce 3a3d
00000360: 1431 833d d0d9 413d 0011 e7bd c64f e7bd
00000370: 206b 6fbc 6cc7 f73d d452 c43d 004f db3a
00000380: 7059 cb3c 0889 873d 7852 0ebd 2472 9cbd
00000390: 863f e1bd dc65 113d 00d7 5fbb e2f0 b3bd
000003a0: 48d9 0bbd be49 d4bd 6013 f8bc a014 2cbc
000003b0: 7823 bc3c 2a77 ea3d dc2d 40bd 50d4 c8bd
000003c0: 123e 83bd cc29 c53d e0b2 72bd c0e3 cabb
000003d0: 00d1 f73a ae8d cc3d 6c51 61bd 087c 1d3d
000003e0: 0819 f2bc 645e 8dbd a064 fe3b 84b9 513d
000003f0: 52a2 9dbd 9cd9 ee3d 58e1 26bd 085f 243d
0.07220702 0.06307863 -0.07705529 -0.062699094 -0.077736795 -0.0741919 0.015300006 0.020564988
0.089640066 -0.119899586 -0.0014243722 0.11953758 0.030433372 -0.022219166 -0.019770563 0.019544348
-0.067644775 0.07745279 0.06291328 -0.059462234 0.09314579 -0.07686876 0.037793756 -0.103507504
-0.12252772 0.11463842 0.11870068 -0.03237252 -0.09679234 -0.004414156 -0.06449573 0.016894758
-0.011807844 -0.09213124 -0.07439436 0.002725184 -0.10646507 -0.069173425 0.0860156 -0.11734888
-0.06377867 0.089570954 0.03979473 0.07558969 -0.0424909 -0.1125053 -0.094602436 0.08534187
0.057331502 0.035310104 -0.12337604 -0.10871266 0.0077682287 -0.112580255 -0.060078457 -0.059476808
-0.017664522 0.10713489 -0.11392452 -0.124010816 -0.120372415 -0.08565742 -0.07239409 0.04961452
-0.08716008 -0.09486823 0.11615029 0.069103 0.091987655 -0.0046741366 -0.0019464344 -0.0041815937
-0.08847849 0.051923886 0.07121232 0.079827726 0.05627893 -0.120042875 0.013453692 0.09934242
0.00595282 -0.04205224 0.097218856 -0.08341937 0.09114346 -0.08084379 -0.073916316 0.04869342
0.013357818 0.07654269 -0.024546206 -0.076133445 0.009835988 -0.118977025 0.11044547 0.009016857
-0.08145626 0.09238376 -0.05067411 -0.075368255 -0.08036731 0.0005107075 -0.09019549 0.016429648
-0.06715985 0.041231513 -0.10024044 0.07513748 0.0050450712 0.08532034 -0.0046887994 0.08837716
0.059971124 0.053068772 -0.1121901 -0.03455715 0.105043694 0.05987881 -0.117629424 0.046664864
0.040129825 -0.053794503 0.104923904 -0.004509717 -0.07126269 0.10040006 0.09227829 -0.020325407
0.07750848 0.088616 0.06583609 0.081119806 -0.01612407 0.09317975 -0.07643005 0.025673509
0.0005674064 0.01869081 -0.046746418 -0.005347699 0.106756076 -0.124601886 0.01803635 0.11770645
0.010398805 -0.05759488 0.09350644 -0.04335642 0.0014288872 -0.0015939027 -0.051989987 0.016268954
0.058048308 0.042585 0.09700051 -0.075188026 -0.066315085 -0.07997629 0.026827022 -0.0075909942
0.062321022 0.015560418 0.001988858 0.064456135 -0.104623854 -0.0131880045 0.08291106 -0.04049869
-0.09038913 0.11502047 0.011340007 0.07774678 -0.043181255 -0.108933344 -0.07841532 0.11680065
-0.048530832 -0.04347828 -0.0070198476 0.06466991 -0.028056681 0.10289946 0.054445177 -0.12281993
0.12242216 -0.124999255 -0.085946605 -0.03910081 -0.12305699 -0.05345279 0.029100686 -0.07484324
0.008330256 -0.010310039 0.11220333 0.06276038 0.11610733 0.10404208 0.0037582219 0.06794228
-0.057213545 -0.0033167005 0.06626545 -0.11369772 -0.07968345 -0.07690333 -0.023673728 -0.10465364
0.017551154 0.047924116 0.10082191 -0.039659217 -0.107472435 -0.026335835 -0.007759452 0.045607373
0.06405845 0.047326863 -0.11282539 -0.112945125 -0.014612943 0.120985836 0.09586111 0.0016731918
0.02482292 0.066179335 -0.034746617 -0.07638958 -0.10998444 0.03549753 -0.003415525 -0.08786179
-0.034142762 -0.10365628 -0.030282676 -0.010502964 0.022966132 0.1144851 -0.046918735 -0.098061204
-0.06408323 0.09627113 -0.05925262 -0.0061917007 0.0018906891 0.09987961 -0.05500929 0.038448364
-0.029552951 -0.06902769 0.0077634603 0.051202312 -0.07696976 0.116625994 -0.04074225 0.04012969

hidden.4.bias f4 [64]
00000000: 7c4e 0f3d 004e 723a 46ff c13d 62fe 983d
00000010: 5464 59bd 701c 5dbc d45a 97bd 80bb 3b3b
00000020: 10a8 413d 5051 97bc 203d a9bd 7410 c7bd
00000030: 4cb9 51bd 0042 de3c a4fa 603d 1681 91bd
00000040: 5c3b 0e3d 748b 44bd 82dd a3bd 625a f23d
00000050: b0a5 d83c 66b6 eebd 2409 a2bd 5074 6cbc
00000060: a0d9 793d e834 26bd 4870 9fbd 00b6 5cbc
00000070: a0e4 6f3c a892 e7bc 3456 10bd 70af 7a3c
00000080: f00c 813c 9860 ba3c cac5 863d 4ac4 87bd
00000090: ee3d ca3d fe5a de3d 7a8a e83d 20a2 823d
000000a0: bef2 ffbd 3aaf c83d 401b 003c ea30 b43d
000000b0: 301e 883d 68a7 96bd ba2c fabd 388d fbbd
000000c0: 8416 433d a0be 613d f484 a93d 7e6c bfbd
000000d0: 3c24 bfbd 3056 a1bc f601 cf3d faa5 e83d
000000e0: c022 b4bd e8ed e5bc 0e5c eabd 481f 70bd
000000f0: 18e8 d1bc e0a1 fa3c 06a5 95bd 40df 6d3c
0.034986958 0.000924319 0.09472518 0.07470395 -0.053074196 -0.01349555 -0.07390371 0.0028645694
0.047279418 -0.01847139 -0.08263612 -0.09719935 -0.051202103 0.02713108 0.05492653 -0.07104699
0.03472458 -0.047984555 -0.08001234 0.118336454 0.026446193 -0.116558835 -0.079119 -0.014432028
0.06099856 -0.0405778 -0.07785088 -0.013471127 0.014641911 -0.028268173 -0.03523846 0.015300617
0.01575324 0.022751138 0.06580694 -0.06629236 0.098750934 0.10857199 0.11354537 0.06378579
-0.12497471 0.09799047 0.007818997 0.08798392 0.06646383 -0.07356149 -0.12215562 -0.12282795
0.047628894 0.055113435 0.08277312 -0.09346865 -0.09333083 -0.019694418 0.10107796 0.113597825
-0.087956905 -0.028067544 -0.11443339 -0.058623582 -0.025623366 0.030594766 -0.07306866 0.014518559

out_layer.weight f4 [1, 64]
00000000: f0ff 66bd a43f 4a3d 942a 55bd fa65 a13d
00000010: 884f 3d3d fc21 ffbd 7c81 ad3d 5c89 9cbd
00000020: 3e1f e43d 2860 393d 94c7 19bd 5830 c1bc
00000030: a000 b33d 4cf0 3cbd 4073 973d 8030 d93d
00000040: bcb7 ea3d 2c2f 193d 8041 4ebc b094 453c
00000050: 7c7f 64bd 6237 883d 4093 04bc c8c1 a03c
00000060: 24c5 9b3d a888 9d3c d837 7c3d 5294 d2bd
00000070: f0a3 753c a086 543d a4d1 28bd 40d7 afbb
00000080: 24dc 84bd f002 1abd 0c7b 0e3d 4ebe c4bd
00000090: c019 06bc e061 c7bd d85d df3d 40ab 7abb
000000a0: bc75 0d3d c0eb a8bc 90ef f8bc 32a5 823d
000000b0: 40db 1bbd 1079 e8bc 3698 a13d 10d5 bf3d
000000c0: 108a 683c cc3c bb3d 087f 283d dca6 b0bd
000000d0: 04ab 2cbd e863 d13d c01d 9abd 5830 203d
000000e0: 905a 7dbc eac4 c1bd d071 a9bc c041 203d
000000f0: 14bb 20bd 9485 083d d4f6 133d 3693 80bd
-0.056396425 0.0493771 -0.05204256 0.078807786 0.046218425 -0.12457654 0.08471963 -0.07643387
0.111387715 0.045257717 -0.03754385 -0.023582622 0.087403536 -0.046127602 0.07395029 0.10604954
0.11460826 0.037398502 -0.012588859 0.012059376 -0.05578564 0.066511884 -0.008091748 0.019623652
0.07605961 0.019230202 0.061576694 -0.10282196 0.014992699 0.0518862 -0.041215554 -0.005366236
-0.06487301 -0.037600458 0.034785315 -0.0960661 -0.00818485 -0.09735465 0.10906571 -0.0038249046
0.03453611 -0.020620227 -0.03038767 0.06379165 -0.03805089 -0.02837804 0.0789036 0.0936681
0.014193073 0.091424555 0.04113677 -0.08625576 -0.04215528 0.10224134 -0.075252056 0.039108604
-0.015463486 -0.094613865 -0.020684153 0.039125204 -0.03924091 0.033330515 0.036124066 -0.06278078
